UnityController/results/ppo/MoveToGoal/checkpoint.pt (torch, 438623 bytes, 36 tensors)

network_body.linear_encoder.seq_layers.0.weight f4 [128, 6]
00000000: b276 13be 0487 85be e232 063e 7971 4dbf
00000010: 659a 443f 8eb5 ef3d 1c5c 62be 7ca4 0cbf
00000020: 30e3 01bf 8bd8 b9be 1e52 533e 576d df3e
00000030: f187 c53e 12c0 d33e bad8 013f b6ae 033f
00000040: 6f29 9b3e 3326 34bf 6d5d b83e 4f7d 35be
00000050: 0225 3dbf 0916 00bf b9d6 eebe 0016 d73e
00000060: c5c9 9f3e 940b 0a3f 7e24 463f 651f 243f
00000070: 0cbe 483e c9f0 81bd 30e2 ab3e 225e bfbe
00000080: ff41 57bf 292b 31bf d677 b1be 3cbd 353d
00000090: 390c 49be 73f0 973f e0ab 833e 9e12 de3e
000000a0: c651 c63e 4169 443e 9bf3 3dbd 2538 0d3f
000000b0: b3fe 053f e6f5 fe3d 376e 64be b140 e1be
000000c0: bdf2 2d3e 7344 053d 935a 403f 4864 0abf
000000d0: dcaf 933d f9b1 85be eacb 583e dde5 833d
000000e0: 978f 5dbc c1fa 7c3e 2d0a 9fbe ecab 163e
000000f0: df96 f7bd 782e 183f 12b1 42bf 5835 81be
00000100: 5fd0 abbc 569b f6bc f420 923e 3b24 04be
00000110: db89 97bd 76fc 6bbe b226 a9be 3149 9b3d
00000120: b36b d1be b4cb 67bf e52a 37bf ee0d 0c3f
00000130: 692b 513e 1ed9 813c 6ba6 19be ced9 97be
00000140: cc32 dd3e 3fd5 073c db54 413f 2c5c fe3e
00000150: f772 ccbc d618 8d3e d6bf 44bf e5e8 3a3f
00000160: d6e6 353e 81c3 2b3f ce31 2ebd 9e5e 563e
00000170: 18b8 01bd 997d 97be b62f 6e3e 4033 afbe
00000180: 9818 78be 1bfe 093e 7563 19bf f01c 853c
00000190: bd15 993e 3842 983e 7a24 2ebe 07eb 2bbe
000001a0: 8b83 203f 9bb2 d93d 3aa2 553f b235 673d
000001b0: 6586 c63e 42e7 833e 876c ef3e 5040 b4bc
000001c0: a876 163f 77cb 2b3f 4539 0b3f 3a2b 5dbe
000001d0: 7ef5 843e f04e 89be 4e44 263d 8346 e1be
000001e0: 4094 93be 8cf2 043d 9f3b d83d 144c 6dbe
000001f0: 6629 eb3d cfe0 10bf 312a d13e 5c8a 813d
00000200: 31b8 91be f412 6f3f b028 91be 9c0b eb3e
00000210: 1833 4d3f 3470 9cbe 6f27 dc3e 9c36 03be
00000220: fe24 11be 5e31 4b3f 0d2d 2ebd 65a6 933e
00000230: 5a02 33be 0478 3f3f 57fe 0c3e 085b 443e
00000240: fc4b 063d eea7 54bf d7cd 68bf 52bc 8c3e
00000250: 4784 70be 094a a63d f8dc f83d 29ca f3be
00000260: 84f6 603e 3273 793e dd27 2fbf 92eb b63b
00000270: 9c95 183f 9542 5e3e 3100 42be 29a2 21bf
00000280: e72e 3bbe 312a 193e 8095 8abd e490 dc3e
00000290: a9bc 353f 229d 0b3f c26a 003e 9563 123f
000002a0: 8141 2ebf b1d2 a9be 87f5 8abe b8a7 c93c
000002b0: 3f53 0b3f 2efb 14be b96c 083e 8706 3f3f
000002c0: b394 ad3d ed0c 05bf 1356 29bf 57f7 4b3f
000002d0: 39cf 3f3e 6042 2ebd a087 6abd 92fa 153f
000002e0: 0f63 b93e 7fdf f93d 0c83 19bf eb41 3ebd
000002f0: 9f2e 35bf 1228 c23e 95cf 243f 0d50 06be
00000300: 2058 2d3f beeb f93e d73b 8d3e 0751 ffbe
00000310: 2bfd 4e3d aa76 e93e 8b9b 4a3f 7113 f23d
00000320: 9203 16bf 9527 7ebe d527 c63c 196a 803e
00000330: 67c9 143f ffe9 86bf 3294 453e bdbd 733e
00000340: ef9f 863d a71f 053f 71bf 6bbe efda 9fbe
00000350: 8c2f be3d 1b88 febd d7a3 86bf e181 1bbf
00000360: 366e 313f a554 2fbf 88b4 fe3e e1c2 a13e
00000370: 28e2 c6bd 0659 d13d fb52 06be 6492 20bf
00000380: 860f 3abd 4061 ab3e 6663 7a3e af52 f03d
00000390: 0709 d63d 8d27 703c 3b2d c23d 797e 9b3e
000003a0: 4b02 37bf 5a52 8cbd c69b 0abd 9601 383e
000003b0: a201 f9bd f4bd 143f 61f1 58be 0029 bdbc
000003c0: 446b fcbc 38c1 8a3e ca6b 503e e208 a33e
000003d0: 3e26 5a3e 7d40 09bf 9392 c73d 14df e63c
000003e0: 57b7 39bf 9890 c33e 629c 523f ca35 1ebd
000003f0: 842f 553f 237a 74be 0d01 07bd 15ce 7cbd
-0.14400747 -0.2607957 0.13105348 -0.8025127 0.7679809 0.11704551 -0.2210545 -0.54938483
-0.50737286 -0.36298022 0.20636794 0.43638107 0.38580278 0.41357476 0.50721323 0.5143846
0.3030505 -0.7037079 0.36008778 -0.17723583 -0.73884594 -0.5003362 -0.46648195 0.42008972
0.31208625 0.53923917 0.7739943 0.64110404 0.19603747 -0.06344754 0.33571005 -0.37376505
-0.8408508 -0.6920648 -0.3466174 0.04436992 -0.19633569 1.1870254 0.25717068 0.4337358
0.38734263 0.19180776 -0.0463749 0.55163795 0.52341765 0.12449245 -0.22307669 -0.43994668
0.16987129 0.03253598 0.75138205 -0.5405927 0.07211277 -0.26112345 0.21171537 0.06440327
-0.013523004 0.2470503 -0.3106245 0.1471402 -0.12089323 0.59445906 -0.7605144 -0.2523601
-0.020973383 -0.030103367 0.28540766 -0.12904446 -0.07399341 -0.23045525 -0.33037335 0.075823195
-0.4090248 -0.905452 -0.71549827 0.54708755 0.20426716 0.0158506 -0.1500489 -0.2965836
0.43202817 0.008290588 0.75520104 0.49679697 -0.024957163 0.2755801 -0.7685522 0.7301162
0.17763838 0.6709519 -0.042527966 0.20934531 -0.031669706 -0.2958801 0.23260388 -0.34218788
-0.24228132 0.1347584 -0.59917384 0.01624915 0.29899397 0.2973802 -0.17006102 -0.16788875
0.6270072 0.106297694 0.83450663 0.056447692 0.3877441 0.25762373 0.46762487 -0.022003323
0.58774805 0.6710734 0.5438426 -0.21598521 0.25968546 -0.26818037 0.040592484 -0.4399911
-0.28824043 0.032457873 0.10558247 -0.23173553 0.114825055 -0.5659303 0.40852502 0.06325218
-0.2846084 0.93388295 -0.28351355 0.45907295 0.8015609 -0.30554354 0.42998835 -0.128138
-0.14174268 0.79372203 -0.042523433 0.28837886 -0.17481366 0.74792504 0.13768898 0.1917535
0.032787308 -0.8306874 -0.90939087 0.27487427 -0.2348796 0.0811959 0.121515214 -0.47615173
0.21969038 0.2436035 -0.684202 0.0055822814 0.59603286 0.21705087 -0.18945386 -0.6313806
-0.1827961 0.14957501 -0.06766796 0.43079293 0.70991 0.5453664 0.12540725 0.571832
-0.680687 -0.33168557 -0.27140447 0.024616107 0.544239 -0.14548942 0.13322724 0.74619335
0.08475628 -0.5197285 -0.66146964 0.79674286 0.18731393 -0.04254377 -0.05725825 0.58585465
0.36208388 0.122008316 -0.59965587 -0.046449583 -0.70774263 0.37921196 0.64379245 -0.13116474
0.67712593 0.4881267 0.27584717 -0.49866506 0.05053441 0.45598346 0.7914359 0.118201144
-0.585992 -0.24819787 0.024188915 0.25080946 0.58119816 -1.054016 0.19294813 0.23802848
0.06573474 0.5200142 -0.23022248 -0.3122172 0.092864126 -0.12428304 -1.051875 -0.60745054
0.69308794 -0.6848853 0.4974711 0.31593993 -0.09711105 0.10222058 -0.13117592 -0.62723374
-0.04542496 0.33472633 0.2445198 0.11734521 0.104509406 0.014657867 0.09481283 0.30369928
-0.71487874 -0.06851645 -0.033839963 0.17969355 -0.121585146 0.58102345 -0.21185829 -0.02309084
-0.030812867 0.2710054 0.20353618 0.31842715 0.2130365 -0.53614026 0.09744754 0.028182544
-0.7254538 0.38196254 0.8226987 -0.038625516 0.8327563 -0.23874716 -0.032959986 -0.061719973

network_body.linear_encoder.seq_layers.0.bias f4 [128]
00000000: 674d 0fbd 4e4f 173d 8e32 393c c50c 0f3d
00000010: 7a89 fe3c 6536 04bd cf78 663c d579 4b3c
00000020: c4ae 543c 23ab 21bc abc3 e43c 0570 4a3b
00000030: 4c40 233d 6846 b03c 6352 473d f952 033d
00000040: f747 383d ab95 0b3c 14e5 33bd f7e4 103c
00000050: dbd9 bd3d ed63 8e3c d0eb 9d3b 779c 263c
00000060: 5c1c eebc f46a 643c 2f8d 113c 2c28 783c
00000070: 9671 d13c c96d 28bd 35b0 c2bc c316 493d
00000080: 4b28 6bbc fec2 b33c 0f97 89bc 996a d3bb
00000090: a49b 9f3c d1e6 96bc 3731 a13c 7a35 abbc
000000a0: bfa1 81bc a0ea 0e3c c36b 273c 6c27 debc
000000b0: bdac 893c 17dd 013b be02 c5bc 840f 9d3c
000000c0: ae2d 243d 72ca e2b9 aaf0 4d3c e611 96bc
000000d0: 8343 993c 46b9 19bd 435c 08bc 5952 fe3c
000000e0: 0af2 00bd 93b7 35bd ff56 e33c 3d47 083c
000000f0: 563b 183c b00b 8e3d dc87 b63c afba 043b
00000100: 502e 37bc 1542 303d 0156 55bb 4e8d 543d
00000110: d85d b83b 375b 3abd 547f 503c ee8c 843c
00000120: 5ed6 07bc 2d32 9a3c 799b 3dbc 9299 313d
00000130: 68bd 773c 6c4c 223d 093a ba3d 0e3a 16bc
00000140: 667b be3c e828 02bd 24df 84bb fcd8 8c3c
00000150: 0978 543d ae87 973c 9ceb db3c 15d2 383d
00000160: 7e32 b63c 3d2e 47bc 6ba3 71bc 23e7 62bc
00000170: 081a 4cbb 001d 053d ad0e 3dbd 5207 a23c
00000180: c89e 09bc adb6 16bd e2c1 3939 5020 01bd
00000190: 965c c3bc e4e8 d6ba c438 2cbb 9e6d 1b3d
000001a0: e07d 5abd b158 df3c 8d55 143b 01aa 853c
000001b0: 5797 693d f22e 4a3d 4dc1 633d 0e65 a33c
000001c0: f8c6 5f3c 2cd3 0b3d 6437 d13b 5b10 61bc
000001d0: b76e 2e3d 951f ca3c 5334 14bd 4b3e ca3c
000001e0: cbbf 723d bbfc 833c 68be 87bc 0ca6 a3bc
000001f0: 01b0 573d afdf f5bc 316c f23c ed17 bd3c
-0.034985926 0.036940865 0.011303557 0.034924287 0.031071413 -0.032278437 0.014066889 0.012419184
0.0129811205 -0.009867462 0.027925333 0.0030889523 0.03985624 0.021517947 0.048662554 0.03206155
0.044990506 0.00851957 -0.043919638 0.008843652 0.09270068 0.017381633 0.004819371 0.01016914
-0.029066257 0.013941515 0.008883758 0.0151462965 0.025566857 -0.041120324 -0.023765663 0.049093973
-0.014352868 0.021943565 -0.016795663 -0.0064519164 0.019483395 -0.018420609 0.019676788 -0.020899523
-0.015824197 0.008722931 0.0102185635 -0.027118407 0.016806 0.0019815618 -0.02404916 0.019172437
0.040082626 -0.00043256913 0.012569586 -0.018319082 0.01870895 -0.037530206 -0.008322778 0.031045126
-0.031480826 -0.044364523 0.027751444 0.008317766 0.009291491 0.06935823 0.02228158 0.0020252874
-0.011180475 0.04303177 -0.0032552483 0.05189257 0.0056264214 -0.045497146 0.01272567 0.016180482
-0.008290855 0.018822754 -0.011572712 0.043359347 0.015120842 0.039623663 0.090931006 -0.009169115
0.0232522 -0.031777292 -0.0040549207 0.01719331 0.051872287 0.018497314 0.026845746 0.045122225
0.022240873 -0.01215702 -0.014748435 -0.013849053 -0.0031143446 0.03249836 -0.046156574 0.019778881
-0.008399673 -0.036795307 0.00017715202 -0.031524956 -0.02384786 -0.0016396311 -0.0026278952 0.037946336
-0.0533427 0.027263971 0.0022634 0.016316416 0.057029095 0.049361177 0.055604268 0.019945648
0.013658278 0.034136936 0.006384777 -0.01373681 0.042586055 0.024673263 -0.036182713 0.024687907
0.05926494 0.016111722 -0.016570285 -0.019976638 0.052658085 -0.030013887 0.029592605 0.023082698

network_body.linear_encoder.seq_layers.2.weight f4 [128, 128]
00000000: a14f b93d 46ca 3c3d da8e a73d f9e3 243d
00000010: 70c8 9a3d b77c 9d3c ddfb ad3c 8402 0d3d
00000020: 61bb 72bd bb42 24be 08d4 d5bd 9a47 13be
00000030: cfa2 9abd 363a 93bd 856f 4abe 5bd5 0fbd
00000040: f01a f3bc e158 82b9 6801 c03d d4a8 8c3d
00000050: be98 073e 4f8b 893d 034f 3dbe 4ba9 b73d
00000060: 43ea 63bd ced8 063e 16dc 01be 31f8 75bd
00000070: 1168 f23d 96f8 f93c 4b60 043e 2095 c63d
00000080: 91d6 2cbd 5f20 f9bb c948 be3c 6edb 3b3e
00000090: 073c ecbd 05aa 13be f6f0 20be dd55 acbc
000000a0: 00bf 3c3e bc8c 58be ac84 7fbd f39d fdbc
000000b0: 70b7 dabc 6005 cbbd 7868 673c 19b6 9b3d
000000c0: e943 a23b e148 1dbd e334 28bd cec4 f8bc
000000d0: 0b7d 5c3c ada8 07be 80c4 36be 2a84 01bb
000000e0: 35ec ab3b 572a db3d e643 443d ce8b fa3c
000000f0: 7758 a0bd 0db6 fd3d 5f53 753d e3ab 273d
00000100: d146 203d 347a 683d b053 283d f1c0 9b3d
00000110: 1f90 04bd 109d ddbc a537 56be c900 d53d
00000120: 5984 e63c 6439 b0bd b3b1 54bd f2cf d4bd
00000130: 2726 24bd 056f eabd b192 053d 91de 1abe
00000140: a9bd 4dbd 5b06 2dbd 43b0 ca3b d152 3c3c
00000150: 7e36 f93c d578 8f3d 5dd1 483c acea 743d
00000160: 576f bcbc 9b42 cd3d 34e1 96bd c28e 273e
00000170: 8308 44bd f65b dabd d3f6 873d 6978 debd
00000180: 1ebc 76bd 538c a53d 74b6 21bd 7a13 2f3e
00000190: 32e0 56bd 1d43 383d be8a a33d 7ff1 64bc
000001a0: b92b 59bc b7c6 e23d 3e9b a73c adef 03be
000001b0: 4238 3abc afa1 a7bd 9446 e0bd 8f11 1c3e
000001c0: 3fc8 aa3d 94fc 5f3c e339 e23d e5b3 bebd
000001d0: c653 6cbd 20a4 a5bc cc8f fbbc 0d83 01be
000001e0: ea1c b03d 8685 073c 3e56 173c 19ad debd
000001f0: 2795 553d baa3 39bd 2528 72bd 7206 3eba
00000200: 5719 c63d 4a5e d4bc 5fe6 dc3c f9dd c9bc
00000210: 4b48 a43b 586b 83bc 2569 ee3d a19e e0bb
00000220: 2b04 89bd 2275 cd3d a808 2c3e bb38 c5bd
00000230: 0068 78ba f55b f6bc 624d 12bd 355a dcbb
00000240: cbe7 7b3d 1959 503b e72c 903d 8160 b2bc
00000250: e9e7 173d 9077 08bd 4093 a5bd 18bb b73d
00000260: abb4 233c 46bf a13d 303c 5cbd 72c3 bf3d
00000270: 60aa 8a3d 3112 57bc 7b39 9f3c e7d4 0cbe
00000280: 3852 86bd b0f8 813d f12b 5bbd c1bd 313d
00000290: 831f 083d e7a8 11be f650 55bc 17e5 08be
000002a0: 6e98 3d3d c233 c23c 0c54 a13c 92ec efbc
000002b0: e124 95ba e33d 0a3d 5545 1fbc 46f2 c83d
000002c0: 684c 31bd 1d3e 6d3a 529c 58bd 9329 053e
000002d0: 28a2 b23c d8b7 9d3d 1593 503d 80b4 5a38
000002e0: 25bf 063e 6b08 1b3e 9171 bd3b 1dc0 d83d
000002f0: a08b d3bd 9971 c33d a844 063d 8dff 0e3d
00000300: 5ae2 713b 464a 49be 94ef 453e 8486 d3bc
00000310: f9be 1d3e 203b fabd 31d1 963d 82d5 bc3c
00000320: 010d bfbd 49b5 643d 04cd 01be 7a7c 7ebd
00000330: 6de1 1a3e 576f b23d e369 8c3d 9f1e 15bd
00000340: bf8c 1c3e 7fa8 cdbc e098 103c eaba 0cbd
00000350: e61a 9b3d 329e ab3c c002 983d 06e7 c9bd
00000360: a6b2 da3d 0fd2 893d 85e7 bcbd 5d09 53bc
00000370: 8aa6 b03d 364e 61be e613 67bc da87 ee3d
00000380: bafc babd 8513 52bc 810b 7ebd af88 84ba
00000390: 6638 34bd 37c7 7abb 2558 ad3d 6b4f 293e
000003a0: a423 ebbd 420e af3d b44c 8ebd 8740 783d
000003b0: 93d1 1f3c ff80 7b3d 55b4 acbd 0f0d 2abe
000003c0: f845 f0bd 583c 3cbe c8f6 ddbd d87b 9f3d
000003d0: e047 1dbb 4436 ac3d 2840 ecbd 2ce8 32bc
000003e0: 0949 dbbd a932 093d 8db3 23bd 36f4 9bbb
000003f0: e584 f539 5cc6 603d 5400 603b 9ceb a33d
0.09048391 0.04609134 0.08181544 0.040256474 0.07557762 0.019224508 0.021238262 0.034426227
-0.05926073 -0.1604108 -0.104408324 -0.14382783 -0.075505845 -0.07188837 -0.19769104 -0.03511558
-0.02967593 -0.00024861752 0.09375268 0.06868139 0.1324186 0.06716024 -0.18487172 0.08967837
-0.05564333 0.13168642 -0.12681612 -0.060051147 0.11836255 0.030514043 0.12927358 0.09696412
-0.042196814 -0.007602736 0.023228066 0.18345425 -0.11534887 -0.14420326 -0.1571692 -0.021037037
0.18432236 -0.21147436 -0.062382385 -0.030959105 -0.026698798 -0.099131346 0.014124028 0.07603092
0.004951943 -0.03839958 -0.04106606 -0.030367281 0.013457547 -0.13247938 -0.17848396 -0.0019762614
0.005246664 0.10701435 0.047916315 0.030584242 -0.07829373 0.12388239 0.059893962 0.04093541
0.039130036 0.056757167 0.041095436 0.0760516 -0.032364007 -0.027052432 -0.20919664 0.104005404
0.02813928 -0.086046964 -0.05192728 -0.10391225 -0.040075447 -0.114469565 0.0326106 -0.15123965
-0.050229702 -0.04224239 0.006185563 0.011494354 0.030421492 0.07005469 0.012256947 0.059794113
-0.02300231 0.100224696 -0.07367173 0.16363052 -0.04785968 -0.106620714 0.06638875 -0.1086281
-0.060237996 0.08083405 -0.03948064 0.17097273 -0.052459903 0.04498588 0.07985447 -0.013973593
-0.013255053 0.11073058 0.020459767 -0.12884398 -0.011365952 -0.081851356 -0.10950962 0.15241073
0.08338975 0.013671059 0.11046197 -0.09311656 -0.05769708 -0.020219862 -0.030708216 -0.12647648
0.08599265 0.008271581 0.00923687 -0.108728595 0.052144196 -0.045322157 -0.059120316 -0.0007248885
0.09672802 -0.025923867 0.026965318 -0.024641978 0.005013501 -0.016042396 0.116411485 -0.0068548475
-0.06690248 0.10032107 0.16800177 -0.09629961 -0.00094759464 -0.030073145 -0.03571833 -0.0067246207
0.061500352 0.0031791388 0.070398144 -0.021774532 0.0370864 -0.03331715 -0.08084726 0.08971232
0.009991805 0.07897811 -0.053768337 0.0936345 0.06770778 -0.013126896 0.019436589 -0.13753091
-0.06558651 0.063462615 -0.053508703 0.043393854 0.033233177 -0.14224587 -0.013019791 -0.13368641
0.046287946 0.02370632 0.019693397 -0.02928761 -0.0011378789 0.033750426 -0.00972112 0.09811835
-0.043285757 0.0009050088 -0.052883454 0.1300414 0.021805838 0.07701081 0.05092152 5.2143354e-05
0.13158853 0.1513993 0.0057813604 0.10583518 -0.10329366 0.095431514 0.03278032 0.03491168
0.0036908598 -0.1965724 0.19329673 -0.025820978 0.15404882 -0.122183084 0.07364119 0.023051027
-0.09328652 0.05583695 -0.12675864 -0.06213043 0.15125056 0.08712643 0.06856134 -0.036406156
0.15288065 -0.02510476 0.008825511 -0.034357943 0.0757349 0.020949457 0.074223995 -0.09858517
0.10678606 0.067295186 -0.09223846 -0.01288065 0.08625515 -0.22002491 -0.014103865 0.116470054
-0.09130235 -0.012822037 -0.06202269 -0.0010111536 -0.0439991 -0.0038265714 0.08464078 0.16534202
-0.11481407 0.08547641 -0.06948224 0.060608413 0.009754556 0.061402317 -0.08432833 -0.16606544
-0.117320955 -0.18382394 -0.108380854 0.07787293 -0.002399914 0.08408788 -0.11535674 -0.010919612
-0.1070729 0.03349558 -0.039966155 -0.004759337 0.00046829056 0.05487667 0.0034179883 0.08003923

network_body.linear_encoder.seq_layers.2.bias f4 [128]
00000000: 63e4 093d 4e1d 69bc 7e30 a3bb b3a4 f33c
00000010: d7ee 0e3d f644 ed3c 22cf 1a3d 4949 843d
00000020: e056 f63b f6f6 ba3b 30fa 893d 0292 debc
00000030: d20e 2c3c 7c12 dd3c 61fd 0f3d 8b0f 083d
00000040: a721 243d ada8 473d 9656 3b3c db09 943c
00000050: 5c5d 0d3d 9ff7 cb3c 4094 093d d203 31bd
00000060: 70d4 c03b be73 023d 375d 083d 19f2 453c
00000070: 1df9 703d af33 073d fb55 78bc 8ab2 95bc
00000080: c285 143d 41e2 a53c a010 223d 9de1 523c
00000090: 7cf0 8c3c d338 8f3c de60 7f3c cbcc a03c
000000a0: 7d1a 433c 0e8a 403d 97bf 2bbc 30a8 fcbc
000000b0: 6f1e 2ebc a854 303d 5e36 e63c 1674 813d
000000c0: 2d4d 0a3d 25ea 35bd dcce 74bc 025b ff3b
000000d0: 26d8 8abc 1ecf 10bc 318d 163d 8d52 f93c
000000e0: 6db9 e7bb 1c24 1fbc 3f3c bd3b f19b 903c
000000f0: 3fcb 6b3d ee36 3b3d 310a 5b3b 46df b13c
00000100: 5534 283d e645 9bbc 1dac f93c d786 e03c
00000110: 23b8 06bc 1891 43bc c120 523d 3f7a ebbc
00000120: 8477 9e3c 5fca 263c 8505 ac3c 5911 f33c
00000130: 104e d639 860c f93c 7eec 063c fe32 453c
00000140: 4094 7cbc f669 da3b 07cb c13c cfd9 903b
00000150: fa4c 363d 2442 ad3c 784c fa3c e3aa bfbc
00000160: 46cc 2cbc 496b 9c3c 5089 b9bb 30c3 463d
00000170: 9f4b 013d 5161 5b3d c786 153d f7ec c93c
00000180: a57b b6bc c30f e73a d53e c0b9 3750 013d
00000190: 012a 903c edcf 993c 8e3a ba3c 6ee7 3b3d
000001a0: 86cf e63a 2826 a43c 331e 033c baa5 323d
000001b0: 52d5 423c e047 e73c 47f5 133d a76d f9bb
000001c0: 6c3b 8ebb 7f50 993c a1f8 4b3d 605e 273d
000001d0: 7ba0 15b9 e6bc 443d 29d6 253d 6bc9 a33b
000001e0: a47a ea3c 07ef ae3c efa1 123d 4b18 393d
000001f0: 4e01 5c3d 3b8d 823d 2025 903c 7c19 653d
0.033665072 -0.014228178 -0.004980146 0.02974162 0.034895744 0.028963547 0.037795193 0.064592905
0.0075176805 0.0057057096 0.067371726 -0.027169231 0.01050158 0.026986353 0.03515375 0.033217948
0.040071156 0.048744846 0.011434218 0.018071106 0.034512863 0.024898348 0.033588648 -0.043216534
0.0058846995 0.03184866 0.03329202 0.012081646 0.058831323 0.033008274 -0.015157218 -0.01827361
0.036260374 0.020249488 0.039566636 0.012871173 0.017204516 0.01748315 0.01558706 0.019628903
0.011908171 0.04700666 -0.01048269 -0.030841917 -0.010627373 0.043049484 0.028102096 0.0632097
0.033765007 -0.04441275 -0.014941897 0.0077928314 -0.01694877 -0.008838443 0.036755744 0.030434871
-0.007071665 -0.009713199 0.005775004 0.017652484 0.057566877 0.045706682 0.0033422823 0.02171291
0.041065533 -0.018954229 0.030477578 0.027408047 -0.008222613 -0.0119364485 0.051300768 -0.028744815
0.019344099 0.010180085 0.020998726 0.029671358 0.00040875422 0.03040148 0.008235095 0.012036083
-0.015416205 0.0066654636 0.023656381 0.004420496 0.044507004 0.021149702 0.030554041 -0.023396915
-0.010546749 0.019094126 -0.005662121 0.04852599 0.03156626 0.053559605 0.036505487 0.024649126
-0.022275755 0.0017628599 -0.00036667907 0.03157064 0.017598154 0.018775905 0.022733 0.045875005
0.0017609454 0.020037726 0.0080028055 0.04361508 0.01189168 0.028232515 0.036122587 -0.0076119485
-0.0043405797 0.018715141 0.049797658 0.040861487 -0.00014269531 0.04803171 0.040487442 0.004998376
0.028622933 0.021354211 0.035798963 0.045189183 0.05371218 0.06374594 0.017595828 0.055932507

action_model._continuous_distribution.log_sigma f4 [1, 2]
00000000: 3e93 a3bc 9d7f 0a3b
-0.019967671 0.0021133192

action_model._continuous_distribution.mu.weight f4 [2, 128]
00000000: 2e50 d23b ac71 ea3c abe2 633c 60f5 4c3d
00000010: 4430 143d 4bf3 7f3d f084 8e3d c9fb 48bc
00000020: e2c1 36bc 1eeb cf3b d130 a63d 1b5a 423c
00000030: 4c4b d9bb 1bd9 ce3b bf63 03bc a6fe f9bc
00000040: fa94 b93c c263 21bd 2045 abbc 5a2b 253c
00000050: c43f acbc 2aed 0d3d c89c 3bbd 2668 da3c
00000060: 7d30 67b8 1fc9 82bd cf7f be3c b901 c0bc
00000070: 8f48 053e 53e1 1abd deb5 023c ebc6 403d
00000080: 7836 843d 5218 0dbc fd69 173d 606f a13c
00000090: 4c4a 8fbc 8749 dfbc 7a94 ec3b d472 e83c
000000a0: aee1 97bc 3699 dcbc 17a6 5b3d a4c3 e03c
000000b0: a92c 81ba 0207 a93d 480d e1bc 9153 33bd
000000c0: a0c7 a6bb 3544 ec3c b362 163d cccf 18bc
000000d0: cc5e c13c 288b f23b 4b9d 113d 97b5 bc3c
000000e0: 0225 803c ef52 c63c 4404 0abb 83d6 583d
000000f0: 94cd 97bd 1c02 69bd e4dd d6bc 9de8 593b
00000100: 4392 143d 19f2 fc3c 4df8 3c3d 56a0 35bd
00000110: 1691 703c 24ca ce3c 10e1 583d d802 bd3c
00000120: 555e 633d 9d4a e0bc edc0 8dbc 8933 0fbd
00000130: 2a25 8dbc b0ee 52bd b515 623c ae1a f5bc
00000140: 2cab a33b 5921 3b3d 0390 acbc 8f43 753a
00000150: 2233 40bc 90f7 18bc 0b5e 573a f1e0 9a3b
00000160: c08f d03c eb4b 02bd 261c 9f3c 81c5 60bc
00000170: ae94 1dbd 22c3 203d 8b5f 10bd b1f7 123d
00000180: ae7e a73b 23c8 113d 5f97 c63c e66a 76bc
00000190: 4193 00bd 5075 683b f633 a33d f835 9dbd
000001a0: 5a4b 0cbd b4af 38bc ebfc 2b3b 2515 213d
000001b0: 9bc1 d7ba 2d13 bcbc 8430 a63d 0046 293c
000001c0: 55e0 113d 95b6 babc 1488 253c 020c 93bc
000001d0: 8f6d b23b 50b2 0b3d f240 c0bc bf1d 9ebc
000001e0: 67e0 91bd 3c7b 0dbd 7f35 25bd 1bd0 a8bc
000001f0: 97dd d9bc 478e 9e3d 8cdf d63c 2f20 06bc
00000200: f67d 11bd 2d1a 303c 2552 c13b 7ec5 4b3b
00000210: c5e7 1abd a1ae 2bbd e0fd 12bd bd2d dabc
00000220: 1879 693d b605 ddbc db4a dcbc 3ee9 483b
00000230: 62da 873c d121 fdbc ddf7 f9bc 4e08 fb3b
00000240: 5c60 4e3d 8a1e 823d 01fc 453d 4433 0d3d
00000250: 6ad7 753c 42ee d03c 1c1b 9bbc 6a09 5a3d
00000260: 46a4 b8bc 9c8b 0b3c af88 923d ac16 20bc
00000270: 5b07 083d 6283 863c 154d 0a3c e1ab bfbb
00000280: 4ece 05bd 36c6 133d 321f 68bc 5bd5 413d
00000290: 3f96 f2bb 4c52 083d 9c9e efbc 11ae 95bc
000002a0: 0ea8 e3ba 45b0 9abd 061c 83ba a606 133d
000002b0: 6b3f 83bb cb6e ebbc 7fe5 1fbc 848e 45bd
000002c0: 245f 6f3d d5a5 d4bb d3cf 883b d208 b0bc
000002d0: b944 003d 2d46 9dbc 9379 5e3d 7329 47bc
000002e0: 099f 0b3c 57c6 f73c 9a33 1b3d 72ed dbbc
000002f0: 21b2 123d 0746 99bc 208e e63b b15d e53c
00000300: c4ca 113d 5b2b d93c a085 9dbc c773 1f3d
00000310: 5e28 933c 53ac 753b b431 85bc 5231 5cbb
00000320: e85b 02bd c4a0 9d39 9813 e0ba cc7d d13c
00000330: 2793 ce3c 98e6 713c 841b 25bd 1ee8 a83b
00000340: 2944 333c 538d 7c3b dd3f d9bc fe57 44bc
00000350: f7c0 8c3d 994f 27bd 4d70 3cbd e5a4 f23c
00000360: 9ce7 29bc f1c3 af3c f5cd 893c a854 4bbd
00000370: f233 00bd 2381 5c3d 4306 87bd 29ee 9fbc
00000380: 2449 a83c bb20 913b dfab 863c c431 e7bc
00000390: 6325 e4bc 4aa5 4d3d 446b 52bb 7e40 9dbc
000003a0: 5a73 f2bb 3396 c9bb b81d 36bd 21a3 ffbc
000003b0: 34eb 81bc 545c 18bd d492 f7bb 0116 8b3c
000003c0: eb14 863c c92c 02bb b3c7 39bd 7729 163d
000003d0: 306a 7cbc fa53 fcbc eae9 13bd ffd4 db3b
000003e0: e06a 62bc 4bca f43b 14df 11bd ecda 5e3d
000003f0: 56df 2f3d 5ad0 86bc 3fd8 1fbd c76f 903d
0.0064182496 0.028618656 0.013909022 0.050038695 0.036178842 0.06248788 0.069589496 -0.0122670615
-0.011154624 0.006345167 0.0811478 0.011862303 -0.0066312905 0.006312502 -0.008019387 -0.030516934
0.022654045 -0.039401777 -0.020906985 0.010081137 -0.0210265 0.034650005 -0.045803815 0.02666099
-5.511985e-05 -0.06386017 0.023254303 -0.023438321 0.1301596 -0.037812542 0.007977931 0.047064703
0.064557016 -0.008611755 0.036966313 0.019706428 -0.017491482 -0.02725674 0.007219848 0.028375067
-0.01854023 -0.026928525 0.053625192 0.027437039 -0.0009855229 0.0825329 -0.027472153 -0.043780867
-0.005089715 0.028841117 0.03671522 -0.009326886 0.023604773 0.0074018426 0.035550397 0.023035808
0.015642647 0.024209468 -0.0021059671 0.05293895 -0.07412258 -0.056886777 -0.026228853 0.003325022
0.0362723 0.03087716 0.046135236 -0.04434236 0.014683029 0.025242873 0.05294901 0.023072645
0.055509884 -0.027379328 -0.017303908 -0.034961257 -0.017229635 -0.05149716 0.013799121 -0.029919948
0.0049947705 0.0456861 -0.021064764 0.00093560753 -0.011730941 -0.009336367 0.00082156126 0.004726522
0.02545917 -0.031810682 0.019422602 -0.013718964 -0.03847187 0.039248593 -0.035247367 0.03588075
0.005111537 0.035591256 0.024242101 -0.015040135 -0.031390432 0.0035470314 0.07968895 -0.07676309
-0.03425155 -0.01127236 0.002624328 0.039326806 -0.0016460897 -0.022958362 0.08114722 0.010331631
0.03561433 -0.02279214 0.010103244 -0.017950062 0.0054451893 0.0341056 -0.023468468 -0.019301293
-0.071228795 -0.034541354 -0.04033422 -0.020607045 -0.02659492 0.07741981 0.026229642 -0.008186384
-0.035520516 0.010748428 0.005899685 0.0031093056 -0.03781869 -0.041914586 -0.035886645 -0.026633138
0.05700025 -0.026980262 -0.026891163 0.0030656601 0.016583625 -0.030899914 -0.030513698 0.007660902
0.050384864 0.06353481 0.048336033 0.03447272 0.015004972 0.025504235 -0.018933825 0.053231634
-0.02253927 0.008517172 0.071549766 -0.00977103 0.03321014 0.01642007 0.008441229 -0.005849347
-0.03266745 0.0360777 -0.014167594 0.047322612 -0.0074031646 0.03328161 -0.029250436 -0.018271478
-0.001736881 -0.07553152 -0.0010002858 0.035895012 -0.0040053627 -0.028739354 -0.009759306 -0.048231617
0.058440343 -0.0064894953 0.004175165 -0.02148858 0.03131554 -0.019198501 0.05431516 -0.012155878
0.008521804 0.030245943 0.037891008 -0.026846621 0.03581441 -0.01871015 0.0070359856 0.027998777
0.035593763 0.026509931 -0.019228756 0.038928773 0.017963585 0.0037486746 -0.016259052 -0.0033598733
-0.03182593 0.00030065153 -0.0017095683 0.02557268 0.025216652 0.0147644505 -0.040309444 0.0051546237
0.010941544 0.0038536384 -0.02651971 -0.01198387 0.068727426 -0.040847395 -0.046005536 0.029619643
-0.010370161 0.021455737 0.01682184 -0.04964128 -0.03129954 0.053834092 -0.06592991 -0.019522743
0.020542689 0.0044289506 0.016439376 -0.028221972 -0.027849859 0.05020646 -0.0032107392 -0.019195791
-0.007399005 -0.0061519383 -0.044461936 -0.031205716 -0.015859224 -0.037197426 -0.007555345 0.016978266
0.016367396 -0.001986312 -0.045356464 0.036660638 -0.015406176 -0.030801762 -0.03611175 0.0067087407
-0.013819426 0.0074704043 -0.035613135 0.054408 0.0429376 -0.016456772 -0.039024588 0.0705257

action_model._continuous_distribution.mu.bias f4 [2]
00000000: 4180 94bc 10be fabb
-0.018127562 -0.0076520517

exp_avg f4 [128, 6]
00000000: a031 26b7 557f c637 0890 c8b8 0078 0e34
00000010: 0000 0000 e46e 9638 609f 2937 60bf 3b37
00000020: 478b 32ba 882c 46b9 0000 0000 35a3 20ba
00000030: dfc2 17ba e69c 57b9 253c 003a 3e2b b0ba
00000040: 0000 0000 12a7 4e3a 9357 cab9 6ae3 ebb6
00000050: 50f2 30b7 de2e 55b9 0000 0000 1e55 9ab9
00000060: 6cc5 83b9 65a4 97b8 5bfe 20b9 6773 93b9
00000070: 0000 0000 0cc6 9437 6cc4 44ba ec02 f336
00000080: 38d2 7139 783b 17ba 0000 0000 fc53 79b8
00000090: 7b56 dcb9 09b2 7db8 8424 b2b8 7c75 68ba
000000a0: 0000 0000 00b4 4eb9 c820 feb9 7bf7 15b9
000000b0: 72c5 ef39 9690 83ba 0000 0000 a8a6 763a
000000c0: 540c 56b9 33bd b637 3f46 8338 ec35 9eb9
000000d0: 0000 0000 97d0 8339 8f19 b439 8efb 3138
000000e0: b65f 81b8 91bf 023a 0000 0000 f6e3 8539
000000f0: 1853 73b9 0fa6 dc37 e943 b1b9 9440 57b8
00000100: 0000 0000 7acd 2ab8 9e7d beb8 2a08 42b7
00000110: 8ee1 8339 648e 9c39 0000 0000 ce0a 2f39
00000120: 3a2f 5939 4970 bb38 c71a 30ba 496f fa38
00000130: 0000 0000 4ff9 2fba 8275 35b8 cb97 37b7
00000140: b070 a7b8 1c83 1437 0000 0000 720b 22b9
00000150: 0fe5 633a 8ed6 ae38 a38c 66ba 7a11 983a
00000160: 0000 0000 4c48 58ba 1fb7 afb9 90c2 d7b8
00000170: bd0f 063a 711b adb9 0000 0000 eb0e f739
00000180: e681 f638 9caf 9138 1709 54ba dc6f c138
00000190: 0000 0000 b1cf 0aba 307b 17b9 6c31 6637
000001a0: 9259 35b9 6bad c6b9 0000 0000 38f9 a138
000001b0: c118 02b9 ed96 82b7 7a2d 07b8 1d84 81b8
000001c0: 0000 0000 0a68 6bb8 2476 bcb9 81a3 41b9
000001d0: 07fd 863a 48bf 3cb9 0000 0000 d447 833a
000001e0: 1497 82b8 4f08 dcb8 1335 043a be1f 64b9
000001f0: 0000 0000 1a15 d039 e81a deb8 ba7b 1bb8
00000200: c05b bfb8 e51e 86b9 0000 0000 8b80 7bb8
00000210: 5281 d839 95bf 6f38 df59 d2b8 669b 9039
00000220: 0000 0000 dc9b 5b38 8eee 4eb9 95fc f4b7
00000230: 1c50 1c38 448a d8b9 0000 0000 c28e 57b9
00000240: 249e 7839 fed7 2638 35fe 8eb9 0c1e a239
00000250: 0000 0000 9a98 99b9 cb7c 01ba 5470 9bb8
00000260: 5001 6ab7 c6bf 2eba 0000 0000 73ab 4a39
00000270: 569b ceb9 4e84 84b8 86b5 8a39 f9e7 6c37
00000280: 0000 0000 0ef8 7139 5a41 8638 d253 96b8
00000290: 7e39 d8b8 f80f 28b7 0000 0000 199c d038
000002a0: 5424 afb8 ca63 6d38 bf8b efb9 6026 9038
000002b0: 0000 0000 3f79 00ba c215 91b7 f1dc ef37
000002c0: 9e7a 7839 e4f8 5b39 0000 0000 4e93 8139
000002d0: cb64 2939 6df7 4d38 1d29 32b9 d9be 2b39
000002e0: 0000 0000 29e3 b3b9 947a 0b3a 7a2e 1539
000002f0: a95e 93ba 1dd1 263a 0000 0000 99ac 8aba
00000300: cdb0 0739 d035 4138 f867 f238 e099 6539
00000310: 0000 0000 70a7 3337 1589 283a 50d0 fe37
00000320: a804 bcb9 c87f 5f3a 0000 0000 765e 72b9
00000330: 4649 d138 520d 0338 8466 1439 2dd1 6d39
00000340: 0000 0000 9c71 5837 4e68 89b9 6ad8 07b9
00000350: 2772 433a 5c04 ecb9 0000 0000 a665 8c3a
00000360: c2ae 8ab9 73e1 19b8 de21 9a38 ccb5 87b9
00000370: 0000 0000 cea7 c938 7cf1 9ab8 10b6 4c37
00000380: d001 1137 042e 70b9 0000 0000 9024 eeb9
00000390: 664b 2f39 3aee 2037 20d6 2eba 6f35 60b9
000003a0: 0000 0000 88dc 1dba 55cb b339 16d3 8838
000003b0: 1daf cdb9 6ae9 0b39 0000 0000 bc57 f5b9
000003c0: aa22 4539 d410 06b9 ee49 ec39 d6dd d3b9
000003d0: 0000 0000 8817 1e3a a510 1339 60e3 0c38
000003e0: 0b92 bfb9 29a5 1439 0000 0000 3ee3 64b9
000003f0: 14d4 6d39 10d3 27b6 a057 9e39 ff6a 0f3a
-9.905925e-06 2.3662733e-05 -9.563571e-05 1.3268436e-07 0.0 7.173212e-05 1.0110292e-05 1.11906265e-05
-0.0006810915 -0.0001889934 0.0 -0.00061278354 -0.0005789231 -0.00020562447 0.0004891775 -0.0013440622
0.0 0.0007883172 -0.0003859369 -7.0300202e-06 -1.0546835e-05 -0.00020330722 0.0 -0.00029436586
-0.00025133358 -7.230862e-05 -0.00015353544 -0.00028124006 0.0 1.7735198e-05 -0.0007506076 7.2423045e-06
0.00023061864 -0.00057690544 0.0 -5.9444443e-05 -0.00042026103 -6.048571e-05 -8.494503e-05 -0.0008867604
0.0 -0.00019712746 -0.0004847108 -0.00014301941 0.0004573274 -0.0010037597 0.0 0.0009408989
-0.00020413223 2.1784193e-05 6.259651e-05 -0.00030176283 0.0 0.0002514168 0.00034351318 4.2434367e-05
-6.169027e-05 0.0004987652 0.0 0.0002553758 -0.0002320524 2.630337e-05 -0.00033810668 -5.1320138e-05
0.0 -4.0722523e-05 -9.083304e-05 -1.1565202e-05 0.00025154318 0.00029860728 0.0 0.00016693326
0.00020712326 8.9377696e-05 -0.00067178573 0.000119416574 0.0 -0.000671287 -4.32632e-05 -1.0942992e-05
-7.98417e-05 8.852014e-06 0.0 -0.00015453788 0.0008693495 8.3369305e-05 -0.000879476 0.0011601888
0.0 -0.0008250519 -0.00033515037 -0.00010288239 0.00051140395 -0.00033017577 0.0 0.00047122626
0.000117543896 6.9468486e-05 -0.00080885127 9.2237926e-05 0.0 -0.00052952307 -0.00014446373 1.3720575e-05
-0.00017294873 -0.0003789471 0.0 7.723499e-05 -0.00012406988 -1.5567488e-05 -3.222886e-05 -6.175807e-05
0.0 -5.612526e-05 -0.00035946176 -0.00018466824 0.0010298797 -0.00018000335 0.0 0.0010015913
-6.2270236e-05 -0.00010491965 0.0005043309 -0.000217556 0.0 0.00039688573 -0.000105907966 -3.707011e-05
-9.1246795e-05 -0.0002558149 0.0 -5.996278e-05 0.00041295082 5.7160465e-05 -0.0001003032 0.000275816
0.0 5.2358824e-05 -0.0001973456 -2.9204684e-05 3.7267906e-05 -0.00041301746 0.0 -0.00020557179
0.00023710035 3.9778643e-05 -0.0002727375 0.00030921435 0.0 -0.0002929613 -0.0004939555 -7.411899e-05
-1.39477925e-05 -0.000666615 0.0 0.00019328091 -0.00039407116 -6.318894e-05 0.00026456657 1.41207065e-05
0.0 0.00023075959 6.4017906e-05 -7.16817e-05 -0.000103103914 -1.0017298e-05 0.0 9.947288e-05
-8.351417e-05 5.659814e-05 -0.0004568975 6.873603e-05 0.0 -0.00049008796 -1.7295479e-05 2.8593904e-05
0.00023696802 0.00020978187 0.0 0.00024714548 0.00016154644 4.9106242e-05 -0.00016990719 0.00016378927
0.0 -0.00034310788 0.0005320695 0.00014227061 -0.0011243421 0.0006363558 0.0 -0.0010580003
0.00012940467 4.6064903e-05 0.00011558825 0.00021896465 0.0 1.0708216e-05 0.0006429118 3.0376163e-05
-0.00035861623 0.0008525816 0.0 -0.00023114108 9.979545e-05 3.124524e-05 0.0001415257 0.00022680005
0.0 1.2901055e-05 -0.0002620839 -0.00012955224 0.00074556697 -0.00045016676 0.0 0.0010711446
-0.00026451616 -3.668801e-05 7.3496005e-05 -0.00025884656 0.0 9.615683e-05 -7.388272e-05 1.2201737e-05
8.6430955e-06 -0.00022905326 0.0 -0.0004542214 0.00016717389 9.59221e-06 -0.00066694804 -0.0002138221
0.0 -0.00060219364 0.00034293035 6.524303e-05 -0.00039231117 0.00013343027 0.0 -0.0004679541
0.00018800297 -0.00012785505 0.0004506851 -0.00040410337 0.0 0.0006030728 0.00014025213 3.359036e-05
-0.0003653917 0.00014175907 0.0 -0.00021828429 0.00022681087 -2.5007794e-06 0.00030201394 0.0005470961

exp_avg_sq f4 [128, 6]
00000000: 9f71 c634 cbd7 6832 eefd eb34 bd7e 1c35
00000010: 0000 0000 f140 2535 5812 1036 767f 7633
00000020: c984 e435 2803 4536 0000 0000 7788 0c36
00000030: 1eb3 2736 808a 8433 6745 1036 fdd0 4036
00000040: 0000 0000 58ab 1536 a730 7335 4784 fc32
00000050: acea ac35 9bfd 7935 0000 0000 8301 a835
00000060: e472 2635 ac66 bf32 87d6 2535 0d50 7135
00000070: 0000 0000 d86d 3535 4242 5435 3ba3 b132
00000080: f66c 6335 47e6 5d35 0000 0000 22a3 7d35
00000090: 2fc3 4936 5626 cf33 8875 1336 373a 8c36
000000a0: 0000 0000 f912 3a36 1dcb 0336 af93 7433
000000b0: 97e9 ec35 8114 2036 0000 0000 72ca 0936
000000c0: df94 c135 e5dc 6333 77b0 0636 043d 0b36
000000d0: 0000 0000 aace 2736 7f43 4b35 3bfc b932
000000e0: 50dc 0835 3166 8635 0000 0000 ae85 2835
000000f0: d656 4835 9900 a832 c87f 1535 fd36 7435
00000100: 0000 0000 dea1 3635 180a 5635 9a66 ab32
00000110: 1658 1635 0914 6435 0000 0000 e5d3 3435
00000120: adef 8c35 342c 0e33 1e4e bb35 fd82 9b35
00000130: 0000 0000 27ea db35 c3bd ec33 70d2 9e31
00000140: f51d 2c34 2b13 4634 0000 0000 f122 4a34
00000150: 6452 1536 b67d 7033 94b2 d935 242a 2736
00000160: 0000 0000 a95d 0d36 6c79 a434 37b2 6f32
00000170: faed 0835 4352 0535 0000 0000 3488 2b35
00000180: d859 fb34 f1cb 9232 09a0 0a35 43ce 4435
00000190: 0000 0000 3597 3d35 edd7 1a35 0826 a832
000001a0: eade 3635 4327 6f35 0000 0000 9fb6 6135
000001b0: c4bc 8c34 3384 3132 4581 8234 2ac9 ed34
000001c0: 0000 0000 849a da34 f9a0 2e36 544e 8f33
000001d0: fe7c 0536 929d 4336 0000 0000 6ff8 1936
000001e0: 4e8b 8e34 e3a4 7632 8407 cc34 315d a534
000001f0: 0000 0000 5665 2235 6393 cd34 985f 3832
00000200: e1e3 a934 228b 1335 0000 0000 87c7 bd34
00000210: e7ea 4835 b0f2 ca32 5b80 1a35 9163 9335
00000220: 0000 0000 0b9b 7135 7bb0 7735 54fb b132
00000230: 19b0 fe34 f155 9835 0000 0000 25e7 1235
00000240: af50 e234 bfa8 4132 f4e5 fe34 e6db de34
00000250: 0000 0000 6e34 0c35 78ca 8c35 8bb4 cc32
00000260: d8ce 2635 abba b035 0000 0000 3b0f 2535
00000270: 00fb f134 1fd1 6332 fc6a dc34 a4a0 0235
00000280: 0000 0000 8112 e934 6f5e 4035 ef82 fa32
00000290: 01fd 8c35 eb5f 8935 0000 0000 794c a035
000002a0: 957b bf35 bd9d 0b33 d53a 9735 eb31 c235
000002b0: 0000 0000 587a ad35 0af7 c234 96dc 8f32
000002c0: a453 0635 7d4d 0a35 0000 0000 06ec 3d35
000002d0: 828c 8534 24c3 f631 82c0 9234 9ca7 8d34
000002e0: 0000 0000 78da 8b34 198f eb35 67fc 7b33
000002f0: e9c4 0636 dfd5 f335 0000 0000 6cb8 2436
00000300: 0db9 2535 5dbd 9132 7fc3 2535 659e 4935
00000310: 0000 0000 dd75 4335 c0f5 7836 4a83 9433
00000320: 1edd e035 b822 7e36 0000 0000 68e8 fc35
00000330: f15d 9734 e1a9 0432 e49f 7f34 6b83 b934
00000340: 0000 0000 d786 aa34 8117 3435 5fbc dc32
00000350: 4ff8 8a35 cef8 5f35 0000 0000 ad58 9e35
00000360: 4582 d934 5745 9632 a4f8 3335 ddb7 0b35
00000370: 0000 0000 6de6 3035 4f89 0d35 a765 8432
00000380: f46c 0d35 f9c1 3235 0000 0000 5d12 2935
00000390: 89e5 1136 0c8d 6433 3682 cd35 bb64 4236
000003a0: 0000 0000 d860 e435 1fa7 1d35 eb41 6432
000003b0: 89af d534 c9d0 2c35 0000 0000 e3aa fc34
000003c0: 7a78 8835 12fd e132 05f3 7a35 db06 9235
000003d0: 0000 0000 54bf 7f35 010a c233 d5c1 3031
000003e0: b109 b733 a06b fb33 0000 0000 e849 ff33
000003f0: e4ba 2536 6b25 8733 a2e8 d835 72fa 4736
3.6963044e-07 1.3553243e-08 4.395692e-07 5.8298957e-07 0.0 6.156179e-07 2.146835e-06 5.7392263e-08
1.7025969e-06 2.9357125e-06 0.0 2.0941059e-06 2.49892e-06 6.171922e-08 2.149807e-06 2.8731877e-06
0.0 2.2302465e-06 9.059535e-07 2.9396814e-08 1.2883297e-06 9.3128773e-07 0.0 1.2517415e-06
6.2007007e-07 2.2282016e-08 6.177947e-07 8.9895985e-07 0.0 6.75876e-07 7.907257e-07 2.067974e-08
8.472265e-07 8.2664013e-07 0.0 9.4487234e-07 3.0064946e-06 9.646162e-08 2.197312e-06 4.1791022e-06
0.0 2.7727203e-06 1.9638749e-06 5.6944994e-08 1.7651354e-06 2.3853793e-06 0.0 2.053243e-06
1.4422948e-06 5.305346e-08 2.0070272e-06 2.074813e-06 0.0 2.5005234e-06 7.572161e-07 2.1651536e-08
5.0984545e-07 1.001352e-06 0.0 6.2779407e-07 7.463217e-07 1.9558046e-08 5.569277e-07 9.09771e-07
0.0 6.803583e-07 7.97359e-07 1.9953678e-08 5.6007536e-07 8.4965774e-07 0.0 6.736357e-07
1.0500568e-06 3.3102154e-08 1.3955321e-06 1.1586523e-06 0.0 1.6384919e-06 1.1024124e-07 4.622329e-09
1.6029647e-07 1.844716e-07 0.0 1.8825428e-07 2.2250688e-06 5.5993688e-08 1.6219733e-06 2.4909468e-06
0.0 2.1065155e-06 3.0635726e-07 1.3952152e-08 5.101025e-07 4.966607e-07 0.0 6.3900666e-07
4.6817763e-07 1.7089379e-08 5.164189e-07 7.331584e-07 0.0 7.062802e-07 5.7683684e-07 1.9575069e-08
6.8124666e-07 8.909157e-07 0.0 8.408478e-07 2.6214377e-07 1.0332815e-08 2.4308443e-07 4.4291056e-07
0.0 4.071809e-07 2.602172e-06 6.673204e-08 1.98913e-06 2.9148982e-06 0.0 2.2943384e-06
2.655092e-07 1.43565755e-08 3.800343e-07 3.080145e-07 0.0 6.0497166e-07 3.8291464e-07 1.0731945e-08
3.1644507e-07 5.496423e-07 0.0 3.5349169e-07 7.4847634e-07 2.3626257e-08 5.755625e-07 1.0981331e-06
0.0 9.0005113e-07 9.2271483e-07 2.0719803e-08 4.7439315e-07 1.1349895e-06 0.0 5.47256e-07
4.2154485e-07 1.1272447e-08 4.74785e-07 4.151072e-07 0.0 5.223036e-07 1.0489739e-06 2.3830827e-08
6.2140816e-07 1.3167349e-06 0.0 6.1489453e-07 4.5072375e-07 1.3260688e-08 4.1056035e-07 4.8662537e-07
0.0 4.3413095e-07 7.166299e-07 2.9163372e-08 1.0504447e-06 1.0235211e-06 0.0 1.1943185e-06
1.4266576e-06 3.250692e-08 1.1267499e-06 1.4468654e-06 0.0 1.2925111e-06 3.631506e-07 1.6747702e-08
5.0040603e-07 5.1521766e-07 0.0 7.0751446e-07 2.4875413e-07 7.181727e-09 2.7334687e-07 2.6385248e-07
0.0 2.6049725e-07 1.7550511e-06 5.867005e-08 2.0082173e-06 1.8167156e-06 0.0 2.4545252e-06
6.1736574e-07 1.6966334e-08 6.1751774e-07 7.510883e-07 0.0 7.2814674e-07 3.7097925e-06 6.9156684e-08
1.6753654e-06 3.7869158e-06 0.0 1.8843102e-06 2.8194293e-07 7.722037e-09 2.3806894e-07 3.4554554e-07
0.0 3.1763076e-07 6.708943e-07 2.5697032e-08 1.0354069e-06 8.343603e-07 0.0 1.1797725e-06
4.0514183e-07 1.749383e-08 6.7044516e-07 5.204909e-07 0.0 6.5900423e-07 5.2726404e-07 1.5413049e-08
5.268514e-07 6.6592435e-07 0.0 6.298413e-07 2.174029e-06 5.3213668e-08 1.5311587e-06 2.8966886e-06
0.0 1.7015509e-06 5.873025e-07 1.3286335e-08 3.980206e-07 6.4378816e-07 0.0 4.7062994e-07
1.0167853e-06 2.630853e-08 9.34859e-07 1.0879843e-06 0.0 9.527332e-07 9.035649e-08 2.5721552e-09
8.5233644e-08 1.1707675e-07 0.0 1.1887806e-07 2.46957e-06 6.293234e-08 1.6160959e-06 2.979909e-06

exp_avg f4 [128]
00000000: ead7 1938 44d3 85b7 87c6 d7b9 82f2 59b8
00000010: de00 02b9 8066 d735 f802 6c37 e7cc a6b9
00000020: e9cc 4238 32cb af38 677f 6037 92ab e7b7
00000030: b96d 3439 061c a4b7 715a 6639 0e7f 3eb9
00000040: 6f41 0539 daa4 8037 8efa e0b7 5a48 abb9
00000050: d76c 46b9 e75d a3b8 5991 ea38 6227 40b8
00000060: 4cb8 cf38 26fc 35b9 0086 0cb9 a897 64b8
00000070: 656d d738 2011 5c38 390b a838 f0ea 9739
00000080: 1e82 c238 6495 0839 d25b 1638 f998 76b9
00000090: 8ccf d5b8 ea8c c938 bc8a fc37 6cd4 0539
000000a0: 4ef2 95b9 fa32 8a38 38eb 3db7 e590 65b8
000000b0: 9f41 3638 3c80 92b8 7b23 41b9 88ff d5b7
000000c0: 1929 b3b8 26b3 5cb7 4aef c837 ee77 e436
000000d0: a756 64b8 cebc de38 2689 e137 68a4 8536
000000e0: b0da b436 8ebb 4238 646f 46b8 2d00 1539
000000f0: 5ee3 7a38 6cb2 40b8 905c 4d38 d464 42b8
00000100: e2b7 2039 538c c4b8 c45a 5f37 8839 14b9
00000110: f4a0 bfb8 42b7 84b8 7167 d5b8 fe30 27b9
00000120: b043 6eb8 115a a7b8 e8ac 1539 2a0b 22b9
00000130: 88a6 0b37 15b4 a0b8 0cde c5b8 00a4 3f38
00000140: e861 4137 40e5 b436 a589 ae38 296c 2eb8
00000150: c052 abb7 9f22 cb38 7b2c 6239 1201 a9b9
00000160: f902 83b8 1958 2039 c009 1ab8 e2cd 95b7
00000170: eced dbb6 e0d0 80b8 b4e6 2c38 54ec 2339
00000180: 6ce9 03b7 8bb8 63b8 c49e 1bb8 6032 7e37
00000190: c627 6a39 cea7 6bb7 e97d 8838 691a 3db8
000001a0: 066e 1737 0d69 fbb7 acb9 9939 78de 1b37
000001b0: 1699 6339 a4f4 fbb9 52f7 b2b8 5f31 2639
000001c0: 2349 7cb8 8c50 c0b9 79b0 7c38 d603 85b7
000001d0: 5253 4eb8 8940 27b9 1ffe 6638 80d7 0eb9
000001e0: 44eb 7eb9 2d8b 46b8 7c40 8536 3714 0538
000001f0: adf3 d2b8 b3b9 b7b7 cef0 2bb8 36db 9e38
3.667913e-05 -1.5953214e-05 -0.0004115591 -5.1962685e-05 -0.00012398089 1.604858e-06 1.4067387e-05 -0.0003181465
4.644404e-05 8.382498e-05 1.3381104e-05 -2.761724e-05 0.00017207013 -1.9563373e-05 0.00021968201 -0.00018167144
0.00012708244 1.5335554e-05 -2.6819554e-05 -0.00032669568 -0.00018923297 -7.789936e-05 0.000111850626 -4.5813045e-05
9.904857e-05 -0.00017355438 -0.0001340136 -5.4500677e-05 0.00010272375 5.2468036e-05 8.012955e-05 0.00028976006
9.274877e-05 0.00013025623 3.58483e-05 -0.00023517375 -0.0001019529 9.610674e-05 3.0105344e-05 0.00012763002
-0.00028600026 6.589848e-05 -1.1320044e-05 -5.4732798e-05 4.3453296e-05 -6.985708e-05 -0.00018419132 -2.551057e-05
-8.54304e-05 -1.3154733e-05 2.3953286e-05 6.808891e-06 -5.4440137e-05 0.000106209525 2.6885955e-05 3.9828483e-06
5.3898766e-06 4.642788e-05 -4.731062e-05 0.00014209813 5.9816397e-05 -4.5942536e-05 4.8962014e-05 -4.6347108e-05
0.00015327291 -9.372146e-05 1.3312969e-05 -0.00014135812 -9.1375696e-05 -6.328385e-05 -0.00010175899 -0.00015944612
-5.680666e-05 -7.979957e-05 0.0001427416 -0.00015453683 8.323819e-06 -7.6629374e-05 -9.4350515e-05 4.5690686e-05
1.1526492e-05 5.3911062e-06 8.322605e-05 -4.1585565e-05 -2.0423322e-05 9.686243e-05 0.0002156961 -0.0003223499
-6.2471205e-05 0.00015291608 -3.672554e-05 -1.7858056e-05 -6.5544064e-06 -6.1424216e-05 4.1222855e-05 0.0001563293
-7.862556e-06 -5.4292886e-05 -3.710274e-05 1.5151309e-05 0.00022330796 -1.4046162e-05 6.508438e-05 -4.5085708e-05
9.025918e-06 -2.997045e-05 0.0002932077 9.2905175e-06 0.00021705436 -0.00048056722 -8.5337684e-05 0.00015849386
-6.0149596e-05 -0.00036681106 6.0245835e-05 -1.5856622e-05 -4.9191825e-05 -0.00015950402 5.5072942e-05 -0.00013622455
-0.00024310971 -4.7336496e-05 3.971216e-06 3.1728498e-05 -0.000100589685 -2.1901773e-05 -4.0993844e-05 7.574858e-05

exp_avg_sq f4 [128]
00000000: 617f 7733 feaf 8234 9b3c 8734 d5b8 0534
00000010: 2979 c533 03d3 bc33 8e97 dd34 4293 7a34
00000020: c816 6d34 52d2 c733 18f6 be33 7698 b733
00000030: 2744 1734 5a27 a532 c3a6 7834 1eb9 8033
00000040: 101d 9f33 a44e ae33 0ee4 3b33 254b 9834
00000050: 47d5 8233 e169 4533 1f38 d933 0c4f c433
00000060: 8d4e 4b33 fd2b d633 77c9 7133 f44d 0434
00000070: d294 1534 0ff5 9733 cf90 0333 b20c 8634
00000080: 0b3b 9b33 c9c2 9b34 1684 1033 6803 f033
00000090: 66e1 9b33 65f7 9933 cec7 7634 316e 7933
000000a0: 3087 ec33 dd74 3e32 fb01 9234 6b72 2c33
000000b0: e13f c532 5320 0234 d73d 7d33 cddb 8c33
000000c0: 86f4 b433 d3e4 2d32 153f 3533 1a76 f832
000000d0: 41b7 1934 07cc 2133 ef72 8133 e419 ab33
000000e0: bb5a 9233 0b46 c933 5a57 6b34 3951 fd33
000000f0: bb01 1633 ee2c a234 eb85 d333 8dcd 0033
00000100: d5e4 a933 efc8 3234 533e c532 2996 2734
00000110: 3491 a533 913b 1a33 268d ba33 2e6d 9333
00000120: 16bc 1734 9889 1733 938f 6833 2f68 dd34
00000130: c33f 0c34 ae96 c033 c667 2933 71d4 1f34
00000140: b358 5034 63b6 f032 32c1 f133 30aa 7033
00000150: 2f93 df33 361f af33 d780 3534 84f8 3134
00000160: 9add 5134 af16 1233 aa54 8032 4000 3933
00000170: 6da4 cb32 1fc1 8f33 c765 4d33 ac39 2834
00000180: ce4f ed33 da9f 1833 3968 1834 5643 9e33
00000190: 2d1e a233 1248 f033 29c1 8232 18a6 a734
000001a0: 810e e232 8f08 2b33 52ac 4534 197d 2a34
000001b0: d46b f933 c6ea f734 3891 c933 63d0 fc32
000001c0: d790 e632 e064 8934 c8ed 0533 95a1 2d33
000001d0: b8f7 0835 26ea 6934 bac2 1a34 a08a 4734
000001e0: b255 2934 f23f 7d33 d765 9f33 9749 2433
000001f0: 4198 4e33 1ea5 2b33 a8bc 0134 9a67 5334
5.762502e-08 2.4342438e-07 2.5189806e-07 1.2453832e-07 9.195566e-08 8.792815e-08 4.1274728e-07 2.3336636e-07
2.2080633e-07 9.304917e-08 8.892329e-08 8.549334e-08 1.4087765e-07 1.9226423e-08 2.3157467e-07 5.994137e-08
7.409301e-08 8.116811e-08 4.3746745e-08 2.836688e-07 6.092392e-08 4.5963933e-08 1.0115058e-07 9.14134e-08
4.7336062e-08 9.973153e-08 5.6295416e-08 1.2321817e-07 1.3930847e-07 7.076061e-08 3.0632517e-08 2.4968682e-07
7.22849e-08 2.9012725e-07 3.3647744e-08 1.11764905e-07 7.25875e-08 7.1696185e-08 2.2983224e-07 5.807505e-08
1.1014197e-07 1.1086027e-08 2.719606e-07 4.0150933e-08 2.2962867e-08 1.2118953e-07 5.8962396e-08 6.5592396e-08
8.426382e-08 1.0121954e-08 4.219972e-08 2.8924706e-08 1.4315903e-07 3.7671295e-08 6.027937e-08 7.9675175e-08
6.8151586e-08 9.3725326e-08 2.1917859e-07 1.1796005e-07 3.492617e-08 3.0207542e-07 9.849813e-08 2.998927e-08
7.9113e-08 1.6650641e-07 2.296216e-08 1.5607715e-07 7.7098235e-08 3.5910094e-08 8.686975e-08 6.8650806e-08
1.4131396e-07 3.5282568e-08 5.414729e-08 4.124026e-07 1.3061712e-07 8.968105e-08 3.944276e-08 1.4885315e-07
1.9403778e-07 2.8022617e-08 1.1257579e-07 5.603414e-08 1.0411019e-07 8.15475e-08 1.690381e-07 1.6574819e-07
1.954526e-07 3.4013905e-08 1.4939662e-08 4.3073896e-08 2.3707083e-08 6.694085e-08 4.7822848e-08 1.56672e-07
1.1050689e-07 3.5535642e-08 1.4194019e-07 7.369697e-08 7.549202e-08 1.11889804e-07 1.5221831e-08 3.1227023e-07
2.6316458e-08 3.9821824e-08 1.8409744e-07 1.5877994e-07 1.161458e-07 4.6178155e-07 9.386207e-08 2.9431424e-08
2.684139e-08 2.5591635e-07 3.1182736e-08 4.042666e-08 5.1024426e-07 2.1784999e-07 1.4413209e-07 1.8583751e-07
1.5770527e-07 5.896431e-08 7.422539e-08 3.8251155e-08 4.8101587e-08 3.9964213e-08 1.2082694e-07 1.9688596e-07
