UnityController/results/ppo/MoveToGoal/MoveToGoal-6016.pt (torch, 149327 bytes, 12 tensors)

network_body.linear_encoder.seq_layers.0.weight f4 [128, 6]
00000000: c724 7a3d 5fbc ef3c 7d9b cdbe ec79 5dbe
00000010: 6085 b43e e57e 2d3e 2c64 843e b6b4 a53e
00000020: a9dd 743e 63f9 03bd 1ea9 233f eccd cf3e
00000030: 8a0c b2be 42a0 fd3e 7aa0 cf3c 6d8e 1a3d
00000040: f565 a4be 0146 a8be fa42 533f 9533 04be
00000050: 484b 833d 709d b8bd 9e79 333f b939 1f3d
00000060: fef2 5f3f cd78 4fbe 1a19 7a3f 1bc1 e2bd
00000070: 647f 39bf f5ce bc3d fba6 403e a5d7 46bf
00000080: b1df 68bd 1646 b1be 1bb1 a43e 7c7d adbe
00000090: b51e 0c3e d0ca 04be 97a4 41be 843a 553e
000000a0: 90d2 c2be 6647 b93e 823e 743e ce1f e0be
000000b0: fd0f 043e 54a0 5d3d 532d c53e cd6b 1d3f
000000c0: f79f c33c 7f15 8d3e a6c7 7c3e d108 0cbe
000000d0: cd29 603c 9838 17bd 6e61 3c3e 21cb 593d
000000e0: 50db 2ebf 9857 a23c 277a 8a3e 7677 b03e
000000f0: 0f5f 0dbd 24e3 8cbd d9a1 0b3f 126c 0a3e
00000100: 2f2f 7ebe 3514 c43e f13d ee3c 1fdc 433f
00000110: 11d9 983d feac 4e3f 7d1a a3b8 9506 46be
00000120: eabb e5be 14ff 36bd 51d8 20bf 588c 633e
00000130: 1337 f4be c565 333f 9391 453f 5453 093f
00000140: 8614 debe d98a ec3d f621 463d f2e5 19be
00000150: 16fb cabd 7688 65bd 9863 403e d186 9c3e
00000160: e1e5 1fbf 176f cabd aad1 c2bd f68c c83d
00000170: b2a5 b23e 17cc 223d c5d0 1f3e f9f1 363f
00000180: dd26 aebd d78f 9b3e c414 00bf 5cba 613e
00000190: 4ea0 8f3e 85df f5bd 6678 c0be 4107 1abe
000001a0: 4502 18bf c6f4 a03e 3077 9ebd 70fa 563f
000001b0: 72db 70bc 3dad a3be 01e4 00be d2c9 4d3f
000001c0: 3583 f9be 37ed 7abe c0ed cfbe 7407 3f3e
000001d0: b75d e13e b7ea 813e 3ebf e9be 6779 4c3e
000001e0: 1e8c 3dbf 0eb9 463e b49b 0bbe 3ea7 bc3e
000001f0: 5abd 993c 8305 1bbd 29f2 b3be c41d b33e
00000200: a52b 763b 02ac ea3e 3f1e 9d3e a20e 8ebe
00000210: 78ed 6cbe 7631 1bbe 22b3 76be f0be 433d
00000220: 44ba 3c3e 5c6e 7cbe a538 1d3e 39c4 18bf
00000230: 3934 543d df15 b3be a037 583e b71b b93d
00000240: 8d4f b33d da65 88be 77dc b6bd 28c2 19bd
00000250: e76e 14be affd 333f 120d 073f 209f 1b3d
00000260: 73f4 773f d897 d8be af7c 45bd aee5 81be
00000270: 3d42 9bbe eaa2 f23e fc13 c5be 275c 9e3d
00000280: 55d2 103f 261c dc3d 44ca da3e 77c1 7fbb
00000290: c147 b83c 797f 1d3f 713d cfbd da82 893e
000002a0: e22e 913e 54ce 2abf 5b75 97be bb02 9a3e
000002b0: 53c1 36be df1b ffbe 4f0a 073e 323c 083f
000002c0: 191e ddbd d089 b8bc 5206 0f3f 9a51 8a3e
000002d0: 928c 4a3f 93a8 dfbe 3129 7abd 977d e6be
000002e0: 356a 1d3f 2c67 bd3d e767 073e 7354 c73d
000002f0: c774 6d3d a149 8f3e da1a 1e3e 6ea6 d43e
00000300: 6e25 50bf 0705 12bf 5d6f 8d3e a200 ae3d
00000310: 2fb7 583e a1bb 153e ad5f 2c3f 2df8 25bd
00000320: 6ceb e7be 0844 173f 7881 633e 97aa 24ba
00000330: 55c7 34bf 4fb7 b83e 62a7 63be f795 0e3f
00000340: 732d 11bf 6e19 d33d 0377 313e 1a16 4bbe
00000350: 1ae5 67bd 12ba 6bbe d859 6abe 85c1 d53c
00000360: 33d4 fbbe 20f7 09be 1dda 6bbb b3f3 40bd
00000370: 04b0 503e ca5e 143f a1f5 51be 2d65 ad3e
00000380: d394 8dbe 7f0c e4bd 3355 17be 9c93 2cbe
00000390: 46be febe 0591 20be 5aaa 213f 2d6d 49bd
000003a0: d44c c23e d8b9 09be bd80 70be b575 973e
000003b0: 92be babc 5d8a a3bc cbe7 0b3e cf07 c43e
000003c0: 83b3 f5bd 331e 683e 97d3 14be 5113 513d
000003d0: 02e6 cebe a153 fcbe 148c d23e 3230 a63c
000003e0: 9db4 3c3e ede7 5cbd 20ed 67be d29e adbd
000003f0: 62e5 04be c18b e5be e6f6 73bf 0f5b ac3e
0.06107023 0.029264627 -0.4015769 -0.21628541 0.35258007 0.16942938 0.25857675 0.32364434
0.23912682 -0.032220256 0.6392993 0.40586793 -0.34775192 0.4953633 0.025345076 0.037733484
-0.32109037 -0.3286591 0.82524073 -0.12910302 0.06410843 -0.09014404 0.7010745 0.038873408
0.8748015 -0.20260926 0.9769455 -0.11071988 -0.7246001 0.092191614 0.18813698 -0.776728
-0.056853954 -0.34623784 0.3216637 -0.338848 0.13683589 -0.12967992 -0.18910442 0.20823103
-0.3805127 0.36187285 0.2385197 -0.43774265 0.12896724 0.05410798 0.38511142 0.61492616
0.023879988 0.27555463 0.24685535 -0.13675238 0.013681841 -0.036919206 0.18396541 0.053172234
-0.68303394 0.019817159 0.2704632 0.3446614 -0.034514483 -0.06879261 0.54543835 0.13517788
-0.24822687 0.38296667 0.02908227 0.76507753 0.07463277 0.80732715 -7.7773795e-05 -0.19338448
-0.4486993 -0.044676855 -0.6283007 0.22221506 -0.47698268 0.70077163 0.77175254 0.53642774
-0.43375033 0.115499206 0.04837223 -0.15029123 -0.09911172 -0.056038342 0.18787992 0.30571607
-0.6246014 -0.0988447 -0.095126465 0.09792511 0.3489204 0.039745416 0.15606983 0.7146297
-0.08503506 0.3038318 -0.50031686 0.22043747 0.2805199 -0.120055236 -0.37591857 -0.1504183
-0.59378463 0.31436747 -0.07737577 0.8397589 -0.014700757 -0.31968108 -0.12586977 0.8038608
-0.48732916 -0.24504553 -0.40611076 0.18655187 0.4401681 0.25374386 -0.4565372 0.19968186
-0.74041927 0.1940653 -0.13633615 0.36846346 0.018767048 -0.037847053 -0.3514569 0.34983647
0.0037562635 0.45834357 0.30687138 -0.2774554 -0.23137462 -0.15155587 -0.24091771 0.047789514
0.1843043 -0.24651474 0.1535364 -0.5967441 0.051807616 -0.34977624 0.21114969 0.09038489
0.087554075 -0.26640207 -0.08928769 -0.037538677 -0.14495431 0.70308965 0.5275432 0.03799355
0.96857375 -0.42303348 -0.04821461 -0.25370544 -0.30323973 0.4738992 -0.3849181 0.077324204
0.5657094 0.107475564 0.4273244 -0.0039025226 0.022495152 0.6152263 -0.10119141 0.26857644
0.2835608 -0.6672108 -0.29581723 0.30080208 -0.17847185 -0.4982595 0.13187526 0.5321685
-0.10796756 -0.022526652 0.5586902 0.27015382 0.79120743 -0.436833 -0.06107444 -0.45017692
0.61490184 0.09248194 0.1322323 0.09732904 0.057972696 0.27985862 0.1543993 0.41533226
-0.81307113 -0.5703892 0.27624026 0.084962144 0.21163629 0.14622356 0.6733349 -0.040519882
-0.452968 0.5908818 0.22217357 -0.00062815234 -0.70616657 0.36077353 -0.2223182 0.5569758
-0.56709975 0.10307585 0.17330556 -0.1983265 -0.056614973 -0.23020199 -0.22885835 0.026093254
-0.49185333 -0.13473177 -0.003598816 -0.04710741 0.20379645 0.57957137 -0.20503856 0.33866253
-0.27652606 -0.11135196 -0.14778595 -0.16853184 -0.49754542 -0.1568032 0.6315056 -0.049176384
0.3794924 -0.134498 -0.2348661 0.2958199 -0.02279595 -0.019963438 0.13662641 0.38287207
-0.1199713 0.2266777 -0.1453384 0.051043812 -0.40409857 -0.49282554 0.41122496 0.020286653
0.18428273 -0.05393212 -0.2264905 -0.08477558 -0.12978128 -0.44833186 -0.9529861 0.33663222

network_body.linear_encoder.seq_layers.0.bias f4 [128]
00000000: 0000 0000 0000 0000 0000 0000 0000 0000
00000010: 0000 0000 0000 0000 0000 0000 0000 0000
00000020: 0000 0000 0000 0000 0000 0000 0000 0000
00000030: 0000 0000 0000 0000 0000 0000 0000 0000
00000040: 0000 0000 0000 0000 0000 0000 0000 0000
00000050: 0000 0000 0000 0000 0000 0000 0000 0000
00000060: 0000 0000 0000 0000 0000 0000 0000 0000
00000070: 0000 0000 0000 0000 0000 0000 0000 0000
00000080: 0000 0000 0000 0000 0000 0000 0000 0000
00000090: 0000 0000 0000 0000 0000 0000 0000 0000
000000a0: 0000 0000 0000 0000 0000 0000 0000 0000
000000b0: 0000 0000 0000 0000 0000 0000 0000 0000
000000c0: 0000 0000 0000 0000 0000 0000 0000 0000
000000d0: 0000 0000 0000 0000 0000 0000 0000 0000
000000e0: 0000 0000 0000 0000 0000 0000 0000 0000
000000f0: 0000 0000 0000 0000 0000 0000 0000 0000
00000100: 0000 0000 0000 0000 0000 0000 0000 0000
00000110: 0000 0000 0000 0000 0000 0000 0000 0000
00000120: 0000 0000 0000 0000 0000 0000 0000 0000
00000130: 0000 0000 0000 0000 0000 0000 0000 0000
00000140: 0000 0000 0000 0000 0000 0000 0000 0000
00000150: 0000 0000 0000 0000 0000 0000 0000 0000
00000160: 0000 0000 0000 0000 0000 0000 0000 0000
00000170: 0000 0000 0000 0000 0000 0000 0000 0000
00000180: 0000 0000 0000 0000 0000 0000 0000 0000
00000190: 0000 0000 0000 0000 0000 0000 0000 0000
000001a0: 0000 0000 0000 0000 0000 0000 0000 0000
000001b0: 0000 0000 0000 0000 0000 0000 0000 0000
000001c0: 0000 0000 0000 0000 0000 0000 0000 0000
000001d0: 0000 0000 0000 0000 0000 0000 0000 0000
000001e0: 0000 0000 0000 0000 0000 0000 0000 0000
000001f0: 0000 0000 0000 0000 0000 0000 0000 0000
0.0 0.0 0.0 0.0 0.0 0.0 0.0 0.0
0.0 0.0 0.0 0.0 0.0 0.0 0.0 0.0
0.0 0.0 0.0 0.0 0.0 0.0 0.0 0.0
0.0 0.0 0.0 0.0 0.0 0.0 0.0 0.0
0.0 0.0 0.0 0.0 0.0 0.0 0.0 0.0
0.0 0.0 0.0 0.0 0.0 0.0 0.0 0.0
0.0 0.0 0.0 0.0 0.0 0.0 0.0 0.0
0.0 0.0 0.0 0.0 0.0 0.0 0.0 0.0
0.0 0.0 0.0 0.0 0.0 0.0 0.0 0.0
0.0 0.0 0.0 0.0 0.0 0.0 0.0 0.0
0.0 0.0 0.0 0.0 0.0 0.0 0.0 0.0
0.0 0.0 0.0 0.0 0.0 0.0 0.0 0.0
0.0 0.0 0.0 0.0 0.0 0.0 0.0 0.0
0.0 0.0 0.0 0.0 0.0 0.0 0.0 0.0
0.0 0.0 0.0 0.0 0.0 0.0 0.0 0.0
0.0 0.0 0.0 0.0 0.0 0.0 0.0 0.0

network_body.linear_encoder.seq_layers.2.weight f4 [128, 128]
00000000: 3d96 7abd bea7 bdbd 2416 f0bc 4ffe d9bc
00000010: 98dd 003e ed02 c0bd 1b77 3dbe 0fec e1bd
00000020: 8c7e 533e 85bf ec3d 6762 d63d e25c 22bd
00000030: f356 91bd 1c99 47be 9696 333e 4560 0d3e
00000040: 578a 153e 80a6 99bc 4ea2 8e3d 4262 2b3e
00000050: 4c24 453c ed84 7bbd 194a acbd 76dc 223e
00000060: 09b1 433b e57d 2cbd 5b62 c2bc 2bdc 31bc
00000070: 70dc 523d feab 453e dff2 9abc eee6 55bd
00000080: 62e7 543d 8966 28bd e4e4 0b3d ae7a d9bd
00000090: 5b9f 043e c62c 9cbe 78ed 633d f678 523c
000000a0: 617d 963d 4992 e43d b21f ef3c 8b31 ce3c
000000b0: 659c 6e3c 470d 7f3d 867a f5bc fee9 3c3d
000000c0: 019a 4abe adcf e43d 3e00 ebbc fd30 48bd
000000d0: e50c 963d c0b2 afbc b776 6d3c 0d20 583d
000000e0: 020a c2bd bf90 24bd 2468 253e fd83 1ebd
000000f0: 6476 9437 9163 6abd 8f55 373e 2920 c1bd
00000100: aefd e5bc 8d40 e1bd 8acf bfbd 9e7f 23be
00000110: d33d afbc 6f91 01bd bfd0 0238 b904 f2bd
00000120: ea77 2abe a27b 74bc d714 4dbc d26d a83c
00000130: 358d 7c3d bc20 2bbe a68c e6bd 1ff0 89bb
00000140: a353 c23c 46b9 65bd d470 b7bd 949f 493c
00000150: 85e7 323e 98ae 733d f698 ae3d 9559 e5bc
00000160: 6cee cbbc 47ed 173d 6d41 80bd 4df2 77bd
00000170: 924d 44bd bcb4 32be 598c 33be bb96 be3d
00000180: df4a 633d 2bb0 753d e28d c1bc 6f7d 1bbd
00000190: 8211 e6bd c6aa a53c 95f6 bdbd fca0 50bd
000001a0: 965e 74bd a06a c03d e72f e2bc 0569 27bd
000001b0: 5948 cbbc e532 44bc 8f1e 453d 61c3 573d
000001c0: d2de f0bd 15bc acbc 250c 283d 3ae9 8c3d
000001d0: dd6a ad3d 7f8a babd 9ba5 b83d cd30 a6bc
000001e0: b6d1 903d fd08 24bd d57f e13d f979 793d
000001f0: efb4 9cbc 949d 37be 1fe8 eb3d 8ee4 853d
00000200: 4fdc 0cbd 62d6 223d a500 bfbc 4eaf bdbd
00000210: 52c1 02be 8650 d73c f00f 9fbd d007 81bd
00000220: e642 063e 4f44 0c3d ec9b 48bc abcf f2bd
00000230: ec8b e7bd 0122 a73c fc15 16bb 256f 2c3b
00000240: 504d cebd 5737 82bd d320 19be ea2c 3f3d
00000250: 3034 823d 91bc 1ebe adf6 80bd 47fd dd3c
00000260: f630 b7bd 4953 24be bef8 273d dc75 f53d
00000270: c962 bebd 6dd8 41bd 585f 96bb ea36 15bd
00000280: 37cd 26be 36bf e03d 4610 05bd 2d6d a7bd
00000290: 25b9 b23d 2e27 833d 71ae 23be 2767 843d
000002a0: d35b f13a 9f00 7e3d 97e5 ac3d c2ae 0b3d
000002b0: d04d 2abd ec03 2d3e ac32 303d 4bdf d83c
000002c0: a977 ebbd c056 103d aede e1bc e058 8bbd
000002d0: f949 08bd 3091 c83d 9fca b83d b337 84bd
000002e0: 80ca b13d a5fc a1bd 0f1c dd3d 3c7d 1e3e
000002f0: d674 be3d 8f52 f5bc a164 133d c04e a9bd
00000300: c0c8 d13c 7f2f b43d 6b56 f4bc f792 d13d
00000310: ce84 003d a30b 0e3e 3c04 34bb 0e31 853d
00000320: 6abb 00bc b99a f0bc 9866 da3c 4b12 d3bc
00000330: 16e1 9dbc 84e1 85bc ad75 b5bd a1a9 00bd
00000340: 204e 0cbd 2fa3 ab3d 314d f33c 3126 913d
00000350: 6390 f53d a830 243e 4efa 803c 0660 be3c
00000360: cceb 75bd abd2 87bd fde8 96bc 30b0 083d
00000370: 2ece 403d 90a4 7b3d a5e6 00bb 1718 f5bd
00000380: 5cbc 6ebe e9e5 ab3b d14f 993d a0bd 19bb
00000390: 14fe 0abe 9630 59bd a656 e13d d73e 613d
000003a0: 4bd5 be3c 85a7 79bd e49c dfbd ff6d 993c
000003b0: 448c ccbd e260 ecbd c59d af3b cbff fc3d
000003c0: 0d01 8d3d da24 883b ec80 8f3d e18d 2638
000003d0: 122e 5bbd 2799 b3bd 7c7a 9c3d 4655 d13c
000003e0: 2dcb 1f3c b702 643d 1663 c23d 27c2 1abe
000003f0: 9106 febd a0db e73c 4e06 103c 7e8d 253d
-0.061178435 -0.0926051 -0.029307432 -0.026610522 0.12584531 -0.09375558 -0.18502466 -0.11031353
0.20653743 0.11559967 0.104679875 -0.03963936 -0.07096662 -0.19492 0.17537913 0.13806255
0.14603554 -0.018756151 0.06964551 0.16736701 0.01203258 -0.061406065 -0.084125705 0.15904412
0.002986016 -0.04211225 -0.02372854 -0.010855715 0.051479757 0.19303891 -0.018914638 -0.052222185
0.051978476 -0.04111341 0.034153834 -0.106191024 0.12951414 -0.3050291 0.05564639 0.012846222
0.07348133 0.11160714 0.029189918 0.025170108 0.014563655 0.06226852 -0.02996565 0.04612159
-0.1978531 0.111724235 -0.028686639 -0.048874844 0.07326678 -0.02144754 0.014493636 0.05276494
-0.09474565 -0.040177103 0.16153008 -0.038700093 1.7698105e-05 -0.05722386 0.17903732 -0.09429962
-0.028075065 -0.1099864 -0.09365757 -0.15966651 -0.021391785 -0.031632837 3.1188825e-05 -0.11817307
-0.16647306 -0.0149220545 -0.012517176 0.020560179 0.061658103 -0.16711706 -0.11257295 -0.004209533
0.023721522 -0.056084894 -0.08957067 0.012306113 0.1747113 0.059492677 0.08525269 -0.027996818
-0.024893962 0.03709152 -0.06262479 -0.06053381 -0.04792554 -0.17451757 -0.17534007 0.09306093
0.055491325 0.05998246 -0.023627225 -0.03796142 -0.11233808 0.020223033 -0.092755474 -0.050934777
-0.059660517 0.09395337 -0.027610732 -0.04087164 -0.024814771 -0.011975025 0.048124846 0.052676562
-0.117612496 -0.021085778 0.041027207 0.06880422 0.08467648 -0.09108447 0.09015962 -0.020286942
0.07071249 -0.040047634 0.1101071 0.060907338 -0.019129245 -0.17931205 0.11518883 0.06537734
-0.03438979 0.039755233 -0.023315737 -0.09261952 -0.12769058 0.026283514 -0.07766712 -0.06300318
0.13111457 0.03424483 -0.012244206 -0.11856016 -0.11305985 0.020401957 -0.0022901287 0.0026311364
-0.1007334 -0.063582115 -0.14953928 0.046673693 0.0635761 -0.1550162 -0.0629705 0.027098311
-0.089448854 -0.16047396 0.041008703 0.119853705 -0.092961855 -0.04732554 -0.0045890026 -0.036429323
-0.16289221 0.109739706 -0.032486223 -0.081751205 0.0872672 0.06403957 -0.15984513 0.06464987
0.0018414207 0.06201231 0.08442228 0.03410221 -0.041578114 0.16896027 0.043017074 0.026473662
-0.11497433 0.03523898 -0.027572002 -0.06804061 -0.03327367 0.09793317 0.09023022 -0.06455936
0.08681202 -0.07909516 0.107963674 0.1547746 0.092996284 -0.029946594 0.03598464 -0.082669735
0.02560842 0.08798122 -0.029826364 0.102331094 0.031376652 0.13871627 -0.0027468344 0.06503497
-0.007857183 -0.029370653 0.026660249 -0.025765559 -0.019272368 -0.016342886 -0.088603355 -0.03141177
-0.034254193 0.08380734 0.029699894 0.070873626 0.1199043 0.16034186 0.015744355 0.023239147
-0.060039327 -0.066319786 -0.018421644 0.03337115 0.04707163 0.061436236 -0.0019668725 -0.119674854
-0.23314041 0.0052459133 0.07485927 -0.0023458973 -0.13573486 -0.05302485 0.11002855 0.05499157
0.023295065 -0.060950775 -0.109185964 0.018729208 -0.09987691 -0.115419164 0.0053593838 0.12353476
0.06884966 0.0041547837 0.07007012 3.970962e-05 -0.053510733 -0.08769446 0.076405495 0.025553357
0.009753031 0.05566665 0.094915554 -0.15113126 -0.12403596 0.028302968 0.008790566 0.04041814

network_body.linear_encoder.seq_layers.2.bias f4 [128]
00000000: 0000 0000 0000 0000 0000 0000 0000 0000
00000010: 0000 0000 0000 0000 0000 0000 0000 0000
00000020: 0000 0000 0000 0000 0000 0000 0000 0000
00000030: 0000 0000 0000 0000 0000 0000 0000 0000
00000040: 0000 0000 0000 0000 0000 0000 0000 0000
00000050: 0000 0000 0000 0000 0000 0000 0000 0000
00000060: 0000 0000 0000 0000 0000 0000 0000 0000
00000070: 0000 0000 0000 0000 0000 0000 0000 0000
00000080: 0000 0000 0000 0000 0000 0000 0000 0000
00000090: 0000 0000 0000 0000 0000 0000 0000 0000
000000a0: 0000 0000 0000 0000 0000 0000 0000 0000
000000b0: 0000 0000 0000 0000 0000 0000 0000 0000
000000c0: 0000 0000 0000 0000 0000 0000 0000 0000
000000d0: 0000 0000 0000 0000 0000 0000 0000 0000
000000e0: 0000 0000 0000 0000 0000 0000 0000 0000
000000f0: 0000 0000 0000 0000 0000 0000 0000 0000
00000100: 0000 0000 0000 0000 0000 0000 0000 0000
00000110: 0000 0000 0000 0000 0000 0000 0000 0000
00000120: 0000 0000 0000 0000 0000 0000 0000 0000
00000130: 0000 0000 0000 0000 0000 0000 0000 0000
00000140: 0000 0000 0000 0000 0000 0000 0000 0000
00000150: 0000 0000 0000 0000 0000 0000 0000 0000
00000160: 0000 0000 0000 0000 0000 0000 0000 0000
00000170: 0000 0000 0000 0000 0000 0000 0000 0000
00000180: 0000 0000 0000 0000 0000 0000 0000 0000
00000190: 0000 0000 0000 0000 0000 0000 0000 0000
000001a0: 0000 0000 0000 0000 0000 0000 0000 0000
000001b0: 0000 0000 0000 0000 0000 0000 0000 0000
000001c0: 0000 0000 0000 0000 0000 0000 0000 0000
000001d0: 0000 0000 0000 0000 0000 0000 0000 0000
000001e0: 0000 0000 0000 0000 0000 0000 0000 0000
000001f0: 0000 0000 0000 0000 0000 0000 0000 0000
0.0 0.0 0.0 0.0 0.0 0.0 0.0 0.0
0.0 0.0 0.0 0.0 0.0 0.0 0.0 0.0
0.0 0.0 0.0 0.0 0.0 0.0 0.0 0.0
0.0 0.0 0.0 0.0 0.0 0.0 0.0 0.0
0.0 0.0 0.0 0.0 0.0 0.0 0.0 0.0
0.0 0.0 0.0 0.0 0.0 0.0 0.0 0.0
0.0 0.0 0.0 0.0 0.0 0.0 0.0 0.0
0.0 0.0 0.0 0.0 0.0 0.0 0.0 0.0
0.0 0.0 0.0 0.0 0.0 0.0 0.0 0.0
0.0 0.0 0.0 0.0 0.0 0.0 0.0 0.0
0.0 0.0 0.0 0.0 0.0 0.0 0.0 0.0
0.0 0.0 0.0 0.0 0.0 0.0 0.0 0.0
0.0 0.0 0.0 0.0 0.0 0.0 0.0 0.0
0.0 0.0 0.0 0.0 0.0 0.0 0.0 0.0
0.0 0.0 0.0 0.0 0.0 0.0 0.0 0.0
0.0 0.0 0.0 0.0 0.0 0.0 0.0 0.0

action_model._continuous_distribution.log_sigma f4 [1, 2]
00000000: 0000 0000 0000 0000
0.0 0.0

action_model._continuous_distribution.mu.weight f4 [2, 128]
00000000: 0d33 a43c 5d08 123c 6aca 6bbc 4dbe 4d3b
00000010: 4d95 cebb 7caa 32bc aabe 11bc b59f 103c
00000020: 7f51 8bbb 9556 333d 55e7 e5bb 71ab 283c
00000030: 2044 88bc f368 af3c 92e2 42bc 7ba2 5c3a
00000040: c320 b43b 1578 61bc 9783 163c ddfe deba
00000050: 5060 48bc 902b eb3a ab89 093c c7fb 5ebb
00000060: 31d7 43bc 0785 dd39 3e0d 86bb 6a48 bb3b
00000070: 7bdf cfbb b384 8cbc 0031 0dbc a666 29bc
00000080: 19bc c0bb 9853 55b9 3b10 36bd 8641 a03c
00000090: 302b 733b 384b 18bb 621f e33c 5311 a93c
000000a0: 60c5 74bc 3c4a 00bb 4246 7bba 02b4 36bc
000000b0: d40e b93c 71ca 803c 038a 55bb 7579 f53b
000000c0: 04ef 303a 8daa de3a 27e3 93bc 3a2c 3bbc
000000d0: c5cb e7bb 4bb1 2cbc 3dc9 873c d3c1 a13c
000000e0: ba2d 49bc 4bf4 acbc fa58 7e3b d0a5 77bc
000000f0: 40ea ebbb c869 bbbc 6813 a03c 253c 34bc
00000100: 3300 ea3b 502c 27bb b208 043b bd29 3a3b
00000110: 27cf 19bb 6f24 0a3b 52ec 7cba f2dd 333b
00000120: 2253 ef3c c35f c8bb 5809 6b3b 772d 903c
00000130: e3e1 1cbd 9c87 883c b46c 3d3c 75fc 1d3d
00000140: 73f2 273b 73d0 19bc a33f 613c ea22 b2bc
00000150: 6fa2 843c 0a83 b13b c57a 00bc 7d76 173d
00000160: 644a 26bc f7fa 95bb b813 acbc 20ee 28bd
00000170: 63cc 6a3c 934e 7c3b f5eb cebb 0d48 66bc
00000180: 52e8 e63c 22c6 fb3b 2db5 42ba 579e 42bc
00000190: 9173 37bc 1229 cd3c c3f4 c53b 508c fd3b
000001a0: 7f07 8e3c 1d4b f1bc 9589 50bc b66e a1bc
000001b0: aa2c b13c e0cd ca3a 31ed 9abc 2567 073c
000001c0: 9db2 5a3c cd0b 053d 370d 18bd 1bdd 1a3d
000001d0: 8823 cb3c c0cc ed3b 1feb 2d3d b7ef c2bb
000001e0: 5b1d 09bb 0093 143b 0d8b 02bc 4f6f 0ebd
000001f0: 82f8 323c cfcf 73bc ebc5 193d df10 99bc
00000200: 5385 b83c eda1 87bc 9e39 89bc afb4 933b
00000210: 97f8 eabc 39ba 023d 95ca de3b d03c a1bc
00000220: 97d3 ad3b 2d78 5fbb 3b68 1a3d c7d4 7dbb
00000230: 007d 50b9 ff00 ab3c 1ab8 5d3d 14cf 9b3a
00000240: 8799 673c 4fe2 53bc cdde 3e3c 1a0e 4e3c
00000250: 05c1 d2bc e746 72bb 7f22 44bc b1ba 9d3c
00000260: faec 6cbb 6d7c 4dbc b9c5 a3bc 0f83 513c
00000270: cd61 15bc 2820 563c 923d f33b 9805 bdbc
00000280: d83d 1bbd 0beb 113c dbd7 cabc 0b6c a83c
00000290: b323 0c3d 7f39 ff3b 3b4d 38bc 2347 e3bc
000002a0: 14b3 143b 3a3d fc3b 69ab 003c 2ea2 0f3d
000002b0: 1c49 4cbb 7a4a 4d3c 36ce a6bc 07ae 503c
000002c0: 3ee1 04bc 639d 803b 4b95 47bc 2b63 7fbb
000002d0: e2bb 573c 0706 f6bc 1b2d adbc 8f70 a1bc
000002e0: d38c 5e3c c818 d3bc d836 023c f774 1e3c
000002f0: 5ad1 d33c 2b21 c53c 48d8 64bc 1fa3 15bb
00000300: d11f bfbc 2bbf 0d3c e73a 9cbb 088a 51bc
00000310: c85e 9eba ff7e ad3c 85d0 06bb 7db8 e2bb
00000320: 4075 cdb9 d8af 8c3b 6bc9 8bbc 5ef4 973c
00000330: 0b1f 19bd ad61 7a3c e068 26bc bf96 94bc
00000340: e8a2 0b3b 61de 3eb9 132d 703b c208 943c
00000350: 5b1a 003d d94e b33c 04d8 9cbc 73b6 82bc
00000360: 9d58 0bbc 1065 80bc 886f ed3b ff2e 103d
00000370: 9fab fcbb 5f09 0c3c 3a62 603c 1f7d 053d
00000380: 40d5 a13b 704b 5ebc 6aa5 8d3c 85e6 543c
00000390: 91b6 843c f65e c63c bad3 52ba b0d2 073d
000003a0: 9550 f53c a6fa 963c a3b7 67bc 1778 763b
000003b0: f318 8abc 32a1 613c 67d7 93bb 1fe4 bd3b
000003c0: 7847 053c 6015 113c 637f 82bc 63bf f23b
000003d0: 7d88 ce3b ed79 d53c a8ed de39 3781 05bc
000003e0: 1e7f 453d 3f14 91bc dd2f a6bc 3f9a c23c
000003f0: f7d5 8e3c 47bd 8d3c 6b18 163d 4f0c b7bc
0.020043874 0.008913127 -0.014391521 0.0031393946 -0.006304419 -0.010904904 -0.0088955555 0.00882714
-0.0042516585 0.043783743 -0.0070161023 0.010294781 -0.016634047 0.021412348 -0.011894839 0.00084165455
0.0054970696 -0.01376154 0.009186647 -0.0017013211 -0.012229994 0.001794206 0.008394639 -0.0034024583
-0.011953161 0.00042251518 -0.004090934 0.0057154195 -0.0063437796 -0.01715312 -0.00861764 -0.010339415
-0.005881798 -0.00020344404 -0.044449072 0.019562494 0.00371046 -0.0023238193 0.027724925 0.020638144
-0.014939636 -0.0019575497 -0.00095853594 -0.011151316 0.022590078 0.015721532 -0.0032583482 0.0074912854
0.00067494833 0.0016988084 -0.01805265 -0.011424119 -0.007073852 -0.010540317 0.01657545 0.019745743
-0.0122789685 -0.021112582 0.0038810358 -0.015115216 -0.0071995556 -0.022877589 0.019540504 -0.011000668
0.007141137 -0.002550859 0.0020146784 0.0028406226 -0.002346942 0.0021078845 -0.00096482516 0.0027445522
0.029214446 -0.0061149313 0.0035863724 0.017599804 -0.03830136 0.016666226 0.011561561 0.03857084
0.0025626689 -0.009388077 0.013748082 -0.021745164 0.016190736 0.0054172324 -0.007841771 0.036978234
-0.010149572 -0.0045770365 -0.021005496 -0.04124272 0.014330956 0.0038498982 -0.0063147494 -0.014055264
0.02818695 0.0076835314 -0.000742751 -0.0118785715 -0.011196987 0.025043998 0.0060411408 0.007737674
0.017337559 -0.029454762 -0.012728115 -0.019706111 0.021627743 0.0015472732 -0.01891193 0.008264338
0.013348249 0.032481957 -0.037121978 0.03780852 0.024797216 0.007257074 0.042460557 -0.0059489864
-0.0020922038 0.0022670627 -0.007967723 -0.03477412 0.010923507 -0.014881088 0.037542265 -0.018684803
0.022524511 -0.016556704 -0.016751107 0.004507623 -0.02868299 0.031915877 0.006799052 -0.019682318
0.0053047645 -0.003409873 0.03769706 -0.0038731562 -0.00019882992 0.020874498 0.05413065 0.0011887276
0.014135725 -0.012932374 0.0116497995 0.012576604 -0.025726805 -0.003696853 -0.011971115 0.01925406
-0.0036151991 -0.012541872 -0.019991742 0.012787594 -0.009117556 0.01306919 0.0074231112 -0.023073956
-0.037900776 0.008906136 -0.024761131 0.020559331 0.034213733 0.0077888365 -0.011248882 -0.027743882
0.0022689747 0.0076977285 0.007853367 0.035066776 -0.0031171506 0.012529964 -0.020362 0.012736804
-0.008110343 0.003925012 -0.01218159 -0.003896902 0.013167353 -0.030032171 -0.021139672 -0.019706992
0.01358338 -0.025768653 0.007947646 0.009671441 0.025856663 0.024063667 -0.013967581 -0.0022832823
-0.023330601 0.008651535 -0.004767764 -0.012789257 -0.001208269 0.02117872 -0.0020571065 -0.0069189654
-0.00039188005 0.004293423 -0.017063817 0.01854914 -0.03738312 0.015282077 -0.01015684 -0.018138288
0.0021306816 -0.00018202655 0.003664796 0.018070582 0.031275135 0.021888183 -0.019145973 -0.01595614
-0.008505014 -0.01567319 0.0072459616 0.03520107 -0.0077108885 0.008547156 0.013695294 0.032590028
0.0049387515 -0.01356779 0.01729079 0.012994413 0.016200336 0.024215203 -0.0008042414 0.03315991
0.029945651 0.018430065 -0.0141429035 0.00376082 -0.0168576 0.013771342 -0.004511762 0.0057950164
0.008134715 0.008855194 -0.015929883 0.007408069 0.0063028918 0.026059115 0.00042520207 -0.008148483
0.04821693 -0.01770985 -0.020286495 0.02375519 0.01743601 0.017302169 0.03664438 -0.022344736

action_model._continuous_distribution.mu.bias f4 [2]
00000000: 0000 0000 0000 0000
0.0 0.0

network_body.linear_encoder.seq_layers.0.weight f4 [128, 6]
00000000: b1af 9c3d 1cc0 95bd 3331 3ebe ebfd 723e
00000010: e266 33bf 9b89 15bf 86e6 a7be 6c61 0bbf
00000020: 6c50 423e 7a41 c63d 398a c63e 14a3 05bf
00000030: d99c 61bd 054e 743f 59dc 06bf f3ed e9be
00000040: 42d4 623e 201b a63d 0ede 5bbe eba2 3b3e
00000050: c27e 8d3e e291 c6bd 6598 0ebf 87e1 1b3f
00000060: f0f0 193c 9ac6 00be 775d 27be 10d0 8dbe
00000070: 915b 73be edaf bc3e 8ef5 903e cb96 bc3e
00000080: dbbf 673e 3d6d c13e 183e 513f 0f55 a73e
00000090: c1bd 19bf d540 413e 6d3c 973e fda7 cf3e
000000a0: 5813 97be 2996 11bf 9eeb 50be 3733 f43d
000000b0: c7a4 023e c44c a8be 2742 26be d5da 03bf
000000c0: 6713 89be 7b30 e2bc 09d8 643e ec35 26bf
000000d0: fc65 be3d fa40 c73e 4db3 b93e cdd3 7f3e
000000e0: 24c3 dcbe affa 9dbe 476c b43e 1722 d1bc
000000f0: 4630 5bbf 2c7b d83e 83d1 0a3f 8fec 88be
00000100: 9bee be3d 416a c8bc 70c4 243e 292d 773e
00000110: e086 8bbd 515f 46bf 2566 be3e 0fe2 5a3e
00000120: 67be 00bf e29f 3dbe 1d84 47be fa09 05be
00000130: 46e2 9fbe c179 a1be cbe5 86be 53b2 fabe
00000140: c0d7 e3bd 200f b4bd a8d9 5c3e 6d92 67be
00000150: e98d 95be bcd5 81be 8bcb 623e aef2 bebd
00000160: f966 d5be 179d 36be 8540 2ebf 93d0 da3d
00000170: ad16 723d 0ad3 ef3e f5ae 6abe 3677 e1bd
00000180: c613 063f f1d3 14bf 41df 3a3d 58b4 903e
00000190: 9066 97bd 19d9 86be 9330 11bf f1a0 3d3e
000001a0: 678b 8d3d 09c2 bdbe 90c9 0e3f 92e2 35bf
000001b0: 4e31 c43c 4a96 c93e 5afa 843e 2e83 b3bd
000001c0: da8e 92be fb4b 8bbe 6c16 113e 3696 9e3e
000001d0: b8c1 12bf 8cb0 623e 952f 833e fe43 1f3f
000001e0: 3f3a 763d 20d5 d93e 377f 5dbf 0417 f23e
000001f0: 4bf3 4a3f 5394 053f 8fd7 12bf ec8a e83d
00000200: e032 22be 6670 0b3f 3ccd d43e 4480 83be
00000210: 6ca1 37be 7209 503f 79d2 283f 803f c83e
00000220: b044 02be 3b0b 70bf 808c b63e c923 c03e
00000230: 9ae0 58bc a6af bb3e ade8 3cbe ddae 04bf
00000240: 46cc 5abe 7e0b e23e 83c1 913b d017 dbbd
00000250: b3bb e9be b980 073d cf2a 56bd fabb af3e
00000260: bb31 c3be a4a3 07bd 7940 7f3f dffd 01be
00000270: 7ffa b8be de17 f13e 3f76 64bd 6340 b2bd
00000280: 767f 3abf 90d2 973e c450 7e3f 5a46 08bd
00000290: 3ccc f63b 4c88 2a3e eb32 81bd b9ad 003f
000002a0: 3bb1 d9bd 076b 0e3f 06c8 28be d0a8 53be
000002b0: e972 433e f1e7 a3be 640d 43bf d211 953d
000002c0: a732 5e3e 8854 103f 713e 643c 52c0 263e
000002d0: e72b 47bc bc06 4abd 9750 c1be 2d9e 34bf
000002e0: c1e8 eabe 54ac 04bf 30ca 10bd fdb5 8bbe
000002f0: eb9b c4be 0865 153e 9ad3 09bf b2f6 4e3f
00000300: 90d0 8bbe ca0e 983c 9059 d33d daa8 1c3f
00000310: 4230 c53e 215a 4a3e 1395 b03f 0c6f a4bd
00000320: 1133 51be a924 103e 8e86 843e beaf 50be
00000330: 68f9 303e 10a2 ab3e 0815 edbe 06e2 be3e
00000340: 214c 73bf afcb 593f 28c3 963e c0bc 2abf
00000350: c133 9cbe d461 15be 5b5a 92be 86b1 30be
00000360: 867e 3cbe d948 28bf 4409 6a3e 6022 403f
00000370: 3f92 833e c0f7 e93e 9f6c 6c3a 1740 97be
00000380: b1df b43e 34b8 cc3c a754 1abf 04e3 0b3e
00000390: 4b3f bebd fba8 73bf d74c 0c3f 4287 0e3f
000003a0: e568 6dbe 94c7 ae3e 33c8 99be 302a 53bd
000003b0: 4b00 6e3e 00ee 7abf f515 273f feaf ddbd
000003c0: d249 d0be bc9d 843e 3717 a43e 8092 bbbe
000003d0: bc6e 87bf a47d 7abe d07c a73b 9ef9 16bf
000003e0: 038d a63e d063 0cbe fc20 883d c2dc a3bf
000003f0: 2975 d0be 3bda 4e3e ea2b e33e a888 783e
0.07650698 -0.073120326 -0.18573456 0.23729675 -0.7007886 -0.58413094 -0.32793063 -0.5444553
0.18975991 0.096804574 0.3877733 -0.5220196 -0.055081222 0.9543155 -0.52679974 -0.45689353
0.22151282 0.081106424 -0.21471426 0.18323867 0.2763577 -0.09695794 -0.55701286 0.60891
0.009395823 -0.1257576 -0.16344248 -0.27697802 -0.23765399 0.3685297 0.28312343 0.36833796
0.22631781 0.37778655 0.8173537 0.32682082 -0.60055166 0.18872388 0.2953829 0.40557852
-0.29506946 -0.5686975 -0.20402381 0.11923831 0.1275817 -0.32871068 -0.16236173 -0.51505786
-0.26772615 -0.027611008 0.22348036 -0.6492603 0.09296796 0.3891676 0.36269608 0.2498314
-0.4311763 -0.3085532 0.3523886 -0.02552895 -0.85620534 0.42281473 0.5422594 -0.2674298
0.09322854 -0.024464728 0.1609056 0.24138321 -0.06812835 -0.7748919 0.37187305 0.21375297
-0.5029053 -0.18518022 -0.19483991 -0.12992087 -0.3122732 -0.31538203 -0.26347193 -0.48964176
-0.111251354 -0.08791947 0.21567404 -0.22614451 -0.2920983 -0.2535838 0.22147958 -0.09323631
-0.41680124 -0.17833363 -0.680672 0.106843136 0.059103657 0.46840698 -0.22918303 -0.11009066
0.5237392 -0.58135897 0.045623068 0.2826259 -0.07392609 -0.26337507 -0.56714743 0.18518426
0.069113545 -0.370621 0.5577631 -0.71048844 0.023949292 0.39372474 0.25972253 -0.08765255
-0.28624612 -0.27206406 0.1416871 0.30973977 -0.5732684 0.2213766 0.2562224 0.6221312
0.06011414 0.42545414 -0.8652224 0.47283185 0.79277486 0.5217945 -0.57360166 0.11354622
-0.1583972 0.5446838 0.4156283 -0.25683796 -0.17932671 0.8126441 0.65946156 0.39110947
-0.12721515 -0.93767136 0.35654068 0.37527302 -0.013237143 0.36657447 -0.18448134 -0.5182932
-0.21366987 0.44149393 0.004448117 -0.10697901 -0.45651016 0.033081744 -0.05228692 0.34323102
-0.3812388 -0.033115044 0.9970775 -0.126945 -0.36128613 0.47088522 -0.05577683 -0.08703687
-0.7285074 0.29652834 0.9934199 -0.033270217 0.007531671 0.16653556 -0.0630854 0.5026508
-0.10629507 0.5563206 -0.16482553 -0.20669866 0.19086803 -0.32012895 -0.7619231 0.072787896
0.2169901 0.56378984 0.013930903 0.16284302 -0.012156463 -0.04932283 -0.37756798 -0.7055386
-0.45880702 -0.5182545 -0.03534907 -0.27287284 -0.38400206 0.14589322 -0.53838503 0.8084518
-0.27307558 0.01856174 0.10319817 0.6119515 0.3851338 0.19760944 1.3795494 -0.08028993
-0.20429637 0.14076485 0.25883907 -0.2037954 0.17282641 0.3352208 -0.46305108 0.37281817
-0.9503804 0.8507642 0.29445767 -0.6669426 -0.30508235 -0.145881 -0.2858456 -0.1725522
-0.1840764 -0.65736157 0.22855097 0.7505245 0.25697514 0.4569683 0.00090188714 -0.29541084
0.35326913 0.024990179 -0.6028542 0.13660818 -0.09289416 -0.9517972 0.5480475 0.5567514
-0.23184545 0.3413664 -0.30035552 -0.051553905 0.232423 -0.9801941 0.6526788 -0.108245835
-0.4068132 0.25901592 0.32048962 -0.36635208 -1.0580668 -0.2446199 0.0051113144 -0.58974636
0.32529458 -0.1370995 0.06646916 -1.2801745 -0.40714386 0.20200436 0.4436944 0.2427088

network_body.linear_encoder.seq_layers.0.bias f4 [128]
00000000: 0000 0000 0000 0000 0000 0000 0000 0000
00000010: 0000 0000 0000 0000 0000 0000 0000 0000
00000020: 0000 0000 0000 0000 0000 0000 0000 0000
00000030: 0000 0000 0000 0000 0000 0000 0000 0000
00000040: 0000 0000 0000 0000 0000 0000 0000 0000
00000050: 0000 0000 0000 0000 0000 0000 0000 0000
00000060: 0000 0000 0000 0000 0000 0000 0000 0000
00000070: 0000 0000 0000 0000 0000 0000 0000 0000
00000080: 0000 0000 0000 0000 0000 0000 0000 0000
00000090: 0000 0000 0000 0000 0000 0000 0000 0000
000000a0: 0000 0000 0000 0000 0000 0000 0000 0000
000000b0: 0000 0000 0000 0000 0000 0000 0000 0000
000000c0: 0000 0000 0000 0000 0000 0000 0000 0000
000000d0: 0000 0000 0000 0000 0000 0000 0000 0000
000000e0: 0000 0000 0000 0000 0000 0000 0000 0000
000000f0: 0000 0000 0000 0000 0000 0000 0000 0000
00000100: 0000 0000 0000 0000 0000 0000 0000 0000
00000110: 0000 0000 0000 0000 0000 0000 0000 0000
00000120: 0000 0000 0000 0000 0000 0000 0000 0000
00000130: 0000 0000 0000 0000 0000 0000 0000 0000
00000140: 0000 0000 0000 0000 0000 0000 0000 0000
00000150: 0000 0000 0000 0000 0000 0000 0000 0000
00000160: 0000 0000 0000 0000 0000 0000 0000 0000
00000170: 0000 0000 0000 0000 0000 0000 0000 0000
00000180: 0000 0000 0000 0000 0000 0000 0000 0000
00000190: 0000 0000 0000 0000 0000 0000 0000 0000
000001a0: 0000 0000 0000 0000 0000 0000 0000 0000
000001b0: 0000 0000 0000 0000 0000 0000 0000 0000
000001c0: 0000 0000 0000 0000 0000 0000 0000 0000
000001d0: 0000 0000 0000 0000 0000 0000 0000 0000
000001e0: 0000 0000 0000 0000 0000 0000 0000 0000
000001f0: 0000 0000 0000 0000 0000 0000 0000 0000
0.0 0.0 0.0 0.0 0.0 0.0 0.0 0.0
0.0 0.0 0.0 0.0 0.0 0.0 0.0 0.0
0.0 0.0 0.0 0.0 0.0 0.0 0.0 0.0
0.0 0.0 0.0 0.0 0.0 0.0 0.0 0.0
0.0 0.0 0.0 0.0 0.0 0.0 0.0 0.0
0.0 0.0 0.0 0.0 0.0 0.0 0.0 0.0
0.0 0.0 0.0 0.0 0.0 0.0 0.0 0.0
0.0 0.0 0.0 0.0 0.0 0.0 0.0 0.0
0.0 0.0 0.0 0.0 0.0 0.0 0.0 0.0
0.0 0.0 0.0 0.0 0.0 0.0 0.0 0.0
0.0 0.0 0.0 0.0 0.0 0.0 0.0 0.0
0.0 0.0 0.0 0.0 0.0 0.0 0.0 0.0
0.0 0.0 0.0 0.0 0.0 0.0 0.0 0.0
0.0 0.0 0.0 0.0 0.0 0.0 0.0 0.0
0.0 0.0 0.0 0.0 0.0 0.0 0.0 0.0
0.0 0.0 0.0 0.0 0.0 0.0 0.0 0.0

network_body.linear_encoder.seq_layers.2.weight f4 [128, 128]
00000000: 6ece 48bd e7bd 743e 7494 3a3d a316 6f3d
00000010: 2832 2d3c ca15 08be d5e7 d3bc 7ce9 9bbd
00000020: 0f6d d3bd 5756 7a3d 7753 2dbb 4e55 ff3d
00000030: a8ed b3bd 5944 4ebd e379 b93d 903f b0bd
00000040: 4e4f 2cbe 05cf fbbc 6949 493d 30e0 e03d
00000050: 8e7d b03d 158d dbbd def5 1cbe a692 a23d
00000060: d5e8 943c e9e7 8e3d 0aad 59bc b03b 8abd
00000070: dc60 403e eeb2 203c f869 8dbd e829 cfbd
00000080: 2406 b53d d5b8 30be ae68 bcbd d75a 1a3d
00000090: 84c2 023e 1080 b93d c49e 703d 57ca d9bc
000000a0: 5e9f 95bd 9520 dd3d 6fe4 b73c 70b3 c7bc
000000b0: edd7 d8bd 69de 94bd 7491 9abd 7c52 bdbd
000000c0: 05ec 083e c331 8f3c 9567 af3c c981 27bb
000000d0: dfd8 1a3e 7977 173e 32c8 ffbd e816 893d
000000e0: 43dc 4abd 8e52 df3c c69a 63bd ba1f 0cbe
000000f0: 463d 5c3c 9c6e a53d a699 3ebd c4a6 353d
00000100: 3e1e 023e be1d b83d e181 f03c fbdc 023e
00000110: c4b4 4ebd df01 d73d 9509 1abe e2b4 3f3d
00000120: 3903 10be 860e 0bbd 12f7 c8bc c097 463e
00000130: 9e46 b3bd cf9c c6bc 9467 343c b60f 59bd
00000140: e08b 01be 622e 1d3d f0f2 3cbd 79f5 233e
00000150: 0ea2 c93d 8668 ebbb f7e5 60bd 82ef 063d
00000160: 9f72 7dbd 9811 df39 1192 c13d 5d80 42bb
00000170: 1f30 98bd a9e7 1dbe e42d 95bb c761 6ebd
00000180: fdfd 21be ca7c 063e a10a 533d 9953 49be
00000190: c851 1c3c a7e5 1f3d f1c7 56bd 4fcb 31bd
000001a0: 312c c7bd 2376 cb3c 8bf0 da3d e8f8 f03c
000001b0: 52e9 08be f7f9 ecbd c31d 073e 31ef 8ebc
000001c0: d7e4 0c3d 172f 63bc 12f0 4c3d 9015 3bb9
000001d0: 0745 8dbc ad4d 4e3d e8ba 163e 6a70 023d
000001e0: 6e9e 2ebd f647 1ebe 10d4 d43c 019e 8e3d
000001f0: 856b 053d bf53 c6bc 14fa de3d 5509 22bb
00000200: 30b0 283d 817d 71bd 99cd af3d a161 0cbd
00000210: c58d 27bd a424 703e 5a0e 713d a2c9 0a3c
00000220: d920 33bd e85a 0abe 83f4 c0bd 5489 08be
00000230: 651b bc3c ca6f 6ebd f027 3e3e 014c 2abd
00000240: d28c 033d 96f8 33bd e20c 78bd d335 a6bd
00000250: beb1 0abe c0de 61bd f737 b33d 79c1 1aba
00000260: f3e7 873c 9254 0cbd e305 253e c74a 4a3d
00000270: a37d bebd ec96 0bbd ed01 a63c afc3 033e
00000280: 98cf 95bd 30a0 27be 0fe8 60be 5735 5c3c
00000290: dcd6 02be 5433 a5bd 4261 97bd ab67 25be
000002a0: be51 113e 1748 223e 92b4 193e 7f39 073d
000002b0: 661b 5a3d a039 8c3c 19b7 9cbb 6668 f5bd
000002c0: d444 42be 5ff6 babd 3058 bd3d 4148 f5bb
000002d0: fd66 b6bd 5ff9 4abe d503 4bbd b35f 333e
000002e0: 1403 653d 7128 163e 1762 a4bd 2652 113e
000002f0: 300b b33d 37aa b9bd 67b5 42bd 4928 e93c
00000300: ecf0 a9bc 8757 f7bc 4494 efbd 6564 283d
00000310: 216f 873d d9fc 4ebd f889 00bc d8c4 ab3d
00000320: d771 083d e60a c23d 57f2 a2bd 1f88 c1bc
00000330: 8aed e6bd 2565 b5bd 516f 6ebd 6053 aa3d
00000340: 87ce eabc be06 7e3d a656 74be 00ac 8abc
00000350: 368c 4dbd cc4e a03c b093 04bd 8715 8abc
00000360: 55f7 f1bd 1ff3 fb3d 71d7 a9bd fcb3 27bd
00000370: 94b0 95bd f22c 2dbe 866d 98bc 2714 603d
00000380: c813 013d 5b32 10be 29cc 303e f5be b9bc
00000390: eeca fc3c 2b02 78bd 5aa0 15bd 51d7 27bc
000003a0: decb aa3d 5bb4 c83c 3bef 843c d4db c8bd
000003b0: 3dfc fa3d 4267 f1bc 7971 ecbc 6a36 e0bb
000003c0: 2aa6 203e 3323 313d c745 363e 5e7f 45be
000003d0: a5f6 b13c fe9c b33d 8a58 b6ba 7ddf d6bd
000003e0: 68f3 943d c447 0abe b5b4 d53d bbba 243d
000003f0: 3954 f7bd 37a4 bb3d 235e 7cbe 44ac 083d
-0.04902499 0.23900567 0.045551732 0.058371197 0.01057104 -0.13289562 -0.025867382 -0.07612893
-0.10323536 0.061117496 -0.0026447454 0.124674425 -0.08785564 -0.05035815 0.09056451 -0.086058736
-0.16827127 -0.030738363 0.049142275 0.1098026 0.08617698 -0.10720269 -0.15328166 0.07938127
0.01817743 0.06977827 -0.013285885 -0.06749666 0.18786949 0.009808285 -0.069049776 -0.10115415
0.08839062 -0.17258008 -0.091996536 0.037684288 0.12769514 0.09057629 0.05874516 -0.026585741
-0.073057875 0.1079723 0.022447793 -0.024377555 -0.105880596 -0.07268984 -0.07547274 -0.09244248
0.13371284 0.017479783 0.021411696 -0.0025559536 0.15121792 0.14791669 -0.12489356 0.06693822
-0.049526464 0.027261045 -0.055567525 -0.13683978 0.013442343 0.08077738 -0.04653325 0.044348493
0.12706849 0.08990048 0.029358806 0.1277961 -0.05046536 0.10498404 -0.15042718 0.046803363
-0.1406373 -0.033949398 -0.024531875 0.19393826 -0.087537035 -0.024244694 0.011011023 -0.0529935
-0.12651014 0.038374312 -0.04613012 0.16011609 0.098453626 -0.007184091 -0.05490681 0.032943256
-0.06187689 0.00042546983 0.09451688 -0.0029678561 -0.07431053 -0.15420403 -0.0045525897 -0.058198716
-0.15819545 0.13133541 0.05152381 -0.19660796 0.009540983 0.039037373 -0.052436773 -0.04340678
-0.09725226 0.024836605 0.10690411 0.029415563 -0.13370255 -0.115711145 0.13194947 -0.01744804
0.034397926 -0.013866208 0.050033636 -0.00017841742 -0.017244829 0.050367046 0.14719737 0.031845488
-0.04263156 -0.15457138 0.025980026 0.069637306 0.03257324 -0.024209855 0.10887542 -0.00247248
0.04118365 -0.05895758 0.085841365 -0.034272794 -0.040906686 0.23451477 0.058851577 0.008470925
-0.043732498 -0.1351124 -0.09421637 -0.13333637 0.022962281 -0.05821208 0.18569922 -0.04157639
0.03211672 -0.043938242 -0.06055916 -0.08115735 -0.13544366 -0.05514407 0.08750909 -0.00059034635
0.016590094 -0.03426034 0.16115527 0.04938772 -0.09301307 -0.034079477 0.02026459 0.12867616
-0.07314986 -0.163697 -0.21963523 0.013440452 -0.12777275 -0.08066431 -0.07391597 -0.16152827
0.14191338 0.15847813 0.15010288 0.033013817 0.053248785 0.017117321 -0.004782569 -0.11982803
-0.18971568 -0.09129023 0.09245336 -0.00748542 -0.08906362 -0.1982169 -0.0495642 0.17516975
0.05591114 0.14663865 -0.08026522 0.14191493 0.08742368 -0.09065669 -0.04753628 0.028461592
-0.020744763 -0.030193103 -0.11698201 0.04111137 0.06612993 -0.050534103 -0.007845394 0.08387154
0.03331169 0.09474735 -0.07956379 -0.023624478 -0.11275776 -0.088571824 -0.05821163 0.08316684
-0.028662933 0.06201815 -0.23861179 -0.01692772 -0.050182544 0.019568823 -0.03236741 -0.016855968
-0.11814753 0.12302231 -0.08293045 -0.04094313 -0.0730907 -0.16911677 -0.018606912 0.05470672
0.031513005 -0.14081709 0.17265381 -0.022674063 0.030858483 -0.060548943 -0.036529876 -0.0102442065
0.08339666 0.024500063 0.016227355 -0.09807554 0.12255142 -0.029468182 -0.028862702 -0.006842424
0.15688387 0.04324646 0.17800055 -0.19286868 0.021724055 0.08770178 -0.0013911885 -0.10491846
0.072729886 -0.13503939 0.10434858 0.040217143 -0.12076611 0.09162181 -0.24645285 0.03336741

network_body.linear_encoder.seq_layers.2.bias f4 [128]
00000000: 0000 0000 0000 0000 0000 0000 0000 0000
00000010: 0000 0000 0000 0000 0000 0000 0000 0000
00000020: 0000 0000 0000 0000 0000 0000 0000 0000
00000030: 0000 0000 0000 0000 0000 0000 0000 0000
00000040: 0000 0000 0000 0000 0000 0000 0000 0000
00000050: 0000 0000 0000 0000 0000 0000 0000 0000
00000060: 0000 0000 0000 0000 0000 0000 0000 0000
00000070: 0000 0000 0000 0000 0000 0000 0000 0000
00000080: 0000 0000 0000 0000 0000 0000 0000 0000
00000090: 0000 0000 0000 0000 0000 0000 0000 0000
000000a0: 0000 0000 0000 0000 0000 0000 0000 0000
000000b0: 0000 0000 0000 0000 0000 0000 0000 0000
000000c0: 0000 0000 0000 0000 0000 0000 0000 0000
000000d0: 0000 0000 0000 0000 0000 0000 0000 0000
000000e0: 0000 0000 0000 0000 0000 0000 0000 0000
000000f0: 0000 0000 0000 0000 0000 0000 0000 0000
00000100: 0000 0000 0000 0000 0000 0000 0000 0000
00000110: 0000 0000 0000 0000 0000 0000 0000 0000
00000120: 0000 0000 0000 0000 0000 0000 0000 0000
00000130: 0000 0000 0000 0000 0000 0000 0000 0000
00000140: 0000 0000 0000 0000 0000 0000 0000 0000
00000150: 0000 0000 0000 0000 0000 0000 0000 0000
00000160: 0000 0000 0000 0000 0000 0000 0000 0000
00000170: 0000 0000 0000 0000 0000 0000 0000 0000
00000180: 0000 0000 0000 0000 0000 0000 0000 0000
00000190: 0000 0000 0000 0000 0000 0000 0000 0000
000001a0: 0000 0000 0000 0000 0000 0000 0000 0000
000001b0: 0000 0000 0000 0000 0000 0000 0000 0000
000001c0: 0000 0000 0000 0000 0000 0000 0000 0000
000001d0: 0000 0000 0000 0000 0000 0000 0000 0000
000001e0: 0000 0000 0000 0000 0000 0000 0000 0000
000001f0: 0000 0000 0000 0000 0000 0000 0000 0000
0.0 0.0 0.0 0.0 0.0 0.0 0.0 0.0
0.0 0.0 0.0 0.0 0.0 0.0 0.0 0.0
0.0 0.0 0.0 0.0 0.0 0.0 0.0 0.0
0.0 0.0 0.0 0.0 0.0 0.0 0.0 0.0
0.0 0.0 0.0 0.0 0.0 0.0 0.0 0.0
0.0 0.0 0.0 0.0 0.0 0.0 0.0 0.0
0.0 0.0 0.0 0.0 0.0 0.0 0.0 0.0
0.0 0.0 0.0 0.0 0.0 0.0 0.0 0.0
0.0 0.0 0.0 0.0 0.0 0.0 0.0 0.0
0.0 0.0 0.0 0.0 0.0 0.0 0.0 0.0
0.0 0.0 0.0 0.0 0.0 0.0 0.0 0.0
0.0 0.0 0.0 0.0 0.0 0.0 0.0 0.0
0.0 0.0 0.0 0.0 0.0 0.0 0.0 0.0
0.0 0.0 0.0 0.0 0.0 0.0 0.0 0.0
0.0 0.0 0.0 0.0 0.0 0.0 0.0 0.0
0.0 0.0 0.0 0.0 0.0 0.0 0.0 0.0

value_heads.value_heads.extrinsic.weight f4 [1, 128]
00000000: 8465 15bd c8b0 463e 1a05 16be 102e 253c
00000010: b6a7 81bd f6d0 10be 68dd c43d 2c76 a83d
00000020: 344f c33d 6569 c5bd 30bb 3c3d 610e 19be
00000030: fef2 08be 54c3 74bd 2eb1 283e a3b1 2bbe
00000040: f6cf 12be c3aa 42be d1a0 11be 0840 a03d
00000050: 008d 013d 9436 0bbe 489b 233d a48a ab3d
00000060: 40a3 82bc 62ad 91bd b4d4 6dbd 48ca 5c3d
00000070: 40aa f93d 1808 b6bd 5626 a2bd f85d 4e3e
00000080: d739 1fbe 304b 4d3d 3d1e 06be b825 dfbd
00000090: 19c2 dbbd d4a5 2fbe ccef d63d c417 55be
000000a0: 48ab 7d3d 4841 cdbc b035 9f3d c407 24be
000000b0: 385c bd3c 2c37 863d 1098 673d 0462 c13d
000000c0: 430a d7bd c096 acbb 2bf9 2ebe 009f f43b
000000d0: f052 f0bd 604c b03c e073 a3bc 14b8 8dbd
000000e0: e25a 1a3e ecb7 2dbe 9cb2 b43d b565 e7bd
000000f0: f6a6 06be e63c 5a3e 4091 7ebc 186c 7c3d
00000100: 301d 69bd 50ba d03c 6e27 0ebe d0e2 20bc
00000110: bab6 31be f7d7 42be ce8a 003e 7644 003e
00000120: c0dd 513b 2858 143d ecae 953d 1e95 1b3e
00000130: bc50 45be 30e9 ad3d a809 593e 8869 0f3e
00000140: 110b f6bd 7011 563d a3d9 2bbe d9a5 45be
00000150: ce55 0b3e 5ace 463e 0010 c23d 08f2 07be
00000160: 4c7d c53d a827 303e 8885 aebd a8fb edbd
00000170: 4046 963c 4c32 10be b626 b5bd aa99 253e
00000180: 1088 f3bc 60d3 4b3d 43fe efbd 66aa 3a3e
00000190: e0b2 e83b de1c 053e bc51 ce3d 90d8 773c
000001a0: 94b7 ee3d 22ff b2bd f2cb 54be 14d4 923d
000001b0: 28b8 bf3d 20c1 c8bb 80be 163d f704 54be
000001c0: 47e4 18be 6dce c1bd f0d5 cd3d 2b40 c9bd
000001d0: 9d30 2bbe 682c aebc 82f7 183e 75fa e5bd
000001e0: d8fe 133d 2446 19be 8092 19bb b79f 2fbe
000001f0: f8be 02bd 728d 393e aa43 023e 46a4 07be
-0.036473766 0.19403374 -0.14650384 0.010081783 -0.063308164 -0.14142212 0.096125424 0.082256645
0.09536591 -0.09639243 0.046076953 -0.14946891 -0.13373944 -0.059756592 0.16473839 -0.16766982
-0.14337143 -0.19010453 -0.14221503 0.07824713 0.03162861 -0.13595039 0.03994301 0.08376053
-0.015946984 -0.07113148 -0.058064178 0.053903848 0.12190676 -0.088882625 -0.07917468 0.20153034
-0.15549408 0.050120533 -0.13097472 -0.10895866 -0.107303806 -0.17153102 0.104949564 -0.20809847
0.061930925 -0.025055543 0.07773912 -0.16018587 0.023115262 0.06553492 0.056541502 0.09442523
-0.10500004 -0.0052669942 -0.17087238 0.0074652433 -0.11734569 0.021520793 -0.019952714 -0.06919876
0.15073732 -0.16964692 0.088231295 -0.11298696 -0.13149628 0.21312293 -0.01553756 0.061626524
-0.0569126 0.025479466 -0.13882229 -0.009819701 -0.17354861 -0.19027697 0.1255295 0.12526116
0.0032023042 0.036216885 0.07308754 0.15193602 -0.19269079 0.084917426 0.2119509 0.140051
-0.120138295 0.052262723 -0.1678224 -0.19301547 0.1360695 0.19414654 0.09475708 -0.13275921
0.09643039 0.17202628 -0.08521563 -0.11620265 0.018344045 -0.14081687 -0.08845274 0.161719
-0.029727966 0.04976213 -0.117184184 0.18229064 0.0071014017 0.12999293 0.10074183 0.015127316
0.116561085 -0.08740069 -0.20780924 0.07169357 0.09361297 -0.006126538 0.03680277 -0.20705019
-0.14930831 -0.09463201 0.10050571 -0.09826692 -0.16717763 -0.021261409 0.14938167 -0.112294115
0.03613171 -0.14968163 -0.0023433268 -0.1715077 -0.031920403 0.18120363 0.12721124 -0.13246259
