UnityController/results/ppo/MoveToGoal/MoveToGoal-507.onnx (onnx, 72951 bytes, 7 tensors)

action_model._continuous_distribution.log_sigma f4 [1, 2]
000000 00 00 00 00 00 00 00 00
       0.0 0.0

action_model._continuous_distribution.mu.bias f4 [2]
000000 00 00 00 00 00 00 00 00
       0.0 0.0

action_model._continuous_distribution.mu.weight f4 [2, 128]
000000 a3 c2 cb 3b cf d7 01 3c 61 1f 82 bb cf 42 3b 3c
       0.006218271 0.007924988 -0.003971026 0.011429503
000010 b2 f8 95 3b 32 88 c5 3b 50 31 8e 3a 44 8c 06 bc
       0.004576766 0.0060281986 0.0010848437 -0.008212153
000020 2f 54 79 bc 52 43 fe bb 5f d0 09 3b 8d 84 5d 3d
       -0.015217825 -0.00775949 0.002102874 0.05408149
000030 47 a3 5b bc 23 aa 8f 3b 68 db ff bc 1e 85 88 bc
       -0.013405628 0.0043842955 -0.03123255 -0.016665038
000040 1b ce a1 bb f0 84 d8 bc 3f 15 a5 3c 0d a3 e1 3c
       -0.0049378998 -0.026430577 0.020151732 0.027543569
000050 77 68 55 bc 60 bf a7 bc db f9 0d 3c 3d 6c 1d 3d
       -0.013025395 -0.020476997 0.008665527 0.038433302
000060 17 18 ec bc df 7e c0 3a ac 42 1b 3c 6e a1 1a bc
       -0.02882008 0.0014686248 0.009476345 -0.009437902
000070 c3 5b be bb 64 36 94 bb 2f 93 cc 3c ce 89 17 3c
       -0.0058092787 -0.0045230854 0.024972526 0.009249164
000080 db fb 00 3c c3 fb 66 bc bf 34 97 bc 14 c1 86 bc
       0.007872547 -0.014098111 -0.018457768 -0.016449489
000090 7d e0 1f bc fa 08 1a 3c fc c5 1b bd c2 c2 5a bb
       -0.009758112 0.009401554 -0.03803061 -0.0033380245
0000a0 7f 8f 95 3c 3e 7b 37 3b a5 7f f5 3c 1d 93 ca bc
       0.0182569 0.0027997042 0.029968092 -0.024728352
0000b0 d8 c8 0e 3c fb 57 d9 39 63 e1 88 3c a5 75 6c bb
       0.008714877 0.00041455016 0.016709035 -0.0036080864
0000c0 8f 9c 52 3c 2a dd c3 3b 80 49 6b bc 32 27 a8 ba
       0.012854709 0.0059772925 -0.0143607855 -0.0012829064
0000d0 48 30 0f 3c 55 c6 5a 3c ea b3 d7 3b ca dc 4c bc
       0.0087395385 0.01335295 0.0065827267 -0.012503812
0000e0 e7 42 8b 3c cf 3b 63 bc c0 66 3a bb 2b f9 16 3b
       0.016999675 -0.01386924 -0.0028442591 0.00230367
0000f0 72 79 4f 3b 6b 0d 3b 3a d8 e3 56 bc 9b f2 88 3c
       0.003165808 0.00071354833 -0.013115846 0.016717246
000100 2c 74 36 bc db 8a 80 bc 2b d3 d2 bb f9 cf 27 3a
       -0.011136096 -0.015691211 -0.0064338646 0.0006401535
000110 82 b1 90 3c 3a f5 fc bc 67 b0 f7 3a 0a 2d 02 bc
       0.017662767 -0.030878652 0.0018897176 -0.007945308
000120 ef b9 93 3c f8 5d e0 bb db 62 3e ba 62 24 78 bc
       0.018032996 -0.0068471394 -0.00072626554 -0.015145393
000130 aa da 22 3b e3 c8 2a bc ef a4 3e bd 3b 05 3b bc
       0.0024849572 -0.010423872 -0.04654401 -0.011414821
000140 ea 2e 82 bc 37 4c c3 3a d1 46 0c bc 4b a9 07 bd
       -0.015891511 0.0014900033 -0.008561806 -0.033120435
000150 ff e5 3d 3c fd 08 27 bc 93 43 ed bc 13 a2 07 bd
       0.01159048 -0.010195014 -0.028962886 -0.03311355
000160 d7 74 10 bc 6f 50 85 3c 3f 41 7a 3b a8 1d 04 bc
       -0.008816919 0.016273705 0.0038185862 -0.008063711
000170 e7 d0 0b 3d df 1e fe bc 27 f8 09 bd 43 54 d2 3c
       0.03413477 -0.03102058 -0.033683922 0.025674945
000180 63 2e 44 3b 6a 97 88 bc 09 56 14 bb 04 1f af bb
       0.0029934875 -0.016673762 -0.0022634289 -0.0053442735
000190 2a b2 97 3c 13 c9 de bb dc 98 19 3c 07 df c6 bb
       0.018517572 -0.0067988723 0.009374823 -0.0060690674
0001a0 9f 4a 27 3c 75 d8 bd bc 43 3d 47 3d 08 2b f8 bb
       0.010210662 -0.023174504 0.048642408 -0.007573489
0001b0 52 e4 93 bc 37 65 a1 3c 0f 43 fc bb 44 19 a9 bc
       -0.018053208 0.019701583 -0.0076984237 -0.02064193
0001c0 97 8e 83 3c e3 1a 4f 3c e3 d1 a7 bb 42 e3 a9 bb
       0.016059203 0.012640688 -0.005121456 -0.005184562
0001d0 bb 71 88 bb e7 00 92 3c c2 b4 67 3c 6f fb c7 3c
       -0.0041639484 0.017822696 0.014142217 0.024411885
0001e0 95 64 57 bb 3b f0 5e bc 97 a5 b5 3b b8 78 2c 3c
       -0.0032866348 -0.01360708 0.0055434215 0.0105268285
0001f0 42 fd 21 3c 55 c7 7b bc 19 22 4a bc 5f fd 4d bc
       0.0098870415 -0.015367349 -0.012337231 -0.012572615
000200 03 05 8e 3b f2 2f 67 3c 8f 8a e3 3a ee d1 05 bc
       0.0043340935 0.014110552 0.0017360019 -0.008167727
000210 be d7 88 bc f3 44 2f bd 15 d8 2a bc 04 38 01 bd
       -0.016704436 -0.042790364 -0.0104274945 -0.03154756
000220 70 1c fa bb 80 bd 93 bc 0e d1 87 bc 40 8d 4d 3c
       -0.0076327845 -0.018034697 -0.016579177 0.012545884
000230 6f b0 ca bc e3 ae a7 bb cf 95 13 bc a0 eb cc ba
       -0.024742333 -0.0051172837 -0.009007885 -0.0015634187
000240 81 36 98 bc c8 bd 68 3c 46 41 b6 bb 5a 61 22 3c
       -0.018580677 0.014205404 -0.0055619804 0.009910906
000250 5f 98 12 3d 18 ec f8 ba b3 a5 9d bb 4b 65 b4 bc
       0.035789844 -0.001899126 -0.0048110127 -0.022020957
000260 2c cc c7 ba bb 64 54 3b e0 a9 13 3c 01 80 86 bc
       -0.0015243343 0.0032408673 0.009012669 -0.016418459
000270 37 01 d4 bc e8 07 96 3c 87 64 19 3b 4f c3 d1 ba
       -0.025879486 0.018314317 0.0023405866 -0.0016003641
000280 0b 37 1f bc 8f 4c c2 3c 51 be 8e ba 6c 72 3b bb
       -0.009717713 0.023718147 -0.0010890459 -0.0028602136
000290 ed 18 ac b9 88 ff 1f bc 65 5b e4 3c 1e 9b 20 bd
       -0.00032824968 -0.009765513 0.027875612 -0.03921043
0002a0 9f f1 c0 3c bc 73 26 b9 13 ee 9d 3b 36 cf 23 3c
       0.023552714 -0.00015874108 0.0048196404 0.009998133
0002b0 9d fb e7 bc 45 e4 9c 3c 41 9a 1e 3c 13 84 75 bc
       -0.02831822 0.019151816 0.009680332 -0.014985102
0002c0 12 a7 2f 3d e1 01 0b 3c e8 28 65 bc 26 f3 09 bc
       0.04288394 0.008484335 -0.013986804 -0.0084197875
0002d0 19 ee bf bc 8a 78 ea bb 8c 2b 0f bd 1c 49 0c 3d
       -0.023428963 -0.0071554827 -0.03495364 0.03424941
0002e0 3c 8f 8f 3c ab 1d 5e 3c 29 86 14 bc 93 ab 10 bc
       0.017524354 0.013556878 -0.009065189 -0.008829969
0002f0 d3 13 72 bc cc 54 1e bc 6c 57 18 3b 3a 59 10 bd
       -0.014775234 -0.009663772 0.0023245467 -0.035241343
000300 13 01 5a 3c 71 c7 9f 3c c2 ef 80 3c 87 bb a2 bc
       0.01330592 0.01950428 0.015739325 -0.01986481
000310 6a e9 eb bb bf 03 b1 3c 18 96 d4 bb c7 03 e0 bb
       -0.007199456 0.021608232 -0.006487619 -0.006836388
000320 7b b4 09 b9 1e e8 37 bc 9d 05 62 39 e4 19 89 3c
       -0.00013132572 -0.011224775 0.0002155513 0.016735978
000330 f7 01 bb bc 9b 74 03 bc ef 8c 12 3d ab 79 50 bc
       -0.022828085 -0.008023406 0.035778936 -0.01272432
000340 02 49 9d 3c 61 8f 4c bc 37 28 cb 3b a3 cf 43 bb
       0.019199852 -0.012485356 0.0061998623 -0.00298784
000350 3f cf 81 3c de ab a0 bc dd ca b0 bc f3 fb 03 bb
       0.015845893 -0.019613203 -0.021581108 -0.0020139187
000360 57 49 05 bc a2 02 e5 bb bd 55 53 3b 7b de 63 3c
       -0.008135161 -0.0069888392 0.003224715 0.013908024
000370 d3 44 bd 3b ad f6 b4 bb 59 bd 3c 3a bc 49 1e 3b
       0.0057760268 -0.00552257 0.0007199846 0.0024152836
000380 2b 85 d6 3b e5 aa e7 ba 6c d4 97 bc 1e a6 2a 3c
       0.0065466366 -0.0017674832 -0.018533908 0.010415582
000390 5b eb 59 bc 63 88 34 bd 5d c4 2f 3b 27 d0 05 bd
       -0.013300742 -0.04407538 0.0026819922 -0.032669213
0003a0 6c 23 87 bb 19 6b 92 bb 15 bf 68 bc 78 89 12 bd
       -0.0041240957 -0.0044683334 -0.014205714 -0.03577563
0003b0 a7 3f 96 bb f5 c9 5f bc 5b 6e 2a bc b2 f4 c0 bc
       -0.0045852247 -0.01365899 -0.010402287 -0.02355418
0003c0 bf 3d 11 3c 24 05 a8 3c 2f 9a 4a 3a e0 92 2b 3c
       0.008864819 0.020510264 0.00077286636 0.010472029
0003d0 0b 43 ee bc 0e 2a 45 3c e7 dd 45 bc 1f 8b 51 3c
       -0.029084703 0.012033952 -0.012076831 0.012789517
0003e0 d5 77 eb 3b 38 45 c2 3c d8 c7 5e bc 87 2e 8d 3c
       0.007185916 0.023714647 -0.013597451 0.0172341
0003f0 22 20 ce 3c e9 c5 30 bc 87 6b c5 bc a6 81 35 3c
       0.025161806 -0.010789373 -0.024099125 0.011078274

network_body.linear_encoder.seq_layers.0.bias f4 [128]
000000 00 00 00 00 00 00 00 00 00 00 00 00 00 00 00 00
       0.0 0.0 0.0 0.0
000010 00 00 00 00 00 00 00 00 00 00 00 00 00 00 00 00
       0.0 0.0 0.0 0.0
000020 00 00 00 00 00 00 00 00 00 00 00 00 00 00 00 00
       0.0 0.0 0.0 0.0
000030 00 00 00 00 00 00 00 00 00 00 00 00 00 00 00 00
       0.0 0.0 0.0 0.0
000040 00 00 00 00 00 00 00 00 00 00 00 00 00 00 00 00
       0.0 0.0 0.0 0.0
000050 00 00 00 00 00 00 00 00 00 00 00 00 00 00 00 00
       0.0 0.0 0.0 0.0
000060 00 00 00 00 00 00 00 00 00 00 00 00 00 00 00 00
       0.0 0.0 0.0 0.0
000070 00 00 00 00 00 00 00 00 00 00 00 00 00 00 00 00
       0.0 0.0 0.0 0.0
000080 00 00 00 00 00 00 00 00 00 00 00 00 00 00 00 00
       0.0 0.0 0.0 0.0
000090 00 00 00 00 00 00 00 00 00 00 00 00 00 00 00 00
       0.0 0.0 0.0 0.0
0000a0 00 00 00 00 00 00 00 00 00 00 00 00 00 00 00 00
       0.0 0.0 0.0 0.0
0000b0 00 00 00 00 00 00 00 00 00 00 00 00 00 00 00 00
       0.0 0.0 0.0 0.0
0000c0 00 00 00 00 00 00 00 00 00 00 00 00 00 00 00 00
       0.0 0.0 0.0 0.0
0000d0 00 00 00 00 00 00 00 00 00 00 00 00 00 00 00 00
       0.0 0.0 0.0 0.0
0000e0 00 00 00 00 00 00 00 00 00 00 00 00 00 00 00 00
       0.0 0.0 0.0 0.0
0000f0 00 00 00 00 00 00 00 00 00 00 00 00 00 00 00 00
       0.0 0.0 0.0 0.0
000100 00 00 00 00 00 00 00 00 00 00 00 00 00 00 00 00
       0.0 0.0 0.0 0.0
000110 00 00 00 00 00 00 00 00 00 00 00 00 00 00 00 00
       0.0 0.0 0.0 0.0
000120 00 00 00 00 00 00 00 00 00 00 00 00 00 00 00 00
       0.0 0.0 0.0 0.0
000130 00 00 00 00 00 00 00 00 00 00 00 00 00 00 00 00
       0.0 0.0 0.0 0.0
000140 00 00 00 00 00 00 00 00 00 00 00 00 00 00 00 00
       0.0 0.0 0.0 0.0
000150 00 00 00 00 00 00 00 00 00 00 00 00 00 00 00 00
       0.0 0.0 0.0 0.0
000160 00 00 00 00 00 00 00 00 00 00 00 00 00 00 00 00
       0.0 0.0 0.0 0.0
000170 00 00 00 00 00 00 00 00 00 00 00 00 00 00 00 00
       0.0 0.0 0.0 0.0
000180 00 00 00 00 00 00 00 00 00 00 00 00 00 00 00 00
       0.0 0.0 0.0 0.0
000190 00 00 00 00 00 00 00 00 00 00 00 00 00 00 00 00
       0.0 0.0 0.0 0.0
0001a0 00 00 00 00 00 00 00 00 00 00 00 00 00 00 00 00
       0.0 0.0 0.0 0.0
0001b0 00 00 00 00 00 00 00 00 00 00 00 00 00 00 00 00
       0.0 0.0 0.0 0.0
0001c0 00 00 00 00 00 00 00 00 00 00 00 00 00 00 00 00
       0.0 0.0 0.0 0.0
0001d0 00 00 00 00 00 00 00 00 00 00 00 00 00 00 00 00
       0.0 0.0 0.0 0.0
0001e0 00 00 00 00 00 00 00 00 00 00 00 00 00 00 00 00
       0.0 0.0 0.0 0.0
0001f0 00 00 00 00 00 00 00 00 00 00 00 00 00 00 00 00
       0.0 0.0 0.0 0.0

network_body.linear_encoder.seq_layers.0.weight f4 [128, 6]
000000 59 bd 14 bf ee 7a d1 be 30 09 8b be 1e 20 c2 be
       -0.5810142 -0.409141 -0.27155447 -0.37915128
000010 c3 52 cd 3e 9b ec 06 3e 06 dc 15 be d7 e3 9a be
       0.40102205 0.13176195 -0.14634714 -0.30251953
000020 f4 de af 3e 35 e3 8c 3d b5 6a 33 bc c5 9e 56 3e
       0.34349787 0.06879274 -0.010950734 0.20959003
000030 12 88 ec bd 46 53 d8 3c 7e ae 82 be 2c 45 e7 be
       -0.11549391 0.026406895 -0.25523752 -0.4516996
000040 9c 6c 3d 3d b5 02 03 3e ed 13 70 bf 39 db ce 3c
       0.046246156 0.12794001 -0.93780404 0.025251018
000050 7d 71 ab bd 11 40 98 3f 9b 5b 9b 3e af d1 19 3f
       -0.083712555 1.1894552 0.30343327 0.60085577
000060 30 79 98 be 22 bd 1b 3e e6 0a 83 3f 20 a4 e3 3e
       -0.2977996 0.15208867 1.0237701 0.44461155
000070 b8 35 e8 3c f3 00 64 be 93 84 0e bd 59 43 31 bf
       0.028345928 -0.22265987 -0.0347944 -0.6924339
000080 34 61 36 bd dd d1 d2 be 64 96 1e 3f 3d 8a 15 3f
       -0.044526294 -0.41175738 0.6194823 0.5841406
000090 5a 07 8e 3d 52 00 2d bf 46 7a 86 bf 5c 47 90 3e
       0.06934996 -0.67578614 -1.0506065 0.28179443
0000a0 2f b0 c9 3c ec 2f 98 3e ad b7 af bd 1e b5 b8 3e
       0.024620144 0.2972406 -0.08579955 0.3607568
0000b0 62 f8 2e 3c 26 aa 1a 3e 2d dc 14 bd 56 c2 e7 be
       0.010679336 0.15103969 -0.03634279 -0.45265454
0000c0 4b 02 ac be 23 63 5d bf b9 66 0c 3e 3c 0d 6e 3e
       -0.335955 -0.86479396 0.1371106 0.23247236
0000d0 2a e9 07 bf 86 a1 ab 3e 4b 08 38 3e 6e 77 bd 3e
       -0.53090155 0.3352167 0.17971914 0.3700518
0000e0 e4 fe 92 bd 17 d3 37 be a0 e3 29 3f a9 be 6c 3e
       -0.07177523 -0.17951618 0.66362953 0.23119606
0000f0 8f 4f 4b 3f c9 d6 65 bf 01 d7 11 3f ec 5c 90 be
       0.7941827 -0.8978086 0.56968695 -0.28195894
000100 80 4c 8b 3d 45 84 7a 3c 3d ea 40 be 44 f7 2c 3f
       0.068017006 0.015290325 -0.18839355 0.675648
000110 d9 a1 2b bf 48 c4 b4 bd bd 3f 3f be 94 77 33 3e
       -0.67043835 -0.088265 -0.18676658 0.17526084
000120 b1 2e 31 3d 6d 16 69 3f ef 34 a3 3e 15 05 28 be
       0.04325742 0.91049844 0.31876323 -0.16408189
000130 80 25 a8 be cf 70 43 3d 74 53 96 3e 85 a9 2d bf
       -0.3284111 0.047715005 0.29360545 -0.6783679
000140 21 1a 5a be 0b 75 26 3f 20 84 ac 3e 8e 19 98 3d
       -0.2129903 0.65022343 0.33694553 0.07426749
000150 3a b2 f6 be 2d df 29 bf 93 0a 48 3d b7 f6 02 bf
       -0.4818285 -0.66356164 0.04883821 -0.51157707
000160 2f 1e bb 3d 89 6b bf bd 55 0a cb 3b a5 26 5f bf
       0.091366164 -0.093466826 0.0061963 -0.8716834
000170 03 48 52 3e 71 d0 2b bf 9f 61 4c bf 71 7a a2 3e
       0.20535283 -0.6711493 -0.7983646 0.3173404
000180 7b d5 bc bd 0a 2a 36 3f 25 f9 ab bc d2 3d 6e 3d
       -0.09220406 0.71157897 -0.020992825 0.058164425
000190 e2 b8 a5 be c6 2c 3c 3f 83 9e 5e 3e 71 4c 39 bd
       -0.32367617 0.7350582 0.21740155 -0.045238916
0001a0 2a 08 26 bf 8a f0 f7 be 90 4d 8e 3d 9a 07 ea bd
       -0.6485621 -0.48425704 0.069483876 -0.11427231
0001b0 4f 5f 44 3c bc e0 d6 be 62 e6 0c bf d6 8f 0f 3f
       0.011985614 -0.41968334 -0.55039036 0.5607885
0001c0 c7 02 4d bf 28 32 0c 3f 51 d3 96 bd fc cf c9 3e
       -0.8008236 0.5476403 -0.07364524 0.39416492
0001d0 02 36 9f 3e 46 06 88 3e e1 49 23 3f 93 b0 39 3e
       0.31095892 0.26567286 0.63784605 0.18133764
0001e0 5f 1f dd 3e 04 7d 0b bf 57 eb 18 be ac c7 19 3f
       0.43187997 -0.54487634 -0.14933525 0.600703
0001f0 ba 3e cb be b8 96 3a 3e 53 6d 18 bf 44 2b e9 bd
       -0.39696294 0.18221557 -0.59541816 -0.113852054
000200 ec b1 1f 3d 7c 63 57 3f 40 2f 6c bd 60 42 8e 3e
       0.03898804 0.84136176 -0.05766225 0.27785015
000210 97 ea b7 bd f5 e6 11 bc 00 3b 2a 3c 4c 99 d9 be
       -0.08980291 -0.008905162 0.010390043 -0.4249977
000220 92 7f 3c 3e b0 70 45 bf f4 24 91 bf ce 98 a0 3e
       0.18408039 -0.7712507 -1.1339402 0.3136658
000230 bf 34 8c bd 8f 2f 11 be c6 f9 31 3f 9c ea 0f 3e
       -0.06845998 -0.14178298 0.6952175 0.1405434
000240 4c 41 ff 3e b4 2e 0a 3e e0 70 ff bd ad 93 69 3e
       0.49854505 0.13494378 -0.12472701 0.2281024
000250 ab 6d c7 bd 63 57 39 3d 22 66 93 bc fc fd 41 bf
       -0.097377144 0.045249354 -0.017993037 -0.75778174
000260 1c ed 38 be 7c 2d 33 be 1f 48 4a 3e 5b 98 14 bf
       -0.180592 -0.1749782 0.19754075 -0.58044976
000270 65 42 4a 3f df f0 69 bc 29 53 ec be ed 32 68 3f
       0.7900756 -0.01427862 -0.46157196 0.90702707
000280 3e 1f 12 3e 13 35 88 be b3 a7 fb 3c ca 1d 9c be
       0.1426973 -0.26602992 0.030719614 -0.30491477
000290 f6 fd 2d be 78 37 09 be 18 91 e2 be ba c3 1a bf
       -0.1699141 -0.13400066 -0.44251323 -0.60454905
0002a0 5a 81 a1 be a9 e1 29 bd ea c8 0e 3f 79 ad 0a bf
       -0.31544 -0.041474972 0.5577532 -0.5417095
0002b0 6b d9 28 be 70 4b 89 3e 76 fd 15 3f 6e 0a 74 3d
       -0.16489188 0.26815367 0.58589876 0.05958026
0002c0 eb 1e ab 3e fd de d6 3e 74 0c ff bd 6e a3 df 3e
       0.33422026 0.41967002 -0.12453547 0.43679374
0002d0 0e 2a b2 3e 09 85 8c be 0a f9 32 3f b2 29 4f be
       0.3479771 -0.27445248 0.69911253 -0.20230749
0002e0 a9 89 8e bd 68 bc 2c 3e e2 3b fa 3e f5 5a 50 be
       -0.0695985 0.16868746 0.48873812 -0.20347197
0002f0 6f 8e 81 be 5f 3b 30 be 21 9b 7f bf 7e c8 b6 be
       -0.2530398 -0.17210148 -0.9984608 -0.35699838
000300 28 78 20 3d f8 05 b3 3e d5 b3 94 3d 74 4d 4b 3d
       0.03917709 0.3496549 0.07260863 0.049634412
000310 35 1b 16 3f d3 a2 cc bc 2e a7 27 3f 6f 9f e6 3e
       0.58635265 -0.024979984 0.6548947 0.45043513
000320 30 f8 f9 be a2 b6 56 3f b0 c1 47 3e 62 6b 15 3f
       -0.48822165 0.83872426 0.1950748 0.5836698
000330 d9 9b 31 3e 26 91 90 be 24 57 67 3f 11 55 0c be
       0.17344607 -0.2823574 0.9036734 -0.13704325
000340 5c 14 29 3e 00 a1 15 bf 2d 44 00 be f3 ca 23 3e
       0.16511673 -0.5844879 -0.12526007 0.15995388
000350 0d f2 57 3e ec 57 b3 3e 19 fa 09 be b9 c1 c0 be
       0.21088429 0.35028017 -0.13474311 -0.376478
000360 ab 9b 8b 3e 21 11 09 3f 56 8c 21 3e 5f fb d5 be
       0.27267203 0.5354176 0.1577619 -0.41793343
000370 7b b8 f3 bd 5a 9d 4b bd 5f d0 d5 be 98 e6 97 3b
       -0.11900421 -0.04971061 -0.41760537 0.004635643
000380 97 6e fb bd 6a 8f 7e 3f 64 4c cf bd 33 27 6d be
       -0.12276953 0.9943758 -0.10121992 -0.23159485
000390 61 97 8b 3e 44 a8 0f bf 3e 81 81 3d ec 9b 88 be
       0.2726393 -0.5611613 0.06323479 -0.2668146
0003a0 4b 7f 5f bf 07 09 2b bd b4 b3 9c be 24 f8 53 3e
       -0.8730361 -0.041756656 -0.30605853 0.20700127
0003b0 97 d8 19 3e 77 b9 26 3e e1 14 42 3d 55 77 73 bf
       0.15024029 0.16281687 0.047383193 -0.9510396
0003c0 19 3d 9a 3e 2a 7d 1a 3f 7c 0b 24 3e b1 a9 36 3c
       0.3012474 0.60347235 0.16020006 0.011148856
0003d0 31 ba a8 3d 51 41 6a bf b5 a8 09 3d 78 74 df 3d
       0.08238638 -0.91505915 0.033608157 0.109108865
0003e0 ae 56 46 bf 23 2c 85 bc 9e 5d b8 3d 58 3a 92 3d
       -0.7747601 -0.016256398 0.09002231 0.071400344
0003f0 66 dd e0 be 14 4c e5 be 50 06 01 3f f3 9c 26 bf
       -0.43918914 -0.44784606 0.5040026 -0.65083236

network_body.linear_encoder.seq_layers.2.bias f4 [128]
000000 00 00 00 00 00 00 00 00 00 00 00 00 00 00 00 00
       0.0 0.0 0.0 0.0
000010 00 00 00 00 00 00 00 00 00 00 00 00 00 00 00 00
       0.0 0.0 0.0 0.0
000020 00 00 00 00 00 00 00 00 00 00 00 00 00 00 00 00
       0.0 0.0 0.0 0.0
000030 00 00 00 00 00 00 00 00 00 00 00 00 00 00 00 00
       0.0 0.0 0.0 0.0
000040 00 00 00 00 00 00 00 00 00 00 00 00 00 00 00 00
       0.0 0.0 0.0 0.0
000050 00 00 00 00 00 00 00 00 00 00 00 00 00 00 00 00
       0.0 0.0 0.0 0.0
000060 00 00 00 00 00 00 00 00 00 00 00 00 00 00 00 00
       0.0 0.0 0.0 0.0
000070 00 00 00 00 00 00 00 00 00 00 00 00 00 00 00 00
       0.0 0.0 0.0 0.0
000080 00 00 00 00 00 00 00 00 00 00 00 00 00 00 00 00
       0.0 0.0 0.0 0.0
000090 00 00 00 00 00 00 00 00 00 00 00 00 00 00 00 00
       0.0 0.0 0.0 0.0
0000a0 00 00 00 00 00 00 00 00 00 00 00 00 00 00 00 00
       0.0 0.0 0.0 0.0
0000b0 00 00 00 00 00 00 00 00 00 00 00 00 00 00 00 00
       0.0 0.0 0.0 0.0
0000c0 00 00 00 00 00 00 00 00 00 00 00 00 00 00 00 00
       0.0 0.0 0.0 0.0
0000d0 00 00 00 00 00 00 00 00 00 00 00 00 00 00 00 00
       0.0 0.0 0.0 0.0
0000e0 00 00 00 00 00 00 00 00 00 00 00 00 00 00 00 00
       0.0 0.0 0.0 0.0
0000f0 00 00 00 00 00 00 00 00 00 00 00 00 00 00 00 00
       0.0 0.0 0.0 0.0
000100 00 00 00 00 00 00 00 00 00 00 00 00 00 00 00 00
       0.0 0.0 0.0 0.0
000110 00 00 00 00 00 00 00 00 00 00 00 00 00 00 00 00
       0.0 0.0 0.0 0.0
000120 00 00 00 00 00 00 00 00 00 00 00 00 00 00 00 00
       0.0 0.0 0.0 0.0
000130 00 00 00 00 00 00 00 00 00 00 00 00 00 00 00 00
       0.0 0.0 0.0 0.0
000140 00 00 00 00 00 00 00 00 00 00 00 00 00 00 00 00
       0.0 0.0 0.0 0.0
000150 00 00 00 00 00 00 00 00 00 00 00 00 00 00 00 00
       0.0 0.0 0.0 0.0
000160 00 00 00 00 00 00 00 00 00 00 00 00 00 00 00 00
       0.0 0.0 0.0 0.0
000170 00 00 00 00 00 00 00 00 00 00 00 00 00 00 00 00
       0.0 0.0 0.0 0.0
000180 00 00 00 00 00 00 00 00 00 00 00 00 00 00 00 00
       0.0 0.0 0.0 0.0
000190 00 00 00 00 00 00 00 00 00 00 00 00 00 00 00 00
       0.0 0.0 0.0 0.0
0001a0 00 00 00 00 00 00 00 00 00 00 00 00 00 00 00 00
       0.0 0.0 0.0 0.0
0001b0 00 00 00 00 00 00 00 00 00 00 00 00 00 00 00 00
       0.0 0.0 0.0 0.0
0001c0 00 00 00 00 00 00 00 00 00 00 00 00 00 00 00 00
       0.0 0.0 0.0 0.0
0001d0 00 00 00 00 00 00 00 00 00 00 00 00 00 00 00 00
       0.0 0.0 0.0 0.0
0001e0 00 00 00 00 00 00 00 00 00 00 00 00 00 00 00 00
       0.0 0.0 0.0 0.0
0001f0 00 00 00 00 00 00 00 00 00 00 00 00 00 00 00 00
       0.0 0.0 0.0 0.0

network_body.linear_encoder.seq_layers.2.weight f4 [128, 128]
000000 ef c3 6d be c4 29 06 bc 6b a9 ca bd 63 dc c3 3c
       -0.23219274 -0.008188669 -0.09895595 0.0239088
000010 b2 8b 6e bd 42 18 b9 3c 1a 20 0a be 18 14 90 3d
       -0.058238693 0.022594575 -0.13488808 0.070350826
000020 69 40 fb bd 3c 20 71 bc 15 d0 af bd 55 9f 74 3d
       -0.12268145 -0.014717158 -0.085846104 0.059722263
000030 b6 66 a8 3b a1 bd 67 3b a0 b1 d4 38 3c 5f b6 bd
       0.005139197 0.003536083 0.00010142033 -0.08904883
000040 3e dd d3 bd a6 f8 a1 bd 3d ac b1 3d ac 6c 4c 3e
       -0.10344933 -0.07908754 0.0867543 0.1996333
000050 17 61 08 3e 32 a9 8d 3d e8 61 70 3e 4e 1f c0 3d
       0.13318287 0.06917037 0.23474848 0.09380971
000060 a2 96 d5 bd 2d a9 97 3e a8 b1 67 3d f5 8c ec bc
       -0.104291216 0.29621258 0.05656591 -0.028875807
000070 c3 4f 9a 3d 7c 73 88 3c f9 fa 31 3e bc 18 3c be
       0.075347446 0.01665663 0.17380895 -0.1836881
000080 5d ab 12 be 0b 01 8d bd 8f 17 8b 3e 93 23 16 bc
       -0.14323182 -0.068849646 0.2716641 -0.009163755
000090 b2 47 37 bd 49 8f b2 3d 72 54 bf 3b 30 c5 6e be
       -0.04474611 0.08718736 0.005838924 -0.23317409
0000a0 42 08 19 bd 6c 3c f8 3d 22 14 ea 3d c7 6f c5 bd
       -0.03736139 0.121208996 0.11429621 -0.096404605
0000b0 5b 12 34 bd 50 d1 86 3d 40 6c 29 bd 04 ab 37 3d
       -0.043962818 0.06582892 -0.041363 0.044840828
0000c0 33 e5 30 bd 9f f4 62 bc 7f 1d a3 bd 17 75 14 bd
       -0.04318733 -0.0138522675 -0.0796461 -0.036244478
0000d0 7a 1c 39 bd b0 5e 26 be dc ea 90 bd a9 39 2c bd
       -0.045193173 -0.16247058 -0.07076046 -0.042047177
0000e0 78 a8 9f 3d 36 18 2b bd 8b 9d 52 3d 72 68 8f 3d
       0.07795805 -0.041771136 0.051419776 0.07002343
0000f0 f6 69 52 bc 05 03 35 bd 3a 5c ed 3d 5a 88 4a bd
       -0.012842646 -0.044192333 0.115898564 -0.04944644
000100 51 b7 de 3d b4 bf f3 bd 35 c4 b0 bc 84 33 27 be
       0.108748086 -0.11901799 -0.021577934 -0.16328245
000110 d6 4d 45 3e 70 f1 b6 bd e2 7c a8 3d d1 64 a2 3d
       0.19267973 -0.08932769 0.082269445 0.079293855
000120 d9 5a 35 3e 40 90 32 be 9e f3 3f bd 69 95 b6 3d
       0.17710437 -0.1743784 -0.04686319 0.089152165
000130 20 8a 38 bd 2c 88 ad 3d 49 a4 b7 bd 45 37 7f bc
       -0.0450536 0.08473238 -0.08966882 -0.015577142
000140 60 6b 78 bd db a5 f8 bd f1 2d 0d bd 6b 6a a0 bd
       -0.060649276 -0.121410094 -0.03446764 -0.078327976
000150 3a 22 36 bd c7 aa 8e bb 27 8e f8 3c 44 85 ef 3d
       -0.044466235 -0.0043538543 0.030341221 0.1169534
000160 a6 68 86 3d 13 c6 39 3d 0f 34 b5 3c f4 4b 88 bd
       0.06562929 0.045354914 0.02211955 -0.06655112
000170 25 40 08 bc 6b 74 26 be 69 d7 43 3b ec e1 07 3e
       -0.0083160745 -0.16255347 0.0029883033 0.13269776
000180 54 b2 27 bd 62 28 74 3d a6 83 e5 3d ac 47 d0 3c
       -0.04094155 0.059608825 0.112067506 0.0254248
000190 41 8e 67 3c a1 ac f9 bd 9d e2 d2 bc 0e 2b 2c 3c
       0.014133037 -0.121911295 -0.025742823 0.010508312
0001a0 57 d8 aa 3d 97 9a c8 bd 90 e9 cc bd 12 da a0 bc
       0.08342045 -0.09795111 -0.10005486 -0.019635234
0001b0 61 b8 de 3d 64 7f 16 3e 30 03 95 3d ac d4 83 bd
       0.10875011 0.14697033 0.072759986 -0.06437048
0001c0 6f 5e f7 bd 6f 90 2e 3d ca a8 8f bd 7e 3b 21 bb
       -0.12078559 0.04261821 -0.07014616 -0.002460211
0001d0 a6 d0 a6 bc 58 54 c5 bc f0 00 30 bd d5 3f 2f 3c
       -0.020363163 -0.02408807 -0.042969644 0.010696371
0001e0 3b c4 2b bd 41 ce f6 3d 60 8e 42 3d 57 78 c3 bb
       -0.041935187 0.120510586 0.04749906 -0.0059652734
0001f0 f8 9f 3b 3e e3 cf 13 3e ea 8c 2b be d9 9c 07 3d
       0.18322742 0.14434771 -0.16752973 0.033108566
000200 f3 8b b1 3c 36 2f 01 bd 10 b3 26 be 53 d6 b0 bc
       0.021673178 -0.031539164 -0.16279244 -0.021586573
000210 ea ee 9d 3d 67 c0 be 3d bf eb 21 be 47 d0 75 3e
       0.07711585 0.093140416 -0.15812586 0.24005233
000220 a3 e3 2a 3e 08 2d 1f 3d 92 70 b1 3d 58 e0 14 bd
       0.16688399 0.038861305 0.08664049 -0.036346763
000230 66 23 84 bd 8e fc fd bc f4 d6 aa bd 86 7d 25 bd
       -0.06452064 -0.031004217 -0.0834178 -0.04040291
000240 be d2 d6 3d 56 ad 32 3d 17 da 1c be 51 f9 3b bd
       0.10489415 0.043622337 -0.1531757 -0.045892064
000250 b2 8b 1a bd 48 0a b1 bd 3e b0 f4 bd e8 00 4d 3e
       -0.03773088 -0.08644539 -0.11947678 0.20019877
000260 d9 ad 25 bc a5 4e d4 bc 81 5b 1f 3d c1 33 92 bd
       -0.010112249 -0.025916407 0.038905624 -0.071387775
000270 bb 47 db bd a3 0b 92 bd 36 c9 ad bb 60 77 74 bc
       -0.10707041 -0.07131126 -0.005303527 -0.014921039
000280 22 e3 a5 3d 92 b6 22 bd 7b 35 4e bd 02 53 39 3d
       0.08099963 -0.039724894 -0.05034397 0.045245178
000290 bc 86 80 3c a9 97 7a 3d 1f 6e 9d 3d 4f b3 2f 3e
       0.015689246 0.06117979 0.076870196 0.17158245
0002a0 f5 20 ce 3d b5 13 91 3d 13 0e b7 bd 7a a7 5b bd
       0.1006488 0.07083837 -0.08938231 -0.053626515
0002b0 cc c4 8f 3b 61 58 40 3c 44 ea bf 3d 19 e5 00 be
       0.0043874737 0.011739821 0.093708545 -0.12587394
0002c0 40 e1 9f bd dd 69 34 bc 78 92 40 3d f4 71 2b be
       -0.07806635 -0.011011568 0.047014683 -0.16742688
0002d0 b9 98 b5 bd e2 7a 39 3e 55 d2 08 bd 08 d9 ab 3d
       -0.0886702 0.18113282 -0.033403713 0.08391005
0002e0 aa 34 1d 3d 30 62 95 3d 85 6e 5f bd 83 45 b0 3d
       0.038380302 0.072941184 -0.05454876 0.08607008
0002f0 f0 e1 15 bd e0 d7 0b 3e 41 7d 53 bd cc 10 ec bc
       -0.036592424 0.13656569 -0.051633123 -0.028816603
000300 2f e6 ea bc f8 13 18 3e 53 d6 dc bd 85 c5 c9 3d
       -0.028674213 0.14851367 -0.107830666 0.09852127
000310 15 61 37 bd 50 ad 89 bc 3e 1e d8 3d 9f b3 3b 3d
       -0.04477032 -0.016806275 0.10552643 0.045825597
000320 e1 1f 92 3d 3a 9e d3 bd 56 8b ef 3d d8 fa c3 bb
       0.07134987 -0.10332914 0.11696498 -0.0059808306
000330 a9 17 ed bd 4f b4 c1 bd e7 4d 0e 3d 22 76 28 bd
       -0.115767784 -0.09458219 0.034742262 -0.041128285
000340 01 47 54 3e d9 3b 82 bd fa fd 1f be b7 d5 67 3d
       0.20730211 -0.06359071 -0.15624228 0.0566003
000350 ef ca 9b 3d 83 b7 13 be 5f c0 d7 3d 21 90 81 3d
       0.07607066 -0.14425473 0.10534739 0.063263185
000360 e2 62 68 3d 44 43 cf 3d 77 86 3f 3e 8f f9 bb 3b
       0.056734927 0.10120252 0.18703638 0.005736537
000370 6c e4 a3 3b f0 f6 8d bd ce d0 42 3d 28 a4 94 3e
       0.0050015952 -0.06931865 0.047562413 0.2903149
000380 4e fa cd bd ae 0b 06 3d ad b5 8c 3d 14 89 39 be
       -0.100575075 0.032725982 0.068705894 -0.18118697
000390 68 ae 78 3d 93 dc 0c 3e ec 95 83 bd 68 e5 b1 bd
       0.0607132 0.13756017 -0.0642508 -0.08686334
0003a0 88 db 76 3c f5 08 e4 3d e1 a0 f6 bd 0a 32 34 ba
       0.015066989 0.11134521 -0.12042404 -0.00068739115
0003b0 62 8a 8d 3d f4 80 b2 bd 27 ea a6 bd 09 af 06 3c
       0.0691116 -0.08716002 -0.0815013 0.008220443
0003c0 ee e8 1a bd 7b f6 ee 3d 71 eb 6e bc 6c 9e bf 3c
       -0.037819795 0.11668106 -0.014582501 0.023390971
0003d0 64 43 38 be 77 43 7e 3d 30 b9 12 bd cc 94 07 3d
       -0.17994457 0.06207606 -0.03582114 0.033100888
0003e0 83 9c 57 3d 84 31 8d 3c e2 be 17 3d cf 56 1c 3d
       0.052639496 0.017235525 0.037047274 0.038168725
0003f0 8e 66 ac bd 76 bc ba 3d 57 66 6e 3d ca 0e bf bd
       -0.08417998 0.09117977 0.058203068 -0.09328993
