UnityController/results/ppo/MoveToGoal/MoveToGoal-183.pt (torch, 149327 bytes, 12 tensors)

network_body.linear_encoder.seq_layers.0.weight f4 [128, 6]
000000 43 95 56 be 1d 3a 74 be d8 83 50 bf 09 d0 10 3f
       -0.20955376 -0.23850293 -0.8145118 0.56567436
000010 92 dc c7 be 1a 10 5d bf 0d eb 2a 3f 60 cf 4f be
       -0.3903547 -0.86352694 0.6676491 -0.20293951
000020 61 77 ca 3d 10 2a e9 bc 70 64 c5 be 84 ce 8d 3d
       0.09886051 -0.02846244 -0.3855319 0.06924155
000030 ae 9c 0b bf 7b dc c0 3d 45 32 97 be be 3c 39 3f
       -0.5453595 0.09417053 -0.2953054 0.7235831
000040 31 43 78 be 18 c0 81 3e 1e a5 fb 3e 84 e8 7d be
       -0.24244381 0.25341868 0.49149412 -0.24795729
000050 1d 11 a3 3e db ea 19 3f 6f 91 17 3f 5a 1a 48 be
       0.31848994 0.60123986 0.5920629 -0.19541302
000060 01 d3 0e bd fd 95 fa be 4c 17 21 bf 70 e4 b9 be
       -0.034869198 -0.48942557 -0.62926173 -0.36307096
000070 d0 9a 14 3f c8 7d fe 3e 41 e7 20 be 93 c9 50 3e
       0.58048725 0.49705338 -0.15713216 0.20389394
000080 61 06 11 3e 1d fb 01 bf 5f 84 21 3f 8a 03 f2 bd
       0.1416259 -0.50773793 0.6309261 -0.11817081
000090 30 12 89 be 9f 03 1b bd b1 20 ab be c7 f7 7e bf
       -0.26771688 -0.03784525 -0.3342338 -0.9959683
0000a0 b3 80 9d be 6e 60 0c be 53 70 c0 3e 6a 61 3f be
       -0.30762252 -0.1370866 0.37585697 -0.18689504
0000b0 22 93 d1 be dc 30 30 be 02 54 0d bf 97 ef ee 3d
       -0.40932566 -0.17206138 -0.5520631 0.11666792
0000c0 db 93 03 bf 0d 3a 5c 3e 69 f3 b9 be ce b2 c2 bc
       -0.51397485 0.2150652 -0.3631852 -0.023766901
0000d0 5e d5 12 3e cb 57 b5 3e ee 1e 3b bf 26 9e 96 be
       0.14339206 0.35418543 -0.7309407 -0.29417533
0000e0 0d 77 31 be bb f5 a0 be 27 62 9a bd 01 73 09 3e
       -0.1733057 -0.31437477 -0.07538252 0.13422777
0000f0 d4 35 f3 3d 45 6f 96 be 9a 08 5e be 80 29 b9 3d
       0.11875501 -0.29381767 -0.21682969 0.090411186
000100 df 67 20 3e 58 d6 c9 3e e8 f7 6a be 7d 1a 8b be
       0.15664624 0.39421344 -0.22946131 -0.27168646
000110 0a cc dc 3e e0 33 df 3e 79 f1 c1 b9 f3 4f 9b 3f
       0.4312442 0.43594265 -0.0003699174 1.2133774
000120 20 a3 6b 3e 25 9a 9b 3e dd de 08 3e 82 7a ef 3b
       0.23011446 0.3039104 0.13366266 0.0073083052
000130 ab 3a 01 3f dc 36 2f 3f 6b cc 16 bf 1b 0b 10 3e
       0.50480145 0.68443084 -0.5890567 0.14066736
000140 ac 3c 3a 3d d8 f1 12 3d db 00 1d 3e f8 a7 01 bf
       0.045468017 0.03587517 0.15332358 -0.50646925
000150 b6 c7 10 bf 77 5b 73 bf 16 a8 a4 be f7 b2 c3 3e
       -0.56554735 -0.9506144 -0.3215949 0.38222477
000160 59 77 b4 bc a2 19 37 3d 83 e2 be 3e 15 f3 58 bc
       -0.022029566 0.04470218 0.3728219 -0.013241549
000170 c9 b1 27 bf 2b c1 e7 3d 51 a2 a0 3c 81 2c 67 be
       -0.65505654 0.11316141 0.019608648 -0.2257557
000180 5f 00 cf 3e 4c b1 61 3e 17 f4 8c 3e a9 45 49 3d
       0.4042997 0.2204029 0.27529976 0.0491387
000190 4e 49 23 3f 03 31 09 3f 7d 25 cb 3a 66 37 85 be
       0.6378373 0.5359041 0.0015498843 -0.26018828
0001a0 91 c1 f0 bd de 7f 44 3e f3 c6 91 3e f4 b2 b0 be
       -0.1175567 0.19189402 0.284721 -0.3451153
0001b0 b1 ed 7a 3d 6a 46 29 be 13 ae c2 bd d7 47 2e 3e
       0.061261836 -0.16530767 -0.09505858 0.17019592
0001c0 66 f7 af be f9 75 76 3f 73 f8 1a bd 6f 54 46 be
       -0.34368438 0.9627376 -0.037834596 -0.19368146
0001d0 d9 11 70 3f c0 1c 9b bd 6e 9b ab 3e df ae 1f bd
       0.93777233 -0.07573843 0.3351702 -0.03898513
0001e0 9a 8d 6c bf 23 a9 5b bd 47 c3 51 3f fa c1 e2 bd
       -0.92403567 -0.0536281 0.81938595 -0.11072154
0001f0 89 eb 09 bf 0d 86 02 3f b5 fd 27 be c3 24 39 bf
       -0.53875023 0.50985795 -0.16405375 -0.7232172
000200 19 c7 4d bf f0 5f 04 3f 9d db d2 3e 08 76 86 3e
       -0.80381924 0.5170889 0.41183177 0.26261926
000210 d2 b2 62 be ef 64 54 3e 28 78 91 be bc 03 93 be
       -0.22138527 0.20741628 -0.28411984 -0.28713787
000220 fd 7e 21 3f 77 d6 ed bd 26 b7 b1 3d c2 7c ef be
       0.63084394 -0.116131715 0.08677511 -0.4677487
000230 c4 23 83 bd fd 18 99 be a2 8d dd 3e dc f7 ef 3d
       -0.06403306 -0.29901877 0.4327212 0.11717197
000240 62 fd c5 3d d9 8a 01 bf 6c 29 e7 3e 10 76 d8 be
       0.096674696 -0.5060249 0.4514879 -0.42277575
000250 4d ca 81 3d 34 d3 e0 bd 51 2d 23 3f 67 8c ae bd
       0.06337414 -0.10977784 0.6374102 -0.08522873
000260 cd 13 15 3e 34 dd 66 3f ec bc 01 3f e8 00 c4 3e
       0.14558335 0.9018128 0.50678897 0.3828194
000270 09 c1 a1 3f e4 11 39 3e 6e 4e c1 be 1e 2a da bd
       1.2637035 0.18073231 -0.3775515 -0.106525645
000280 35 18 5e 3d bd 07 42 bf 36 90 51 3e f5 21 84 3e
       0.054222304 -0.7579306 0.20465168 0.25807157
000290 ce 01 d7 3e bd 4b a5 3e d4 e7 0f 3f a8 4e a9 3e
       0.41993564 0.32284346 0.56213117 0.33067822
0002a0 d2 40 dc 3e 7b 8f a0 3e 73 ba f8 bc 2c b0 b5 3e
       0.43018204 0.31359467 -0.030362343 0.3548597
0002b0 6f 0b e1 3d c6 61 a2 be 29 d6 66 3f ab bf d4 3d
       0.10988509 -0.3171522 0.9017053 0.1038812
0002c0 57 4f 3d bf 6c a7 99 3e 55 fc 9e 3e 42 4c b6 be
       -0.7394919 0.30010545 0.3105189 -0.35605055
0002d0 fd 8e b6 3e b9 d8 ef bd 81 f3 a6 be df c2 9b be
       0.35655966 -0.117112584 -0.32607654 -0.30422112
0002e0 4b 60 2a bf b4 7c 6c 3e 77 50 ed 3d 59 18 7e 3e
       -0.6655318 0.23094445 0.11587613 0.24813975
0002f0 c6 6e aa 3e fa b5 40 bf 5f b9 58 3e e2 db 4e 3e
       0.33287638 -0.75277674 0.21164463 0.20201066
000300 71 a2 8a 3e 5c 56 cc 3d 4b d7 57 be 43 b9 fd be
       0.27077058 0.09977409 -0.21078221 -0.49555406
000310 d2 6f 87 be dd 73 91 3c 71 34 99 3e 21 2c 37 bf
       -0.264525 0.017755443 0.29922822 -0.7155171
000320 5e 69 4f bf b4 07 f3 3e d7 fe 57 be e2 bf 1d 3f
       -0.8102015 0.47466815 -0.21093307 0.61620915
000330 63 78 1e 3f 52 50 ac 3d eb 4e de be 39 da fd be
       0.61902446 0.084137574 -0.43419585 -0.49580553
000340 b1 93 36 3d ef a5 0c bf 56 90 03 3f 06 21 f6 3e
       0.044574443 -0.54940695 0.51392114 0.4807207
000350 5b 8c 64 3e ea 15 4e bf 58 3e af bd 95 ee 85 3d
       0.22319166 -0.8050219 -0.08556813 0.065396465
000360 f1 de 87 be 89 df a9 bd db b3 b8 bd d8 df 9c be
       -0.26537278 -0.08294589 -0.0901868 -0.3063953
000370 92 01 28 be 28 2f 06 be ca 8f a6 3e 31 91 74 bd
       -0.16406849 -0.13103926 0.32531577 -0.059708778
000380 45 51 7a be db b4 87 be 54 46 52 be 6e 94 1e 3e
       -0.24445064 -0.2650517 -0.2053464 0.15486309
000390 c5 31 7d 3e 17 9d 43 bc 44 6a f9 3c 12 7e 47 3e
       0.24726017 -0.011939309 0.03044618 0.19481686
0003a0 0f 28 4c 3e 2d 28 88 be c4 84 48 3f d9 c7 17 bf
       0.19937156 -0.26593152 0.78327584 -0.5928932
0003b0 34 a7 32 3c 07 b3 25 3f c2 69 1e 3f f6 a9 58 bd
       0.010904122 0.647263 0.61880124 -0.052896462
0003c0 74 6e 8d be c8 4b 44 3e 18 14 e6 be a0 c8 90 bd
       -0.27623332 0.19169533 -0.44937205 -0.07069516
0003d0 7c 0b f6 be 44 1e ec 3e a7 f6 39 3e bd 6d bd 3e
       -0.48055637 0.4611684 0.18160497 0.36997786
0003e0 17 fb ee 3e 7b 34 90 3e 1f cb c7 3e 70 a4 7e 3d
       0.4667594 0.2816504 0.39022157 0.06216854
0003f0 72 30 92 3e db 02 97 be 91 76 71 3f 66 57 5a 3f
       0.28552586 -0.29494366 0.9432154 0.8528961

network_body.linear_encoder.seq_layers.0.bias f4 [128]
000000 00 00 00 00 00 00 00 00 00 00 00 00 00 00 00 00
       0.0 0.0 0.0 0.0
000010 00 00 00 00 00 00 00 00 00 00 00 00 00 00 00 00
       0.0 0.0 0.0 0.0
000020 00 00 00 00 00 00 00 00 00 00 00 00 00 00 00 00
       0.0 0.0 0.0 0.0
000030 00 00 00 00 00 00 00 00 00 00 00 00 00 00 00 00
       0.0 0.0 0.0 0.0
000040 00 00 00 00 00 00 00 00 00 00 00 00 00 00 00 00
       0.0 0.0 0.0 0.0
000050 00 00 00 00 00 00 00 00 00 00 00 00 00 00 00 00
       0.0 0.0 0.0 0.0
000060 00 00 00 00 00 00 00 00 00 00 00 00 00 00 00 00
       0.0 0.0 0.0 0.0
000070 00 00 00 00 00 00 00 00 00 00 00 00 00 00 00 00
       0.0 0.0 0.0 0.0
000080 00 00 00 00 00 00 00 00 00 00 00 00 00 00 00 00
       0.0 0.0 0.0 0.0
000090 00 00 00 00 00 00 00 00 00 00 00 00 00 00 00 00
       0.0 0.0 0.0 0.0
0000a0 00 00 00 00 00 00 00 00 00 00 00 00 00 00 00 00
       0.0 0.0 0.0 0.0
0000b0 00 00 00 00 00 00 00 00 00 00 00 00 00 00 00 00
       0.0 0.0 0.0 0.0
0000c0 00 00 00 00 00 00 00 00 00 00 00 00 00 00 00 00
       0.0 0.0 0.0 0.0
0000d0 00 00 00 00 00 00 00 00 00 00 00 00 00 00 00 00
       0.0 0.0 0.0 0.0
0000e0 00 00 00 00 00 00 00 00 00 00 00 00 00 00 00 00
       0.0 0.0 0.0 0.0
0000f0 00 00 00 00 00 00 00 00 00 00 00 00 00 00 00 00
       0.0 0.0 0.0 0.0
000100 00 00 00 00 00 00 00 00 00 00 00 00 00 00 00 00
       0.0 0.0 0.0 0.0
000110 00 00 00 00 00 00 00 00 00 00 00 00 00 00 00 00
       0.0 0.0 0.0 0.0
000120 00 00 00 00 00 00 00 00 00 00 00 00 00 00 00 00
       0.0 0.0 0.0 0.0
000130 00 00 00 00 00 00 00 00 00 00 00 00 00 00 00 00
       0.0 0.0 0.0 0.0
000140 00 00 00 00 00 00 00 00 00 00 00 00 00 00 00 00
       0.0 0.0 0.0 0.0
000150 00 00 00 00 00 00 00 00 00 00 00 00 00 00 00 00
       0.0 0.0 0.0 0.0
000160 00 00 00 00 00 00 00 00 00 00 00 00 00 00 00 00
       0.0 0.0 0.0 0.0
000170 00 00 00 00 00 00 00 00 00 00 00 00 00 00 00 00
       0.0 0.0 0.0 0.0
000180 00 00 00 00 00 00 00 00 00 00 00 00 00 00 00 00
       0.0 0.0 0.0 0.0
000190 00 00 00 00 00 00 00 00 00 00 00 00 00 00 00 00
       0.0 0.0 0.0 0.0
0001a0 00 00 00 00 00 00 00 00 00 00 00 00 00 00 00 00
       0.0 0.0 0.0 0.0
0001b0 00 00 00 00 00 00 00 00 00 00 00 00 00 00 00 00
       0.0 0.0 0.0 0.0
0001c0 00 00 00 00 00 00 00 00 00 00 00 00 00 00 00 00
       0.0 0.0 0.0 0.0
0001d0 00 00 00 00 00 00 00 00 00 00 00 00 00 00 00 00
       0.0 0.0 0.0 0.0
0001e0 00 00 00 00 00 00 00 00 00 00 00 00 00 00 00 00
       0.0 0.0 0.0 0.0
0001f0 00 00 00 00 00 00 00 00 00 00 00 00 00 00 00 00
       0.0 0.0 0.0 0.0

network_body.linear_encoder.seq_layers.2.weight f4 [128, 128]
000000 8e ba 26 3d 04 4a 7b 3c a2 2d fb 3c 41 55 82 3c
       0.040705256 0.015337471 0.030661408 0.015909793
000010 5d d6 89 3c da e6 08 be 28 1c a4 bc e1 e6 e8 bb
       0.01682585 -0.13369313 -0.020032957 -0.007107601
000020 0a 46 e4 3d 46 92 e9 3c d8 01 37 3e 19 b5 d0 3d
       0.111461714 0.028512131 0.17871797 0.10190792
000030 22 20 01 bd bf c5 59 be b3 89 1d bd 8f c3 6f bd
       -0.031524785 -0.2126684 -0.0384614 -0.05853611
000040 dc e7 f9 3d 5e be f4 3d 1d a3 7f 3d 4e 13 d0 ba
       0.12202427 0.11950372 0.062411416 -0.0015874894
000050 64 5a 8e bd a8 2b 2f bc 00 e0 21 3e 97 a8 2e 3d
       -0.069508344 -0.010691561 0.15808105 0.04264125
000060 5d 10 67 3c ce 7a 89 bc cc 63 ce 3d ca 1b 99 3c
       0.014103022 -0.01678219 0.100776285 0.018690009
000070 ae db 43 be 46 21 74 3d 90 fd 0b bd 42 a7 31 bd
       -0.1912677 0.059602045 -0.034177363 -0.0433724
000080 7d 0f b3 bd 5b c6 af bc 58 59 ce bd e7 84 94 3c
       -0.087431885 -0.021456888 -0.10075635 0.018129779
000090 fd 56 41 3d 48 0c 88 3d 56 37 ca 3b ba 93 a2 3c
       0.0472021 0.066429675 0.0061711473 0.019845832
0000a0 8e 90 ce 3b 8b 35 e2 bd af fd be bd cd 20 35 3d
       0.0063038534 -0.11045369 -0.0932573 0.044220734
0000b0 d1 ee fa bd ec d1 9c 3d dc 9e 41 bd f4 31 d0 bc
       -0.12252582 0.07657227 -0.04727064 -0.025414445
0000c0 3e 5e 0b 3d 21 75 8b bd 23 ed 94 bc a4 28 dc bd
       0.034025423 -0.0680945 -0.018179482 -0.10749939
0000d0 f9 20 f4 bb 7f 5c 40 bd eb 74 06 bd 18 08 0c bc
       -0.0074502197 -0.04696321 -0.032826345 -0.008546852
0000e0 fc 55 1a be 8f 3d 7d bd 44 4f 21 be ff 6c 8a 3d
       -0.15071863 -0.061826285 -0.15752894 0.067590706
0000f0 1b 1c 11 3e 42 50 0f 3e ba 9f c7 3d 79 e7 2b be
       0.14170878 0.1399546 0.09747262 -0.16787519
000100 13 a3 96 bd 31 09 2d 3e c3 3c 16 be 1f 1f c6 bd
       -0.07355323 0.16898037 -0.14671616 -0.09673905
000110 ba af 31 be bd a5 1b bd 7a 10 a5 3d 11 c3 ab 3d
       -0.1735219 -0.037999857 0.08059783 0.08386815
000120 bf 19 47 bc a8 08 e2 bc bf c7 b9 3c 6e 21 93 bc
       -0.012152134 -0.027592018 0.022678254 -0.017960276
000130 98 fd 92 3d 06 bd 09 3a ae d3 18 3e ac 26 c3 bc
       0.071772754 0.0005254302 0.149245 -0.023822151
000140 60 f0 28 bc f7 ec fc 3d b2 76 86 3d 72 cb 82 3d
       -0.010311216 0.12349885 0.06565608 0.0638646
000150 f3 75 2d be 11 2d 87 3d 7d 83 dc bc 31 e8 0a bc
       -0.16939525 0.066003926 -0.026918167 -0.00847821
000160 74 b9 d8 bd 7e 24 c6 bd 07 69 d1 3d f9 ae 09 3e
       -0.105822474 -0.09674929 0.102251105 0.13445653
000170 4e f3 ca 3d 63 71 88 3d 53 75 14 3c be 7c da bd
       0.09909688 0.06662252 0.009061175 -0.10668324
000180 09 35 06 3d ab 20 d8 3d a8 0c 85 bd a1 fe 46 3c
       0.032765422 0.10553106 -0.064965546 0.012145669
000190 4b f6 10 3d 15 8b 04 3e 30 68 26 3e 94 c4 15 3e
       0.035391133 0.1294368 0.16250682 0.1462577
0001a0 b9 c2 8d 3d 63 34 19 3d f6 09 af bd 74 f5 1d be
       0.06921906 0.037403475 -0.08546822 -0.15425664
0001b0 3d dc c1 3c e2 42 09 3d dd 13 6c bd c5 1a 29 3d
       0.023664588 0.03351105 -0.05763613 0.041285295
0001c0 a6 e8 85 bd de 8d 04 be b6 7e a1 bd 99 17 b5 bd
       -0.06538515 -0.12944743 -0.07885496 -0.088423915
0001d0 08 7f 62 bc c6 90 ed bd 74 fb 18 3c 57 45 f2 3c
       -0.013824232 -0.11599879 0.009337295 0.02957408
0001e0 27 3c 07 3d fc 4d 2e 3e 3f d9 dd 3c 5c 7c 2f 3d
       0.03301635 0.17021936 0.02708113 0.042843208
0001f0 5b 90 17 3d 3b 0b bb 3d a2 05 26 be f7 05 95 3c
       0.037002902 0.091330014 -0.16213086 0.01819132
000200 b5 c7 06 bc ca 21 8e 3c 5c 99 29 3e 51 b4 85 bc
       -0.008226325 0.017350096 0.16562408 -0.016321333
000210 3e d6 6e 3a 45 47 be 3a 0d d5 3f 3e 78 d2 eb 3d
       0.0009110904 0.001451709 0.18733616 0.11514753
000220 fb 23 98 bd 58 05 10 3e 5d 9a 1e be 4e dd 82 bd
       -0.07428738 0.14064538 -0.15488572 -0.06389867
000230 a3 05 12 3d 19 26 9f bc 1a 64 25 3d 56 21 db bc
       0.035649907 -0.019427346 0.040378667 -0.026749294
000240 30 01 c6 3c d4 cb d8 bc 2f 2f 1f 3e 6a 1f 33 bd
       0.024170488 -0.02646438 0.15545343 -0.04373113
000250 ae 68 fb 3d 47 74 b9 bd 76 b7 05 bd a3 70 32 bd
       0.122758254 -0.09055381 -0.032645665 -0.04356445
000260 03 12 88 bd fe 59 a7 3d 58 04 86 bd 52 e0 cb bd
       -0.066440605 0.081714615 -0.06543797 -0.09954895
000270 7d 8a 1e 3e 36 17 14 bd 2f 36 04 bb 3d dd d7 3d
       0.15482517 -0.03615495 -0.0020173898 0.10540245
000280 8b 06 09 3e 5c c5 98 bd 2c 8d 26 bd 41 2d ed bc
       0.13381402 -0.07459518 -0.040661976 -0.028952243
000290 92 fb 87 3d c4 be 97 3c 02 ba ab bd cf 89 e4 bc
       0.0663978 0.018523581 -0.083850875 -0.027897744
0002a0 f2 2d 95 3d 09 24 4e bd 0c b4 f9 3d 0c aa f0 3d
       0.07284154 -0.050327335 0.12192544 0.11751184
0002b0 9f 18 23 3d b6 40 ca bd 9a 86 0d bd 06 f2 e4 bd
       0.039818402 -0.09875624 -0.034552194 -0.11178975
0002c0 81 4d 17 3d 25 8c 18 be 96 68 a8 3d 99 51 24 3e
       0.036939148 -0.14897211 0.08223073 0.16046752
0002d0 4f 97 21 3e 72 20 8c bc de 32 b7 bd 41 22 01 3e
       0.15780376 -0.017105315 -0.08945249 0.12610723
0002e0 f8 fc c2 3d 23 af b2 3d e7 8b d1 bd 20 55 b3 3d
       0.09520906 0.08724811 -0.102317624 0.08756471
0002f0 c5 ed 9d 3d c9 8f cf bd 72 cd b5 bb 94 ba d1 bd
       0.077113666 -0.10134847 -0.0055481726 -0.10240665
000300 b0 7f b6 bd 7a 1d a0 bd 1d 5e be bd 33 16 08 be
       -0.08911073 -0.07818122 -0.092952944 -0.13289718
000310 c6 53 23 bc cd e8 1d bd 51 90 a8 3d 8f 1d f1 bc
       -0.009968704 -0.038552094 0.08230651 -0.02943304
000320 53 c2 ea bd 14 d9 bf bd f6 b1 c0 bd e5 db be bb
       -0.11462846 -0.09367576 -0.09408943 -0.0058245533
000330 9b 82 e2 bd 45 1b 6c bc 01 59 63 3e e2 c5 17 3d
       -0.11060067 -0.014410798 0.22201921 0.03705395
000340 db 2d 16 bd 3b 1f 16 be 91 c8 67 bd 19 46 21 ba
       -0.036664825 -0.14660351 -0.05658776 -0.0006152108
000350 89 8b 45 3d 91 1a c5 3d ff aa 5a 3d d9 c1 fc 3d
       0.048228774 0.09624208 0.05338573 0.12341661
000360 d3 f1 0f 3d 26 0b f2 3d 3d b9 92 bd f1 92 04 3e
       0.03514273 0.11818533 -0.07164238 0.12946679
000370 73 96 20 3d 61 ad 5c 3d 26 17 16 3e 41 c0 c5 3d
       0.03920598 0.053876285 0.14657268 0.0965581
000380 2d 02 b8 bd c2 20 b8 3d 5f 1f a3 bd 3d 84 5e 3d
       -0.0898479 0.08990623 -0.07964968 0.05432533
000390 09 aa 02 3e 21 3d 07 3b 34 ce ae bc 13 02 59 3e
       0.12760176 0.00206358 -0.02133856 0.21192198
0003a0 9f 28 53 3d 58 69 e2 bd 0c a9 ee bc 98 10 07 be
       0.05155241 -0.11055249 -0.029133342 -0.13189924
0003b0 18 68 a7 bd d5 9b 54 bd f9 f2 cd bd 54 8b 8b bd
       -0.08174151 -0.051906426 -0.10056109 -0.06813684
0003c0 05 4b cc bd d4 72 00 be f7 bb 06 3c ef f1 ed bb
       -0.09975246 -0.12543803 0.008223525 -0.0072615067
0003d0 e6 e0 cd bd f3 2a db 3d 87 e0 07 3d ba 86 35 3e
       -0.100526616 0.10701551 0.03317311 0.17727175
0003e0 70 21 3a 3d 4b 98 9d bc 66 01 de bd ac c4 ee 3d
       0.045442045 -0.019237658 -0.108401105 0.11658606
0003f0 7b dd 98 3d 3b 8e c3 3d f5 0c b1 bb 93 9c 91 3c
       0.07464119 0.09548613 -0.005403156 0.017774856

network_body.linear_encoder.seq_layers.2.bias f4 [128]
000000 00 00 00 00 00 00 00 00 00 00 00 00 00 00 00 00
       0.0 0.0 0.0 0.0
000010 00 00 00 00 00 00 00 00 00 00 00 00 00 00 00 00
       0.0 0.0 0.0 0.0
000020 00 00 00 00 00 00 00 00 00 00 00 00 00 00 00 00
       0.0 0.0 0.0 0.0
000030 00 00 00 00 00 00 00 00 00 00 00 00 00 00 00 00
       0.0 0.0 0.0 0.0
000040 00 00 00 00 00 00 00 00 00 00 00 00 00 00 00 00
       0.0 0.0 0.0 0.0
000050 00 00 00 00 00 00 00 00 00 00 00 00 00 00 00 00
       0.0 0.0 0.0 0.0
000060 00 00 00 00 00 00 00 00 00 00 00 00 00 00 00 00
       0.0 0.0 0.0 0.0
000070 00 00 00 00 00 00 00 00 00 00 00 00 00 00 00 00
       0.0 0.0 0.0 0.0
000080 00 00 00 00 00 00 00 00 00 00 00 00 00 00 00 00
       0.0 0.0 0.0 0.0
000090 00 00 00 00 00 00 00 00 00 00 00 00 00 00 00 00
       0.0 0.0 0.0 0.0
0000a0 00 00 00 00 00 00 00 00 00 00 00 00 00 00 00 00
       0.0 0.0 0.0 0.0
0000b0 00 00 00 00 00 00 00 00 00 00 00 00 00 00 00 00
       0.0 0.0 0.0 0.0
0000c0 00 00 00 00 00 00 00 00 00 00 00 00 00 00 00 00
       0.0 0.0 0.0 0.0
0000d0 00 00 00 00 00 00 00 00 00 00 00 00 00 00 00 00
       0.0 0.0 0.0 0.0
0000e0 00 00 00 00 00 00 00 00 00 00 00 00 00 00 00 00
       0.0 0.0 0.0 0.0
0000f0 00 00 00 00 00 00 00 00 00 00 00 00 00 00 00 00
       0.0 0.0 0.0 0.0
000100 00 00 00 00 00 00 00 00 00 00 00 00 00 00 00 00
       0.0 0.0 0.0 0.0
000110 00 00 00 00 00 00 00 00 00 00 00 00 00 00 00 00
       0.0 0.0 0.0 0.0
000120 00 00 00 00 00 00 00 00 00 00 00 00 00 00 00 00
       0.0 0.0 0.0 0.0
000130 00 00 00 00 00 00 00 00 00 00 00 00 00 00 00 00
       0.0 0.0 0.0 0.0
000140 00 00 00 00 00 00 00 00 00 00 00 00 00 00 00 00
       0.0 0.0 0.0 0.0
000150 00 00 00 00 00 00 00 00 00 00 00 00 00 00 00 00
       0.0 0.0 0.0 0.0
000160 00 00 00 00 00 00 00 00 00 00 00 00 00 00 00 00
       0.0 0.0 0.0 0.0
000170 00 00 00 00 00 00 00 00 00 00 00 00 00 00 00 00
       0.0 0.0 0.0 0.0
000180 00 00 00 00 00 00 00 00 00 00 00 00 00 00 00 00
       0.0 0.0 0.0 0.0
000190 00 00 00 00 00 00 00 00 00 00 00 00 00 00 00 00
       0.0 0.0 0.0 0.0
0001a0 00 00 00 00 00 00 00 00 00 00 00 00 00 00 00 00
       0.0 0.0 0.0 0.0
0001b0 00 00 00 00 00 00 00 00 00 00 00 00 00 00 00 00
       0.0 0.0 0.0 0.0
0001c0 00 00 00 00 00 00 00 00 00 00 00 00 00 00 00 00
       0.0 0.0 0.0 0.0
0001d0 00 00 00 00 00 00 00 00 00 00 00 00 00 00 00 00
       0.0 0.0 0.0 0.0
0001e0 00 00 00 00 00 00 00 00 00 00 00 00 00 00 00 00
       0.0 0.0 0.0 0.0
0001f0 00 00 00 00 00 00 00 00 00 00 00 00 00 00 00 00
       0.0 0.0 0.0 0.0

action_model._continuous_distribution.log_sigma f4 [1, 2]
000000 00 00 00 00 00 00 00 00
       0.0 0.0

action_model._continuous_distribution.mu.weight f4 [2, 128]
000000 fa 2a 6c 3c c5 1c 23 bb bb 9e 8b 3b 01 80 26 3c
       0.014414543 -0.0024888974 0.0042608655 0.010162354
000010 27 88 b3 3c 1a 53 9c 3c a9 4f 9c bb ff 84 67 bb
       0.021915508 0.019082595 -0.0047702384 -0.0035327075
000020 18 a9 bc bb 3f 4c c6 3b 5a 10 e2 3c dd 84 04 3d
       -0.0057574622 0.0060515697 0.027595688 0.03235327
000030 f5 28 94 3a 34 d9 c3 bc 28 fb d7 bc 8c f7 9d 3b
       0.001130371 -0.023907281 -0.026364878 0.0048207697
000040 1a 9b 60 3b 36 5c 02 bd a7 51 4c bc 82 ec 50 bb
       0.0034272135 -0.03182622 -0.012470639 -0.003187925
000050 1e c1 c8 bb 0b ed 4c 3c 18 7d d1 3b 12 ad 70 3b
       -0.006126537 0.012507687 0.006393086 0.0036724252
000060 2b d3 8d 3c 75 a4 93 3a 05 93 b3 3b 65 fe 56 3c
       0.017312607 0.0011264222 0.0054801726 0.013122176
000070 a8 94 a3 3c cb 06 03 bd e7 b1 60 bb 62 3c df 3b
       0.019968346 -0.0319889 -0.0034285726 0.006812618
000080 eb 63 4a bc 25 0e 6f bc 8b 82 9f 39 f3 22 83 bb
       -0.012352924 -0.014590775 0.00030424105 -0.004001969
000090 78 8d aa bb 50 c7 2e ba a3 37 ef ba 30 fc 0f 3b
       -0.0052048527 -0.0006667273 -0.0018250834 0.0021970384
0000a0 25 81 0c 3c 9b 33 fb 3c c7 eb bd 3b 75 b5 f2 bb
       0.008575712 0.030664256 0.005795929 -0.0074068853
0000b0 8f 10 4c 3c 4b b1 8a bc 1b cf 29 bc 2a 5a 6f 3b
       0.01245512 -0.016930243 -0.010364319 0.0036522248
0000c0 8a 24 54 bb 7f 09 42 bd 51 36 39 3c f2 9f 77 3b
       -0.0032370412 -0.047372337 0.011304454 0.0037784544
0000d0 4b ca 9f 3b a8 94 87 3c 5d 7c 1f 3c dd 68 f0 3c
       0.00487641 0.016550377 0.00973424 0.029346878
0000e0 13 4a 7b 3c 42 f9 be 3b 6b 76 80 bc d2 d7 77 3c
       0.015337485 0.0058280537 -0.015681466 0.015127139
0000f0 e4 7c 22 bd 93 84 19 3d 70 92 38 bc f3 27 9b 3c
       -0.039669886 0.03747995 -0.011265382 0.018939948
000100 ad f0 12 bc d3 57 30 3d de 8c c8 bc 1b 8e 2e bc
       -0.008968514 0.043052506 -0.024481233 -0.010653998
000110 5c 4d 0a 3d e6 0d a8 3c 62 88 5f 3b a2 fd 82 3c
       0.033765182 0.02051444 0.003410839 0.015990082
000120 78 53 de b9 60 50 d9 bc de 20 a2 3c ac 0f 4a bd
       -0.0004240533 -0.026527584 0.019791063 -0.049331352
000130 bd be 24 3b ab 95 d4 bc 25 6b 17 3c dc 36 48 3c
       0.0025138103 -0.025950273 0.009241854 0.012220111
000140 13 93 a7 bc 73 c2 82 bc 2d 09 b5 3c 97 77 d8 bb
       -0.020455873 -0.015961861 0.022099102 -0.006606053
000150 00 aa 53 bc c8 45 ea bb bc 8b 18 bd 37 29 b4 3b
       -0.012918949 -0.007149432 -0.037242636 0.0054980773
000160 ea 64 77 3b bb 93 51 bc 0f 17 60 bc 7d c1 d5 39
       0.0037749358 -0.012791569 -0.013677373 0.00040770686
000170 03 a2 a7 bc f7 fc 31 bd 8d af 75 bc d0 dd 3c 3c
       -0.020462995 -0.043454137 -0.014995468 0.011527494
000180 fd 66 93 bb 5a 3f cd bb 33 68 8f 3b ed a7 8d bc
       -0.004498361 -0.0062636556 0.004376435 -0.017291987
000190 01 8b 4a 3c 63 df 17 3d 50 03 69 3c a0 e0 cb 3c
       0.012362243 0.037078273 0.014221981 0.024887383
0001a0 7e 30 9d 3b 82 38 75 3c e7 5e 8c 3c 43 5b d6 bb
       0.0047970405 0.014967086 0.017135097 -0.006541641
0001b0 12 1e 73 bb b9 5f 91 3c 93 20 f4 ba 2f 34 a5 bc
       -0.003709678 0.01774584 -0.001862543 -0.020166485
0001c0 62 77 df 3b a2 ba 0c bd da 96 d4 3c 6a 82 85 bc
       0.0068196515 -0.034357674 0.025950838 -0.016297538
0001d0 2a 80 4f bc 43 42 e2 bb 0d 74 a2 3c 3b 79 bc ba
       -0.012664834 -0.0069048717 0.019830728 -0.0014379391
0001e0 7f 0e a8 bc 92 90 d1 ba d5 be 7e bc 09 b2 98 3b
       -0.020514725 -0.001598852 -0.015548428 0.0046598953
0001f0 7d 27 5d bc b0 05 8c 3c ef 13 c6 bb a5 c6 cd 3c
       -0.013498184 0.017092556 -0.0060448567 0.025119135
000200 20 a5 97 bc a5 ce a8 3c 07 97 3c bc 64 c8 97 3c
       -0.018511355 0.020606348 -0.011510617 0.01852817
000210 59 36 41 bc 59 ce 0e bb 7e 02 c1 bc 35 77 a2 3c
       -0.011792743 -0.0021790473 -0.023560759 0.019832233
000220 6c f9 17 bc 73 82 b7 bb ef c0 b5 3b 78 90 5d bd
       -0.009275775 -0.0056002676 0.005546681 -0.054092854
000230 5b a5 84 bc 6e 5e 83 bc ef f4 e8 bb 1d 1a de bc
       -0.016192129 -0.016036239 -0.0071092765 -0.027112061
000240 ef f0 55 3b cb c6 73 bb 7a 31 a1 bc eb 55 6b bc
       0.0032644828 -0.0037197347 -0.019676913 -0.014363746
000250 c9 dc c4 3c 44 e5 96 39 f0 d5 a3 bc 5f d1 e0 bc
       0.02403106 0.00028781046 -0.019999474 -0.027443586
000260 fb c1 c3 3a 3e 0b b9 3b 2f 26 87 3b 5f 14 9a bc
       0.001493513 0.005647092 0.004124425 -0.018808542
000270 93 e5 43 bc 92 78 ba bc 1e d7 a9 bc c7 39 7a 3b
       -0.01195659 -0.02276257 -0.020732459 0.003818141
000280 70 3c 63 bc 83 55 98 bb 8f a0 97 3b df e0 0c bb
       -0.01386939 -0.0046488657 0.0046272944 -0.0021496338
000290 ba 46 af bc 0a ca 15 bc 77 bf 6e 3c 8f e7 ce 3c
       -0.02139603 -0.009142408 0.014572016 0.0252569
0002a0 5b 39 10 bb f3 d1 9e 3c 1f 67 59 3c 97 99 97 3c
       -0.0022006843 0.019387221 0.013269215 0.018505855
0002b0 e6 e5 0f bc d6 e0 c7 bc 67 a2 06 3d e7 97 aa 3b
       -0.008782839 -0.024399202 0.032869723 0.0052060965
0002c0 30 bb 04 bc a3 78 43 bc 2b ff a3 3c 5d 60 cf bc
       -0.00810127 -0.0119306175 0.020019135 -0.025314504
0002d0 5a c0 41 3c d3 01 8f 3c dd 7d 37 bc e3 e2 87 bc
       0.011825645 0.017456925 -0.011199442 -0.01658768
0002e0 ff 9c 1c 3b 02 3a 64 3c a3 03 13 3d 8d d7 13 3b
       0.0023897288 0.013929846 0.03589214 0.0022558898
0002f0 d5 58 6e 3c 97 bc bd bc bc 01 42 bb a4 7b 28 bc
       0.014547546 -0.023161216 -0.0029603085 -0.0102833845
000300 67 cb c6 3b 90 e4 4a 3c 20 d2 e7 bc 59 82 07 3a
       0.006066728 0.012383595 -0.028298438 0.00051692646
000310 88 13 f0 bb cd a4 58 bb 20 48 3a bc 45 f2 6b bc
       -0.007326547 -0.0033057213 -0.011369735 -0.014401023
000320 15 5d d4 3c 3e 01 21 bc 53 49 0d 3b f3 01 bc bc
       0.025923291 -0.009826956 0.0021558597 -0.022950148
000330 45 a5 23 bc 00 2f be 3b 01 2c c0 ba eb 9d 62 3c
       -0.009988134 0.0058039427 -0.0014661552 0.013831596
000340 02 a8 6f 3b 03 0e a5 bc ca 19 35 bb de 4a 92 3c
       0.0036568646 -0.020148283 -0.002763378 0.017857965
000350 7a a5 af bc a2 75 89 3c 52 76 f7 bc d5 c3 ee 3b
       -0.02144121 0.016779725 -0.030207787 0.0072865286
000360 c7 74 f6 3c dd fe 7d bb 72 0a 3f 3d fb eb 89 3c
       0.03008498 -0.0038756647 0.04664082 0.016836157
000370 7a f5 4f bc 3e bd b2 3c ad 40 c7 3c 7d d9 a1 bc
       -0.0126928035 0.021818753 0.024322832 -0.019757027
000380 d2 fb d7 3c d5 e0 fe bc fa 32 cf bc 9a 15 ea 3c
       0.026365194 -0.031113068 -0.025292862 0.028574754
000390 b8 1a 92 3c 50 a1 45 3c 06 c9 30 bc df 3b d0 bc
       0.017835006 0.012062386 -0.010790115 -0.025419174
0003a0 43 d4 0f 3d 02 9a e4 bc 80 e9 db 3c 8f 0b 04 bc
       0.035114538 -0.027905468 0.02684474 -0.008059396
0003b0 0b 01 8e bb 2e 3e 1f 3c 73 0e 35 3c 72 d2 fe bc
       -0.0043336204 0.009719415 0.011050808 -0.031106208
0003c0 06 03 44 bc d0 a2 92 bb e7 b9 9f bc 37 06 cb bb
       -0.0119636115 -0.004474975 -0.019497825 -0.006195809
0003d0 8e b5 9c 3b 28 da a4 bc 47 93 fa bb 31 0a 1e 3c
       0.004782385 -0.020123556 -0.0076469514 0.0096459845
0003e0 97 42 61 3c 50 9c 26 bd d0 18 fa bb d3 30 4d bc
       0.013748786 -0.040676415 -0.0076323524 -0.012523848
0003f0 70 7b cd 3c 78 88 60 3c dc b0 01 bd e5 89 96 3c
       0.025083274 0.013704412 -0.031662807 0.0183763

action_model._continuous_distribution.mu.bias f4 [2]
000000 00 00 00 00 00 00 00 00
       0.0 0.0

network_body.linear_encoder.seq_layers.0.weight f4 [128, 6]
000000 ee e0 a3 be c9 e4 ef 3e 07 af 79 be fb 29 e4 be
       -0.32007545 0.46854237 -0.24383174 -0.4456328
000010 6c 6c c7 bd 14 93 d9 3e 46 56 02 3f 65 ba 8a be
       -0.09737477 0.42495024 0.5091289 -0.27095333
000020 5f 7e e7 be 31 1d 45 3d 0d cc 97 3e b2 ab 93 3e
       -0.452136 0.048123542 0.29647866 0.2884193
000030 e3 fc 8b 3e 61 3f 49 bd e4 60 8b 3f 2b 93 ff 3e
       0.27341375 -0.04913271 1.0888944 0.49916968
000040 df 8e d0 be b4 be e2 3c a4 72 82 bf eb ee fe 3e
       -0.40734002 0.027678825 -1.0191236 0.49791655
000050 77 f1 62 bf b2 ab 09 3f 00 26 ae 3e fd 10 93 3e
       -0.88649696 0.5377761 0.34013367 0.287239
000060 89 3e 83 bf a9 07 24 3f 36 86 a7 3c 47 78 18 3f
       -1.0253459 0.6407419 0.020449739 0.5955853
000070 87 56 07 bf b7 ac 8b 3e 9f c1 06 bf 07 24 ad 3e
       -0.52866405 0.27280208 -0.5263919 0.3381655
000080 57 c1 5f 3d d0 74 08 be 75 5b d1 be e6 31 ff be
       0.054627743 -0.1332581 -0.4089009 -0.49842757
000090 28 fe e1 bd 20 b7 c4 3e 53 c5 9a be a6 45 e9 3e
       -0.110348046 0.38420963 -0.3022867 0.4556095
0000a0 f4 f0 d7 bc d0 4a 4d bf 26 ce 4c be 95 ba 59 3e
       -0.026360013 -0.8019228 -0.20000514 0.21262582
0000b0 28 fe 6f be 46 ae 35 be 48 8e f8 3d 3e 92 43 3e
       -0.23436797 -0.17742261 0.12136513 0.19098756
0000c0 76 b1 ab be 25 be b9 bd 75 3d 86 3e 1d f5 ab 3e
       -0.3353383 -0.0906947 0.26218763 0.33585444
0000d0 b7 f7 fa be 7a 59 d6 3e 50 2b a0 3d 90 a7 e4 3e
       -0.49017116 0.4186514 0.07820761 0.4465909
0000e0 db d6 ed 3e 3e 4d 2a 3f 8d 08 83 3e 25 df 00 bf
       0.46452984 0.6652411 0.2559246 -0.5034049
0000f0 69 ed 13 bf 88 7c 7c bd 69 4f ee 3d ad cd ca 3c
       -0.57784134 -0.0616422 0.1163624 0.024756277
000100 e0 d0 0f 3e eb e4 5e bc f7 e7 20 bf c0 f5 d1 3e
       0.14044523 -0.013604383 -0.6285395 0.41007805
000110 78 bc 44 be fc 68 1e 3f 22 6a 29 3f 55 42 25 3f
       -0.1921252 0.61878943 0.6617757 0.6455434
000120 3b ac 82 be 62 66 d3 3e e7 50 07 3d 80 bc dc bd
       -0.25522026 0.4128905 0.03303614 -0.10778141
000130 ca 1c af 3e 79 be 30 3e de 46 b2 39 28 0f 1c 3f
       0.34201652 0.1726016 0.00034003606 0.60960627
000140 dc 5c 26 be f9 ed 5d 3e 9b b3 75 bd 4c ac fe 3c
       -0.1624636 0.2167281 -0.05998574 0.031088017
000150 02 37 15 bc 07 3c c4 3e 47 ed e1 3e 47 14 d2 be
       -0.009107353 0.38327047 0.4412634 -0.41031095
000160 df 8e a6 3e 56 7b eb be 3f 24 ca 3d d6 9a 06 3e
       0.32530877 -0.45992535 0.09870195 0.13145003
000170 c6 67 25 3f 8f 55 32 bd 43 4a 6e bd 41 25 66 3e
       0.6461147 -0.043538626 -0.05817629 0.22475149
000180 67 80 d4 bd 10 e2 84 bd 8b 87 aa 3d 61 0e c8 3e
       -0.10376053 -0.064884305 0.08326634 0.3907347
000190 ae 1e 57 3e c8 19 00 bf 17 26 e3 bd d3 e9 89 be
       0.21007797 -0.5003934 -0.110912494 -0.26936206
0001a0 b4 5a b7 3e 40 3e 8c be 0d 20 7c be cd d2 65 be
       0.35811388 -0.27391243 -0.24621601 -0.22443695
0001b0 dc d2 bc 3e e2 da 3a bf 58 0c a2 bd ae c7 43 bf
       0.36879623 -0.7299024 -0.07912511 -0.7647656
0001c0 97 13 97 3c 9d 0b 08 bf d7 c0 b1 3e 28 10 1c bd
       0.018441958 -0.5314272 0.34717438 -0.038101345
0001d0 c8 ef ee be 61 d5 0c 3f 0a fa 2f bf 0a af 96 be
       -0.46667314 0.5501309 -0.68740904 -0.2943042
0001e0 b3 63 0b 3e 7c 59 95 3e 65 20 b8 3e 08 11 9b be
       0.13612251 0.29169834 0.35962215 -0.3028643
0001f0 96 84 6f 3f 8f 53 81 be 80 85 e3 3e f7 67 3a be
       0.93561685 -0.25259063 0.4443779 -0.18203722
000200 a3 08 ae 3d 3f 77 39 3c da f1 10 bf d5 d3 45 3e
       0.08497741 0.011319934 -0.56619036 0.19319089
000210 50 94 3e 3f 21 e3 2b be 95 2b 23 3f f9 67 b1 be
       0.74445057 -0.16785862 0.63738376 -0.34649637
000220 fb 4b d8 be ea b4 8c bf 32 e2 1f bc e1 27 a2 be
       -0.42245468 -1.099271 -0.009758519 -0.3167105
000230 59 f9 cf be 8c 0d 99 3d ac 5d 11 3f 46 7f a8 3d
       -0.40619925 0.07473287 0.56783557 0.082274005
000240 a1 26 1a 3f d7 5c 1f bd b0 f1 8c 3e 4e a2 5d be
       0.60215193 -0.0389069 0.27528143 -0.21643946
000250 2c 92 1e bc b5 c4 74 bd c1 0a 2f 3e 65 65 cd be
       -0.009678405 -0.059757907 0.17093946 -0.4011642
000260 ba 68 94 3e 16 96 09 bf f6 90 b7 3e 25 b3 29 bf
       0.2898615 -0.5374464 0.35852784 -0.6628898
000270 98 63 f2 bb 16 9c 8b 3d f9 4b e6 3e ca 28 86 bf
       -0.0073971264 0.068168804 0.44979838 -1.0481198
000280 4a 4a dd bd 83 7e e2 ba f1 f2 78 3e ec 7d e3 3c
       -0.10805185 -0.0017280135 0.24311425 0.027770005
000290 ca 0a 9b 3e 0d de fa bd 7d 25 1e 3e f8 4d 2d be
       0.3028167 -0.12249384 0.15443988 -0.16924274
0002a0 af cf 52 bb d4 f6 dc be 1c 11 09 be 52 b7 26 be
       -0.0032167246 -0.43157065 -0.13385433 -0.16280869
0002b0 f1 14 cf 3e d5 7e 5d 3e 66 11 d8 3e fd 7b 97 3e
       0.40445665 0.21630414 0.42200774 0.29586783
0002c0 d4 d3 b5 3e 70 b8 85 3e 95 36 aa 3e 0a a9 5e 3f
       0.35513175 0.26117277 0.33244768 0.86976683
0002d0 e4 24 2c 3f d9 5a b1 be d8 b5 52 3e 34 3e 99 3d
       0.6724379 -0.34639624 0.2057718 0.074825674
0002e0 f2 28 3d bf 32 5b fa 3e 99 f3 af 3e 01 8c 30 3f
       -0.738906 0.48897702 0.34365538 0.6896363
0002f0 c1 95 e7 bd a6 f1 7e 3e 04 c5 9f 3e cc 31 dc 3e
       -0.1130786 0.24896869 0.31204998 0.43006742
000300 ad 82 17 be 3c 56 db 3d 9b 29 30 bf bf 3a 6c 3e
       -0.14795943 0.10709807 -0.68813485 0.23069285
000310 a1 0e 8d 3e 1c 3f ea bc 36 a1 fe 3e 89 0e 04 be
       0.27550223 -0.028594546 0.4973237 -0.1289617
000320 74 2e e8 bc 59 fa e1 3e 4f 88 57 3e 69 e7 af 3d
       -0.028342463 0.44136313 0.21048091 0.0858906
000330 dd 3d ea be 85 75 2e be fa b5 9f 3c 46 91 8b be
       -0.45750323 -0.17037018 0.019495953 -0.27259272
000340 fd d2 d0 3e e1 69 df 3e 53 a5 fe 3e e5 cd 97 be
       0.4078597 0.43635467 0.49735507 -0.29649273
000350 50 a1 3c be 83 b7 e1 be ce 51 0a 3f 87 c0 8f 3e
       -0.18420911 -0.4408532 0.54031074 0.28076574
000360 f6 f1 c2 bd 51 39 36 3f 74 92 0b 3d 08 f2 30 3e
       -0.09518807 0.7118121 0.034075215 0.17279828
000370 16 e0 8c 3d c9 db 16 3d 50 02 b2 3e ed 7c 86 bc
       0.068786785 0.036830697 0.3476739 -0.016416991
000380 3e 55 43 3d b8 1a 25 3e 9a d4 27 3f d6 15 8b 3e
       0.047688715 0.16123474 0.6555878 0.27165097
000390 26 e6 7c 3e 2d c5 b3 3e 54 0b 09 3e 89 ac db 3e
       0.2469717 0.3511137 0.13383228 0.4290507
0003a0 b1 a0 80 be a2 85 d0 bd 9b 59 fb 3e d3 24 27 bf
       -0.25122598 -0.101817384 0.490918 -0.65290564
0003b0 a5 6e 3a 3d 19 b2 32 3f 1e 63 d0 be b3 f1 0b be
       0.045515675 0.69803005 -0.4070062 -0.1366642
0003c0 10 6b 69 be 2d ee 10 3f b3 1d 08 be cc 11 3d bf
       -0.22794747 0.5661343 -0.1329258 -0.7385528
0003d0 3c 91 94 3e 0a 27 40 3f 59 d6 f0 3e 4b 46 24 bd
       0.29017055 0.7505957 0.47038534 -0.0401061
0003e0 cb c9 ca 3e eb bf 0e bf 2c 4e e7 3e 29 8a f6 3d
       0.3960708 -0.55761594 0.45176828 0.12038071
0003f0 87 69 3b bf 5b b2 64 bf 5f 0d 1c 3e d0 e8 9a 3f
       -0.73207897 -0.8933465 0.15239476 1.2102299

network_body.linear_encoder.seq_layers.0.bias f4 [128]
000000 00 00 00 00 00 00 00 00 00 00 00 00 00 00 00 00
       0.0 0.0 0.0 0.0
000010 00 00 00 00 00 00 00 00 00 00 00 00 00 00 00 00
       0.0 0.0 0.0 0.0
000020 00 00 00 00 00 00 00 00 00 00 00 00 00 00 00 00
       0.0 0.0 0.0 0.0
000030 00 00 00 00 00 00 00 00 00 00 00 00 00 00 00 00
       0.0 0.0 0.0 0.0
000040 00 00 00 00 00 00 00 00 00 00 00 00 00 00 00 00
       0.0 0.0 0.0 0.0
000050 00 00 00 00 00 00 00 00 00 00 00 00 00 00 00 00
       0.0 0.0 0.0 0.0
000060 00 00 00 00 00 00 00 00 00 00 00 00 00 00 00 00
       0.0 0.0 0.0 0.0
000070 00 00 00 00 00 00 00 00 00 00 00 00 00 00 00 00
       0.0 0.0 0.0 0.0
000080 00 00 00 00 00 00 00 00 00 00 00 00 00 00 00 00
       0.0 0.0 0.0 0.0
000090 00 00 00 00 00 00 00 00 00 00 00 00 00 00 00 00
       0.0 0.0 0.0 0.0
0000a0 00 00 00 00 00 00 00 00 00 00 00 00 00 00 00 00
       0.0 0.0 0.0 0.0
0000b0 00 00 00 00 00 00 00 00 00 00 00 00 00 00 00 00
       0.0 0.0 0.0 0.0
0000c0 00 00 00 00 00 00 00 00 00 00 00 00 00 00 00 00
       0.0 0.0 0.0 0.0
0000d0 00 00 00 00 00 00 00 00 00 00 00 00 00 00 00 00
       0.0 0.0 0.0 0.0
0000e0 00 00 00 00 00 00 00 00 00 00 00 00 00 00 00 00
       0.0 0.0 0.0 0.0
0000f0 00 00 00 00 00 00 00 00 00 00 00 00 00 00 00 00
       0.0 0.0 0.0 0.0
000100 00 00 00 00 00 00 00 00 00 00 00 00 00 00 00 00
       0.0 0.0 0.0 0.0
000110 00 00 00 00 00 00 00 00 00 00 00 00 00 00 00 00
       0.0 0.0 0.0 0.0
000120 00 00 00 00 00 00 00 00 00 00 00 00 00 00 00 00
       0.0 0.0 0.0 0.0
000130 00 00 00 00 00 00 00 00 00 00 00 00 00 00 00 00
       0.0 0.0 0.0 0.0
000140 00 00 00 00 00 00 00 00 00 00 00 00 00 00 00 00
       0.0 0.0 0.0 0.0
000150 00 00 00 00 00 00 00 00 00 00 00 00 00 00 00 00
       0.0 0.0 0.0 0.0
000160 00 00 00 00 00 00 00 00 00 00 00 00 00 00 00 00
       0.0 0.0 0.0 0.0
000170 00 00 00 00 00 00 00 00 00 00 00 00 00 00 00 00
       0.0 0.0 0.0 0.0
000180 00 00 00 00 00 00 00 00 00 00 00 00 00 00 00 00
       0.0 0.0 0.0 0.0
000190 00 00 00 00 00 00 00 00 00 00 00 00 00 00 00 00
       0.0 0.0 0.0 0.0
0001a0 00 00 00 00 00 00 00 00 00 00 00 00 00 00 00 00
       0.0 0.0 0.0 0.0
0001b0 00 00 00 00 00 00 00 00 00 00 00 00 00 00 00 00
       0.0 0.0 0.0 0.0
0001c0 00 00 00 00 00 00 00 00 00 00 00 00 00 00 00 00
       0.0 0.0 0.0 0.0
0001d0 00 00 00 00 00 00 00 00 00 00 00 00 00 00 00 00
       0.0 0.0 0.0 0.0
0001e0 00 00 00 00 00 00 00 00 00 00 00 00 00 00 00 00
       0.0 0.0 0.0 0.0
0001f0 00 00 00 00 00 00 00 00 00 00 00 00 00 00 00 00
       0.0 0.0 0.0 0.0

network_body.linear_encoder.seq_layers.2.weight f4 [128, 128]
000000 f9 0d 2e bc e2 e6 11 3e f0 60 34 3e a3 27 be bd
       -0.0106234485 0.14248231 0.17615104 -0.09284904
000010 4a 52 27 bd 86 78 0f 3e bd 4c ab bc 6e 19 83 3d
       -0.04084996 0.1401082 -0.020910615 0.06401335
000020 e1 11 18 be 52 ff 6f bd 47 bc e0 3d 4e 40 21 3d
       -0.1485057 -0.0585931 0.10973411 0.039367966
000030 b3 67 fb 3d 8c 79 d1 bb 80 94 21 3e 56 7f 9a bd
       0.122756384 -0.0063926633 0.15779305 -0.07543819
000040 bd cc bd 3d 86 85 11 be 98 d9 8c bc 7e 74 03 3e
       0.09267566 -0.14211091 -0.0171936 0.12837407
000050 8b b2 dd bb 79 32 46 3d 75 7c 29 bd d6 ea 39 bd
       -0.0067656687 0.04838798 -0.041378457 -0.045389973
000060 3c 68 a0 3d dc b1 04 bb cd 4e ff bb 2f 6a 11 bd
       0.07832381 -0.0020247614 -0.007791376 -0.035501655
000070 0e 5d 9d 3d ed 39 ef 3c 17 71 9e bd 0a 3b 67 3e
       0.076837644 0.029202426 -0.07736414 0.22581115
000080 18 fb 5a bd b1 5a 45 bc 46 aa 4d 3e fe a8 37 bd
       -0.053462118 -0.012045548 0.20084485 -0.044838898
000090 70 10 ff 3d c5 35 91 bc a5 59 05 3c 98 af cb 3c
       0.12454307 -0.017725835 0.008139049 0.024864003
0000a0 76 76 6e 3d d2 76 e0 bd c7 e0 e7 bc d2 31 28 be
       0.058218442 -0.10960163 -0.028305424 -0.16425255
0000b0 80 36 c8 bd 2b ff 88 bd 8c 92 10 be b8 26 6e bc
       -0.0977602 -0.066892944 -0.14118403 -0.014535598
0000c0 50 13 30 bd 60 23 2b bd df 59 13 3e 82 a9 0c bd
       -0.042987168 -0.041781783 0.14389752 -0.034341343
0000d0 a3 cc 35 3d fd 38 59 bd 77 84 2a 3e 49 53 08 bc
       0.04438461 -0.053032864 0.16652094 -0.008320638
0000e0 f7 1c 42 be 0c 3f d6 bc 3c cb 39 be de ee 02 3d
       -0.18956362 -0.02615311 -0.18143934 0.031966083
0000f0 06 57 b6 3c c7 4f 8f bd ec c6 c4 bc 72 15 0a bd
       0.022258293 -0.06997638 -0.024020635 -0.033711858
000100 bc bb 87 3d 9d d5 85 bd 20 6b 81 3d 48 27 53 bc
       0.06627604 -0.06534884 0.063192606 -0.012887783
000110 f8 a7 1a 3d d4 79 2e 3d ff f6 8b bc fb be 97 bd
       0.037757844 0.042596653 -0.01708555 -0.074094735
000120 af 4c bc 3d 40 a8 91 3d d4 e1 0d 3e 4e ff 2e be
       0.09194314 0.07112169 0.13855678 -0.17089579
000130 c8 0a 15 3d 95 b6 11 3c 93 6b 66 3d a8 8b 8d bd
       0.036387235 0.008893629 0.056254935 -0.06911403
000140 db 5c 67 3e 93 3e ac 3c df f9 0b be 20 06 14 bd
       0.22594015 0.021025931 -0.13669537 -0.036138654
000150 25 32 65 bd f0 f4 85 bd 51 31 54 bd d8 ee f5 3c
       -0.055956025 -0.06540859 -0.051804844 0.030021116
000160 f3 d3 f9 bb bb f5 b5 bd de df 50 3d 77 d2 84 bd
       -0.0076241433 -0.0888476 0.050994746 -0.064854555
000170 6e f6 19 be a1 6e 76 bd 07 85 15 3e 1b 12 11 bd
       -0.15035412 -0.060164098 0.14601527 -0.035417657
000180 81 8b 08 bd 1f 52 da 3c d0 b4 9b bb 50 0b f2 3d
       -0.033336166 0.026650487 -0.004751779 0.11818564
000190 df e8 ab bd 51 ff 89 bc a5 63 52 3d 92 59 6e 3d
       -0.08394026 -0.016845377 0.05136456 0.05819089
0001a0 c1 fd 9a 3c 21 29 17 bd 4f 68 3a 3e c8 ef 77 bd
       0.018919827 -0.036904458 0.18203853 -0.060531408
0001b0 fc a0 3f 3c 93 b4 db bd 46 3a 06 be e8 d5 81 bd
       0.0116960965 -0.10727801 -0.13108167 -0.063396275
0001c0 ca 8c 82 bd e6 c6 34 be 7a b8 a8 bd 73 88 08 3d
       -0.0637451 -0.17653999 -0.08238311 0.033333253
0001d0 19 6a 93 3c 8d 84 3f 3b ea 5a 0d be 08 cf 5d 3d
       0.017994927 0.0029223294 -0.13804212 0.05415252
0001e0 80 56 5c bd c8 01 d7 3d 95 13 28 3e af c8 ae bd
       -0.05379343 0.104983866 0.1641372 -0.08534371
0001f0 db e9 e9 3c 64 66 fd 3d 64 34 38 39 57 a0 31 3c
       0.028553894 0.12373045 0.00017567124 0.010841451
000200 2a df 85 3c a3 a4 e3 3c 38 f6 26 bb 4c 88 3b 3c
       0.016341764 0.027788466 -0.0025476348 0.01144607
000210 8b 74 3f 3c c1 87 91 3d c3 be 68 bc 28 ec ee 3d
       0.011685501 0.07105971 -0.014205637 0.11666137
000220 a3 2f e7 bc 22 75 c1 bd 1e 14 f0 bc 76 89 a3 bd
       -0.028220957 -0.094461694 -0.029306468 -0.07985203
000230 a2 d3 15 3e 1e 63 03 be 55 97 95 3c 40 26 76 bd
       0.14631513 -0.12830779 0.018260637 -0.06009507
000240 02 82 50 3e 8e 57 e6 3d ad 6c 9c 3d c6 82 44 3d
       0.20362094 0.112471685 0.07637916 0.047976278
000250 5d 02 26 3c 7b 1f 43 bd 03 bb 9a bd 0e 48 bc 3d
       0.010132399 -0.047637444 -0.07555201 0.09193431
000260 5a d5 70 bd 93 5e 1b be 00 1f 6d bb 89 05 12 bd
       -0.058797218 -0.15172796 -0.0036181808 -0.03564981
000270 3a 08 40 3d f1 54 e6 bc c1 0b 81 3d e8 a0 d5 3d
       0.046882845 -0.028116675 0.0630107 0.10431081
000280 8d a3 82 3d 81 6b e6 3c bb 34 72 3d bd ca d5 bb
       0.06378851 0.028127434 0.05913232 -0.0065244124
000290 3c 6e 13 3d 53 42 dc 3d 64 c3 05 be d4 8f c3 3d
       0.0359938 0.10754838 -0.13062817 0.095489174
0002a0 8b 32 9f bc c2 88 71 bd 3b 75 1e 3d 2b 58 63 bd
       -0.01943328 -0.058968313 0.03868602 -0.055504005
0002b0 6b d6 15 3d cc ad 06 be 89 f9 96 bd 02 b5 26 be
       0.036581438 -0.13152236 -0.07371814 -0.16279987
0002c0 af 5b ee bd 18 44 a8 3b 2b 37 d5 bc c2 cd c1 bc
       -0.11638581 0.0051350705 -0.026027283 -0.023657683
0002d0 41 93 d8 3d 50 11 48 3e af 2a 21 be 1b 75 7f 3d
       0.105749615 0.19537854 -0.15738939 0.06236754
0002e0 0f 32 de bc 12 84 4b 3d 58 9f ad bc 01 d3 23 3c
       -0.02712348 0.0496865 -0.021194145 0.009999038
0002f0 53 d6 8b bd f5 6d ff 3d 0e 28 ea 3c 17 bb c9 bb
       -0.068279885 0.124721445 0.028583553 -0.006156336
000300 03 12 12 be b0 15 0f bd 4b 73 83 3c fe f0 23 bc
       -0.14264683 -0.034932792 0.016046187 -0.0100061875
000310 bc 7e 83 3d 8c b3 fd 3c 20 8e 26 be 3d d0 8e 3e
       0.06420657 0.030969404 -0.16265154 0.27893248
000320 c6 45 78 bd 0c f8 83 bd c4 c3 3e 3c 6d 33 c8 3d
       -0.060613416 -0.064437956 0.011643354 0.09775434
000330 09 72 ef bc cf 3e d5 bd 68 0c 0b be 7b 07 95 bd
       -0.02922918 -0.104123704 -0.13578951 -0.072768174
000340 e0 b6 f0 3d 62 80 8b bd db 34 4a bd 3f cc c8 3d
       0.11753631 -0.068115965 -0.049366813 0.09804582
000350 ad ee 1b 3e 6c db 57 3d b5 b5 43 bc 69 d2 ed bd
       0.15227766 0.05269949 -0.011945178 -0.11612398
000360 d7 03 bd bd 58 72 6c 3d 05 7b a4 3d d1 69 af 3d
       -0.09229248 0.057726234 0.080312766 0.08565105
000370 a7 e6 54 3d 39 8c 9d 3d 7f d6 0a bd e5 9f 8c 3d
       0.05197778 0.07692761 -0.033895966 0.06866435
000380 9e 56 c1 bd 6b a9 3b bc 0c 14 9a bd 9b ef 1a be
       -0.09440349 -0.011453967 -0.07523355 -0.15130465
000390 09 4f ef 3c cf 4d bb bd 54 c4 7b bd 48 be 6b 3d
       0.029212492 -0.091457 -0.06146653 0.057554513
0003a0 0a ed 40 be 5f ce f7 bd c9 66 e8 bc d3 52 06 3e
       -0.18840423 -0.12099909 -0.028369324 0.13117532
0003b0 11 e8 a8 3d e3 e1 c9 3d 54 ed b4 3d 2c 7d 3e bd
       0.08247388 0.098575376 0.08834329 -0.046506092
0003c0 22 5c 1f bd 41 5c c1 bc 07 1e aa 3d 8c 9d b7 bd
       -0.038906224 -0.02360356 0.083065085 -0.089655966
0003d0 3c 1e a8 bc 49 b0 3d 3d 55 de 6e 3d 14 3c 11 be
       -0.02052223 0.046310697 0.0583175 -0.14183074
0003e0 48 6e 94 3c f1 c4 69 bd aa 05 07 3e 6f 9f 79 3d
       0.018118992 -0.057072584 0.13185754 0.060943063
0003f0 65 5e d1 3d e3 0c a1 3b 7c 4a 10 bd cd dc 06 3e
       0.102230825 0.0049148663 -0.035227284 0.13170166

network_body.linear_encoder.seq_layers.2.bias f4 [128]
000000 00 00 00 00 00 00 00 00 00 00 00 00 00 00 00 00
       0.0 0.0 0.0 0.0
000010 00 00 00 00 00 00 00 00 00 00 00 00 00 00 00 00
       0.0 0.0 0.0 0.0
000020 00 00 00 00 00 00 00 00 00 00 00 00 00 00 00 00
       0.0 0.0 0.0 0.0
000030 00 00 00 00 00 00 00 00 00 00 00 00 00 00 00 00
       0.0 0.0 0.0 0.0
000040 00 00 00 00 00 00 00 00 00 00 00 00 00 00 00 00
       0.0 0.0 0.0 0.0
000050 00 00 00 00 00 00 00 00 00 00 00 00 00 00 00 00
       0.0 0.0 0.0 0.0
000060 00 00 00 00 00 00 00 00 00 00 00 00 00 00 00 00
       0.0 0.0 0.0 0.0
000070 00 00 00 00 00 00 00 00 00 00 00 00 00 00 00 00
       0.0 0.0 0.0 0.0
000080 00 00 00 00 00 00 00 00 00 00 00 00 00 00 00 00
       0.0 0.0 0.0 0.0
000090 00 00 00 00 00 00 00 00 00 00 00 00 00 00 00 00
       0.0 0.0 0.0 0.0
0000a0 00 00 00 00 00 00 00 00 00 00 00 00 00 00 00 00
       0.0 0.0 0.0 0.0
0000b0 00 00 00 00 00 00 00 00 00 00 00 00 00 00 00 00
       0.0 0.0 0.0 0.0
0000c0 00 00 00 00 00 00 00 00 00 00 00 00 00 00 00 00
       0.0 0.0 0.0 0.0
0000d0 00 00 00 00 00 00 00 00 00 00 00 00 00 00 00 00
       0.0 0.0 0.0 0.0
0000e0 00 00 00 00 00 00 00 00 00 00 00 00 00 00 00 00
       0.0 0.0 0.0 0.0
0000f0 00 00 00 00 00 00 00 00 00 00 00 00 00 00 00 00
       0.0 0.0 0.0 0.0
000100 00 00 00 00 00 00 00 00 00 00 00 00 00 00 00 00
       0.0 0.0 0.0 0.0
000110 00 00 00 00 00 00 00 00 00 00 00 00 00 00 00 00
       0.0 0.0 0.0 0.0
000120 00 00 00 00 00 00 00 00 00 00 00 00 00 00 00 00
       0.0 0.0 0.0 0.0
000130 00 00 00 00 00 00 00 00 00 00 00 00 00 00 00 00
       0.0 0.0 0.0 0.0
000140 00 00 00 00 00 00 00 00 00 00 00 00 00 00 00 00
       0.0 0.0 0.0 0.0
000150 00 00 00 00 00 00 00 00 00 00 00 00 00 00 00 00
       0.0 0.0 0.0 0.0
000160 00 00 00 00 00 00 00 00 00 00 00 00 00 00 00 00
       0.0 0.0 0.0 0.0
000170 00 00 00 00 00 00 00 00 00 00 00 00 00 00 00 00
       0.0 0.0 0.0 0.0
000180 00 00 00 00 00 00 00 00 00 00 00 00 00 00 00 00
       0.0 0.0 0.0 0.0
000190 00 00 00 00 00 00 00 00 00 00 00 00 00 00 00 00
       0.0 0.0 0.0 0.0
0001a0 00 00 00 00 00 00 00 00 00 00 00 00 00 00 00 00
       0.0 0.0 0.0 0.0
0001b0 00 00 00 00 00 00 00 00 00 00 00 00 00 00 00 00
       0.0 0.0 0.0 0.0
0001c0 00 00 00 00 00 00 00 00 00 00 00 00 00 00 00 00
       0.0 0.0 0.0 0.0
0001d0 00 00 00 00 00 00 00 00 00 00 00 00 00 00 00 00
       0.0 0.0 0.0 0.0
0001e0 00 00 00 00 00 00 00 00 00 00 00 00 00 00 00 00
       0.0 0.0 0.0 0.0
0001f0 00 00 00 00 00 00 00 00 00 00 00 00 00 00 00 00
       0.0 0.0 0.0 0.0

value_heads.value_heads.extrinsic.weight f4 [1, 128]
000000 88 4d af bd d6 42 d9 bd 38 71 44 bd 47 d8 2d be
       -0.0855971 -0.10608451 -0.047959536 -0.16977035
000010 f8 87 20 be 5e f5 b6 bd c4 64 a9 3d 10 7b 54 bd
       -0.15676868 -0.08933519 0.08271173 -0.051875174
000020 f0 3d e8 bc 45 05 cb bd 54 8d c1 3d 54 c8 03 be
       -0.028349847 -0.099131145 0.09450784 -0.12869388
000030 80 c2 88 ba 88 ca 42 3e 54 31 e0 3d 2e f3 3a be
       -0.0010433942 0.19022572 0.109469086 -0.18256828
000040 a4 02 67 bd 97 2c 2b be c2 c6 12 3e 7a ba 59 be
       -0.056399003 -0.16716228 0.14333633 -0.21262541
000050 25 28 21 be 90 88 69 3c 52 be 45 3e 6b 68 0c be
       -0.1573797 0.01425375 0.19310883 -0.13711707
000060 79 0a 3c be b0 8e fa 3d ba 40 12 be a4 58 bb 3d
       -0.1836337 0.12234247 -0.14282504 0.09147766
000070 5c 23 35 bd b4 6e 49 be f4 64 82 3d ac 90 26 3e
       -0.044223174 -0.19671136 0.063669115 0.16266125
000080 df e5 cb bd 18 b8 fd 3d 3f 94 2f be 24 7f 53 be
       -0.09955954 0.12388629 -0.17146395 -0.20653969
000090 72 ec 3c 3e 58 32 92 3d c6 5b a9 bd 64 b8 0e 3e
       0.18449572 0.071385086 -0.082694575 0.13937527
0000a0 f0 f5 df 3c 11 c0 e2 bd 36 94 1d 3e d8 e0 57 3e
       0.027338952 -0.1107179 0.15388569 0.21081865
0000b0 a0 0c 4f 3e 38 1e 9d 3d 77 62 c0 bd 00 f4 19 3d
       0.2021966 0.076717794 -0.09393781 0.037586212
0000c0 8e 20 2b be 78 93 b9 3d d8 81 e8 3d 48 3a 15 3e
       -0.16711637 0.090613306 0.11352891 0.14573014
0000d0 83 c9 58 be 4a ef 03 be e4 ac d5 3d c8 de cd bc
       -0.2117062 -0.1288425 0.10433367 -0.025130644
0000e0 b2 03 07 be e2 7a 96 bd 28 d4 28 be 08 46 6c 3d
       -0.13185003 -0.07347657 -0.16487181 0.057683975
0000f0 82 51 4b 3e 4f 61 2b be 48 c1 0b be ee 17 44 be
       0.19855312 -0.16736339 -0.1364795 -0.19149753
000100 32 86 09 be 26 66 3b be 58 77 38 be d4 2a 0a 3e
       -0.13430098 -0.18300685 -0.18014276 0.134929
000110 fc d8 b0 3d 90 7a 49 bc a0 b7 55 3d a8 7e 19 3e
       0.086351365 -0.012297288 0.05217707 0.14989722
000120 5d 54 bb bd bd ad ea bd f4 ff df 3d 88 7b 20 be
       -0.091469504 -0.11458919 0.10937491 -0.15672123
000130 12 66 4d 3e 18 73 67 3d 78 03 47 3d e4 83 4f be
       0.20058468 0.056506246 0.048587292 -0.20265156
000140 58 e7 e6 bc 20 fe f8 bc 6e ea 4a 3e 20 26 cb 3d
       -0.028186485 -0.030394614 0.1981599 0.09919381
000150 98 88 0c bd 6f 03 47 be 80 78 2b 3d 60 81 da 3b
       -0.034309953 -0.19434904 0.041862965 0.0066682547
000160 08 ff 4a 3e b9 ce 36 be a6 02 ab bd e8 7c 8d 3c
       0.19823849 -0.17852296 -0.083501145 0.017271474
000170 cc a6 09 3e 95 d4 4f be ec fa 97 3d 80 75 b1 3a
       0.13442534 -0.20295937 0.074209064 0.0013539046
000180 48 16 b8 3d 8c f3 8e bd 40 13 f8 bb 08 c6 59 bd
       0.08988625 -0.06980047 -0.007570654 -0.053167373
000190 28 a7 03 3e 6c d5 d6 3d 4a 6e 33 3e bc e1 0c 3e
       0.12856734 0.10489926 0.1752254 0.13757986
0001a0 6c d9 82 3d 44 39 92 3d 88 0e be 3c f8 37 ad 3c
       0.06389126 0.07139829 0.023200288 0.021144852
0001b0 06 ae 09 3e 40 b9 86 bb fa 74 33 3e 5e f6 5b 3e
       0.13445291 -0.004111439 0.17525092 0.214807
0001c0 33 11 fb bd 50 4f 3a 3e b8 a9 3c be 7c 12 83 3d
       -0.1225914 0.18194318 -0.18424118 0.0640001
0001d0 00 a0 88 3b d4 07 a0 3d d6 74 38 be 44 fd 2a bd
       0.004169464 0.07813993 -0.1801332 -0.04174544
0001e0 e0 c8 98 bc 57 fd 54 be 0c 65 6d bd 00 56 ab b9
       -0.018650472 -0.20799766 -0.057957694 -0.00032679737
0001f0 6a 6a 19 3e de 8e 08 be 62 07 51 be 54 ae 8f 3d
       0.14982 -0.1333575 -0.20412973 0.07015672
