UnityController/results/ppo/MoveToGoal/MoveToGoal-183.onnx (onnx, 72951 bytes, 7 tensors)

action_model._continuous_distribution.log_sigma f4 [1, 2]
00000000: 0000 0000 0000 0000
0.0 0.0

action_model._continuous_distribution.mu.bias f4 [2]
00000000: 0000 0000 0000 0000
0.0 0.0

action_model._continuous_distribution.mu.weight f4 [2, 128]
00000000: fa2a 6c3c c51c 23bb bb9e 8b3b 0180 263c
00000010: 2788 b33c 1a53 9c3c a94f 9cbb ff84 67bb
00000020: 18a9 bcbb 3f4c c63b 5a10 e23c dd84 043d
00000030: f528 943a 34d9 c3bc 28fb d7bc 8cf7 9d3b
00000040: 1a9b 603b 365c 02bd a751 4cbc 82ec 50bb
00000050: 1ec1 c8bb 0bed 4c3c 187d d13b 12ad 703b
00000060: 2bd3 8d3c 75a4 933a 0593 b33b 65fe 563c
00000070: a894 a33c cb06 03bd e7b1 60bb 623c df3b
00000080: eb63 4abc 250e 6fbc 8b82 9f39 f322 83bb
00000090: 788d aabb 50c7 2eba a337 efba 30fc 0f3b
000000a0: 2581 0c3c 9b33 fb3c c7eb bd3b 75b5 f2bb
000000b0: 8f10 4c3c 4bb1 8abc 1bcf 29bc 2a5a 6f3b
000000c0: 8a24 54bb 7f09 42bd 5136 393c f29f 773b
000000d0: 4bca 9f3b a894 873c 5d7c 1f3c dd68 f03c
000000e0: 134a 7b3c 42f9 be3b 6b76 80bc d2d7 773c
000000f0: e47c 22bd 9384 193d 7092 38bc f327 9b3c
00000100: adf0 12bc d357 303d de8c c8bc 1b8e 2ebc
00000110: 5c4d 0a3d e60d a83c 6288 5f3b a2fd 823c
00000120: 7853 deb9 6050 d9bc de20 a23c ac0f 4abd
00000130: bdbe 243b ab95 d4bc 256b 173c dc36 483c
00000140: 1393 a7bc 73c2 82bc 2d09 b53c 9777 d8bb
00000150: 00aa 53bc c845 eabb bc8b 18bd 3729 b43b
00000160: ea64 773b bb93 51bc 0f17 60bc 7dc1 d539
00000170: 03a2 a7bc f7fc 31bd 8daf 75bc d0dd 3c3c
00000180: fd66 93bb 5a3f cdbb 3368 8f3b eda7 8dbc
00000190: 018b 4a3c 63df 173d 5003 693c a0e0 cb3c
000001a0: 7e30 9d3b 8238 753c e75e 8c3c 435b d6bb
000001b0: 121e 73bb b95f 913c 9320 f4ba 2f34 a5bc
000001c0: 6277 df3b a2ba 0cbd da96 d43c 6a82 85bc
000001d0: 2a80 4fbc 4342 e2bb 0d74 a23c 3b79 bcba
000001e0: 7f0e a8bc 9290 d1ba d5be 7ebc 09b2 983b
000001f0: 7d27 5dbc b005 8c3c ef13 c6bb a5c6 cd3c
00000200: 20a5 97bc a5ce a83c 0797 3cbc 64c8 973c
00000210: 5936 41bc 59ce 0ebb 7e02 c1bc 3577 a23c
00000220: 6cf9 17bc 7382 b7bb efc0 b53b 7890 5dbd
00000230: 5ba5 84bc 6e5e 83bc eff4 e8bb 1d1a debc
00000240: eff0 553b cbc6 73bb 7a31 a1bc eb55 6bbc
00000250: c9dc c43c 44e5 9639 f0d5 a3bc 5fd1 e0bc
00000260: fbc1 c33a 3e0b b93b 2f26 873b 5f14 9abc
00000270: 93e5 43bc 9278 babc 1ed7 a9bc c739 7a3b
00000280: 703c 63bc 8355 98bb 8fa0 973b dfe0 0cbb
00000290: ba46 afbc 0aca 15bc 77bf 6e3c 8fe7 ce3c
000002a0: 5b39 10bb f3d1 9e3c 1f67 593c 9799 973c
000002b0: e6e5 0fbc d6e0 c7bc 67a2 063d e797 aa3b
000002c0: 30bb 04bc a378 43bc 2bff a33c 5d60 cfbc
000002d0: 5ac0 413c d301 8f3c dd7d 37bc e3e2 87bc
000002e0: ff9c 1c3b 023a 643c a303 133d 8dd7 133b
000002f0: d558 6e3c 97bc bdbc bc01 42bb a47b 28bc
00000300: 67cb c63b 90e4 4a3c 20d2 e7bc 5982 073a
00000310: 8813 f0bb cda4 58bb 2048 3abc 45f2 6bbc
00000320: 155d d43c 3e01 21bc 5349 0d3b f301 bcbc
00000330: 45a5 23bc 002f be3b 012c c0ba eb9d 623c
00000340: 02a8 6f3b 030e a5bc ca19 35bb de4a 923c
00000350: 7aa5 afbc a275 893c 5276 f7bc d5c3 ee3b
00000360: c774 f63c ddfe 7dbb 720a 3f3d fbeb 893c
00000370: 7af5 4fbc 3ebd b23c ad40 c73c 7dd9 a1bc
00000380: d2fb d73c d5e0 febc fa32 cfbc 9a15 ea3c
00000390: b81a 923c 50a1 453c 06c9 30bc df3b d0bc
000003a0: 43d4 0f3d 029a e4bc 80e9 db3c 8f0b 04bc
000003b0: 0b01 8ebb 2e3e 1f3c 730e 353c 72d2 febc
000003c0: 0603 44bc d0a2 92bb e7b9 9fbc 3706 cbbb
000003d0: 8eb5 9c3b 28da a4bc 4793 fabb 310a 1e3c
000003e0: 9742 613c 509c 26bd d018 fabb d330 4dbc
000003f0: 707b cd3c 7888 603c dcb0 01bd e589 963c
0.014414543 -0.0024888974 0.0042608655 0.010162354 0.021915508 0.019082595 -0.0047702384 -0.0035327075
-0.0057574622 0.0060515697 0.027595688 0.03235327 0.001130371 -0.023907281 -0.026364878 0.0048207697
0.0034272135 -0.03182622 -0.012470639 -0.003187925 -0.006126537 0.012507687 0.006393086 0.0036724252
0.017312607 0.0011264222 0.0054801726 0.013122176 0.019968346 -0.0319889 -0.0034285726 0.006812618
-0.012352924 -0.014590775 0.00030424105 -0.004001969 -0.0052048527 -0.0006667273 -0.0018250834 0.0021970384
0.008575712 0.030664256 0.005795929 -0.0074068853 0.01245512 -0.016930243 -0.010364319 0.0036522248
-0.0032370412 -0.047372337 0.011304454 0.0037784544 0.00487641 0.016550377 0.00973424 0.029346878
0.015337485 0.0058280537 -0.015681466 0.015127139 -0.039669886 0.03747995 -0.011265382 0.018939948
-0.008968514 0.043052506 -0.024481233 -0.010653998 0.033765182 0.02051444 0.003410839 0.015990082
-0.0004240533 -0.026527584 0.019791063 -0.049331352 0.0025138103 -0.025950273 0.009241854 0.012220111
-0.020455873 -0.015961861 0.022099102 -0.006606053 -0.012918949 -0.007149432 -0.037242636 0.0054980773
0.0037749358 -0.012791569 -0.013677373 0.00040770686 -0.020462995 -0.043454137 -0.014995468 0.011527494
-0.004498361 -0.0062636556 0.004376435 -0.017291987 0.012362243 0.037078273 0.014221981 0.024887383
0.0047970405 0.014967086 0.017135097 -0.006541641 -0.003709678 0.01774584 -0.001862543 -0.020166485
0.0068196515 -0.034357674 0.025950838 -0.016297538 -0.012664834 -0.0069048717 0.019830728 -0.0014379391
-0.020514725 -0.001598852 -0.015548428 0.0046598953 -0.013498184 0.017092556 -0.0060448567 0.025119135
-0.018511355 0.020606348 -0.011510617 0.01852817 -0.011792743 -0.0021790473 -0.023560759 0.019832233
-0.009275775 -0.0056002676 0.005546681 -0.054092854 -0.016192129 -0.016036239 -0.0071092765 -0.027112061
0.0032644828 -0.0037197347 -0.019676913 -0.014363746 0.02403106 0.00028781046 -0.019999474 -0.027443586
0.001493513 0.005647092 0.004124425 -0.018808542 -0.01195659 -0.02276257 -0.020732459 0.003818141
-0.01386939 -0.0046488657 0.0046272944 -0.0021496338 -0.02139603 -0.009142408 0.014572016 0.0252569
-0.0022006843 0.019387221 0.013269215 0.018505855 -0.008782839 -0.024399202 0.032869723 0.0052060965
-0.00810127 -0.0119306175 0.020019135 -0.025314504 0.011825645 0.017456925 -0.011199442 -0.01658768
0.0023897288 0.013929846 0.03589214 0.0022558898 0.014547546 -0.023161216 -0.0029603085 -0.0102833845
0.006066728 0.012383595 -0.028298438 0.00051692646 -0.007326547 -0.0033057213 -0.011369735 -0.014401023
0.025923291 -0.009826956 0.0021558597 -0.022950148 -0.009988134 0.0058039427 -0.0014661552 0.013831596
0.0036568646 -0.020148283 -0.002763378 0.017857965 -0.02144121 0.016779725 -0.030207787 0.0072865286
0.03008498 -0.0038756647 0.04664082 0.016836157 -0.0126928035 0.021818753 0.024322832 -0.019757027
0.026365194 -0.031113068 -0.025292862 0.028574754 0.017835006 0.012062386 -0.010790115 -0.025419174
0.035114538 -0.027905468 0.02684474 -0.008059396 -0.0043336204 0.009719415 0.011050808 -0.031106208
-0.0119636115 -0.004474975 -0.019497825 -0.006195809 0.004782385 -0.020123556 -0.0076469514 0.0096459845
0.013748786 -0.040676415 -0.0076323524 -0.012523848 0.025083274 0.013704412 -0.031662807 0.0183763

network_body.linear_encoder.seq_layers.0.bias f4 [128]
00000000: 0000 0000 0000 0000 0000 0000 0000 0000
00000010: 0000 0000 0000 0000 0000 0000 0000 0000
00000020: 0000 0000 0000 0000 0000 0000 0000 0000
00000030: 0000 0000 0000 0000 0000 0000 0000 0000
00000040: 0000 0000 0000 0000 0000 0000 0000 0000
00000050: 0000 0000 0000 0000 0000 0000 0000 0000
00000060: 0000 0000 0000 0000 0000 0000 0000 0000
00000070: 0000 0000 0000 0000 0000 0000 0000 0000
00000080: 0000 0000 0000 0000 0000 0000 0000 0000
00000090: 0000 0000 0000 0000 0000 0000 0000 0000
000000a0: 0000 0000 0000 0000 0000 0000 0000 0000
000000b0: 0000 0000 0000 0000 0000 0000 0000 0000
000000c0: 0000 0000 0000 0000 0000 0000 0000 0000
000000d0: 0000 0000 0000 0000 0000 0000 0000 0000
000000e0: 0000 0000 0000 0000 0000 0000 0000 0000
000000f0: 0000 0000 0000 0000 0000 0000 0000 0000
00000100: 0000 0000 0000 0000 0000 0000 0000 0000
00000110: 0000 0000 0000 0000 0000 0000 0000 0000
00000120: 0000 0000 0000 0000 0000 0000 0000 0000
00000130: 0000 0000 0000 0000 0000 0000 0000 0000
00000140: 0000 0000 0000 0000 0000 0000 0000 0000
00000150: 0000 0000 0000 0000 0000 0000 0000 0000
00000160: 0000 0000 0000 0000 0000 0000 0000 0000
00000170: 0000 0000 0000 0000 0000 0000 0000 0000
00000180: 0000 0000 0000 0000 0000 0000 0000 0000
00000190: 0000 0000 0000 0000 0000 0000 0000 0000
000001a0: 0000 0000 0000 0000 0000 0000 0000 0000
000001b0: 0000 0000 0000 0000 0000 0000 0000 0000
000001c0: 0000 0000 0000 0000 0000 0000 0000 0000
000001d0: 0000 0000 0000 0000 0000 0000 0000 0000
000001e0: 0000 0000 0000 0000 0000 0000 0000 0000
000001f0: 0000 0000 0000 0000 0000 0000 0000 0000
0.0 0.0 0.0 0.0 0.0 0.0 0.0 0.0
0.0 0.0 0.0 0.0 0.0 0.0 0.0 0.0
0.0 0.0 0.0 0.0 0.0 0.0 0.0 0.0
0.0 0.0 0.0 0.0 0.0 0.0 0.0 0.0
0.0 0.0 0.0 0.0 0.0 0.0 0.0 0.0
0.0 0.0 0.0 0.0 0.0 0.0 0.0 0.0
0.0 0.0 0.0 0.0 0.0 0.0 0.0 0.0
0.0 0.0 0.0 0.0 0.0 0.0 0.0 0.0
0.0 0.0 0.0 0.0 0.0 0.0 0.0 0.0
0.0 0.0 0.0 0.0 0.0 0.0 0.0 0.0
0.0 0.0 0.0 0.0 0.0 0.0 0.0 0.0
0.0 0.0 0.0 0.0 0.0 0.0 0.0 0.0
0.0 0.0 0.0 0.0 0.0 0.0 0.0 0.0
0.0 0.0 0.0 0.0 0.0 0.0 0.0 0.0
0.0 0.0 0.0 0.0 0.0 0.0 0.0 0.0
0.0 0.0 0.0 0.0 0.0 0.0 0.0 0.0

network_body.linear_encoder.seq_layers.0.weight f4 [128, 6]
00000000: 4395 56be 1d3a 74be d883 50bf 09d0 103f
00000010: 92dc c7be 1a10 5dbf 0deb 2a3f 60cf 4fbe
00000020: 6177 ca3d 102a e9bc 7064 c5be 84ce 8d3d
00000030: ae9c 0bbf 7bdc c03d 4532 97be be3c 393f
00000040: 3143 78be 18c0 813e 1ea5 fb3e 84e8 7dbe
00000050: 1d11 a33e dbea 193f 6f91 173f 5a1a 48be
00000060: 01d3 0ebd fd95 fabe 4c17 21bf 70e4 b9be
00000070: d09a 143f c87d fe3e 41e7 20be 93c9 503e
00000080: 6106 113e 1dfb 01bf 5f84 213f 8a03 f2bd
00000090: 3012 89be 9f03 1bbd b120 abbe c7f7 7ebf
000000a0: b380 9dbe 6e60 0cbe 5370 c03e 6a61 3fbe
000000b0: 2293 d1be dc30 30be 0254 0dbf 97ef ee3d
000000c0: db93 03bf 0d3a 5c3e 69f3 b9be ceb2 c2bc
000000d0: 5ed5 123e cb57 b53e ee1e 3bbf 269e 96be
000000e0: 0d77 31be bbf5 a0be 2762 9abd 0173 093e
000000f0: d435 f33d 456f 96be 9a08 5ebe 8029 b93d
00000100: df67 203e 58d6 c93e e8f7 6abe 7d1a 8bbe
00000110: 0acc dc3e e033 df3e 79f1 c1b9 f34f 9b3f
00000120: 20a3 6b3e 259a 9b3e ddde 083e 827a ef3b
00000130: ab3a 013f dc36 2f3f 6bcc 16bf 1b0b 103e
00000140: ac3c 3a3d d8f1 123d db00 1d3e f8a7 01bf
00000150: b6c7 10bf 775b 73bf 16a8 a4be f7b2 c33e
00000160: 5977 b4bc a219 373d 83e2 be3e 15f3 58bc
00000170: c9b1 27bf 2bc1 e73d 51a2 a03c 812c 67be
00000180: 5f00 cf3e 4cb1 613e 17f4 8c3e a945 493d
00000190: 4e49 233f 0331 093f 7d25 cb3a 6637 85be
000001a0: 91c1 f0bd de7f 443e f3c6 913e f4b2 b0be
000001b0: b1ed 7a3d 6a46 29be 13ae c2bd d747 2e3e
000001c0: 66f7 afbe f975 763f 73f8 1abd 6f54 46be
000001d0: d911 703f c01c 9bbd 6e9b ab3e dfae 1fbd
000001e0: 9a8d 6cbf 23a9 5bbd 47c3 513f fac1 e2bd
000001f0: 89eb 09bf 0d86 023f b5fd 27be c324 39bf
00000200: 19c7 4dbf f05f 043f 9ddb d23e 0876 863e
00000210: d2b2 62be ef64 543e 2878 91be bc03 93be
00000220: fd7e 213f 77d6 edbd 26b7 b13d c27c efbe
00000230: c423 83bd fd18 99be a28d dd3e dcf7 ef3d
00000240: 62fd c53d d98a 01bf 6c29 e73e 1076 d8be
00000250: 4dca 813d 34d3 e0bd 512d 233f 678c aebd
00000260: cd13 153e 34dd 663f ecbc 013f e800 c43e
00000270: 09c1 a13f e411 393e 6e4e c1be 1e2a dabd
00000280: 3518 5e3d bd07 42bf 3690 513e f521 843e
00000290: ce01 d73e bd4b a53e d4e7 0f3f a84e a93e
000002a0: d240 dc3e 7b8f a03e 73ba f8bc 2cb0 b53e
000002b0: 6f0b e13d c661 a2be 29d6 663f abbf d43d
000002c0: 574f 3dbf 6ca7 993e 55fc 9e3e 424c b6be
000002d0: fd8e b63e b9d8 efbd 81f3 a6be dfc2 9bbe
000002e0: 4b60 2abf b47c 6c3e 7750 ed3d 5918 7e3e
000002f0: c66e aa3e fab5 40bf 5fb9 583e e2db 4e3e
00000300: 71a2 8a3e 5c56 cc3d 4bd7 57be 43b9 fdbe
00000310: d26f 87be dd73 913c 7134 993e 212c 37bf
00000320: 5e69 4fbf b407 f33e d7fe 57be e2bf 1d3f
00000330: 6378 1e3f 5250 ac3d eb4e debe 39da fdbe
00000340: b193 363d efa5 0cbf 5690 033f 0621 f63e
00000350: 5b8c 643e ea15 4ebf 583e afbd 95ee 853d
00000360: f1de 87be 89df a9bd dbb3 b8bd d8df 9cbe
00000370: 9201 28be 282f 06be ca8f a63e 3191 74bd
00000380: 4551 7abe dbb4 87be 5446 52be 6e94 1e3e
00000390: c531 7d3e 179d 43bc 446a f93c 127e 473e
000003a0: 0f28 4c3e 2d28 88be c484 483f d9c7 17bf
000003b0: 34a7 323c 07b3 253f c269 1e3f f6a9 58bd
000003c0: 746e 8dbe c84b 443e 1814 e6be a0c8 90bd
000003d0: 7c0b f6be 441e ec3e a7f6 393e bd6d bd3e
000003e0: 17fb ee3e 7b34 903e 1fcb c73e 70a4 7e3d
000003f0: 7230 923e db02 97be 9176 713f 6657 5a3f
-0.20955376 -0.23850293 -0.8145118 0.56567436 -0.3903547 -0.86352694 0.6676491 -0.20293951
0.09886051 -0.02846244 -0.3855319 0.06924155 -0.5453595 0.09417053 -0.2953054 0.7235831
-0.24244381 0.25341868 0.49149412 -0.24795729 0.31848994 0.60123986 0.5920629 -0.19541302
-0.034869198 -0.48942557 -0.62926173 -0.36307096 0.58048725 0.49705338 -0.15713216 0.20389394
0.1416259 -0.50773793 0.6309261 -0.11817081 -0.26771688 -0.03784525 -0.3342338 -0.9959683
-0.30762252 -0.1370866 0.37585697 -0.18689504 -0.40932566 -0.17206138 -0.5520631 0.11666792
-0.51397485 0.2150652 -0.3631852 -0.023766901 0.14339206 0.35418543 -0.7309407 -0.29417533
-0.1733057 -0.31437477 -0.07538252 0.13422777 0.11875501 -0.29381767 -0.21682969 0.090411186
0.15664624 0.39421344 -0.22946131 -0.27168646 0.4312442 0.43594265 -0.0003699174 1.2133774
0.23011446 0.3039104 0.13366266 0.0073083052 0.50480145 0.68443084 -0.5890567 0.14066736
0.045468017 0.03587517 0.15332358 -0.50646925 -0.56554735 -0.9506144 -0.3215949 0.38222477
-0.022029566 0.04470218 0.3728219 -0.013241549 -0.65505654 0.11316141 0.019608648 -0.2257557
0.4042997 0.2204029 0.27529976 0.0491387 0.6378373 0.5359041 0.0015498843 -0.26018828
-0.1175567 0.19189402 0.284721 -0.3451153 0.061261836 -0.16530767 -0.09505858 0.17019592
-0.34368438 0.9627376 -0.037834596 -0.19368146 0.93777233 -0.07573843 0.3351702 -0.03898513
-0.92403567 -0.0536281 0.81938595 -0.11072154 -0.53875023 0.50985795 -0.16405375 -0.7232172
-0.80381924 0.5170889 0.41183177 0.26261926 -0.22138527 0.20741628 -0.28411984 -0.28713787
0.63084394 -0.116131715 0.08677511 -0.4677487 -0.06403306 -0.29901877 0.4327212 0.11717197
0.096674696 -0.5060249 0.4514879 -0.42277575 0.06337414 -0.10977784 0.6374102 -0.08522873
0.14558335 0.9018128 0.50678897 0.3828194 1.2637035 0.18073231 -0.3775515 -0.106525645
0.054222304 -0.7579306 0.20465168 0.25807157 0.41993564 0.32284346 0.56213117 0.33067822
0.43018204 0.31359467 -0.030362343 0.3548597 0.10988509 -0.3171522 0.9017053 0.1038812
-0.7394919 0.30010545 0.3105189 -0.35605055 0.35655966 -0.117112584 -0.32607654 -0.30422112
-0.6655318 0.23094445 0.11587613 0.24813975 0.33287638 -0.75277674 0.21164463 0.20201066
0.27077058 0.09977409 -0.21078221 -0.49555406 -0.264525 0.017755443 0.29922822 -0.7155171
-0.8102015 0.47466815 -0.21093307 0.61620915 0.61902446 0.084137574 -0.43419585 -0.49580553
0.044574443 -0.54940695 0.51392114 0.4807207 0.22319166 -0.8050219 -0.08556813 0.065396465
-0.26537278 -0.08294589 -0.0901868 -0.3063953 -0.16406849 -0.13103926 0.32531577 -0.059708778
-0.24445064 -0.2650517 -0.2053464 0.15486309 0.24726017 -0.011939309 0.03044618 0.19481686
0.19937156 -0.26593152 0.78327584 -0.5928932 0.010904122 0.647263 0.61880124 -0.052896462
-0.27623332 0.19169533 -0.44937205 -0.07069516 -0.48055637 0.4611684 0.18160497 0.36997786
0.4667594 0.2816504 0.39022157 0.06216854 0.28552586 -0.29494366 0.9432154 0.8528961

network_body.linear_encoder.seq_layers.2.bias f4 [128]
00000000: 0000 0000 0000 0000 0000 0000 0000 0000
00000010: 0000 0000 0000 0000 0000 0000 0000 0000
00000020: 0000 0000 0000 0000 0000 0000 0000 0000
00000030: 0000 0000 0000 0000 0000 0000 0000 0000
00000040: 0000 0000 0000 0000 0000 0000 0000 0000
00000050: 0000 0000 0000 0000 0000 0000 0000 0000
00000060: 0000 0000 0000 0000 0000 0000 0000 0000
00000070: 0000 0000 0000 0000 0000 0000 0000 0000
00000080: 0000 0000 0000 0000 0000 0000 0000 0000
00000090: 0000 0000 0000 0000 0000 0000 0000 0000
000000a0: 0000 0000 0000 0000 0000 0000 0000 0000
000000b0: 0000 0000 0000 0000 0000 0000 0000 0000
000000c0: 0000 0000 0000 0000 0000 0000 0000 0000
000000d0: 0000 0000 0000 0000 0000 0000 0000 0000
000000e0: 0000 0000 0000 0000 0000 0000 0000 0000
000000f0: 0000 0000 0000 0000 0000 0000 0000 0000
00000100: 0000 0000 0000 0000 0000 0000 0000 0000
00000110: 0000 0000 0000 0000 0000 0000 0000 0000
00000120: 0000 0000 0000 0000 0000 0000 0000 0000
00000130: 0000 0000 0000 0000 0000 0000 0000 0000
00000140: 0000 0000 0000 0000 0000 0000 0000 0000
00000150: 0000 0000 0000 0000 0000 0000 0000 0000
00000160: 0000 0000 0000 0000 0000 0000 0000 0000
00000170: 0000 0000 0000 0000 0000 0000 0000 0000
00000180: 0000 0000 0000 0000 0000 0000 0000 0000
00000190: 0000 0000 0000 0000 0000 0000 0000 0000
000001a0: 0000 0000 0000 0000 0000 0000 0000 0000
000001b0: 0000 0000 0000 0000 0000 0000 0000 0000
000001c0: 0000 0000 0000 0000 0000 0000 0000 0000
000001d0: 0000 0000 0000 0000 0000 0000 0000 0000
000001e0: 0000 0000 0000 0000 0000 0000 0000 0000
000001f0: 0000 0000 0000 0000 0000 0000 0000 0000
0.0 0.0 0.0 0.0 0.0 0.0 0.0 0.0
0.0 0.0 0.0 0.0 0.0 0.0 0.0 0.0
0.0 0.0 0.0 0.0 0.0 0.0 0.0 0.0
0.0 0.0 0.0 0.0 0.0 0.0 0.0 0.0
0.0 0.0 0.0 0.0 0.0 0.0 0.0 0.0
0.0 0.0 0.0 0.0 0.0 0.0 0.0 0.0
0.0 0.0 0.0 0.0 0.0 0.0 0.0 0.0
0.0 0.0 0.0 0.0 0.0 0.0 0.0 0.0
0.0 0.0 0.0 0.0 0.0 0.0 0.0 0.0
0.0 0.0 0.0 0.0 0.0 0.0 0.0 0.0
0.0 0.0 0.0 0.0 0.0 0.0 0.0 0.0
0.0 0.0 0.0 0.0 0.0 0.0 0.0 0.0
0.0 0.0 0.0 0.0 0.0 0.0 0.0 0.0
0.0 0.0 0.0 0.0 0.0 0.0 0.0 0.0
0.0 0.0 0.0 0.0 0.0 0.0 0.0 0.0
0.0 0.0 0.0 0.0 0.0 0.0 0.0 0.0

network_body.linear_encoder.seq_layers.2.weight f4 [128, 128]
00000000: 8eba 263d 044a 7b3c a22d fb3c 4155 823c
00000010: 5dd6 893c dae6 08be 281c a4bc e1e6 e8bb
00000020: 0a46 e43d 4692 e93c d801 373e 19b5 d03d
00000030: 2220 01bd bfc5 59be b389 1dbd 8fc3 6fbd
00000040: dce7 f93d 5ebe f43d 1da3 7f3d 4e13 d0ba
00000050: 645a 8ebd a82b 2fbc 00e0 213e 97a8 2e3d
00000060: 5d10 673c ce7a 89bc cc63 ce3d ca1b 993c
00000070: aedb 43be 4621 743d 90fd 0bbd 42a7 31bd
00000080: 7d0f b3bd 5bc6 afbc 5859 cebd e784 943c
00000090: fd56 413d 480c 883d 5637 ca3b ba93 a23c
000000a0: 8e90 ce3b 8b35 e2bd affd bebd cd20 353d
000000b0: d1ee fabd ecd1 9c3d dc9e 41bd f431 d0bc
000000c0: 3e5e 0b3d 2175 8bbd 23ed 94bc a428 dcbd
000000d0: f920 f4bb 7f5c 40bd eb74 06bd 1808 0cbc
000000e0: fc55 1abe 8f3d 7dbd 444f 21be ff6c 8a3d
000000f0: 1b1c 113e 4250 0f3e ba9f c73d 79e7 2bbe
00000100: 13a3 96bd 3109 2d3e c33c 16be 1f1f c6bd
00000110: baaf 31be bda5 1bbd 7a10 a53d 11c3 ab3d
00000120: bf19 47bc a808 e2bc bfc7 b93c 6e21 93bc
00000130: 98fd 923d 06bd 093a aed3 183e ac26 c3bc
00000140: 60f0 28bc f7ec fc3d b276 863d 72cb 823d
00000150: f375 2dbe 112d 873d 7d83 dcbc 31e8 0abc
00000160: 74b9 d8bd 7e24 c6bd 0769 d13d f9ae 093e
00000170: 4ef3 ca3d 6371 883d 5375 143c be7c dabd
00000180: 0935 063d ab20 d83d a80c 85bd a1fe 463c
00000190: 4bf6 103d 158b 043e 3068 263e 94c4 153e
000001a0: b9c2 8d3d 6334 193d f609 afbd 74f5 1dbe
000001b0: 3ddc c13c e242 093d dd13 6cbd c51a 293d
000001c0: a6e8 85bd de8d 04be b67e a1bd 9917 b5bd
000001d0: 087f 62bc c690 edbd 74fb 183c 5745 f23c
000001e0: 273c 073d fc4d 2e3e 3fd9 dd3c 5c7c 2f3d
000001f0: 5b90 173d 3b0b bb3d a205 26be f705 953c
00000200: b5c7 06bc ca21 8e3c 5c99 293e 51b4 85bc
00000210: 3ed6 6e3a 4547 be3a 0dd5 3f3e 78d2 eb3d
00000220: fb23 98bd 5805 103e 5d9a 1ebe 4edd 82bd
00000230: a305 123d 1926 9fbc 1a64 253d 5621 dbbc
00000240: 3001 c63c d4cb d8bc 2f2f 1f3e 6a1f 33bd
00000250: ae68 fb3d 4774 b9bd 76b7 05bd a370 32bd
00000260: 0312 88bd fe59 a73d 5804 86bd 52e0 cbbd
00000270: 7d8a 1e3e 3617 14bd 2f36 04bb 3ddd d73d
00000280: 8b06 093e 5cc5 98bd 2c8d 26bd 412d edbc
00000290: 92fb 873d c4be 973c 02ba abbd cf89 e4bc
000002a0: f22d 953d 0924 4ebd 0cb4 f93d 0caa f03d
000002b0: 9f18 233d b640 cabd 9a86 0dbd 06f2 e4bd
000002c0: 814d 173d 258c 18be 9668 a83d 9951 243e
000002d0: 4f97 213e 7220 8cbc de32 b7bd 4122 013e
000002e0: f8fc c23d 23af b23d e78b d1bd 2055 b33d
000002f0: c5ed 9d3d c98f cfbd 72cd b5bb 94ba d1bd
00000300: b07f b6bd 7a1d a0bd 1d5e bebd 3316 08be
00000310: c653 23bc cde8 1dbd 5190 a83d 8f1d f1bc
00000320: 53c2 eabd 14d9 bfbd f6b1 c0bd e5db bebb
00000330: 9b82 e2bd 451b 6cbc 0159 633e e2c5 173d
00000340: db2d 16bd 3b1f 16be 91c8 67bd 1946 21ba
00000350: 898b 453d 911a c53d ffaa 5a3d d9c1 fc3d
00000360: d3f1 0f3d 260b f23d 3db9 92bd f192 043e
00000370: 7396 203d 61ad 5c3d 2617 163e 41c0 c53d
00000380: 2d02 b8bd c220 b83d 5f1f a3bd 3d84 5e3d
00000390: 09aa 023e 213d 073b 34ce aebc 1302 593e
000003a0: 9f28 533d 5869 e2bd 0ca9 eebc 9810 07be
000003b0: 1868 a7bd d59b 54bd f9f2 cdbd 548b 8bbd
000003c0: 054b ccbd d472 00be f7bb 063c eff1 edbb
000003d0: e6e0 cdbd f32a db3d 87e0 073d ba86 353e
000003e0: 7021 3a3d 4b98 9dbc 6601 debd acc4 ee3d
000003f0: 7bdd 983d 3b8e c33d f50c b1bb 939c 913c
0.040705256 0.015337471 0.030661408 0.015909793 0.01682585 -0.13369313 -0.020032957 -0.007107601
0.111461714 0.028512131 0.17871797 0.10190792 -0.031524785 -0.2126684 -0.0384614 -0.05853611
0.12202427 0.11950372 0.062411416 -0.0015874894 -0.069508344 -0.010691561 0.15808105 0.04264125
0.014103022 -0.01678219 0.100776285 0.018690009 -0.1912677 0.059602045 -0.034177363 -0.0433724
-0.087431885 -0.021456888 -0.10075635 0.018129779 0.0472021 0.066429675 0.0061711473 0.019845832
0.0063038534 -0.11045369 -0.0932573 0.044220734 -0.12252582 0.07657227 -0.04727064 -0.025414445
0.034025423 -0.0680945 -0.018179482 -0.10749939 -0.0074502197 -0.04696321 -0.032826345 -0.008546852
-0.15071863 -0.061826285 -0.15752894 0.067590706 0.14170878 0.1399546 0.09747262 -0.16787519
-0.07355323 0.16898037 -0.14671616 -0.09673905 -0.1735219 -0.037999857 0.08059783 0.08386815
-0.012152134 -0.027592018 0.022678254 -0.017960276 0.071772754 0.0005254302 0.149245 -0.023822151
-0.010311216 0.12349885 0.06565608 0.0638646 -0.16939525 0.066003926 -0.026918167 -0.00847821
-0.105822474 -0.09674929 0.102251105 0.13445653 0.09909688 0.06662252 0.009061175 -0.10668324
0.032765422 0.10553106 -0.064965546 0.012145669 0.035391133 0.1294368 0.16250682 0.1462577
0.06921906 0.037403475 -0.08546822 -0.15425664 0.023664588 0.03351105 -0.05763613 0.041285295
-0.06538515 -0.12944743 -0.07885496 -0.088423915 -0.013824232 -0.11599879 0.009337295 0.02957408
0.03301635 0.17021936 0.02708113 0.042843208 0.037002902 0.091330014 -0.16213086 0.01819132
-0.008226325 0.017350096 0.16562408 -0.016321333 0.0009110904 0.001451709 0.18733616 0.11514753
-0.07428738 0.14064538 -0.15488572 -0.06389867 0.035649907 -0.019427346 0.040378667 -0.026749294
0.024170488 -0.02646438 0.15545343 -0.04373113 0.122758254 -0.09055381 -0.032645665 -0.04356445
-0.066440605 0.081714615 -0.06543797 -0.09954895 0.15482517 -0.03615495 -0.0020173898 0.10540245
0.13381402 -0.07459518 -0.040661976 -0.028952243 0.0663978 0.018523581 -0.083850875 -0.027897744
0.07284154 -0.050327335 0.12192544 0.11751184 0.039818402 -0.09875624 -0.034552194 -0.11178975
0.036939148 -0.14897211 0.08223073 0.16046752 0.15780376 -0.017105315 -0.08945249 0.12610723
0.09520906 0.08724811 -0.102317624 0.08756471 0.077113666 -0.10134847 -0.0055481726 -0.10240665
-0.08911073 -0.07818122 -0.092952944 -0.13289718 -0.009968704 -0.038552094 0.08230651 -0.02943304
-0.11462846 -0.09367576 -0.09408943 -0.0058245533 -0.11060067 -0.014410798 0.22201921 0.03705395
-0.036664825 -0.14660351 -0.05658776 -0.0006152108 0.048228774 0.09624208 0.05338573 0.12341661
0.03514273 0.11818533 -0.07164238 0.12946679 0.03920598 0.053876285 0.14657268 0.0965581
-0.0898479 0.08990623 -0.07964968 0.05432533 0.12760176 0.00206358 -0.02133856 0.21192198
0.05155241 -0.11055249 -0.029133342 -0.13189924 -0.08174151 -0.051906426 -0.10056109 -0.06813684
-0.09975246 -0.12543803 0.008223525 -0.0072615067 -0.100526616 0.10701551 0.03317311 0.17727175
0.045442045 -0.019237658 -0.108401105 0.11658606 0.07464119 0.09548613 -0.005403156 0.017774856
