UnityController/results/ppo/MoveToGoal/MoveToGoal-48564.onnx (onnx, 72951 bytes, 7 tensors)

action_model._continuous_distribution.log_sigma f4 [1, 2]
0.008598232 0.0037362815
00000000: 99df 0c3c 67dc 743b

action_model._continuous_distribution.mu.bias f4 [2]
-0.009122342 0.0070765247
00000000: e075 15bc 31e2 e73b

action_model._continuous_distribution.mu.weight f4 [2, 128]
-0.01452298 -0.00499655 -0.014568798 0.02171216 0.027732583 -0.001598945 0.024805678 0.02009561
0.0064969272 0.0041362634 -0.0089323325 -0.03594862 0.0006455533 0.00085369777 -0.0019740928 0.024226075
-0.03349968 0.038296953 0.03434848 -0.013310276 -0.016059656 0.0047808555 0.011299446 0.011424659
-0.01741432 0.012734374 -0.036141727 -0.02389759 -0.016086599 -0.024189088 0.026037063 -0.01939311
-0.021142256 -0.036971744 -0.011956488 -0.00878918 -0.020928867 0.0005675747 -0.017771332 0.035457697
0.009190698 0.008341578 -0.02539938 -0.043285917 0.02550606 0.0081509445 -0.0126908645 -0.0011707607
-0.0024721194 -0.02614573 0.01188641 0.0138513595 0.0013125195 -0.020239037 0.00039335058 -0.0011243467
0.015656943 -0.009788979 -0.03497 -0.0026431712 0.010833779 0.040170167 -0.014571733 0.0060504805
0.0009981233 -0.00554727 -0.0023059573 -0.011860129 0.027468478 0.031827174 0.0141773615 -0.02503465
-0.0020336402 -0.010449845 0.020784292 0.025699519 0.004911795 -0.019995295 -0.00019915051 0.015543675
-0.004311884 0.017286543 -0.0075809625 -0.000854012 0.034715317 -0.017848585 0.014988211 -0.015838701
0.0025984023 0.010008869 0.010196336 0.0067587662 0.020250434 -0.022962496 -0.0031096074 0.017356686
-0.0022165307 -0.005653998 -0.023277907 -0.0066359504 0.014081053 0.029261084 0.009056187 -0.02839282
0.00764012 -0.0054284935 0.0119540775 -5.2855597e-05 0.00034097026 -0.0033830646 -0.011254946 0.0090297945
0.037297986 0.013043893 0.00536879 -0.044036046 0.0054742787 -0.03726336 -0.01640755 -0.015360891
0.0071957624 0.023771131 0.038516846 -0.04103097 -0.0027624713 -0.01710063 -0.02327051 0.00639483
0.02842155 0.031603772 -0.004366901 0.0028480906 0.013947113 0.0087783 0.0039393893 -0.0050517074
0.012133146 0.01861379 0.017670525 0.009297077 -0.021322062 -0.051218778 0.0064723836 -0.012817334
0.01762537 -0.038165994 -0.025052745 0.0039746678 -0.00079669413 -0.039519776 0.02891021 0.024550928
-0.013087878 0.014756072 -0.025643254 -0.0010489135 0.0029695623 -0.004317663 0.011694431 -0.02140432
-0.005653039 -0.01970802 0.021593923 0.014466603 -0.0032806625 -0.0024000679 0.0053327763 0.002124008
0.004712766 -0.0008537303 0.016640076 0.022792974 -0.03103776 -0.0018711063 -0.006211361 0.009798323
0.008030922 0.024287073 -0.020328598 -0.004694663 -0.024424523 0.0026110567 0.01326392 -0.009713657
0.026101284 0.02215685 0.012191398 0.027196962 0.0072934427 0.00825547 0.013871852 0.0048987693
-0.025419466 -0.008568393 -0.00958909 0.0008965249 0.018340813 -0.008363333 -0.0021646295 0.019720756
-0.0058816085 -0.013080255 0.0026304726 -0.0020128048 -0.006609351 0.0080486005 -0.013235441 -0.030618837
-0.0025318584 -0.000328519 0.02217935 -0.021711739 -0.0022134604 -0.0058495607 0.025081534 -0.014426932
0.0020023584 0.023066409 -0.02104492 -0.0076093245 -0.02282867 0.00018800789 -0.023406517 -0.023133073
-0.025597142 -0.0041413256 0.0033664429 -0.040857896 -0.028765108 0.035244063 -0.02903185 -0.0014329115
0.018968292 -0.03278934 -0.022876037 -0.007846425 -0.026361374 0.005042696 -0.013708725 -0.0038013756
0.016287828 0.020594358 0.046889264 0.02025186 -0.017340025 -0.03353351 -0.007352736 0.012999528
0.0058462652 -0.024280576 -0.023081345 0.010079074 0.012216796 0.031939484 -0.021933425 -0.022609701
00000000: cbf1 6dbc 19ba a3bb f8b1 6ebc b3dd b13c
00000010: 712f e33c b193 d1ba 4735 cb3c 8c9f a43c
00000020: 2de4 d43b 7e89 873b eb58 12bc dc3e 13bd
00000030: 593a 293a b0ca 5f3a c85f 01bb c375 c63c
00000040: f636 09bd 44dd 1c3d feb0 0c3d 5813 5abc
00000050: 8a8f 83bc b9a8 9c3b 5021 393c 7e2e 3b3c
00000060: 7aa8 8ebc d6a3 503c 5909 14bd e1c4 c3bc
00000070: 0bc8 83bc 3228 c6bc ae4b d53c 4dde 9ebc
00000080: 8632 adbc af6f 17bd 25e5 43bc 7e00 10bc
00000090: 0473 abbc 4bc9 143a 2f95 91bc 173c 113d
000000a0: 9594 163c 1dab 083c 5c12 d0bc 934c 31bd
000000b0: 16f2 d03c 8a8b 053c 58ed 4fbc 3674 99ba
000000c0: 4803 22bb 922f d6bc 38bf 423c d0f0 623c
000000d0: d908 ac3a 56cc a5bc 9f3a ce39 d15e 93ba
000000e0: fd42 803c f461 20bc b43c 0fbd 0e39 2dbb
000000f0: 2a80 313c 7989 243d 47be 6ebc 1c43 c63b
00000100: 76d3 823a e0c5 b5bb 8b1f 17bb fd50 42bc
00000110: 9305 e13c 365d 023d 2a48 683c 7715 cdbc
00000120: d246 05bb d435 2bbc d243 aa3c cc87 d23c
00000130: 1ff3 a03b 2ccd a3bc 0fd3 50b9 e6aa 7e3c
00000140: b44a 8dbb 829c 8d3c b969 f8bb c6df 5fba
00000150: a631 0e3d 3237 92bc 1d91 753c 2ac0 81bc
00000160: f549 2a3b 3dfc 233c 880e 273c a478 dd3b
00000170: 3de4 a53c d81b bcbc 8eca 4bbb 9c2f 8e3c
00000180: 3743 11bb 2c45 b9bb 4fb1 bebc 6372 d9bb
00000190: 38b4 663c f1b4 ef3c 6760 143c 0f98 e8bc
000001a0: f959 fa3b 81e1 b1bb 09db 433c 44b1 5db8
000001b0: 41c4 b239 68b6 5dbb aa66 38bc b4f1 133c
000001c0: c6c5 183d 0db6 553c adec af3b 245f 34bd
000001d0: 9461 b33b 77a1 18bd 2069 86bc 3fac 7bbc
000001e0: 6eca eb3b adbb c23c d7c3 1d3d 1710 28bd
000001f0: 940a 35bb 9f16 8cbc cca1 bebc b98b d13b
00000200: 4fd4 e83c f572 013d 3818 8fbb 08a7 3a3b
00000210: 6f82 643c dcd2 0f3c fe15 813b cb88 a5bb
00000220: 1aca 463c f27b 983c c7c1 903c c452 183c
00000230: 9bab aebc c8ca 51bd 4a16 d43b ccff 51bc
00000240: 1463 903c f253 1cbd 6a3b cdbc ee3d 823b
00000250: 3dd9 50ba 7ddf 21bd 1bd5 ec3c 071f c93c
00000260: 8a6e 56bc 74c3 713c cd11 d2bc b27b 89ba
00000270: fd9c 423b 2f7b 8dbb 009a 3f3c 1d58 afbc
00000280: 213d b9bb b772 a1bc bde5 b03c 5505 6d3c
00000290: 6200 57bb 754a 1dbb 92be ae3b f132 0b3b
000002a0: 8c6d 9a3b dfcc 5fba c550 883c 55b8 ba3c
000002b0: e742 febc e93f f5ba ac88 cbbb 2589 203c
000002c0: 2194 033c aff5 c63c 2988 a6bc b0d5 99bb
000002d0: f015 c8bc 431e 2b3b ea50 593c 0826 1fbc
000002e0: 5cd2 d53c 4882 b53c 6ebe 473c 2acc de3c
000002f0: d5fd ee3b f341 073c c446 633c db85 a03b
00000300: 7c3c d0bc 7262 0cbc 8f1b 1dbc c504 6b3a
00000310: 793f 963c 5c06 09bc 75dc 0dbb 6c8d a13c
00000320: 82ba c0bb 914e 56bc 0264 2c3b 43e9 03bb
00000330: 4193 d8bb 47de 033c 77d9 58bc 5bd4 fabc
00000340: 89ed 25bb 133d acb9 78b1 b53c d1dc b1bc
00000350: b40f 11bb acad bfbb ca77 cd3c f05e 6cbc
00000360: 003a 033b c4f5 bc3c 6566 acbc a457 f9bb
00000370: 3103 bbbc fc23 4539 06bf bfbc 9281 bdbc
00000380: 19b1 d1bc f5b3 87bb 8a9f 5c3b 9c5a 27bd
00000390: cea4 ebbc 145c 103d 34d4 edbc 88d0 bbba
000003a0: 6463 9b3c 1d4e 06bd 8766 bbbc 4b8e 00bc
000003b0: cff3 d7bc 333d a53b 8f9a 60bc 8020 79bb
000003c0: 0d6e 853c 80b5 a83c f50e 403d 3be7 a53c
000003d0: ab0c 8ebc 6f5a 09bd 38ef f0bb f9fb 543c
000003e0: 0792 bf3b 0fe8 c6bc 1715 bdbc b322 253c
000003f0: f528 483c fad2 023d baad b3bc fb37 b9bc

network_body.linear_encoder.seq_layers.0.bias f4 [128]
0.01134647 -0.007303677 -0.0057923133 -0.00857582 0.0014260635 0.0020069336 -0.0011180432 0.00018534252
0.0071595726 -0.0077504106 0.0020533516 -0.006523805 0.008407672 -0.0063841636 -0.0055273757 0.008517357
0.010339818 -0.0026630696 0.006777674 0.002092021 0.007745142 -0.007275258 -0.008417484 0.009565537
0.0060468167 -0.004305792 -0.006690135 0.0133980485 -0.013932015 0.002791739 -0.0060030227 -0.00030283508
0.003131441 0.00609989 -0.0016760766 0.0065967645 0.0044457647 -0.0044997325 -0.010847395 0.010520231
-0.0010255242 -0.00082802353 0.010906427 -0.0063813655 0.007402315 -0.0056415214 -0.007900289 -0.0014120365
0.007986582 -0.0013583832 -0.0029479358 0.011819919 0.000106109444 -0.007442418 -0.0020285076 0.0044155335
-0.007894583 -0.0013920352 -0.0046469565 -0.00415021 0.0013612446 0.006490185 -0.0033627264 -0.007658922
-0.0049990783 0.008526805 5.5996647e-05 0.003996048 0.0034698662 0.00602288 0.01042731 0.0013545104
0.0038128595 -0.002127417 0.0018447484 0.01426418 -0.00029291346 0.011751406 -0.002616283 0.0033175745
0.009925632 -0.0080421725 -0.0060421377 -0.009407747 0.01032861 0.0025921606 0.005371231 -0.0062388666
0.009399857 0.00054268615 -0.0042279777 0.003261065 -0.00904923 -0.002633086 -9.120657e-05 -0.013833246
0.009957267 0.001898847 -0.00808481 0.01080075 0.0040991493 -0.00061489857 0.00442437 -0.0071039624
-0.004906841 0.007198681 -9.843436e-05 0.0020313521 0.0014186343 -0.009303396 0.0051803794 0.002713394
0.0032773877 -0.0016376704 0.0024323976 -6.441051e-05 0.007647958 -0.009778674 -0.012309805 0.011494476
0.006923609 0.00094979705 0.0031650057 -0.015542287 0.0050930986 -0.010225877 -0.012395109 0.0016277723
00000000: 8be6 393c af53 efbb 72cd bdbb 9981 0cbc
00000010: c0ea ba3a c286 033b 4e8b 92ba 8158 4239
00000020: d99a ea3b 28f7 fdbb 8691 063b a5c5 d5bb
00000030: 55c0 093c 3f32 d1bb fd1e b5bb 628c 0b3c
00000040: 5768 293c e586 2ebb 4017 de3b 4a1a 093b
00000050: f6ca fd3b 4a65 eebb 7de9 09bc c5b8 1c3c
00000060: 6024 c63b 9a17 8dbb ec38 dbbb 7d83 5b3c
00000070: 1b43 64bc 9cf5 363b 01b5 c4bb d6c5 9eb9
00000080: dd38 4d3b 96e1 c73b ccaf dbba ac29 d83b
00000090: c7ad 913b 7e72 93bb 46b9 31bc 0c5d 2c3c
000000a0: e26a 86ba b80f 59ba dfb0 323c c61a d1bb
000000b0: 1e8f f23b 83dc b8bb 3770 01bc 1514 b9ba
000000c0: 27da 023c c70b b2ba 2832 41bb 55a8 413c
000000d0: 1387 de38 87df f3bb b6f0 04bb 2eb0 903b
000000e0: 4858 01bc f374 b6ba 7f45 98bb 7cfe 87bb
000000f0: ca6b b23a 9eab d43b 3061 5cbb b2f7 fabb
00000100: 4fcf a3bb 03b4 0b3c f1dd 6a38 48f1 823b
00000110: b266 633b 945b c53b 4fd7 2a3c d489 b13a
00000120: 2be1 793b 226c 0bbb 7ccb f13a 4fb4 693c
00000130: 2e92 99b9 f888 403c f275 2bbb aa6b 593b
00000140: 1e9f 223c 51c3 03bc 20fd c5bb f322 1abc
00000150: 5539 293c 3de1 293b 2701 b03b 686f ccbb
00000160: dc01 1a3c 0d43 0e3a d98a 8abb 98b7 553b
00000170: 3943 14bc da8f 2cbb 2846 bfb8 d7a4 62bc
00000180: ce23 233c bce2 f83a 2776 04bc a1f5 303c
00000190: 2852 863b 2531 21ba 4efa 903b 5bc8 e8bb
000001a0: 91c9 a0bb eae2 eb3b 8b6e ceb8 6f20 053b
000001b0: 78f1 b93a 456d 18bc 2cc0 a93b 32d3 313b
000001c0: 71c9 563b 1aa7 d6ba dc68 1f3b 2114 87b8
000001d0: b99b fa3b bb36 20bc 10af 49bc 5453 3c3c
000001e0: 71df e23b cdfb 783a fc6b 4f3b 14a5 7ebc
000001f0: 02e4 a63b 708a 27bc db14 4bbc fa5a d53a

network_body.linear_encoder.seq_layers.0.weight f4 [128, 6]
-0.49442506 0.36172023 1.0718815 0.8354261 -0.3734903 0.21515666 -0.092425145 -0.19389991
-0.3586615 -0.054953225 0.64945036 0.9724225 -0.54831004 -0.073602036 -0.5744343 0.118897445
0.39003187 -0.2794385 -0.31933424 -0.39197543 -0.533367 0.44868773 0.23910414 -0.3634573
0.024477119 0.8844346 -0.005222654 0.03800657 -0.028201606 0.28452787 -0.23905921 -0.21444015
-0.3123695 0.51892793 -0.16606167 -0.50447327 -0.032414574 -0.3325553 -0.24122883 0.093044
0.10912723 -0.09847508 -0.31416243 -0.23761395 0.10191512 -0.39483178 0.1869199 -0.2636524
-0.9551672 -0.21379068 -0.085145555 0.3398196 -0.02476976 0.89962 -0.031052234 0.4749886
0.9457059 -0.33276764 0.7975358 0.05821818 -0.43392166 0.4646559 -0.18548569 0.11394346
0.7185413 0.49325612 -0.58237296 -0.14462927 0.08058418 -0.18912531 0.5392301 -0.34124175
-0.05860681 -0.1742989 0.18130895 -0.6928951 0.35770655 -0.25396928 -0.41792053 -0.55647725
-0.5430899 0.6222256 0.021233294 0.14864126 0.5463178 0.16455242 0.7361908 0.352148
0.83771425 -0.039339095 0.031905662 0.026146172 0.22131465 0.42988396 0.050976783 -0.07930024
0.85411465 -0.03074472 0.08005975 0.042372 -0.113762096 -0.33173025 0.4176251 -0.022985514
-0.37824702 -0.089543395 -0.54825485 0.012394906 0.34703857 0.03033355 -0.2600766 0.58765644
0.13999686 0.15509416 -0.39645225 -0.16204776 -0.84437364 0.35973653 0.48393023 0.12405449
-0.43401018 0.17061716 -0.00019595494 0.1924776 -0.20808905 -0.35421497 -0.032046873 0.41785592
-0.1795196 -0.27097479 0.020838005 -0.3590252 0.510805 -1.0111052 -0.21281312 0.010819191
0.097545445 -0.5211496 0.09678221 -0.13304421 0.3164493 0.49634194 0.489279 0.34929493
0.29455408 0.11096669 0.24735492 0.11526851 0.007234618 0.3158094 0.17591302 -0.42669323
0.10601638 -0.003640775 -0.6017984 0.55189615 -1.0401103 -0.47692636 0.26667202 0.3648324
0.24985652 0.09900521 0.44135833 -0.978716 -0.21310224 -0.3714806 0.07554166 -0.2476472
0.1654615 -0.04405588 0.1605671 0.250035 -0.3181622 -0.092257276 0.11917469 0.56544316
-0.6661632 -0.50825113 0.19993144 0.12129615 -0.24066423 0.3706609 -0.6890017 -0.047551025
-0.5491649 -0.49797264 0.2673837 -0.81175584 0.2426007 -0.052234977 0.24823536 -0.5483454
-0.14607175 -0.468491 0.3715343 0.20303322 0.09345023 0.30383855 -0.27735713 0.73946816
0.44730222 -0.7062643 -0.15413012 0.07508424 -0.10943971 -0.39979687 0.61228174 -0.23266007
-0.19265941 0.12426083 -0.2239529 0.62617147 0.4794814 -0.80106014 0.56319255 -0.8139356
0.36743382 -0.7112371 -0.81716865 0.3155824 -0.27583784 0.19331211 -0.5651218 0.010772266
0.55201036 0.72460777 0.1352304 -0.43403178 -0.25356013 -0.10615901 -0.09509335 -0.28872496
-0.2060125 0.41294837 0.38617375 0.42887354 -0.32093617 0.28231058 0.37580043 0.007075105
0.14578524 0.025035674 0.15812153 -0.106266655 -0.004199811 -0.54760975 0.34615254 0.1928478
-0.62537485 0.18441105 0.03906347 0.057165116 0.001646213 0.4108932 0.4840317 -0.61447316
00000000: 4825 fdbe 6533 b93e 6a33 893f 7cde 553f
00000010: 1f3a bfbe 0752 5c3e 6549 bdbd b38d 46be
00000020: 7ba2 b7be a216 61bd 6142 263f aef0 783f
00000030: 0c5e 0cbf aabc 96bd 200e 13bf 8180 f33d
00000040: 42b2 c73e 9012 8fbe c77f a3be 01b1 c8be
00000050: bd8a 08bf 66ba e53e b7d7 743e 1317 babe
00000060: 3d84 c83c 4e6a 623f cc22 abbb c7ac 1b3d
00000070: 0e07 e7bc a3ad 913e f0cb 74be 3396 5bbe
00000080: e5ee 9fbe 76d8 043f 120c 2abe 2925 01bf
00000090: 25c5 04bd b044 aabe b104 77be da8d be3d
000000a0: 197e df3d 4ead c9bd e6d9 a0be 1251 73be
000000b0: e0b8 d03d 6427 cabe ee67 3f3e 73fd 86be
000000c0: d685 74bf f2eb 5abe cb60 aebd d6fc ad3e
000000d0: f4e9 cabc 7f4d 663f 4161 febc b531 f33e
000000e0: c819 723f 8560 aabe 4e2b 4c3f 3076 6e3d
000000f0: fb2a debe 61e7 ed3e f6ef 3dbe 305b e93d
00000100: 53f2 373f 118c fc3e 6516 15bf b219 14be
00000110: 5209 a53d 11aa 41be fc0a 0a3f 3db7 aebe
00000120: b20d 70bd 697b 32be 0ea9 393e 9361 31bf
00000130: 5025 b73e 4308 82be aef9 d5be 4b75 0ebf
00000140: f107 0bbf 2d4a 1f3f 72f1 ad3c 6a35 183e
00000150: 7cdb 0b3f 6e80 283e 0077 3c3f be4c b43e
00000160: 7174 563f 0822 21bd 83af 023d 7f30 d63c
00000170: 4fa0 623e c019 dc3e 08cd 503d 2a68 a2bd
00000180: 42a7 5a3f 5adc fbbc 5ef6 a33d 438e 2d3d
00000190: 1afc e8bd 8cd8 a9be f5d2 d53e 1e4c bcbc
000001a0: 98a9 c1be 8762 b7bd 6e5a 0cbf 0114 4b3c
000001b0: 0aaf b13e 117e f83c c328 85be a770 163f
000001c0: 565b 0f3e 01d1 1e3e cafb cabe d9ef 25be
000001d0: df28 58bf 632f b83e b4c5 f73e 4810 fe3d
000001e0: 9536 debe 44b6 2e3e 4179 4db9 d918 453e
000001f0: 4c15 55be aa5b b5be 9543 03bd 36f1 d53e
00000200: fcd3 37be 35bd 8abe 77b4 aa3c 27d2 b7be
00000210: 1ec4 023f e56b 81bf afeb 59be fa42 313c
00000220: e8c5 c73d 0f6a 05bf c035 c63d be3c 08be
00000230: a505 a23e 8820 fe3e c782 fa3e c9d6 b23e
00000240: cbcf 963e 8142 e33d 9c4a 7d3e e611 ec3d
00000250: 6010 ed3b c5b1 a13e 8b22 343e 8977 dabe
00000260: 1e1f d93d 129a 6ebb 760f 1abf 1149 0d3f
00000270: 5622 85bf b12f f4be 3c89 883e 50cb ba3e
00000280: 63da 7f3e 3ec3 ca3d b8f9 e13e 228d 7abf
00000290: 7937 5abe b532 bebe 96b5 9a3d 3a97 7dbe
000002a0: bd6e 293e f073 34bd b46b 243e 9604 803e
000002b0: 28e6 a2be 62f1 bcbd dc11 f43d e2c0 103f
000002c0: ac89 2abf bf1c 02bf d4ba 4c3e 1e6a f83d
000002d0: af70 76be 44c7 bd3e 6a62 30bf ddc4 42bd
000002e0: 1296 0cbf 45f6 febe 84e6 883e 3bcf 4fbf
000002f0: 516c 783e 58f4 55bd 6931 7e3e 5d60 0cbf
00000300: d593 15be 0dde efbe be39 be3e f1e7 4f3e
00000310: d662 bf3d ba90 9b3e c101 8ebe c94d 3d3f
00000320: cc04 e53e bdcd 34bf 49d4 1dbe c4c5 993d
00000330: ed21 e0bd 2db2 ccbe 7fbe 1c3f 713e 6ebe
00000340: 8248 45be 767c fe3d e953 65be c64c 203f
00000350: 967e f53e 4712 4dbf 632d 103f 155e 50bf
00000360: 4920 bc3e a213 36bf f731 51bf 0494 a13e
00000370: 9e3a 8dbe 9cf3 453e d3ab 10bf 297e 303c
00000380: 8d50 0d3f e57f 393f d779 0a3e 6a39 debe
00000390: a2d2 81be e569 d9bd 4dc0 c2bd c2d3 93be
000003a0: f1f4 52be f86d d33e 91b8 c53e 5095 db3e
000003b0: bf51 a4be 038b 903e ea68 c03e 48d6 e73b
000003c0: ba48 153e 9d17 cd3c 9cea 213e 55a2 d9bd
000003d0: 919e 89bb 2730 0cbf e83a b13e e579 453e
000003e0: 9118 20bf 40d6 3c3e 0401 203d f825 6a3d
000003f0: bec5 d73a 9860 d23e 01d3 f73e 1d4e 1dbf

network_body.linear_encoder.seq_layers.2.bias f4 [128]
0.007862781 0.004343813 0.0043091536 -0.009697292 -0.0073378603 0.008299089 -0.009388222 -0.0047141598
-0.0010081042 0.009369793 0.0039260862 0.010033794 -0.005974292 -0.007110422 0.010296872 -0.007014225
0.0094292695 -0.0069706864 -0.0104502 0.00096753717 0.011322501 -0.0005760129 0.006460604 0.008573349
0.008986282 0.0046687764 0.011928068 0.0025226055 0.01235972 0.00234104 -0.013858118 0.0012722159
0.013061028 0.015352444 0.007481248 0.009859117 0.0070214425 -0.0017984225 0.0058782655 -0.0067399577
-0.007530661 -0.013977907 0.004875206 0.006777226 -0.007263336 -0.0056061177 0.0072779823 0.0032920043
0.0083072195 0.010058657 -0.00938285 -0.005160924 -0.007978883 0.0068930583 -0.00021576064 0.0067774556
0.0009658303 0.009537328 0.009509243 0.0036481863 0.0010875992 -0.010790409 0.008097562 0.008828075
-0.0027400176 -0.0030014636 -0.0032535878 0.005698614 -0.0028424207 -0.009480471 -0.0121745765 0.004125526
-0.0042353156 -0.0010048066 -0.008254506 -0.007285063 -0.011344232 0.012032933 -0.009227796 -0.003691574
-0.0001525176 -0.010279699 0.009555975 0.0005328101 -0.003618553 0.005417146 0.004788973 0.006289942
-0.0010671167 -0.0002214178 -0.004895146 -0.009272839 -0.009340108 0.008569451 -0.0036740685 -0.010634729
-0.00520902 0.006510565 0.0064587276 -0.0045221355 -0.011471276 -0.0018798499 -0.012055855 0.011389391
-0.0027655237 -0.007891489 -0.008071137 -0.008389441 -0.0033341986 0.0062255594 0.0046936246 -0.0006410547
-0.0058681536 0.0024861149 0.0065982826 0.01024196 -0.01093779 0.006045967 0.0023176468 0.009133612
-0.006131519 -0.008967977 -0.004058018 0.0109146815 0.004841977 0.007145834 0.00295133 -0.0053958725
00000000: e5d2 003c 8b56 8e3b cd33 8d3b 64e1 1ebc
00000010: 6f72 f0bb e7f8 073c 0fd1 19bc 3d79 9abb
00000020: 5d22 84ba c383 193c 66a6 803b c864 243c
00000030: fec3 c3bb 8bfe e8bb 36b4 283c 95d7 e5bb
00000040: 397d 1a3c 5b6a e4bb 5137 2bbc 52a2 7d3a
00000050: 0382 393c 92ff 16ba 79b3 d33b 3b77 0c3c
00000060: 333b 133c 89fc 983b f16d 433c 4c52 253b
00000070: 6c80 4a3c 226c 193b 290d 63bc 7bc0 a63a
00000080: ecfd 553c d188 7b3c 4225 f53b 2288 213c
00000090: 2114 e63b 0cb9 ebba 779e c03b ddda dcbb
000000a0: c3c3 f6bb 9703 65bc 31c0 9f3b 7e13 de3b
000000b0: 4701 eebb 86b3 b7bb 247c ee3b abbe 573b
000000c0: 011b 083c 11cd 243c 86ba 19bc f81c a9bb
000000d0: dcb9 02bc 2adf e13b ce3d 62b9 6b15 de3b
000000e0: c62f 7d3a 7442 1c3c a8cc 1b3c 6916 6f3b
000000f0: c68d 8e3a 41ca 30bc a3ab 043c a1a3 103c
00000100: de91 33bb 34b4 44bb 253a 55bb 70bb ba3b
00000110: e847 3abb fa53 1bbc e077 47bc 6c2f 873b
00000120: 67c8 8abb b7b3 83ba e83d 07bc 8ab7 eebb
00000130: 28dd 39bc c725 453c 2f30 17bc 56ee 71bb
00000140: 22ed 1fb9 2f6c 28bc aa90 1c3c 48ac 0b3a
00000150: 3f25 6dbb 5082 b13b d1ec 9c3b dc1b ce3b
00000160: 7fde 8bba 632c 68b9 7667 a0bb 1bed 17bc
00000170: 4107 19bc e266 0c3c a4c8 70bb 493d 2ebc
00000180: 6db0 aabb 9456 d53b bca3 d33b 6c2e 94bb
00000190: 05f2 3bbc 4c65 f6ba ec85 45bc 919a 3a3c
000001a0: ca3d 35bb 4e4b 01bc cd3c 04bc de73 09bc
000001b0: 9282 5abb c7ff cb3b facc 993b 740c 28ba
000001c0: a449 c0bb 16ee 223b 6836 d83b e5cd 273c
000001d0: 6b34 33bc 3f1d c63b a9e3 173b 25a5 153c
000001e0: e9ea c8bb 6cee 12bc 1ff9 84bb 7ed3 323c
000001f0: 72a9 9e3b 9a27 ea3b 1a6b 413b dccf b0bb

network_body.linear_encoder.seq_layers.2.weight f4 [128, 128]
-0.064088486 0.112593584 0.10711324 0.07057089 0.089575134 0.002848899 0.08009983 -0.1356887
0.17798693 -0.05746203 -0.09679673 0.06358695 0.28880802 0.09272305 0.09101635 -0.04804275
-0.0024522142 -0.0881513 0.08611498 0.10186845 -0.113177374 0.038901765 0.058072984 -0.026370775
-0.042838115 -0.067880645 -0.052361507 0.015154203 -0.027515851 -0.105255276 0.037652772 0.11680183
-0.052195743 -0.00741555 0.017156022 0.012179338 0.14422154 -0.12923406 -0.053063333 -0.13490072
0.16780111 0.062611215 0.009102317 0.0133744115 -0.13315655 0.096755475 0.07191555 0.04341904
0.037560627 -0.033944093 -0.054749627 0.19174184 0.057416353 0.03511211 -0.014841509 0.031968124
0.039605707 0.09346987 -0.08730786 -0.03680837 0.059738733 -0.021373045 0.08734827 -0.054597218
-0.073463745 0.10830127 0.14473477 -0.19715786 0.13871704 -0.03396706 0.14413916 -0.06644434
0.05343586 0.026865665 -0.09136112 0.025570294 0.066581555 -0.05088545 -0.0027467925 0.14431429
-0.035997044 -0.1322641 0.027751103 0.0076276935 0.12377862 0.09504909 -0.09666371 0.0015138942
0.25763774 -0.03245648 0.11301705 0.13030687 -0.06750095 -0.05621257 0.001514144 -0.0865644
-0.056024525 0.12778421 -0.025265519 -0.03231582 0.03170923 0.034269243 0.009490495 -0.06882521
-0.0005126335 -0.01729137 -0.18510742 -0.12994674 0.17505127 0.15055507 -0.036432613 0.13482305
-0.1271319 0.0151680885 -0.11421443 -0.088968694 0.08265318 -0.11548195 -0.015238001 0.00198945
-0.010885102 -0.14483534 0.03793887 -0.01900327 -0.045224484 0.057960607 -0.004229821 0.15340333
-0.18793269 -0.04412618 -0.07782827 0.047382407 0.104390845 0.1763067 -0.07201139 0.060581505
-0.011627459 0.06774185 -0.11527747 0.05331835 -0.05577269 -0.059700884 -0.006183759 0.10456269
-0.01899862 0.1291517 -0.120248206 -0.15088521 0.07319669 0.08464641 0.044063278 -0.037697345
0.019540029 0.033758968 -0.017756216 -0.035226475 0.0025690207 -0.007964248 0.036501516 0.013259411
-0.029840715 -0.05589585 -0.008978741 0.15267009 0.027173826 -0.031519726 -0.017631823 -0.018660681
-0.011149222 -0.10094358 -0.010441202 0.0098812515 0.09110767 -0.0249877 0.07130072 -0.03003623
0.08972727 -0.04604754 -0.008299222 0.029613534 0.094279654 -0.0713631 0.10130712 0.08926295
-0.04483043 0.13029557 0.016547626 0.2219498 -0.028533597 0.03409244 0.052136987 -0.07388295
-0.02644309 0.08855085 0.003521768 0.006681206 -0.015403775 0.044674307 -0.06768755 0.0038569167
0.041090112 -0.014937076 0.026267419 -0.09415226 -0.022382574 -0.026079232 0.0954521 -0.10350349
-0.016403101 0.071759894 0.06999511 0.057441186 0.15987192 0.09867072 0.10897908 -0.12959498
-0.10117546 0.23336476 0.094601005 0.034030765 -0.032354128 -0.040675677 0.08982643 -0.051849186
0.104605086 -0.12577805 -0.07319233 -0.057557467 -0.010784566 0.0653092 0.08970483 0.031868126
-0.008240054 0.11647799 0.1703357 -0.07653525 0.033844218 0.1827179 -0.11376078 0.17352486
0.03259344 0.14782855 0.14023355 -0.050482694 -0.018854212 -0.0029248053 0.047732607 0.037428234
-0.008889805 -0.014179248 -0.1689779 0.013233037 -0.07481521 -0.13052309 -0.043275148 0.031180836
00000000: d340 83bd 7797 e63d 305e db3d 7987 903d
00000010: 2b73 b73d 98b4 3a3b 610b a43d fbf1 0abe
00000020: 3542 363e 4e5d 6bbd 5d3d c6bd e039 823d
00000030: a5de 933e 95e5 bd3d c866 ba3d 7ac8 44bd
00000040: 54b5 20bb ab88 b4bd 0d5d b03d 68a0 d03d
00000050: 8ac9 e7bd 7557 1f3d f0dd 6d3d 8607 d8bc
00000060: 0577 2fbd 0205 8bbd 0579 56bd 5649 783c
00000070: ec68 e1bc 1490 d7bd cb39 1a3d cc35 ef3d
00000080: 34cb 55bd 24fe f2bb c98a 8c3c d98b 473c
00000090: d0ae 133e ef55 04be f058 59bd 6a23 0abe
000000a0: 0ed4 2b3e 4f3a 803d e221 153c 5920 5b3c
000000b0: 315a 08be bc27 c63d 7648 933d 2ad8 313d
000000c0: 2cd9 193d f608 0bbd 2541 60bd f957 443e
000000d0: 692d 6b3d b7d1 0f3d cd29 73bc 02f1 023d
000000e0: 9839 223d 226d bf3d 77ce b2bd 60c4 16bd
000000f0: 9ab0 743d 8616 afbc a6e3 b23d 55a1 5fbd
00000100: 2974 96bd 0ecd dd3d 5a35 143e c0e3 49be
00000110: d70b 0e3e 0b21 0bbd 3799 133e f813 88bd
00000120: 8fdf 5a3d 6215 dc3c 8a1b bbbd cb78 d13c
00000130: e95b 883d 436d 50bd 8803 34bb 20c7 133e
00000140: a371 13bd 3d70 07be 4856 e33c bbf1 f93b
00000150: a57f fd3d 19a9 c23d a0f7 c5bd dc6d c63a
00000160: 18e9 833e 16f1 04bd 7c75 e73d 2a6f 053e
00000170: f03d 8abd 273f 66bd 3e76 c63a ad48 b1bd
00000180: f979 65bd ddd9 023e a2f9 cebc 985d 04bd
00000190: 8ae1 013d e85d 0c3d 057e 1b3c 3bf4 8cbd
000001a0: 4062 06ba a2a6 8dbc cd8c 3dbe c210 05be
000001b0: a440 333e 1c2b 1a3e 5d3a 15bd 0e0f 0a3e
000001c0: dd2e 02be 9383 783c 41e9 e9bd 3835 b6bd
000001d0: 1246 a93d cd81 ecbd cfa8 79bc 6f61 023b
000001e0: 6d57 32bc b74f 14be ca65 1b3d bfac 9bbc
000001f0: 4f3d 39bd 1a68 6d3d 4f9a 8abb c315 1d3e
00000200: 6d71 40be a7bd 34bd 6e64 9fbd 0e14 423d
00000210: deca d53d be89 343e b57a 93bd 5024 783d
00000220: 1981 3ebc 3dbc 8a3d 9816 ecbd 5864 5a3d
00000230: e771 64bd ea88 74bd 21a1 cabb f724 d63d
00000240: fea2 9bbc 5840 043e b144 f6bd a781 1abe
00000250: 25e8 953d 195b ad3d b27b 343d 8868 1abd
00000260: 6912 a03c d846 0a3d 7c75 91bc a349 10bd
00000270: 045d 283b 7a7c 02bc 9d82 153d 003e 593c
00000280: 8474 f4bc 0cf3 64bd 921b 13bc 8c55 1c3e
00000290: a59b de3c d41a 01bd 9d70 90bc 49de 98bc
000002a0: 3aab 36bc 82bb cebd 9311 2bbc f9e4 213c
000002b0: a896 ba3d 01b3 ccbc 1d06 923d 8a0e f6bc
000002c0: eec2 b73d 589c 3cbd 76f9 07bc 1598 f23c
000002d0: b115 c13d d126 92bd 1b7a cf3d 7ecf b63d
000002e0: 1da0 37bd 346c 053e e38e 873c cf46 633e
000002f0: 4abf e9bc 84a4 0b3d 988d 553d f24f 97bd
00000300: 2e9f d8bc 265a b53d 76cd 663b 05ee da3b
00000310: 1d60 7cbc 68fc 363d c59f 8abd 53c4 7c3b
00000320: 1b4e 283d a3ba 74bc c52e d73c e6d2 c0bd
00000330: a95b b7bc 1da4 d5bc 647c c33d a3f9 d3bd
00000340: cc5f 86bc daf6 923d 9959 8f3d 7347 6b3d
00000350: 77b5 233e e013 ca3d 6d30 df3d 8cb4 04be
00000360: 1435 cfbd 2cf7 6e3e 2cbe c13d d863 0b3d
00000370: c385 04bd 8a9b 26bd ebf6 b73d d05f 54bd
00000380: 313b d63d f6cb 00be dce5 95bd 61c1 6bbd
00000390: c0b1 30bc d4c0 853d 2ab7 b73d 2788 023d
000003a0: 4b01 07bc 038c ee3d 7b6c 2e3e 83be 9cbd
000003b0: 3ca0 0a3d 671a 3b3e 69fb e8bd 80b0 313e
000003c0: b380 053d 5e60 173e 6299 0f3e f1c6 4ebd
000003d0: 2674 9abc 17ae 3fbb 4483 433d 594e 193d
000003e0: 8ba6 11bc 1450 68bc 8b08 2dbe 61cf 583c
000003f0: b838 99bd d8a7 05be 4841 31bd f46e ff3c
