UnityController/Assets/Scripts/MoveToGoal-71869.onnx (onnx, 72951 bytes, 7 tensors)

action_model._continuous_distribution.log_sigma f4 [1, 2]
-0.0038240356 0.0017582044
00000000: ac9c 7abb 8d73 e63a

action_model._continuous_distribution.mu.bias f4 [2]
0.0031736626 -0.01148098
00000000: 39fd 4f3b b81a 3cbc

action_model._continuous_distribution.mu.weight f4 [2, 128]
-0.021267913 0.013634762 -0.009856007 -0.010066954 -0.014774446 0.009293117 -0.0017199144 0.027786603
0.013517429 0.021061342 0.024798336 -0.020571796 -0.0032969152 0.016147755 -0.011795592 -0.019615209
0.009211807 -0.04651698 -0.0009310234 -0.020059124 0.0013143071 -0.025935967 0.011932347 0.014228981
-0.0006244895 -0.00788561 -0.009802235 -0.03374651 0.005249075 0.000694333 -0.01078788 -0.017547714
-0.03970998 -0.020265518 0.026174864 0.012803887 0.010458328 -0.02700807 -0.017068965 0.012709851
-0.03497087 -0.0150091415 0.0006387405 0.028673192 0.011345583 0.0007104825 -0.024181906 -0.015040874
-0.01930399 0.010535814 0.004679608 -0.01008056 -0.007262546 -0.036227673 -0.0040571014 -0.016057778
0.013719221 0.00023127436 0.04241073 0.02309384 -0.01563971 -0.0053823907 -0.0026013644 0.007226398
-0.011326575 -0.034126 -0.01728545 -0.018196948 -0.054522485 0.026012216 -0.009775611 0.0060275896
0.011425503 -0.019142855 -0.034799453 0.024214903 0.009059457 -0.02864608 -0.0043855915 -0.019764107
0.018257855 0.008799182 -0.018245192 -0.04037384 -0.012787359 0.0058915536 0.021577952 0.019198587
-0.025623064 0.0046145585 0.027786199 0.009468043 -0.0304804 -0.036291886 0.025751727 -0.013339869
0.02056664 -0.053315394 0.026695633 0.005949951 -0.0009429777 0.012983343 -0.038358357 0.016618652
0.0099198455 0.007719396 -0.02552863 -0.021431012 -0.0063359914 -0.012536469 0.009370256 0.00041751517
-0.024986703 -0.018884996 0.02640758 -0.01839936 0.04048774 -0.012608129 0.0040639862 0.0038539744
-0.017301345 -0.011024987 -0.02253402 0.007734472 -0.010066114 -0.019172048 -0.030017797 -0.0013621739
0.0019777957 0.008196187 -0.015663559 0.045113917 -0.009610314 0.035116814 0.025763635 -0.010536158
0.041382056 0.043194283 -0.0012639064 0.0021996077 -0.00291642 0.030594783 0.036287267 -0.0024999408
0.00785458 0.030122062 0.017768685 -0.01573961 0.02635552 0.00025173396 0.014559289 -0.013148819
0.008061727 -0.020091254 -0.026573127 0.024612194 0.03479359 -0.009705835 -0.002155613 -0.03013425
-0.0067863236 0.00353785 -0.031976514 -0.007503639 -0.023873752 -0.008774146 0.004061836 0.0040150965
0.0077449773 0.03002231 0.01875256 -0.0075911577 -0.01696418 0.023389317 0.0014884602 -0.02390754
0.031729437 0.0036057625 -0.029376503 0.005612606 -0.014303211 -0.015985427 0.0035794657 0.0068416297
0.049276408 0.03336679 0.010325427 0.0035801942 -0.013991835 -0.0036005033 -0.0329765 -0.012649405
-0.02789523 -0.009787366 0.032927636 0.02610116 0.018004641 -0.027375868 -0.00034206428 -0.041699085
0.019347453 0.03559742 -0.014708793 0.017563455 0.028839804 -0.04451297 -0.011016282 0.0039730566
0.020469617 -0.015814656 0.020284515 -0.008549955 0.0029914512 -0.009348898 -0.005754507 0.006892154
0.0018584667 -0.003553618 0.009863764 0.00871719 -0.0028603629 -0.018624961 -0.0019145266 0.030913506
0.0074142045 -0.0073409504 0.0019632939 0.021142056 0.027250797 0.039883982 0.0042325263 0.011192997
0.0049841623 -0.009253769 -0.0053343424 0.024612548 0.0143767 0.00424306 -0.01937502 0.024234295
0.011680912 -0.02049283 0.031915314 0.010318451 0.026041968 0.013387359 -0.0336094 -0.014257579
0.01954118 0.049506355 0.0009189556 0.0058053117 -0.01210533 -0.0048296247 -0.02309094 -0.013217268
00000000: 0c3a aebc 5664 5f3c 177b 21bc deef 24bc
00000010: 8510 72bc 2842 183c c06e e1ba bba0 e33c
00000020: 3578 5d3c d688 ac3c e125 cb3c 2f86 a8bc
00000030: 0f11 58bb 4c48 843c 4c42 41bc 13b0 a0bc
00000040: 1eed 163c 9788 3ebd ec0f 74ba 0853 a4bc
00000050: d444 ac3a aa77 d4bc e47f 433c ac20 693c
00000060: c8b4 23ba a532 01bc 8e99 20bc c839 0abd
00000070: 6f00 ac3b e603 363a a6bf 30bc 39c0 8fbc
00000080: efa6 22bd df03 a6bc ab6c d63c 65c7 513c
00000090: 6859 2b3c 0740 ddbc 37d4 8bbc fb3c 503c
000000a0: 9d3d 0fbd e7e8 75bc 2671 273a 0be4 ea3c
000000b0: d3e2 393c ac3f 3a3a 2219 c6bc ff6d 76bc
000000c0: 6723 9ebc 689e 2c3c 6657 993b ef28 25bc
000000d0: a7fa edbb 7863 14bd 6ff1 84bb 9a8b 83bc
000000e0: 95c6 603c 3d82 7239 e0b6 2d3d 4b2f bd3c
000000f0: d91e 80bc c45e b0bb a77b 2abb 6ccb ec3b
00000100: 1993 39bc b4c7 0bbd 379a 8dbc c411 95bc
00000110: f852 5fbd 9217 d53c e229 20bc 1683 c53b
00000120: 0832 3b3c 7ad1 9cbc df89 0ebd 555e c63c
00000130: 1e6e 143c 2fab eabc 02b5 8fbb 56e8 a1bc
00000140: 7f91 953c 722a 103c f176 95bc 0a5f 25bd
00000150: 1282 51bc ef0d c13b 3fc4 b03c 5b46 9d3c
00000160: 76e7 d1bc b935 973b e29f e33c da1f 1b3c
00000170: 08b2 f9bc cda6 14bd 49f5 d23c 778f 5abc
00000180: 5f7b a83c 3e61 5abd cdb0 da3c cef7 c23b
00000190: 2a32 77ba 16b8 543c a71d 1dbd d723 883c
000001a0: d986 223c fdf2 fc3b 6b21 d1bc 1790 afbc
000001b0: 269e cfbb c365 4dbc b485 193c f0e5 da39
000001c0: eab0 ccbc b5b4 9abc b654 d83c 41ba 96bc
000001d0: 79d6 253d 5392 4ebc 302b 853b f692 7c3b
000001e0: 8dbb 8dbc 26a2 34bc 4499 b8bc 7471 fd3b
000001f0: 58ec 24bc b30e 9dbc e2e7 f5bc f98a b2ba
00000200: e89d 013b 4d49 063c dd50 80bc 5fc9 383d
00000210: 9474 1dbc a6d6 0f3d 420e d33c da9f 2cbc
00000220: 3b80 293d 7dec 303d a9a9 a5ba 4b27 103b
00000230: 6921 3fbb e9a1 fa3c f5a1 143d 0cd6 23bb
00000240: 7fb0 003c 8bc2 f63c a28f 913c 5bf0 80bc
00000250: 88e7 d73c 29fb 8339 168a 6e3c 256e 57bc
00000260: 5515 043c 6a96 a4bc e3af d9bc 839f c93c
00000270: b983 0e3d 3905 1fbc 2f45 0dbb 1adc f6bc
00000280: cf5f debb 46db 673b cef9 02bd 16e1 f5bb
00000290: e392 c3bc 70c1 0fbc 2619 853b 1291 833b
000002a0: 94c9 fd3b 59f1 f53c f89e 993c 3fbf f8bb
000002b0: 77f8 8abc f49a bf3c 7018 c33a bfd9 c3bc
000002c0: baf6 013d a84e 6c3b fea6 f0bc f4e9 b73b
000002d0: 0458 6abc dff3 82bc 7895 6a3b c02f e03b
000002e0: 0fd6 493d 9dab 083d fb2b 293c b1a1 6a3b
000002f0: 023e 65bc 6cf6 6bbb 5e12 07bd 733f 4fbc
00000300: 8a84 e4bc 305b 20bc 21df 063d 1ad2 d53c
00000310: 787e 933c 5b43 e0bc 1757 b3b9 a9cc 2abd
00000320: 8d7e 9e3c 9ace 113d 26fd 70bc 3ce1 8f3c
00000330: 7441 ec3c 3b53 36bd a37d 34bc 6a30 823b
00000340: e6af a73c bd8d 81bc b62b a63c 1c15 0cbc
00000350: 390c 443b 1f2c 19bc 4e90 bcbb 94d7 e13b
00000360: cb97 f33a d1e3 68bb a09b 213c 8bd2 0e3c
00000370: ed74 3bbb 6093 98bc daf0 faba 523e fd3c
00000380: dbf2 f23b 5b8c f0bb 9baa 003b 1b32 ad3c
00000390: 103d df3c 635d 233d 01b1 8a3b d562 373c
000003a0: 2f52 a33b 1f9d 17bc b5cb aebb 41a0 c93c
000003b0: 408c 6b3c 5e09 8b3b 5db8 9ebc 0087 c63c
000003c0: 4c61 3f3c 94e0 a7bc a2b9 023d b80e 293c
000003d0: f755 d53c a756 5b3c 03aa 09bd 9f98 69bc
000003e0: d314 a03c 2dc7 4a3d 11e6 703a 7c3a be3b
000003f0: 6f55 46bc d441 9ebb 3629 bdbc 3d8d 58bc

network_body.linear_encoder.seq_layers.0.bias f4 [128]
0.023220973 0.010650881 -0.014077445 0.015531642 -0.007598756 -0.011632006 0.030021846 0.0010533297
-7.105323e-05 -0.00023553762 0.010753519 -0.009429813 -0.015278862 -0.0025728422 -0.0034450225 -0.014708313
-0.00050817215 0.008636876 0.010137356 -0.00038244517 0.025610454 0.0016818641 0.016482417 0.030035447
0.009353459 0.01842926 -0.0112638 0.003030178 0.02738598 0.014077223 -0.010270551 -0.005942084
0.011746571 -0.0067743687 0.00214791 -0.002929528 0.021133058 -0.016575627 -0.0072253332 0.0076465434
-0.012005584 0.011978865 0.016499218 0.0018343597 0.0020076702 -0.019123076 -0.01644653 0.006645903
0.006203785 0.014154215 0.025556419 -0.0042943624 -0.012264051 -0.0038563241 0.014444173 -0.0026338657
0.01906557 -0.008656282 -0.014001918 0.0048103556 -0.016871346 0.018099945 -0.010503835 0.004410986
0.016053831 -0.000120906865 -0.010992975 0.009057439 -0.014200693 -0.00294641 0.008908212 0.0049160062
0.012986103 -0.009262235 0.0065747737 0.016833706 0.0017854159 0.011598903 0.015696561 -0.001387803
0.0060833856 0.0034961645 -0.019484457 -0.0027588517 0.0044987514 -0.011314395 0.0072003277 -0.01011379
0.0069743954 0.0043819877 -0.0030992047 0.009924764 0.006531297 0.0025603198 0.02511866 -0.007911801
-0.0140743395 0.011387822 0.011943662 -0.0023929887 -0.008466455 0.020329148 -0.01800988 -0.01930794
0.002400448 -0.0058307326 0.0010393796 0.008018694 -0.013382892 -0.015646093 0.007781935 0.005378348
-0.0039609233 0.0027455457 -0.007914155 0.017574362 0.0028036882 0.0029661632 0.0069127954 0.008905283
-0.010967912 0.0047523957 0.0065630563 -0.004879626 0.015942575 -0.010698948 0.0064354106 -0.004472676
00000000: e939 be3c 0881 2e3c 15a5 66bc 6e78 7e3c
00000010: fcfe f8bb 2b94 3ebc 60f0 f53c e10f 8a3a
00000020: 6a02 95b8 a6fa 76b9 872f 303c 817f 1abc
00000030: 3154 7abc 219d 28bb e3c5 61bb 23fb 70bc
00000040: db36 05ba af81 0d3c 2717 263c ec82 c8b9
00000050: 04cd d13c ff71 dc3a 2206 873c e60c f63c
00000060: 403f 193c f6f8 963c cd8b 38bc f395 463b
00000070: 9058 e03c 27a4 663c d045 28bc d0b5 c2bb
00000080: b174 403c 86fb ddbb f3c3 0c3b 53fd 3fbb
00000090: 3c1f ad3c 9cc9 87bc 7dc2 ecbb db8f fa3b
000000a0: 12b3 44bc 0043 443c 5e29 873c e66e f03a
000000b0: 1e93 033b ffa7 9cbc e0ba 86bc e0c5 d93b
000000c0: 1f49 cb3b 15e7 673c b25b d13c b9b7 8cbb
000000d0: 28ef 48bc 62ba 7cbb 41a7 6c3c ef9c 2cbb
000000e0: 662f 9c3c 14d3 0dbc 4d68 65bc 30a0 9d3b
000000f0: c735 8abc 5646 943c 4718 2cbc 088a 903b
00000100: 5383 833c 618f fdb8 e11b 34bc a765 143c
00000110: 06aa 68bc 8f18 41bb c0f3 113c 7316 a13b
00000120: aac3 543c a1c0 17bc 3371 d73b d7e6 893c
00000130: 9e04 ea3a 5309 3e3c 1396 803c f1e6 b5ba
00000140: 2357 c73b e81f 653b de9d 9fbc dacd 34bb
00000150: 436a 933b 0360 39bc baf0 eb3b 4fb4 25bc
00000160: 7889 e43b c796 8f3b 071c 4bbb 7a9b 223c
00000170: 7e04 d63b 0acb 273b a6c5 cd3c 80a0 01bc
00000180: 0f98 66bc fd93 3a3c 59af 433c b0d3 1cbb
00000190: e3b6 0abc 5089 a63c 7589 93bc af2b 9ebc
000001a0: d650 1d3b bb0f bfbb cb3b 883a d760 033c
000001b0: eb43 5bbc 3c2c 80bc 9aff fe3b da3c b03b
000001c0: a2ca 81bb 9dee 333b 5faa 01bc 1cf8 8f3c
000001d0: 15be 373b f663 423b bb84 e23b 77e7 113c
000001e0: c2b2 33bc fcb9 9b3b e80e d73b 45e5 9fbb
000001f0: 019a 823c a44a 2fbc 23e0 d23b 878f 92bb

network_body.linear_encoder.seq_layers.0.weight f4 [128, 6]
0.8880282 0.03946116 -0.19246471 -0.1935872 0.37201494 0.27893776 -0.33180842 0.4143131
-0.43068302 0.0405552 -0.16737121 -0.124500364 0.4472781 0.341279 0.09220405 -0.40214285
-0.01747278 0.7477258 0.20467857 -0.15437473 0.20848174 0.18447462 -0.043781754 0.31100458
-0.45924935 0.28655672 0.3240372 0.24117237 -0.37729958 0.053286564 0.45861894 -0.46356428
0.22147836 0.294486 -0.42121485 0.05941768 0.71834224 0.5218042 -0.76920736 -0.22255848
-0.18133286 0.14059868 0.41799882 -0.258262 -0.1404899 0.11208704 -0.2695341 -0.051952224
0.1643579 0.36634696 -0.11555149 0.51766837 -0.31887403 0.4321568 0.3987956 0.2749849
0.34885365 0.31447697 -0.3160593 -0.29532677 -0.15859836 -0.13372669 -0.573234 -0.14543201
0.6469943 0.18591723 0.17882147 -0.1863602 0.06771476 -0.1744504 0.0042890534 0.10397606
-0.10669903 0.035951927 0.4417184 -0.13371882 0.30962053 0.27353787 0.31461656 0.14384347
0.3630409 -0.12243178 -0.1130302 -0.13983965 0.4499841 -0.59360516 -0.1530141 0.370294
0.5209983 0.04904449 0.082348354 0.31818295 0.44100338 0.18021262 -0.28774723 -0.28581893
-0.59267575 -0.059574895 -0.44076133 0.5992314 -0.32960182 -0.76821965 0.2827923 -0.50150573
0.2682786 -0.271918 0.24220787 -0.024459507 -0.07190717 -0.4883206 0.19503726 -0.09239508
-0.09987181 -0.54572505 0.6324776 0.185747 -0.06748938 0.042724986 -0.082050085 -0.020439144
0.077439144 -0.22492832 0.3645092 -0.18781321 0.61756223 -0.67037654 0.07662847 -0.80448395
0.12082317 -0.8951182 0.7028695 -0.2184212 0.46369308 0.5301103 0.38037974 -0.70609844
-0.4826335 0.4475066 -0.35519814 0.33869797 0.53233105 0.19503807 -0.3424956 -0.64974934
-0.0032299473 0.81196135 -0.31865725 -0.14440049 0.3991778 0.28572965 -0.01709581 -0.011588428
0.819049 -0.33971354 0.03766744 0.08412584 0.026633807 -0.13073424 -0.32775494 0.37689927
-0.2792417 -0.7554168 0.12183572 -0.6923907 -0.2962623 -0.19960772 0.22456896 0.042338666
-0.045018386 -0.27216083 -0.5972183 0.16629153 -0.2828707 0.7123435 -0.036819723 -0.052385163
0.24200344 -0.35559252 0.52134395 -0.06721929 0.048205737 -0.42548153 -0.08592768 -0.00042108423
-0.23031227 -0.64861596 -0.5639119 -0.68251187 -0.2909124 0.9025175 0.56060064 -0.14393385
0.34330833 0.017847393 0.17809828 -0.11595182 0.5271218 0.28185123 -0.19647996 -0.103966504
-0.048218865 -0.18999791 0.16561742 -0.6614116 1.1154116 0.4862212 -0.14797853 0.46216628
-0.0451339 0.083310045 0.42349997 0.041425645 -0.21703629 0.09836536 -0.90999204 0.42492837
0.46219802 -0.15933011 0.47308517 0.3022285 -0.015968591 0.2963231 -0.06145068 -0.40188232
0.53431284 0.13286705 -0.053670187 -0.509819 -0.33898556 -0.40370604 -0.10929258 -0.24933231
-0.2068872 0.0796848 0.73900247 0.46008176 0.4812534 0.09462253 -0.4048749 -0.2912918
-0.36911893 0.16527674 0.020797765 1.1582638 0.21255721 -0.057551894 -0.07171661 -0.6274044
-0.5465216 0.33569872 0.637751 0.06801884 0.43289864 0.09901315 -0.379777 0.3631153
00000000: d155 633f 06a2 213d 7815 45be b93b 46be
00000010: be78 be3e eed0 8e3e cbe2 a9be d920 d43e
00000020: 7c82 dcbe 361d 263d 5c63 2bbe 0cfa febd
00000030: a301 e53e 1fbc ae3e 7ad5 bc3d abe5 cdbe
00000040: 1323 8fbc f56a 3f3f 4297 513e 6914 1ebe
00000050: 3d7c 553e eae6 3c3e 7f54 33bd fe3b 9f3e
00000060: bb22 ebbe 90b7 923e 34e8 a53e e4f5 763e
00000070: 692d c1be 0343 5a3d 1ad0 ea3e 4c58 edbe
00000080: 39cb 623e dec6 963e 79a9 d7be f45f 733d
00000090: 47e5 373f f694 053f c6ea 44bf 5fe6 63be
000000a0: 52af 39be 1af9 0f3e f103 d63e eb3a 84be
000000b0: 96dc 0fbe e48d e53d 6000 8abe dbcb 54bd
000000c0: 704d 283e d491 bb3e 42a6 ecbd ea85 043f
000000d0: 7543 a3be a843 dd3e f02e cc3e d2ca 8c3e
000000e0: f29c b23e 2003 a13e 86d2 a1be 1235 97be
000000f0: 9c67 22be a6ef 08be 77bf 12bf 21ec 14be
00000100: 6ba1 253f 1661 3e3e fa1c 373e 35d5 3ebe
00000110: 09ae 8a3d 20a3 32be 308b 8c3b 67f1 d43d
00000120: 0585 dabd 5442 133d ea28 e23e 96ed 08be
00000130: 9586 9e3e 280d 8c3e 6c15 a13e b44b 133e
00000140: 7fe0 b93e 83bd fabd 617c e7bd 2032 0fbe
00000150: 5164 e63e 82f6 17bf baaf 1cbe 2d97 bd3e
00000160: 2560 053f e0e2 483d 41a6 a83d e0e8 a23e
00000170: 32cb e13e a889 383e 9b53 93be dc56 92be
00000180: 99b9 17bf ce04 74bd 78ab e1be 3b67 193f
00000190: 92c1 a8be 0baa 44bf 27ca 903e ae62 00bf
000001a0: d05b 893e d638 8bbe 5705 783e 4e5f c8bc
000001b0: 1144 93bd 2805 fabe d9b7 473e a239 bdbd
000001c0: 9789 ccbd a3b4 0bbf 0dea 213f 7634 3e3e
000001d0: df37 8abd 6500 2f3d e009 a8bd fe6f a7bc
000001e0: 6a98 9e3d 9c53 66be f3a0 ba3e 1b52 40be
000001f0: 8f18 1e3f cc9d 2bbf 63ef 9c3d a9f2 4dbf
00000200: 2372 f73d 7726 65bf 41ef 333f cfa9 5fbe
00000210: 2e69 ed3e 4fb5 073f 22c1 c23e dec2 34bf
00000220: bd1b f7be 961f e53e 88dc b5be d269 ad3e
00000230: d946 083f 0fb8 473e 955b afbe f955 26bf
00000240: 86ad 53bb b3dc 4f3f 0b27 a3be b9dd 13be
00000250: 0861 cc3e 284b 923e 830c 8cbc 64dd 3dbc
00000260: 32ad 513f efee adbe 2c49 1a3d 2b4a ac3d
00000270: 242f da3c 32df 05be 7fcf a7be f1f8 c03e
00000280: c5f8 8ebe ff62 41bf 0285 f93d 8440 31bf
00000290: b1af 97be f765 4cbe 68f5 653e 4f6b 2d3d
000002a0: 3365 38bd aa58 8bbe 4ce3 18bf 5448 2a3e
000002b0: 6ed4 90be 255c 363f 47d0 16bd d391 56bd
000002c0: c0cf 773e 3910 b6be cc76 053f 44aa 89bd
000002d0: 6173 453d b7d8 d9be dafa afbd f8c4 dcb9
000002e0: fbd6 6bbe b20b 26bf 885c 10bf 19b9 2ebf
000002f0: 78f2 94be 630b 673f 8683 0f3f 6563 13be
00000300: 1cc6 af3e b234 923c 655f 363e 2678 edbd
00000310: 74f1 063f ce4e 903e 0b32 49be 64ec d4bd
00000320: 2581 45bd d08e 42be 9d97 293e 4552 29bf
00000330: cfc5 8e3f fcf1 f83e af87 17be 0fa1 ec3e
00000340: 53de 38bd 759e aa3d fdd4 d83e f0ad 293d
00000350: c33e 5ebe c773 c93d 3df5 68bf 3690 d93e
00000360: 38a5 ec3e 6f27 23be 3838 f23e b2bd 9a3e
00000370: 90d0 82bc a9b7 973e b5b3 7bbd 85c3 cdbe
00000380: bac8 083f 4d0e 083e 45d5 5bbd 7f83 02bf
00000390: 848f adbe 8fb2 cebe cad4 dfbd f850 7fbe
000003a0: 3dda 53be c931 a33d 442f 3d3f d68f eb3e
000003b0: d866 f63e 75c9 c13d c34b cfbe 3324 95be
000003c0: 28fd bcbe 4e3e 293e 1360 aa3c fd41 943f
000003d0: 99a8 593e 89bb 6bbd 28e0 92bd 939d 20bf
000003e0: d7e8 0bbf b4e0 ab3e a643 233f 764d 8b3d
000003f0: e4a4 dd3e 68c7 ca3d 2272 c2be 40ea b93e

network_body.linear_encoder.seq_layers.2.bias f4 [128]
0.015299175 0.008533151 0.022220084 0.014991671 -0.008124391 -0.0006000311 -0.008313668 0.014293538
-0.001291331 -0.0016069525 0.007892701 0.0008239532 -0.005935966 0.011967243 0.0076484014 0.00096186233
0.004605528 0.019239023 -0.01583259 0.024727672 -0.020945616 -0.0012667415 -0.004802264 0.014403198
-0.0150342975 0.010472973 0.015064175 0.019487105 -0.0014590914 0.0044841855 0.0027494105 0.009143223
0.01493683 0.0041528763 0.019890616 0.015928783 0.008158662 0.012164714 -0.005192492 -0.006526986
-0.0006941159 -0.000986967 -0.017076913 0.013822159 0.023551611 -0.012138748 0.002544303 -0.0048412676
0.008966104 -0.00034213174 0.01712762 -0.0063219857 -0.0027362814 0.0038327072 -0.0070045236 0.0006273437
-0.0032940146 -0.016289912 0.021088827 0.004405532 -0.0063846814 -0.0037626 0.0062471284 0.015010459
0.017463386 -0.0005258174 0.009562178 -0.0151905855 -0.0019410788 0.022050563 -0.00828332 0.018267725
-0.012535986 -0.00079906185 0.012862844 -0.012565032 -0.005182724 0.018597355 0.016397778 -0.007913828
0.000683322 0.019959787 -0.012008929 -0.00015025736 -0.0020962842 0.0057185534 0.004713296 -0.0012705647
0.015548678 -0.0041348008 0.0053704297 -0.0076567335 0.0008242899 0.013050521 0.00976558 0.012422385
0.0026254004 0.020244457 -0.013932225 -0.011916176 0.00406201 -0.0013323422 0.0035440938 -0.0059495214
-0.0039302874 0.014949974 0.005633119 -0.003941916 -0.011243147 -0.013137376 0.0049389284 -0.011448565
-0.023728851 -0.0067618582 -0.0011865421 -0.0051756636 0.006583646 0.0005059895 0.015484591 0.018677413
-0.008013075 -0.008028285 -0.006333056 0.0020736265 -0.0014520226 -0.00051785476 0.0045537697 0.004110245
00000000: 64a9 7a3c a1ce 0b3c e506 b63c a09f 753c
00000010: 2a1c 05bc 684b 1dba 0d36 08bc 722f 6a3c
00000020: e141 a9ba 61a0 d2ba 6350 013c 90fe 573a
00000030: 7e82 c2bb 4112 443c 719f fa3b 7d25 7c3a
00000040: f8e9 963b 289b 9d3c 59b3 81bc b091 ca3c
00000050: 2496 abbc cb08 a6ba 4f5c 9dbb 64fb 6b3c
00000060: 6a52 76bc d596 2b3c bbcf 763c 6ca3 9f3c
00000070: fc3e bfba 13f0 923b 742f 343b 75cd 153c
00000080: 9bb9 743c da14 883b a5f1 a23c 147d 823c
00000090: e9ab 053c 824e 473c c825 aabb 54e0 d5bb
000000a0: 54f5 35ba 1e5d 81ba e2e4 8bbc 5676 623c
000000b0: 4fef c03c 99e1 46bc 52be 263b 7fa3 9ebb
000000c0: 91e6 123c 2560 b3b9 394f 8c3c a928 cfbb
000000d0: 2f53 33bb 282e 7b3b 3486 e5bb 5374 243a
000000e0: 65e0 57bb 6c72 85bc 7ac2 ac3c 485c 903b
000000f0: 9736 d1bb f495 76bb b6b4 cc3b 6eee 753c
00000100: 600f 8f3c 02d7 09ba aeaa 1c3c efe1 78bc
00000110: cc6b feba 62a3 b43c c3b6 07bc 32a6 953c
00000120: bc63 4dbc 2278 51ba aebe 523c 90dd 4dbc
00000130: d7d3 a9bb 7b59 983c a254 863c 00a9 01bc
00000140: f720 333a b582 a33c 19c1 44bc 678e 1db9
00000150: d061 09bb b462 bb3b fe71 9a3b 1489 a6ba
00000160: e2bf 7e3c 397d 87bb 6efa af3b 56e5 fabb
00000170: 2915 583a dad1 553c d0ff 1f3c 4287 4b3c
00000180: e90e 2c3b b4d7 a53c fd43 64bc 113c 43bc
00000190: 9c1a 853b fca1 aeba 0744 683b 34f4 c2bb
000001a0: a4c9 80bb bcf0 743c 0796 b83b 302b 81bb
000001b0: 2d35 38bc 263e 57bc bcd6 a13b c392 3bbc
000001c0: 0263 c2bc 9492 ddbb bf85 9bba 9d98 a9bb
000001d0: a0bb d73b 61a4 043a 15b3 7d3c 6001 993c
000001e0: 4649 03bc 1189 03bc 8685 cfbb aee5 073b
000001f0: cb51 beba a5c0 07ba ca37 953b 3caf 863b

network_body.linear_encoder.seq_layers.2.weight f4 [128, 128]
0.30643168 -0.061691597 0.09529435 0.012094385 -0.05485049 -0.0577041 0.14434521 -0.09976262
-0.13385741 0.005074789 0.04198383 -0.06724403 0.0075136595 0.020848267 0.07311812 -0.071235046
-0.054246686 -0.06629881 0.08974244 0.09707621 0.022964852 0.15378971 0.05477928 -0.04779022
0.095822416 0.21774723 -0.23451944 -0.16264147 0.0657852 0.1219941 0.06857283 -0.07979535
0.11337738 -0.0035619074 0.032155443 -0.049939085 0.0069082156 -0.080901854 -0.06528135 0.0030169485
-0.12692428 -0.006444194 0.19604369 0.0918227 -0.13235824 -0.027131967 0.06423849 -0.1110405
-0.045472782 0.07654989 -0.023670666 0.012737831 0.0718505 0.03263329 -0.06811479 -0.035442468
0.017437702 -0.10074379 -0.08429287 -0.06234354 -0.043270558 -0.05620191 0.027079538 -0.060724877
-0.050228536 0.1388116 0.085652694 -0.032803226 -0.122586764 -0.07625532 -0.21397494 0.06266172
0.09306545 -0.058975376 0.030284964 -0.05993765 -0.08090519 0.028044619 -0.09042273 0.1325697
-0.03094484 0.014749036 -0.19033031 0.048112504 0.13579874 0.23447248 0.062939644 0.088216715
-0.0065353713 0.0054572243 -0.08336781 -0.1147651 0.021221725 0.07086504 -0.2163826 0.06276269
-0.14956713 -0.030020133 -0.06263753 0.027685115 0.11260034 0.18231955 -0.10406141 -0.048679844
0.036403812 0.043566506 -0.12809621 0.12746042 0.10251362 0.023016226 0.13228507 -0.0078112823
-0.11547807 0.086859986 -0.03240822 0.10128835 -0.009074461 -0.058177657 0.048876833 0.14239475
-0.08397685 -0.01963641 0.00412655 -0.035083022 -0.06819597 0.01619644 0.11192027 -0.080778405
-0.121097006 0.045860585 -0.07210627 0.013740695 0.058859125 0.0048345486 0.00010540772 -0.15311883
0.18044913 0.1468213 -0.06854573 -0.037587687 0.11776204 -0.09016326 0.10558569 0.069390476
0.16159125 -0.03959734 -0.038783345 0.07631245 -0.18241926 0.18684492 -0.09491466 0.21092196
-0.006754334 -0.03231676 0.0866981 0.14455047 -0.040894747 -0.0023832936 0.124677785 0.21829179
0.12871034 -0.089108266 0.1510066 0.09901628 -0.057342254 -0.05391387 0.050925445 -0.020557811
4.76086e-06 0.17867383 0.029059311 -0.03648737 0.02107593 0.020258982 0.04156735 -0.055365533
0.053839758 -0.047837663 -0.15812972 0.10462835 -0.057233788 0.037409812 0.071224734 -0.09904211
0.17980416 0.06167774 0.12233199 -0.008823631 -0.044079307 0.033252854 -0.07413126 -0.08737675
0.05531637 0.0698943 -0.13373977 0.041091908 -0.057728704 0.045301702 0.048430797 -0.011666799
-0.06713729 -0.0319796 0.0057453346 0.1630475 -0.07679463 -0.11806709 0.13435496 0.07313522
0.09436122 -0.038957093 0.094312206 0.04838201 -0.032380726 0.012270179 -0.21048965 0.13140854
-0.009717679 0.16142493 0.046197977 -0.018525526 0.048319757 0.059114244 -0.0027064881 -0.25611097
-0.04414928 -0.039061163 0.09847708 0.16494794 0.07345955 0.00073304016 0.13708808 0.01768148
0.0022664675 0.088839866 -0.08278379 0.040737078 -0.04719415 -0.104156695 -0.019528808 -0.0752298
0.02047963 -0.08964778 -0.19180125 -0.009425487 0.07408501 0.084151655 0.08066205 0.06413804
0.015674192 -0.035679303 -0.02538531 0.021577345 0.0749008 -0.07863061 0.08043661 0.02808544
00000000: 9de4 9c3e 54b0 7cbd af29 c33d 8727 463c
00000010: e8aa 60bd 225b 6cbd 3bcf 133e 5850 ccbd
00000020: eb11 09be 6a4a a63b 3df7 2b3d 3db7 89bd
00000030: 2535 f63b fcc9 aa3c f4be 953d aee3 91bd
00000040: c631 5ebd acc7 87bd e2ca b73d e4cf c63d
00000050: c920 bc3c 0d7b 1d3e 3d60 603d adbf 43bd
00000060: 8b3e c43d 21f9 5e3e dd25 70be 7c8b 26be
00000070: 64ba 863d 0bd8 f93d e96f 8c3d bf6b a3bd
00000080: 6632 e83d e46e 69bb 6db5 033d ed8c 4cbd
00000090: 505e e23b dfaf a5bd 3ab2 85bd ffb7 453b
000000a0: 70f8 01be d129 d3bb adbf 483e 8a0d bc3d
000000b0: eb88 07be dc43 debc 788f 833d 3469 e3bd
000000c0: ab41 3abd 30c6 9c3d fce8 c1bc 56b2 503c
000000d0: 5b26 933d 7caa 053d c47f 8bbd 1f2c 11bd
000000e0: 83d9 8e3c c352 cebd bda1 acbd f15b 7fbd
000000f0: 783c 31bd f933 66bd e8d5 dd3c a6ba 78bd
00000100: 70bc 4dbd a124 0e3e ae6a af3d ad5c 06bd
00000110: c50e fbbd c02b 9cbd 3f1c 5bbe ca54 803d
00000120: 1999 be3d 2a90 71bd 2c18 f83c 2e81 75bd
00000130: 9fb1 a5bd d4bd e53c 8d2f b9bd 5ac0 073e
00000140: 0880 fdbc f1a5 713c f3e5 42be 9e11 453d
00000150: d30e 0b3e 8e19 703e 80e6 803d f7aa b43d
00000160: ab26 d6bb 84d2 b23b bebc aabd f709 ebbd
00000170: 2fd9 ad3c b121 913d 6693 5dbe ba89 803d
00000180: 2028 19be c8ec f5bc 1b48 80bd e5cb e23c
00000190: 029b e63d fab1 3a3e 261e d5bd 8464 47bd
000001a0: 2a1c 153d cb72 323d a72b 03be fc84 023e
000001b0: a9f2 d13d 868c bc3c bd75 073e c9f5 ffbb
000001c0: c47f ecbd a6e3 b13d 7bbe 04bd 4470 cf3d
000001d0: 0cad 14bc b24b 6ebd 1333 483d eecf 113e
000001e0: 0efc abbd 89dc a0bc 0338 873b 37b3 0fbd
000001f0: 54aa 8bbd 66ae 843c 7436 e53d 266f a5bd
00000200: b501 f8bd 4fd8 3b3d 74ac 93bd a720 613c
00000210: 4416 713d 226b 9e3b 570e dd38 2fcb 1cbe
00000220: a8c7 383e 5358 163e b461 8cbd 8cf5 19bd
00000230: 392d f13d 84a7 b8bd 4f3d d83d 981c 8e3d
00000240: 2d78 253e d230 22bd 49db 1ebd b449 9c3d
00000250: 1dcc 3abe 4654 3f3e 9e62 c2bd edfb 573e
00000260: 7653 ddbb 945e 04bd c68e b13d 0a05 143e
00000270: 4081 27bd 0831 1cbb 1157 ff3d e287 5f3e
00000280: a5cc 033e 657e b6bd 79a1 1a3e 0cc9 ca3d
00000290: b6df 6abd cad4 5cbd 3397 503d db68 a8bc
000002a0: 7abf 9f36 46f6 363e cb0d ee3c c873 15bd
000002b0: 6ea7 ac3c 2af6 a53c 8742 2a3d f8c6 62bd
000002c0: 1487 5c3d 6df1 43bd c2ec 21be 6347 d63d
000002d0: fa6d 6abd 083b 193d 46de 913d 97d6 cabd
000002e0: 951e 383e cca1 7c3d 3289 fa3d fe90 10bc
000002f0: 818c 34bd 2534 083d 21d2 97bd 95f2 b2bd
00000300: 6b93 623d be24 8f3d 14f3 08be fd4f 283d
00000310: ef74 6cbd 478e 393d 5f5f 463d 1a26 3fbc
00000320: 477f 89bd 0bfd 02bd 5c43 bc3b edf5 263e
00000330: 8146 9dbd 29cd f1bd 5994 093e ebc7 953d
00000340: 7540 c13d 7991 1fbd c226 c13d 372c 463d
00000350: a7a1 04bd dc08 493c 998a 57be f68f 063e
00000360: e636 1fbc 944c 253e 173a 3d3d d8c2 97bc
00000370: f0ea 453d c721 723d 565f 31bb fa20 83be
00000380: e0d5 34bd 99fe 1fbd 5aae c93d 1de8 283e
00000390: f671 963d 7e29 403a d160 0c3e c0d8 903c
000003a0: 0489 143b adf1 b53d 8c8a a9bd ecdb 263d
000003b0: a74e 41bd 1b50 d5bd e1fa 9fbc 1512 9abd
000003c0: e6c4 a73c 4199 b7bd 8c67 44be 5c6d 1abc
000003d0: e2b9 973d b457 ac3d 2532 a53d ce5a 833d
000003e0: 2a67 803c 7624 12bd dbf4 cfbc f9c2 b03c
000003f0: 9765 993d 1609 a1bd f3bb a43d 7013 e63c
