UnityController/results/alex/MoveToGoal/checkpoint.pt (torch, 438623 bytes, 36 tensors)

network_body.linear_encoder.seq_layers.0.weight f4 [128, 6]
-0.14399768 0.5322399 -0.92819804 0.532829 -0.7463887 0.46127087 -0.7183428 0.32396895
0.4721341 -0.16476196 -0.010023752 -0.91917545 -0.6044278 -0.1589595 -0.4432159 0.19350106
0.10340831 -0.23583518 0.19449657 -0.30604813 0.23767127 -0.1784562 0.34511063 -0.14419843
-0.02981763 -0.10957973 -0.27668872 -0.30828327 -0.31408867 0.76493627 -0.4035829 -0.27568236
-0.049116742 0.2559792 -0.121925145 -0.09895273 0.7217838 -0.45418015 -0.6146981 0.19871931
0.3324926 0.37528872 -0.55295575 0.08553123 -0.53176874 0.3870058 -0.15757185 0.20001356
0.24624689 -0.5633784 -0.4012265 -0.09249859 -0.02723534 1.4254411 -0.13747266 0.01934223
0.6014917 -0.33035234 0.6818943 -0.0027242745 0.20559081 0.12630975 0.109742194 -0.38662505
-0.122888714 0.21260658 -0.2366321 0.32674092 -0.45421848 -0.17847458 0.13035846 -0.58832055
-0.47811663 0.6597075 -0.51426274 0.1735642 0.54016745 -0.49282834 0.2418822 -0.07276027
-0.04285803 -0.36411005 0.285779 -0.30330586 0.60714084 0.11898944 0.13421099 -0.3246863
-0.19398999 -0.8123021 0.012274433 -0.29074594 0.09013181 0.10490033 -0.30131984 -0.36210915
0.0497643 0.5126642 -0.040967956 0.70689327 0.14421684 -0.25357202 -0.007102017 -0.48521554
-0.51294565 -0.69821525 0.2244007 -0.4707421 0.3318834 -0.0765549 -0.22015812 -0.113875285
0.34710586 -0.32551077 0.5081996 0.83974695 0.0670636 -0.38421813 -0.40707418 -0.42698225
0.049297098 -0.5493214 -0.37267107 -0.3774458 -0.087869436 -0.027927568 0.36325273 -0.046186246
-0.5901334 -0.019053431 -0.061926227 -0.5390541 0.18849315 -0.22658178 -0.03753249 0.28465116
0.6672882 -0.1936863 -0.21150021 0.027985673 0.3032407 0.18676221 0.57543474 -0.16496094
0.3236494 -0.14650866 0.65528506 0.54070663 0.13140048 0.19878219 0.2404936 -0.27016273
-0.046952613 0.31891116 -0.529959 -0.42577553 0.605122 0.10633509 0.12069516 -0.516136
-0.32044765 -0.57758594 0.03936194 -0.9933452 -0.053029712 0.36918768 -0.099792145 -0.32808286
0.44659343 0.19734342 0.6897292 -0.59485424 -0.43359104 0.20835523 -0.3296304 0.54635435
-0.5381464 -0.12158373 -0.6371056 0.6455952 0.27429974 0.53073657 -0.5440876 -0.645219
0.030721253 -0.17807683 0.6169276 -0.17067808 0.64059645 0.06592898 -0.24391082 0.20095876
0.044869438 -0.25652573 0.63687366 0.22643775 0.2999265 -0.07124532 0.40316314 -0.26523826
0.0067996443 -0.030086802 0.8094821 0.7015703 0.31888077 0.17782936 0.40520453 -0.8580736
0.49731445 0.037304237 0.15726888 0.56258285 0.5681363 -0.65306985 -0.01664446 0.48787302
0.10134259 0.36062893 0.18540584 -0.009212569 0.72995144 0.33744994 -1.1404593 -0.4942224
-0.07974477 0.72047114 -0.8841654 0.16323109 0.648756 0.0167266 0.26929018 0.37920505
0.65865695 -0.36701483 -0.5889323 1.1776993 0.14881113 -0.061938632 0.5959121 -0.8789549
0.6670581 0.5372185 0.47747415 0.25159827 0.029883275 -0.3899092 -0.2365465 -0.15829138
-0.68916154 -0.05468382 -0.22716308 0.38676134 0.68047583 0.22939512 0.78705716 -0.043958046
00000000: 2174 13be e040 083f 639e 6dbf 7b67 083f
00000010: 5413 3fbf b22b ec3e 50e5 37bf 42df a53e
00000020: 90bb f13e 5cb7 28be aa3a 24bc 154f 6bbf
00000030: c8bb 1abf 47c6 22be 32ed e2be 2425 463e
00000040: bcc7 d33d c77e 71be 1c2a 473e 57b2 9cbe
00000050: 1960 733e 39bd 36be 57b2 b03e c1a8 13be
00000060: 1a44 f4bc 566b e0bd 25aa 8dbe 4ed7 9dbe
00000070: 3bd0 a0be ddd2 433f 6ba2 cebe 3d26 8dbe
00000080: a32e 49bd b50f 833e e4b3 f9bd bba7 cabd
00000090: d3c6 383f 4d8a e8be db5c 1dbf 137d 4b3e
000000a0: 783c aa3e d825 c03e 828e 0dbf ff2a af3d
000000b0: ff21 08bf a025 c63e 845a 21be 5bd0 4c3e
000000c0: 2528 7c3e 9139 10bf 8f6d cdbe e76f bdbd
000000d0: a61c dfbc db74 b63f a2c5 0cbe 9973 9e3c
000000e0: 5cfb 193f f123 a9be a090 2e3f be89 32bb
000000f0: 6686 523e 5857 013e 84c0 e03d b8f3 c5be
00000100: 14ad fbbd 8ab5 593e af4f 72be 964a a73e
00000110: 538f e8be 0ac2 36be b07c 053e 2d9c 16bf
00000120: b4cb f4be 97e2 283f b9a6 03bf d0ba 313e
00000130: 6a48 0a3f ff53 fcbe f8af 773e 5603 95bd
00000140: e78b 2fbd a26c babe a051 923e e84a 9bbe
00000150: 956d 1b3f bcb0 f33d 9b6e 093e 483d a6be
00000160: 50a5 46be 08f3 4fbf b41a 493c a7dc 94be
00000170: 0797 b83d fcd5 d63d 9846 9abe 5f66 b9be
00000180: a7d5 4b3d f63d 033f 04ce 27bd f5f6 343f
00000190: 94ad 133e 31d4 81be 09b8 e8bb 2c6e f8be
000001a0: 6850 03bf 3cbe 32bf 4cc9 653e 1c05 f1be
000001b0: 9fec a93e d1c8 9cbd 2171 61be 7237 e9bd
000001c0: dcb7 b13e 59a9 a6be 5e19 023f a8f9 563f
000001d0: a458 893d 3db8 c4be 076c d0be 6b9d dabe
000001e0: c1eb 493d 54a0 0cbf bece bebe 9340 c1be
000001f0: e4f4 b3bd 5bc8 e4bc 43fc b93e ca2d 3dbd
00000200: fc12 17bf f115 9cbc 5ba6 7dbd 73ff 09bf
00000210: 5904 413e 0e05 68be abbb 19bd ccbd 913e
00000220: 66d3 2a3f b455 46be 8393 58be 3642 e53c
00000230: 5d42 9b3e 983e 3f3e b14f 133f 85eb 28be
00000240: 60b5 a53e 5e06 16be c3c0 273f c06b 0a3f
00000250: d98d 063e 8f8d 4b3e f443 763e c552 8abe
00000260: 6251 40bd 5348 a33e 65ab 07bf 40ff d9be
00000270: 47e9 1a3f 36c6 d93d 062f f73d 7d21 04bf
00000280: b711 a4be acdc 13bf fc39 213d df4b 7ebf
00000290: af35 59bd 2b06 bd3e d35f ccbd 7afa a7be
000002a0: e5a7 e43e 6514 4a3e 1892 303f 5e48 18bf
000002b0: a5ff ddbe 135b 553e 51c5 a8be e1dd 0b3f
000002c0: f6c3 09bf e400 f9bd 5a19 23bf ba45 253f
000002d0: 0471 8c3e 5ade 073f 5349 0bbf 132d 25bf
000002e0: 23ab fb3c c659 36be f8ee 1d3f 3cc6 2ebe
000002f0: 21fe 233f c605 873d c2c3 79be 22c8 4d3e
00000300: 04c9 373d 5757 83be 270a 233f 4cdf 673e
00000310: f78f 993e 11e9 91bd 666b ce3e 4fcd 87be
00000320: 8dcf de3b 9978 f6bc 383a 4f3f 1c9a 333f
00000330: 5744 a33e e618 363e f876 cf3e b6aa 5bbf
00000340: 00a0 fe3e 54cc 183d 180b 213e 6e05 103f
00000350: 6171 113f 962f 27bf f659 88bc 7eca f93e
00000360: b48c cf3d 5ba4 b83e 07db 3d3e 51f0 16bc
00000370: 19de 3a3f 3dc6 ac3e 92fa 91bf b80a fdbe
00000380: 3a51 a3bd cc70 383f aa58 62bf 0d26 273e
00000390: e014 263f 3906 893c 67e0 893e 2a27 c23e
000003a0: be9d 283f 5ee9 bbbe 44c4 16bf dabe 963f
000003b0: f261 183e 5db3 7dbd b28d 183f 3003 61bf
000003c0: 52c4 2a3f 2787 093f 7e77 f43e 7dd1 803e
000003d0: c5cd f43c 2ea2 c7be 3f39 72be 2317 22be
000003e0: e46c 30bf 24fc 5fbd 709d 68be 9505 c63e
000003f0: aa33 2e3f 8ee6 6a3e 947c 493f 5a0d 34bd

network_body.linear_encoder.seq_layers.0.bias f4 [128]
0.040431496 0.013882196 0.04872069 -0.0073825936 0.058366925 0.03573955 0.017618712 -0.012241954
0.026010215 -0.033977363 0.023815935 0.03340272 0.03330863 -0.030494781 0.016603528 0.012417787
-0.02142955 -0.011803662 0.026649721 0.03203256 -0.0013757218 0.022855096 0.0037373411 0.02752844
0.01656128 -0.0037914885 0.06113105 0.04615752 -0.0013974563 0.035197202 0.012025561 0.058615204
0.024828706 0.035572562 0.04468971 0.04281366 0.049957998 0.052594647 -0.0062450054 0.017362576
0.013267382 0.041083675 -0.023927616 0.028150639 -0.015593172 0.039234888 -0.03432381 0.040033814
-0.06294213 0.011372836 -0.0025866309 0.03322814 0.01691101 -0.02270694 0.008750787 0.036029223
0.027372882 0.039918654 0.017063957 0.034446355 -0.038079675 -0.024468508 0.041608877 0.033218175
0.06252869 0.0019063683 -0.0048058927 0.0639829 0.009511208 -0.001111358 0.019007077 0.043260075
0.022115465 0.0083279675 0.0049710465 0.04375404 0.024389235 0.023546834 0.04465043 0.017683683
-0.0012025179 0.0049478696 0.02815767 0.0088359825 3.0398984e-05 -0.027499003 0.03550635 0.007094645
0.00330765 0.007512026 -0.018067772 0.034025393 0.044571903 0.028338492 0.0064617596 0.022803677
0.049957 0.02516171 -0.040033348 0.081011765 -0.027219158 0.021670457 0.016158111 -0.012063412
0.041898943 -0.024414925 0.030417707 0.03573894 -0.043062598 0.009189238 -0.00024122337 0.04612865
0.03449489 0.06492683 0.025456335 0.001342553 0.02798598 -0.014372942 0.042227276 0.052176137
0.015746659 0.012594984 0.020385109 0.032187704 -0.019569205 0.020702122 0.03276447 -0.022770114
00000000: 7f9b 253d 2672 633c 598f 473d afe9 f1bb
00000010: 2812 6f3d a263 123d 1e55 903c 7a92 48bc
00000020: 6013 d53c d92b 0bbd a319 c33c 4ad1 083d
00000030: a16e 083d 31d0 f9bc 1f04 883c f973 4b3c
00000040: 068d afbc 2664 41bc 8450 da3c 9334 033d
00000050: 9051 b4ba 9c3a bb3c 2eee 743b 5383 e13c
00000060: 85ab 873c 9f7a 78bb 8d64 7a3d ab0f 3d3d
00000070: da2a b7ba f12a 103d dc06 453c 7f16 703d
00000080: 9265 cb3c 89b4 113d 8f0c 373d 605d 2f3d
00000090: c2a0 4c3d 7c6d 573d e7a2 ccbb f63b 8e3c
000000a0: 6f5f 593c 5b47 283d d903 c4bc 2b9c e63c
000000b0: 817a 7fbc c3b4 203d 2097 0cbd 7ffa 233d
000000c0: cee7 80bd 2255 3a3c 7784 29bb 3b1a 083d
000000d0: f588 8a3c e803 babc 765f 0f3c 6193 133d
000000e0: 183d e03c be81 233d b6c9 8b3c 9f17 0d3d
000000f0: 6ff9 1bbd 2e72 c8bc 126e 2a3d c80f 083d
00000100: 0b0f 803d 1bdf f93a c07a 9dbb 7709 833d
00000110: e6d4 1b3c fdaa 91ba bbb4 9b3c 7a31 313d
00000120: 7e2b b53c 0772 083c 29e4 a23b 7037 333d
00000130: efcb c73c 4ae5 c03c 5fe3 363d 5fdd 903c
00000140: ce9d 9dba bd21 a23b eaaa e63c ccc4 103c
00000150: 5201 ff37 9745 e1bc 1b6f 113d 327a e83b
00000160: 29c5 583b 7127 f63b dd02 94bc 365e 0b3d
00000170: 0791 363d 2026 e83c 2bbd d33b c7ce ba3c
00000180: b69f 4c3d ee1f ce3c 02fa 23bd 7fe9 a53d
00000190: b6fa debc 3e86 b13c 045e 843c 9ea5 45bc
000001a0: 3a9e 2b3d cf01 c8bc 8e2e f93c ff62 123d
000001b0: 6862 30bd 758e 163c e8f0 7cb9 65f1 3c3d
000001c0: 844a 0d3d 5cf8 843d ce89 d03c 9af8 af3a
000001d0: db42 e53c 7d7c 6bbc 82f6 2c3d a5b6 553d
000001e0: 23ff 803c 315b 4e3c acfe a63c 41d7 033d
000001f0: 994f a0bc 7f97 a93c 0934 063d 6488 babc

network_body.linear_encoder.seq_layers.2.weight f4 [128, 128]
0.071425475 0.09062033 0.042056937 -0.19057335 0.043606568 0.023371147 -0.070084795 -0.05360585
-0.101658456 0.018281126 0.015957803 0.035043575 -0.06810314 -0.00683929 -0.0801505 0.053383697
-0.078721546 -0.043039873 -0.06439466 -0.018925937 -0.09698477 -0.09965699 -0.13803338 0.020086251
0.019969882 0.034155898 -0.0018338135 -0.04391693 -0.067138694 0.11464145 0.10895448 -0.080057405
-0.1276788 0.20031227 0.038249746 -0.03228138 0.010941169 -0.008033543 -0.10228009 0.030843321
-0.20362055 0.026588872 -0.039622102 0.004678969 -0.06562042 0.10820807 0.042566877 -0.008857671
0.0006218765 -0.049823284 -0.048423383 -0.031842347 -0.0047797943 0.07739557 -0.039152008 0.054962922
0.18579718 -0.1753291 -0.09423731 0.12417475 0.018179158 0.12753694 -0.010036712 0.03035381
0.002785519 -0.14198469 0.040913757 -0.012019769 -0.049617298 0.069955885 -0.013401703 -0.011148662
-0.02468596 0.03279938 0.0816779 0.026192266 -0.122441456 0.062146574 0.10370206 -0.01943468
-0.13519554 0.042391423 -0.025226504 -0.09220992 0.07604524 -0.062281653 0.0035575565 0.0075238654
-0.03315242 0.12736286 0.073218845 -0.02959213 0.16969776 0.0066275587 0.0015082306 -0.03139562
-0.014601068 -0.0685682 -0.19906972 -0.09407704 -0.02114591 0.15141557 0.15725325 0.102014355
0.042375565 -0.1244379 -0.009947714 -0.031319745 0.14275281 0.062219087 0.051963396 0.01362926
0.04431506 0.02152501 0.103318825 0.017680034 -0.095460206 -0.0757152 -0.020041933 0.05351751
0.14243513 -0.086433895 -0.0037050792 -0.11322607 -0.09326002 -0.034271196 -0.09587135 0.108965814
0.078395486 -0.046328418 -0.0760552 0.05947438 -0.10401188 0.120436564 0.025989905 0.027613267
-0.04745481 -0.0030207701 0.062382117 0.0672239 0.12145285 0.054088693 0.117313474 -0.032902908
-0.06581638 0.0883986 0.024560459 0.055112716 -0.021737367 0.17296357 0.0073309424 0.09348372
-0.13705184 -0.059990164 0.07159885 0.034684695 -0.018413316 0.012680634 0.008524763 0.08226011
0.114555575 0.009407365 -0.08861124 -0.10571216 0.13889778 0.13307227 0.121111676 -0.043651715
-0.17935656 0.00015206836 0.061431736 -0.06331192 -0.1759142 -0.09743322 -0.15268317 -0.047041792
0.05662916 0.13295995 0.024663964 -0.09457445 -0.16432334 -0.06876876 -0.015099707 -0.004686877
-0.101182826 -0.045875814 0.022995908 -0.16328172 -0.09159426 0.14546378 -0.01912864 0.005715255
-0.09033604 0.14318953 -0.027064454 0.03769985 0.028279906 0.022830242 0.012825836 0.064409696
-0.011298896 0.10395777 -0.0048216674 -0.06837593 0.15761057 0.033986557 0.035199955 -0.022590809
0.039605275 0.062074956 0.05985934 0.1088428 0.05528483 0.071123324 -0.024268676 0.09737238
0.08492042 4.185235e-05 0.08842368 -0.11642169 -0.08104751 -0.11133137 -0.050956175 -0.10090703
0.10497816 0.036908966 0.04488609 -0.17306173 -0.0232721 -0.17357185 0.013720961 -0.14927328
0.21313603 -0.0496401 0.03773191 0.16295114 -0.04013408 -0.08454775 -0.12140272 0.07303764
-0.015463045 -0.024245007 0.0075865076 -0.123122886 0.04360985 -0.019717561 -0.17566696 0.06865605
0.12684867 -0.032835983 0.13496332 0.009511446 -0.037254393 -0.072730854 0.003317052 0.089916125
00000000: 8547 923d 2797 b93d e543 2c3d a925 43be
00000010: cd9c 323d d974 bf3c 9e88 8fbd cf91 5bbd
00000020: 4f32 d0bd 4dc2 953c f0b9 823c da89 0f3d
00000030: a979 8bbd 1f1c e0bb f225 a4bd dda8 5a3d
00000040: c338 a1bd 944a 30bd 59e1 83bd 910a 9bbc
00000050: f39f c6bd f718 ccbd 9f58 0dbe ec8b a43c
00000060: e197 a33c 0ee7 0b3d 925c f0ba 3de2 33bd
00000070: 0380 89bd 23c9 ea3d 8723 df3d 23f5 a3bd
00000080: 3bbe 02be a91e 4d3e c4ab 1c3d 7b39 04bd
00000090: 9742 333c 1f9f 03bc 3978 d1bd 22ab fc3c
000000a0: e881 50be e8d0 d93c c94a 22bd 0952 993b
000000b0: 0064 86bd 319c dd3d 9b5a 2e3d c41f 11bc
000000c0: 6d05 233a 8013 4cbd 9957 46bd 1f6d 02bd
000000d0: d29f 9cbb 9281 9e3d db5d 20bd cd20 613d
000000e0: 9e41 3e3e 7989 33be 7eff c0bd 554f fe3d
000000f0: 75ec 943c 0b99 023e 0571 24bc 8ea8 f83c
00000100: 418d 363b 6f64 11be 2f95 273d 91ee 44bc
00000110: 823b 4bbd 0845 8f3d d192 5bbc e1a8 36bc
00000120: 363a cabc a558 063d be46 a73d 2a91 d63c
00000130: 96c2 fabd 688d 7e3d bf61 d43d 7a35 9fbc
00000140: b370 0abe a1a2 2d3d d0a7 cebc 8ed8 bcbd
00000150: 9bbd 9b3d 0c1b 7fbd e525 693b c28a f63b
00000160: d5ca 07bd 696b 023e c3f3 953d 326b f2bc
00000170: 40c5 2d3e fe2b d93b d2af c53a b298 00bd
00000180: 5139 6fbc 7c6d 8cbd efd8 4bbe 77ab c0bd
00000190: 303a adbc af0c 1b3e ff06 213e e7ec d03d
000001a0: 0092 2d3d 4cd9 febd bdfb 22bc 2249 00bd
000001b0: cb2d 123e 71d9 7e3d 92d7 543d 424d 5f3c
000001c0: b583 353d 3855 b03c d298 d33d b8d5 903c
000001d0: a480 c3bd 9210 9bbd fb2e a4bc 2d35 5b3d
000001e0: 84da 113e 4104 b1bd ead0 72bb 12e3 e7bd
000001f0: 1cff bebd f45f 0cbd 3358 c4bd 7829 df3d
00000200: d08d a03d dec2 3dbd d4c2 9bbd 689b 733d
00000210: 2e04 d5bd 72a7 f63d c8e8 d43c 3835 e23c
00000220: fa5f 42bd 1df8 45bb 6484 7f3d afac 893d
00000230: 46bc f83d 1b8c 5d3d 0c42 f03d 33c5 06bd
00000240: bdca 86bd 530a b53d 0433 c93c dfbd 613d
00000250: 9012 b2bc 5d1d 313e 6738 f03b 6574 bf3d
00000260: 5157 0cbe 3fb8 75bd 6ba2 923d 8a11 0e3d
00000270: 86d7 96bc 6fc2 4f3c 73ab 0b3c fd77 a83d
00000280: 1d9c ea3d 5921 1a3c cf79 b5bd 9e7f d8bd
00000290: 383b 0e3e 1944 083e 6609 f83d 24cc 32bd
000002a0: 3fa9 37be 8a74 1f39 d89f 7b3d aea9 81bd
000002b0: da22 34be 118b c7bd fa58 1cbe e5ae 40bd
000002c0: faf3 673d a726 083e 150c ca3c 40b0 c1bd
000002d0: 6144 28be a3d6 8cbd c364 77bc 6094 99bb
000002e0: f138 cfbd 47e8 3bbd ea61 bc3c 5333 27be
000002f0: c595 bbbd 75f4 143e aab3 9cbc 0947 bb3b
00000300: 1a02 b9bd 47a0 123e 46b6 ddbc 286b 1a3d
00000310: 43ab e73c 7d06 bb3c 7523 523c 3be9 833d
00000320: 011f 39bc d0e7 d43d 14ff 9dbb ae08 8cbd
00000330: aa64 213e 7d35 0b3d d42d 103d 5c10 b9bc
00000340: 2439 223d 4f42 7e3d 112f 753d f9e8 de3d
00000350: 5972 623d 1ba9 913d 1acf c6bc 2c6b c73d
00000360: c2ea ad3d 9e8a 2f38 7917 b53d 7f6e eebd
00000370: 3dfc a5bd b401 e4bd 6cb7 50bd 58a8 cebd
00000380: cafe d63d db2d 173d 7ada 373d 1837 31be
00000390: 22a5 bebc d2bc 31be e2cd 603c 18db 18be
000003a0: 5540 5a3e 6b53 4bbd c68c 1a3d aadc 263e
000003b0: a263 24bd 5f27 adbd fda1 f8bd c294 953d
000003c0: b658 7dbc 779d c6bc 3d98 f83b da27 fcbd
000003d0: 3ea0 323d b986 a1bc 0ae2 33be 8b9b 8c3d
000003e0: 9ee4 013e 067f 06bd d333 0a3e e5d5 1b3c
000003f0: 1098 18bd eaf3 94bd e662 593b f225 b83d

network_body.linear_encoder.seq_layers.2.bias f4 [128]
0.0061893407 0.01921185 -0.012988184 0.028520362 0.042630173 -0.0040769284 0.0070531424 0.0018987816
0.019889953 0.014492473 0.011414663 -0.021858765 0.015055463 -0.0024163616 0.041223403 0.04147379
0.037733763 0.010924922 0.04339343 0.033920415 -0.000745297 0.008129497 0.026522279 -0.0152832
-0.018952873 -0.028152207 0.015795257 0.04398141 0.019607943 0.038972706 0.002354899 0.011406135
0.025799893 0.023742894 0.06558052 0.03987734 -0.024057707 0.0017318748 0.0204116 0.04957186
0.011146642 0.01631464 0.010907789 0.006771233 0.028631557 0.06526809 0.03187767 0.020784423
0.023225872 0.047527388 0.008719156 0.030128473 0.020501602 0.020918038 0.03212134 -0.015024634
0.0305301 0.02489673 0.0031573705 0.0028854408 0.026270425 0.0665603 0.03536236 -0.00342864
0.044093296 0.01161343 0.022389034 0.0024468603 0.017676638 0.0069050915 0.04607186 0.009609925
-0.0025225931 0.03530059 0.03449274 0.01502483 -0.010697804 0.012894817 -0.004603981 0.029419577
-0.0043309866 0.031003574 0.006139493 0.020590337 0.026286654 0.07250585 0.0098759895 0.00798384
0.020214569 0.041044638 -0.004940583 0.04423992 0.026647933 -0.01482499 0.008215019 0.024593689
-0.0068190545 -0.0036458883 0.03743006 0.019260855 0.008678573 0.062435474 0.018511292 0.047031358
0.022694243 0.020604758 0.014304797 0.025803918 0.033115055 0.01067779 0.041852035 0.0052431994
0.011648144 0.05215199 0.0018258849 0.024156047 0.014321389 -0.016585546 -0.0027761322 -0.009033994
0.01634015 0.059969842 0.023504635 0.03559165 0.016490685 0.013931954 0.008071928 0.038105257
00000000: f4cf ca3b 2b62 9d3c 64cc 54bc 89a3 e93c
00000010: fa9c 2e3d c197 85bb 0c1e e73b 8ae0 f83a
00000020: 41f0 a23c d671 6d3c 9104 3b3c 2711 b3bc
00000030: 30ab 763c d25b 1ebb dfd9 283d 6ce0 293d
00000040: b88e 1a3d 72fe 323c 4fbd 313d 22f0 0a3d
00000050: 0960 43ba 9531 053c 4045 d93c 6366 7abc
00000060: 0e43 9bbc 759f e6bc 0e65 813c da25 343d
00000070: d6a0 a03c d8a1 1f3d a654 1a3b cce0 3a3c
00000080: 4c5a d33c 7580 c23c 144f 863d 6c56 233d
00000090: ab14 c5bc 1300 e33a 3a36 a73c dd0b 4b3d
000000a0: 68a0 363c 48a6 853c 95b6 323c 38e1 dd3b
000000b0: ba8c ea3c 47ab 853d 2992 023d 1844 aa3c
000000c0: 2f44 be3c 14ac 423d cada 0e3c fdcf f63c
000000d0: faf2 a73c 4e5c ab3c ab91 033d e229 76bc
000000e0: 431a fa3c 3af4 cb3c e3eb 4e3b aa19 3d3b
000000f0: 1335 d73c c450 883d 1fd8 103d 09b3 60bb
00000100: 2c9b 343d 4246 3e3c 3569 b73c 815b 203b
00000110: 99ce 903c 1b44 e23b d9b5 3c3d f272 1d3c
00000120: 1752 25bb 5a97 103d 4248 0d3d b42a 763c
00000130: d845 2fbc c844 533c fedc 96bb 5301 f13c
00000140: f3ea 8dbb 35fb fd3c cd2d c93b 11ad a83c
00000150: 1c57 d73c f27d 943d e7ce 213c a7ce 023c
00000160: 0699 a53c 6c1e 283d 9de4 a1bb eb34 353d
00000170: c44c da3c 84e4 72bc 4998 063c b478 c93c
00000180: 6072 dfbb dbef 6ebb 4350 193d f1c8 9d3c
00000190: 9330 0e3c 57bc 7f3d fea4 973c f4a3 403d
000001a0: 47e9 b93c 4fcb a83c ab5e 6a3c bd62 d33c
000001b0: a7a3 073d e6f1 2e3c 0a6d 2b3d 25cf ab3b
000001c0: dbd7 3e3c 539d 553d 8852 ef3a e7e2 c53c
000001d0: 42a4 6a3c 69de 87bc c5ef 35bb 5103 14bc
000001e0: c7db 853c f0a2 753d cb8c c03c 8dc8 113d
000001f0: 7917 873c da42 643c 1f40 043c 4214 1c3d

action_model._continuous_distribution.log_sigma f4 [1, 2]
-0.009177445 0.00044304802
00000000: ff5c 16bc e648 e839

action_model._continuous_distribution.mu.weight f4 [2, 128]
-0.0079571195 0.016966712 -0.0001522062 0.008273702 -0.0519851 -0.020268794 -0.022645123 -0.005279786
0.041464984 0.023783762 -0.031353008 -0.009175397 -0.038557313 -0.04477035 -0.05134937 -0.047770265
-0.027386576 -0.017802741 -0.066887185 -0.04750821 0.03157059 -0.019512698 0.006512505 -0.00031142563
-0.010736074 -0.0040262355 -0.05013297 0.006663198 0.028200671 -0.024633259 0.007351848 0.007038792
0.04252554 -0.021294877 0.02739423 0.05567112 0.010678923 0.044104863 0.03181947 0.058737908
0.014234027 -0.05778528 0.024677593 -0.03557123 -0.018051662 0.10395397 -0.024209794 -0.019148432
0.041577294 -0.010819308 0.0052393954 0.032336224 -0.054256037 -0.030826978 0.03279927 0.01960363
0.057162162 -0.0060932282 0.005919766 0.008491828 0.04213657 0.08055646 -0.076187946 0.048015058
-0.06442178 0.007280189 0.01983405 0.0017576686 -0.0125550805 0.02648815 0.03172707 0.023010232
-0.0018611546 -0.028518016 0.026280688 -0.033445362 -0.0027611535 -0.012869961 0.023116807 0.045309976
0.014006409 -0.020221056 -0.034110703 0.017999612 0.04710879 0.057725027 0.0317414 -0.02011961
-0.020232003 -0.024219679 0.0061662486 0.033739597 -0.033899046 -0.0086196475 0.0101661375 0.023568595
-0.008914369 -0.005801933 0.0007072492 0.054289185 0.025719807 0.0017520749 -0.00091079134 -0.06447727
0.009393412 0.040448815 -0.01202152 0.022284152 0.021168746 0.012174747 -0.00013697412 0.033471204
0.009637107 0.062204782 -0.031563155 -0.019043861 0.034028366 -0.0065982263 0.0036375523 0.004752327
0.016048497 0.028203366 0.035895295 0.049767133 0.006752508 0.03852145 -0.016001392 0.016386623
0.027222874 -0.0548558 0.019233264 -0.03414274 0.049721435 0.019915078 0.020247957 -0.035674628
0.027428644 -0.037501853 -0.005943616 -0.0057894303 0.0032469982 -0.002426928 0.02037879 0.026217707
0.013533456 -0.021859042 0.052626006 0.025071476 0.013471013 0.0044173165 0.062447116 0.011229834
0.0022829138 -0.008696717 -0.012134864 0.04457745 0.0027883877 -0.016416295 -0.019610448 -0.025968123
0.012618497 0.025403697 0.045984257 -0.0043258974 -0.021575542 0.022996543 0.01715352 0.038019814
-0.017208884 0.055657156 0.031341452 -0.019808184 -0.04688513 -0.0028684246 -0.05352698 -0.05800171
-0.027681826 -0.024379482 -0.011775397 0.0066418373 -0.03606368 0.015382884 0.023942297 0.013669728
0.066544384 -0.028211722 0.026600553 0.0100989025 -0.040701687 -0.023602627 0.022613548 -0.013967885
-0.06182778 -0.031840645 0.009877661 0.009781721 0.03758951 -0.018461766 0.007059339 -0.032814022
-0.043594457 -0.025202813 0.02294701 0.017958354 0.0024999878 -0.018244185 0.051350214 -0.016411569
-0.009978996 -0.052712332 -0.033160456 -0.03701452 -0.0015535995 0.036375012 -0.02907728 0.0036876982
-0.060843963 0.024841893 -0.025951724 0.0125207985 -0.06186884 -0.014357319 0.030247888 -0.003642149
0.02090864 0.0032901976 0.04474922 -0.013083728 -0.010735158 -0.07636226 -0.0681392 -0.014399201
0.029330727 0.019820323 0.01725117 -0.041866012 0.065640174 0.0236311 -0.06762907 -0.037241187
0.014689046 -0.024480991 -0.024681443 0.031062085 -0.03948543 -0.002799785 0.0072997855 -0.00033252017
-0.033575375 0.050480675 -0.0539392 -0.03498895 0.05313038 -0.005573496 0.026082011 -0.042545024
00000000: 945e 02bc c6fd 8a3c 8a99 1fb9 6c8e 073c
00000010: 54ee 54bd be0a a6bc 4482 b9bc 0e02 adbb
00000020: 30d7 293d 2ad6 c23c 036c 00bd 6854 16bc
00000030: 46ee 1dbd 1d61 37bd b853 52bd c1aa 43bd
00000040: d059 e0bc 0ed7 91bc 26fc 88bd f897 42bd
00000050: 2a50 013d 18d9 9fbc da66 d53b d746 a3b9
00000060: 5ce6 2fbc 83ee 83bb 3b58 4dbd f556 da3b
00000070: 1805 e73c b0cb c9bc c5e7 f03b aba5 e63b
00000080: 432f 2e3d 9872 aebc dd69 e03c 6607 643d
00000090: a6f6 2e3c 4da7 343d 2255 023d 2997 703d
000000a0: d635 693c 42b0 6cbd aa28 ca3c 23b3 11bd
000000b0: 14e1 93bc d2e5 d43d 9e53 c6bc 2cdd 9cbc
000000c0: f44c 2a3d 7843 31bc 3caf ab3b fd72 043d
000000d0: 943b 5ebd dc88 fcbc 8758 063d cb97 a03c
000000e0: df22 6a3d b4a9 c7bb 99fa c13b 4f21 0b3c
000000f0: 6597 2c3d c9fa a43d 6d08 9cbd 70ab 443d
00000100: 91ef 83bd a78e ee3b 057b a23c 9261 e63a
00000110: d3b3 4dbc adfd d83c 3ff4 013d f47f bc3c
00000120: fcf1 f3ba 9d9e e9bc 994a d73c 01fe 08bd
00000130: 78f4 34bb 87dc 52bc 755f bd3c f496 393d
00000140: 237b 653c a1a6 a5bc aab7 0bbd ec73 933c
00000150: 26f5 403d 1471 6c3d 4503 023d e1d1 a4bc
00000160: 96bd a5bc 5968 c6bc 3e0e ca3b 8832 0a3d
00000170: bad9 0abd 6c39 0dbc df8f 263c ed12 c13c
00000180: 930d 12bc 241e bebb b166 393a 565e 5e3d
00000190: 58b2 d23c e1a5 e53a 2cc2 6eba a90c 84bd
000001a0: d3e6 193c a8ad 253d e9f5 44bc 418d b63c
000001b0: 146a ad3c 9778 473c b6a0 0fb9 1a19 093d
000001c0: f5e4 1d3c 71ca 7e3d 5e48 01bd df01 9cbc
000001d0: 5461 0b3d ef35 d8bb 0064 6e3b 69b9 9b3b
000001e0: 2378 833c bf0a e73c f206 133d 9fd8 4b3d
000001f0: 2544 dd3b abc8 1d3d 5a15 83bc 3d3d 863c
00000200: 8102 df3c 7ab0 60bd 148f 9d3c 42d9 0bbd
00000210: b4a8 4b3d f224 a33c 0bdf a53c 8f1f 12bd
00000220: 09b2 e03c 8b9b 19bd aac2 c2bb 43b5 bdbb
00000230: 97cb 543b 180d 1fbb 6cf1 a63c 84c6 d63c
00000240: 6ebb 5d3c bc11 b3bc 5e8e 573d b262 cd3c
00000250: 86b5 5c3c 23bf 903b 8cc8 7f3d 56fd 373c
00000260: f09c 153b ad7c 0ebc 4fd1 46bc d896 363d
00000270: 62bd 363b 777b 86bc 17a6 a0bc 1abb d4bc
00000280: d0bd 4e3c 6a1b d03c fd59 3c3d 42c0 8dbb
00000290: 31bf b0bc 3f63 bc3c 8a85 8c3c aaba 1b3d
000002a0: a5f9 8cbc c2f8 633d e55f 003d c644 a2bc
000002b0: 9f0a 40bd 2efc 3bbb 1b3f 5bbd 3393 6dbd
000002c0: ffc4 e2bc 7bb7 c7bc 98ed 40bc c5a3 d93b
000002d0: 82b7 13bd 7e08 7c3c a322 c43c fff6 5f3c
000002e0: 6c48 883d 451c e7bc 67e9 d93c de75 253c
000002f0: d0b6 26bd 4c5a c1bc 0c40 b93c 8ed9 64bc
00000300: 203f 7dbd 566b 02bd ead5 213c 8343 203c
00000310: 75f7 193d 213d 97bc 0752 e73b ff67 06bd
00000320: 1a90 32bd 2176 cebc 5efb bb3c 661d 933c
00000330: d6d6 233b d474 95bc 9a54 523d 8e71 86bc
00000340: f17e 23bc e3e8 57bd 42d3 07bd 8a9c 17bd
00000350: 26a2 cbba f7fd 143d 7a33 eebc 4fad 713b
00000360: 8537 79bd 3a81 cb3c b698 d4bc 0924 4d3c
00000370: 2e6a 7dbd f63a 6bbc 6bca f73c 1fb1 6ebb
00000380: 9948 ab3c 5ba0 573b f54a 373d 225d 56bc
00000390: 84e2 2fbc d163 9cbd 918c 8bbd a0ea 6bbc
000003a0: fe46 f03c 3b5e a23c 5352 8d3c b27b 2bbd
000003b0: 5b6e 863d 0296 c13c 1c81 8abd 378a 18bd
000003c0: 53aa 703c 5c8c c8bc bd30 cabc ea75 fe3c
000003d0: 79bb 21bd 997c 37bb 0a33 ef3b 1a56 aeb9
000003e0: 5586 09bd d3c4 4e3d 5aef 5cbd 9350 0fbd
000003f0: 3e9f 593d e0a1 b6bb f1a9 d53c b143 2ebd

action_model._continuous_distribution.mu.bias f4 [2]
-0.0005018934 -0.0018450916
00000000: 7f91 03ba 00d7 f1ba

exp_avg f4 [128, 6]
-4.787071e-07 -8.7753215e-05 -1.171706e-05 -4.6525405e-05 -5.7408684e-05 0.00019995219 -0.0004966955 0.0001182445
0.00063006 -0.000560529 0.000114119655 0.0004933182 -6.217997e-06 1.7352588e-05 -4.230233e-05 3.107725e-05
1.9630095e-06 8.435392e-05 -0.0009426487 0.00017132414 0.0003239039 -0.0005618284 0.00014372928 0.00057076674
0.0011137397 -0.00019864218 -0.0014837018 0.0008387015 -0.00015394515 -0.0013394966 -0.0001539877 5.8426144e-06
0.00023021383 -0.00018351918 7.9695765e-06 0.00021643558 -9.006501e-05 -2.1056705e-05 -0.00019609927 -5.1532843e-06
2.0285544e-05 6.223022e-05 -2.4801593e-05 -2.8857885e-05 0.00018860199 2.9598668e-05 -4.3238935e-05 5.420303e-06
0.0009578697 -0.00019520456 -0.0013623461 0.0009104908 -0.00017383925 -0.0013232206 -0.00084457494 0.00016808261
0.0005934101 -0.00080446666 0.00014228393 0.00083068386 0.00077707815 -0.00019452319 -0.0017121457 0.0007090307
-0.00017622986 -0.0014451978 0.0001279136 -5.5906835e-06 -2.289209e-05 5.551199e-05 -2.0681273e-06 -5.112376e-05
-9.657722e-05 3.4040813e-06 -8.43007e-05 8.022896e-05 -2.1631953e-05 7.795205e-05 -0.000101922895 2.9860603e-06
3.587331e-05 3.6697616e-05 5.014646e-06 0.00012879889 0.00019576264 1.5332862e-06 1.1039425e-05 9.801675e-05
-9.0032154e-07 -5.786289e-05 7.2500836e-05 9.607476e-06 -8.278488e-05 5.9620717e-05 3.1030695e-06 -0.0001856591
0.00012468045 -1.6863985e-05 0.000112854585 0.00010013174 -2.877338e-05 -4.623489e-06 7.071569e-05 3.0373762e-06
-8.719925e-05 -2.0260577e-05 1.1419151e-05 -7.6333245e-06 0.00023789656 -1.8387539e-06 -1.0854126e-05 7.4732e-05
4.7605063e-05 0.00023739164 0.00023995605 5.3660115e-06 -0.00012225629 2.8954855e-05 4.7554473e-05 -2.5573756e-05
-0.00011534439 -5.303663e-05 1.5945321e-05 -3.550193e-05 -4.782874e-05 -0.00012467014 9.11174e-05 -8.07458e-06
-2.0912063e-05 -1.2731458e-05 -9.883115e-07 0.00013438267 -9.8396195e-05 -1.7190694e-05 -7.350075e-05 6.786677e-05
-1.7796681e-05 4.1008745e-05 -0.0010545697 0.00025010764 0.0021209256 -0.0011160029 0.0002143468 0.001893352
-0.00043179153 -5.63137e-06 0.0005523003 -0.00054183457 -1.7987002e-05 0.00044707913 0.00010584643 5.3092003e-06
6.009005e-05 0.00010414512 -1.2541742e-05 -5.7770783e-05 0.0002808685 -3.928005e-05 0.00011255287 3.4782643e-05
2.194518e-06 8.1341364e-05 5.719711e-05 -2.1611282e-05 9.170288e-06 -3.90064e-05 -2.1738082e-05 4.6464324e-06
-6.71742e-05 1.0873094e-05 -0.0001824343 4.23386e-05 9.057535e-06 -8.265398e-05 0.0011918783 -0.00025509766
-0.0013373845 0.00073180534 -0.00019327705 -0.0013518778 5.1060706e-05 -8.01033e-05 -3.020398e-05 -0.00016338885
-4.3270415e-05 -0.00014300102 -0.00021268585 6.258339e-05 0.00037204043 -0.00043446696 7.262361e-05 0.00025729535
-0.0014699829 0.00027506668 0.0017554502 -0.0014310525 0.00022782199 0.0016993376 0.0006402657 -7.989806e-05
-0.000750728 0.0006796845 -5.5566732e-05 -0.00066748884 0.00023240189 -1.4309935e-06 -0.00035118626 0.0001426325
1.1936438e-05 -0.00026657523 -0.00010968551 1.2974094e-05 0.00011513912 -0.0001387347 1.8764902e-05 8.187912e-05
0.0002908919 -3.332051e-05 -0.00035255044 0.00030816306 -2.6326854e-05 -0.0002716503 -0.00079478207 6.0838636e-05
0.00080139475 -0.0008610346 7.8660014e-05 0.000829384 1.2730918e-05 7.905355e-06 2.4832163e-05 -1.913715e-06
4.287132e-05 0.0002511901 -0.0005273389 9.158795e-05 0.0006431157 -0.0006244945 8.632847e-05 0.00050649984
3.138229e-05 -1.922829e-05 -0.00015722653 -0.0004095388 -1.5936994e-05 -0.00021235627 0.00028427373 -9.063307e-05
-0.0003183387 5.061931e-05 -7.861152e-05 -0.00029845658 -0.0005967768 0.00015812072 0.00044698996 -0.00039601378
00000000: 8080 00b5 2608 b8b8 6494 44b7 4624 43b8
00000010: 1bca 70b8 42aa 5139 ac34 02ba 08fa f738
00000020: 9c2a 253a 77f0 12ba 8653 ef38 0652 013a
00000030: 30a4 d0b6 6690 9137 c86d 31b8 f158 0238
00000040: 3fbc 0336 2ae7 b038 151c 77ba 79a5 3339
00000050: a5d1 a939 aa47 13ba 09b6 1639 829f 153a
00000060: e7fa 913a 9b4a 50b9 c578 c2ba 4edc 5b3a
00000070: 566c 21b9 0c92 afba c277 21b9 ad0b c436
00000080: 8e65 7139 0e6f 40b9 12b5 0537 fcf2 6239
00000090: 49e1 bcb8 eea2 b0b7 ff9f 4db9 60ea acb6
000000a0: e02a aa37 9881 8238 040d d0b7 d613 f2b7
000000b0: 76c3 4539 a84a f837 745b 35b8 0ce0 b536
000000c0: 8c19 7b3a d3af 4cb9 c090 b2ba 01ae 6e3a
000000d0: 9e48 36b9 ea6f adba 7766 5dba 553f 3039
000000e0: 148f 1b3a d8e2 52ba 0d32 1539 40c2 593a
000000f0: d5b4 4b3a ecf8 4bb9 146a e0ba 3fde 393a
00000100: 58ca 38b9 cb6c bdba 8c20 0639 9b97 bbb6
00000110: 6408 c0b7 8cd5 6838 28ca 0ab6 b86d 56b8
00000120: 8089 cab8 ac71 6436 98ca b0b8 9840 a838
00000130: 4476 b5b7 307a a338 70bf d5b8 2064 4836
00000140: ac76 1638 c4eb 1938 7b43 a836 300e 0739
00000150: a245 4d39 50cb cd35 f835 3937 588e cd38
00000160: a0ad 71b5 ceb1 72b8 970b 9838 cc2f 2137
00000170: cb9c adb8 4211 7a38 543e 5036 7cad 42b9
00000180: a7bc 0239 2277 8db7 58ac ec38 d2fd d138
00000190: 5d5e f1b7 7823 9bb6 324d 9438 bad5 4b36
000001a0: bede b6b8 42f5 a9b7 e194 3f37 e110 00b7
000001b0: df73 7939 1acb f6b5 1e1a 36b7 70b9 9c38
000001c0: 8cab 4738 55ec 7839 b69c 7b39 b00d b436
000001d0: ec31 00b9 14e4 f237 3a75 4738 3987 d6b7
000001e0: 0ce5 f1b8 a673 5eb8 51c2 8537 e8e7 14b8
000001f0: b89b 48b8 e3b9 02b9 4816 bf38 0f78 07b7
00000200: 506c afb7 3299 55b7 20a6 84b5 13e9 0c39
00000210: 0e5a ceb8 bc34 90b7 6a24 9ab8 b253 8e38
00000220: 154a 95b7 ce00 2c38 7d39 8aba e120 8339
00000230: 3aff 0a3b d846 92ba 48c2 6039 5a2a f83a
00000240: 1462 e2b9 1af5 bcb6 3fc8 103a e709 0eba
00000250: cbe2 96b7 f265 ea39 dff9 dd38 af25 b236
00000260: 3309 7c38 7c68 da38 5f6a 52b7 e84e 72b8
00000270: 8841 9339 a2c0 24b8 5d0a ec38 94e3 1138
00000280: 8845 1336 d095 aa38 eee6 6f38 e049 b5b7
00000290: 16da 1937 ce9a 23b8 2d5a b6b7 8de8 9b36
000002a0: e0df 8cb8 956b 3637 d64b 3fb9 ba94 3138
000002b0: d1f5 1737 8556 adb8 cd38 9c3a a1be 85b9
000002c0: 2d4b afba a0d6 3f3a 6aaa 4ab9 7e31 b1ba
000002d0: 042a 5638 22fd a7b8 8e5e fdb7 5c53 2bb9
000002e0: 417d 35b8 8bf2 15b9 6c04 5fb9 343f 8338
000002f0: 6c0e c339 2bc9 e3b9 814d 9838 99e5 8639
00000300: 71ac c0ba d336 9039 2217 e63a 2792 bbba
00000310: 80e3 6e39 4fbc de3a 81d7 273a f28e a7b8
00000320: 81cc 44ba db2c 323a 5310 69b8 6bfa 2eba
00000330: e8b0 7339 9010 c0b5 6c1f b8b9 9f8f 1539
00000340: 9c42 4837 1fc3 8bb9 f606 e6b8 4fab 5937
00000350: d876 f138 5079 11b9 5269 9d37 85b6 ab38
00000360: da82 9839 a0c1 0bb8 85d6 b8b9 f290 a139
00000370: 7dd8 dcb7 496c 8eb9 ec58 50ba fd2c 7f38
00000380: b114 523a 0eb7 61ba 46f6 a438 056b 593a
00000390: e096 5537 3ea1 0437 aa4e d037 606d 00b6
000003a0: bbd0 3338 2ab2 8339 1d3d 0aba e812 c038
000003b0: c496 283a 1eb5 23ba 3f0b b538 a1c6 043a
000003c0: 7aa0 0338 704c a1b7 2ddd 24b9 5eb7 d6b9
000003d0: 6fb0 85b7 f4ab 5eb9 930a 9539 4212 beb8
000003e0: b2e6 a6b9 1250 5438 3ddc a4b8 2a7a 9cb9
000003f0: 0371 1cba 35cd 2539 fa59 ea39 12a0 cfb9

exp_avg_sq f4 [128, 6]
1.9189945e-06 8.3898975e-08 3.1782129e-06 2.5332345e-06 1.2516126e-08 3.5223204e-06 1.313051e-06 4.263568e-08
1.6641466e-06 1.384937e-06 6.4740733e-09 2.143478e-06 5.9841767e-07 1.6919568e-08 5.2266233e-07 6.302149e-07
2.5161637e-09 6.374232e-07 1.6272865e-06 3.917313e-08 2.5667164e-06 1.7351329e-06 1.2402637e-08 2.2952343e-06
1.3701004e-06 4.0213525e-08 1.8564205e-06 1.4571897e-06 1.2730995e-08 2.108166e-06 3.031699e-07 8.1348945e-09
4.067249e-07 3.0119347e-07 2.1900308e-09 4.426136e-07 1.4447274e-06 3.487233e-08 1.4061336e-06 1.5954735e-06
9.074622e-09 1.4574819e-06 7.971359e-07 3.09513e-08 1.4799115e-06 9.348004e-07 4.7852544e-09 1.7006952e-06
1.622168e-06 3.9857365e-08 2.0309622e-06 1.7031459e-06 1.3258765e-08 2.1223434e-06 8.6892214e-07 2.4053815e-08
1.5367926e-06 9.4023454e-07 6.68827e-09 1.445397e-06 1.6500152e-06 3.9809883e-08 2.1090289e-06 1.4872165e-06
1.386884e-08 2.1868595e-06 3.264449e-07 9.481039e-09 1.9297359e-07 3.8180198e-07 1.3243122e-09 3.76174e-07
6.7247225e-07 2.6062201e-08 9.2370743e-07 7.010945e-07 4.199152e-09 1.061761e-06 1.3919394e-07 5.762278e-09
2.2433423e-07 1.5275377e-07 1.3272645e-09 2.6182605e-07 1.0200532e-06 3.7874003e-08 1.4520775e-06 1.1070775e-06
4.16742e-09 1.894155e-06 3.1447408e-07 1.3444145e-08 6.7994205e-07 3.6256128e-07 1.4423254e-09 7.936163e-07
3.2965244e-07 9.116566e-09 2.7371232e-07 4.0720602e-07 1.6732618e-09 3.0946433e-07 1.473382e-07 3.584224e-09
1.6227595e-07 1.4324263e-07 5.960576e-10 1.5401486e-07 9.78905e-07 3.0161466e-08 1.0044971e-06 8.7547744e-07
8.09969e-09 1.1379201e-06 1.7508873e-06 5.188735e-08 1.8135156e-06 1.6943299e-06 1.0687788e-08 2.0228315e-06
5.203398e-07 2.0132845e-08 8.724275e-07 6.5277237e-07 2.1422266e-09 1.0190522e-06 4.2274277e-07 1.9189804e-08
9.0373055e-07 5.358666e-07 1.8566055e-09 8.901017e-07 6.4382743e-07 1.6135267e-08 6.285197e-07 8.705018e-07
2.3523838e-09 6.091774e-07 2.9636337e-06 7.7812906e-08 4.428255e-06 2.5219094e-06 3.3679175e-08 3.9006272e-06
4.2205778e-07 1.2691125e-08 4.5204948e-07 6.3294135e-07 3.0317655e-09 4.6009947e-07 2.8748937e-07 8.303976e-09
3.7290565e-07 2.9149228e-07 1.2427477e-09 4.2888806e-07 2.3811044e-06 7.2868076e-08 2.2688635e-06 2.4897438e-06
1.4307412e-08 2.847091e-06 1.0830098e-07 3.327318e-09 9.48535e-08 1.3876222e-07 3.0420513e-10 1.3739596e-07
5.0377986e-07 1.3910118e-08 8.79879e-07 4.5764025e-07 5.3576032e-09 9.0595313e-07 4.850587e-06 1.13933275e-07
4.977576e-06 5.0617764e-06 2.576145e-08 5.132579e-06 1.4362432e-06 6.1869024e-08 2.7262786e-06 1.7949728e-06
8.990433e-09 2.7588776e-06 2.8291208e-07 9.809309e-09 6.0071164e-07 2.6797008e-07 2.180313e-09 4.880144e-07
4.243161e-06 1.15105166e-07 7.265942e-06 3.8899802e-06 3.2593583e-08 6.116796e-06 6.5798815e-07 1.9965457e-08
7.725268e-07 7.081096e-07 7.3960296e-09 8.307905e-07 2.568726e-06 6.436814e-08 3.1161096e-06 2.7193414e-06
1.7233862e-08 3.1529603e-06 6.701914e-07 1.4091571e-08 6.184106e-07 6.98055e-07 3.1287841e-09 5.6970396e-07
2.3020128e-07 6.767966e-09 2.536818e-07 2.792193e-07 2.6007227e-09 3.1303483e-07 1.9684392e-06 3.7335017e-08
1.983596e-06 1.72013e-06 1.1654045e-08 2.174584e-06 4.4624844e-07 1.2500017e-08 4.9178135e-07 4.8640067e-07
3.316757e-09 5.7417e-07 2.1215044e-06 5.4812087e-08 2.1971764e-06 2.094013e-06 9.291727e-09 2.685013e-06
1.7956619e-06 5.2037812e-08 1.7338104e-06 2.3562404e-06 7.667918e-09 1.8258537e-06 5.7090915e-07 2.0177119e-08
1.0180925e-06 6.489299e-07 3.5183796e-09 1.157076e-06 1.1887712e-06 4.0255856e-08 2.432691e-06 1.4036059e-06
00000000: 13c8 0036 f32b b433 4849 5536 a300 2a36
00000010: 8106 5732 0161 6c36 173c b035 6d1e 3733
00000020: a45b df35 13e2 b935 8d72 de31 acd8 0f36
00000030: f3a2 2035 8656 9132 154d 0c35 0a2c 2935
00000040: d2e8 2c31 641b 2b35 2369 da35 503f 2833
00000050: da3f 2c36 b6e2 e835 6013 5532 d307 1a36
00000060: 4be4 b735 3db7 2c33 1f2a f935 a894 c335
00000070: 82b7 5a32 047a 0d36 5bc3 a234 a5c1 0b32
00000080: d85b da34 b7b3 a134 6e7f 1631 5aa0 ed34
00000090: 75e8 c135 88c6 1533 62ba bc35 0d24 d635
000000a0: 9ce6 1b32 b29e c335 c3fa 5535 50ef 0433
000000b0: 5fa1 c635 ffee 7a35 8b6b a431 7143 e435
000000c0: 45b9 d935 a32f 2b33 aa4b 0836 a697 e435
000000d0: aac8 6332 956d 0e36 e03f 6935 e69e ce32
000000e0: cb43 ce35 6d64 7c35 a5ce e531 76ff c135
000000f0: 1776 dd35 6efb 2a33 d788 0d36 5f9c c735
00000100: ce43 6e32 f6c1 1236 3f42 af34 0de2 2232
00000110: 2d34 4f34 77fa cc34 1803 b630 f6f4 c934
00000120: f183 3435 63df df32 b1f4 7735 d932 3c35
00000130: 2248 9031 d581 8e35 5775 1534 89fd c531
00000140: 86e0 7034 a304 2434 f86a b630 1991 8c34
00000150: c3e8 8835 e8aa 2233 01e5 c235 e596 9435
00000160: 0431 8f31 ac3a fe35 fdd4 a834 faf7 6632
00000170: 4385 3635 0ba6 c234 503b c630 e608 5535
00000180: 16fb b034 159f 1c32 bcf2 9234 f89d da34
00000190: aaf8 e530 7424 a634 0434 1e34 564e 7631
000001a0: 133e 2e34 3cce 1934 d3d7 2330 485f 2534
000001b0: eb62 8335 e28a 0133 42d2 8635 5a02 6b35
000001c0: d026 0b32 a3ba 9835 0800 eb35 bfda 5e33
000001d0: ec67 f335 bb68 e335 649d 3732 fbbf 0736
000001e0: 7bad 0b35 98f0 ac32 c330 6a35 2d3a 2f35
000001f0: 7336 1331 5ec6 8835 53f5 e234 d3d6 a432
00000200: e497 7235 79d8 0f35 802b ff30 53ef 6e35
00000210: 7cd3 2c35 d499 8a32 8bb7 2835 6eac 6935
00000220: 93a7 2131 5a86 2335 d7e2 4636 191a a733
00000230: 6c96 9436 133e 2936 a5a6 1033 22e2 8236
00000240: 2e97 e234 2808 5a32 35b1 f234 66e7 2935
00000250: 6257 5031 9703 f734 3d58 9a34 46a9 0e32
00000260: c333 c834 657e 9c34 4ccd aa30 ed41 e634
00000270: 10cb 1f36 a67b 9c33 c742 1836 7915 2736
00000280: aacc 7532 a710 3f36 1893 e833 cca6 6431
00000290: 43b2 cb33 abfe 1434 113d a72f 1d87 1334
000002a0: 7d3b 0735 59f9 6e32 d330 6c35 99b1 f534
000002b0: fa15 b831 a030 7335 3ac2 a236 7bab f433
000002c0: 0d05 a736 54d8 a936 074a dd32 8538 ac36
000002d0: f1c4 c035 dbdc 8433 1cf5 3636 ccea f035
000002e0: 5874 1a32 2825 3936 24e3 9734 cc85 2832
000002f0: 9740 2135 87dd 8f34 79d4 1531 1800 0335
00000300: 7a60 8e36 bc2f f733 f7cd f336 ad86 8236
00000310: 06fd 0b33 e13e cd36 9aa0 3035 8180 ab32
00000320: a35f 4f35 ec14 3e35 2a20 fe31 7d03 5f35
00000330: 6062 2c36 c23a 8a33 5b1e 5136 ee7d 3636
00000340: aa09 9432 7297 5336 34e7 3335 6217 7232
00000350: da00 2635 f961 3b35 2702 5731 c2ed 1835
00000360: 3f2d 7734 a98b e831 c331 8834 9ce7 9534
00000370: 66b8 3231 2e0f a834 8719 0436 495a 2033
00000380: eb1d 0536 37df e635 0837 4832 12ef 1136
00000390: eb93 ef34 a8bf 5632 f502 0435 3391 0235
000003a0: 02ed 6331 a920 1a35 2b5f 0e36 876a 6b33
000003b0: 3473 1336 df86 0c36 73a1 1f32 2c30 3436
000003c0: 7902 f135 2e80 5f33 46b5 e835 e71f 1e36
000003d0: dcbb 0332 db0f f535 9440 1935 f451 ad32
000003e0: 64a5 8835 2032 2e35 fdc7 7131 d44c 9b35
000003f0: de8d 9f35 c8e5 2c33 5041 2336 8863 bc35

exp_avg f4 [128]
-0.00011548953 0.00022826908 4.0549144e-06 0.00028744168 -0.00030797496 1.589731e-05 4.036462e-05 -8.641702e-05
-0.00034778914 0.00028450412 -0.00035246616 -4.3121163e-06 -4.327982e-05 9.9671815e-06 -1.6005033e-06 6.3905645e-06
-5.741709e-05 2.2724911e-05 9.483981e-05 9.474708e-05 -9.565249e-05 -2.2591557e-06 -3.5764453e-05 0.0004285697
-3.6074067e-05 -2.4930636e-05 3.8663566e-06 -4.3431235e-05 1.8086545e-05 -0.000386593 -8.703156e-05 0.00014497802
0.00045546537 -0.000111256115 2.351373e-05 3.7333244e-05 -5.2624662e-05 0.00015699479 8.5718144e-05 0.00017258318
-3.176051e-05 -0.0001575195 0.0002701984 0.00015409886 4.555366e-06 -3.0036252e-05 0.00011417375 -0.00024887462
0.0001675417 -4.730078e-05 0.00021943454 -0.00039655415 -1.2553646e-05 3.7246293e-05 7.870544e-05 -0.00013205274
1.7262028e-05 0.00012989927 -0.00013477949 -0.00024756617 -4.0604788e-05 0.0002991529 -0.00018160274 -0.000100482146
-2.336298e-05 3.7741913e-05 8.8911846e-05 -0.00017909413 0.00017750886 -0.000119347984 0.00013271051 -4.6595364e-05
-5.7216927e-05 -1.780201e-05 9.817788e-05 0.00019341227 7.7047865e-05 -0.00012547139 -8.9934285e-05 -0.00014507164
-4.7352296e-06 -2.2221426e-05 -4.216033e-05 0.00021262458 -0.00018113758 -1.8271814e-05 1.9022365e-05 -0.00017417363
-0.00012480005 0.0001450224 -5.2564163e-05 -5.8586567e-05 -0.00037377604 -0.00012759553 0.00016643683 -4.454976e-05
0.00014261386 9.9946614e-05 4.45784e-05 -0.00012355474 -2.8269184e-05 2.0432353e-05 -1.7855098e-05 0.00020763076
-3.7427882e-05 2.9628205e-05 -0.00025238478 -0.00016202507 -2.660609e-05 0.0001024557 -3.452079e-05 2.3946817e-05
-4.4610795e-05 -1.9699584e-05 -0.00010291236 -8.8020715e-07 -1.4478556e-05 -3.7671798e-06 -1.930417e-06 -7.3706788e-06
-7.5102034e-06 -5.404694e-05 0.00011895664 -0.0002323159 -1.6531234e-05 -1.3391618e-06 -0.00013626573 0.00015362226
00000000: f832 f2b8 845b 6f39 730f 8836 c5b3 9639
00000010: b377 a1b9 375b 8537 2e4d 2938 c93a b5b8
00000020: 7857 b6b9 7f29 9539 35cb b8b9 ccb0 90b6
00000030: 5a87 35b8 b838 2737 e0d0 d6b5 886e d636
00000040: 22d3 70b8 60a1 be37 bce4 c638 f4b2 c638
00000050: 0a99 c8b8 009c 17b6 ca01 16b8 a7b1 e039
00000060: 3c4e 17b8 2222 d1b7 c0bb 8136 ef29 36b8
00000070: 8fb8 9737 a2af cab9 b784 b6b8 3e05 1839
00000080: 87cb ee39 2c52 e9b8 5a3f c537 4496 1c38
00000090: 4db9 5cb8 f89e 2439 94c3 b338 72f7 3439
000000a0: 9736 05b8 d22b 25b9 6aa9 8d39 9995 2139
000000b0: 4cda 9836 5cf6 fbb7 9170 ef38 637b 82b9
000000c0: 22ae 2f39 d364 46b8 0318 6639 99e8 cfb9
000000d0: 809d 52b7 e738 1c38 a90e a538 a377 0ab9
000000e0: eccd 9037 9235 0839 9853 0db9 c5cb 81b9
000000f0: 0f4f 2ab8 9fd7 9c39 9d6c 3eb9 f1b9 d2b8
00000100: 9efb c3b7 124d 1e38 2f76 ba38 37cb 3bb9
00000110: ac21 3a39 764a fab8 3528 0b39 646f 43b8
00000120: 35fc 6fb8 8655 95b7 d9e4 cd38 b6ce 4a39
00000130: c294 a138 f890 03b9 1a9b bcb8 5f1e 18b9
00000140: 50e3 9eb6 2668 bab7 4fd5 30b8 faf3 5e39
00000150: c0ef 3db9 6c46 99b7 3892 9f37 61a2 36b9
00000160: c2dc 02b9 2711 1839 5778 5cb8 d9ba 75b8
00000170: 5ff7 c3b9 2acb 05b9 8c85 2e39 f1da 3ab8
00000180: 9e8a 1539 6e9a d138 b1f9 3a38 798e 01b9
00000190: 9c23 edb7 2566 ab37 88c7 95b7 75b7 5939
000001a0: e2fb 1cb8 168a f837 8352 84b9 46e5 29b9
000001b0: 2530 dfb7 7cdd d638 6bca 10b8 66e1 c837
000001c0: 7a1c 3bb8 8940 a5b7 a7d2 d7b8 6047 6cb5
000001d0: ede8 72b7 a8cf 7cb6 508c 01b6 a651 f7b6
000001e0: 2800 fcb6 76b0 62b8 5c78 f938 d399 73b9
000001f0: 8eac 8ab7 40bd b3b5 8ee2 0eb9 a915 2139

exp_avg_sq f4 [128]
3.610734e-07 1.8695779e-07 7.2348286e-08 1.6817908e-07 1.6708542e-07 3.4716614e-08 1.5262819e-07 1.2770863e-07
1.6329977e-07 9.840968e-08 1.631304e-07 4.1113736e-08 1.1345734e-07 2.4965564e-08 1.6790032e-07 5.808342e-08
3.8909743e-08 1.6364528e-08 1.2941796e-07 2.141877e-07 9.02171e-08 8.2134775e-08 6.992131e-08 3.326388e-07
5.31878e-08 3.4044028e-08 2.9920167e-07 1.4508342e-08 5.734909e-08 4.652778e-07 2.632167e-07 4.358687e-08
4.8879e-07 8.471103e-08 2.685262e-07 6.005167e-08 2.7696805e-08 1.5332317e-07 5.240212e-08 2.3790932e-07
2.2577495e-07 8.994111e-08 1.7188961e-07 5.8040687e-08 5.6756257e-08 2.104579e-07 8.919889e-08 2.028874e-07
5.702445e-08 2.481359e-07 2.3950574e-07 3.03175e-07 2.287934e-07 2.8576132e-08 4.3875023e-08 4.3100396e-08
2.1118526e-08 2.7859164e-07 1.6822883e-08 1.2520377e-07 2.5646964e-08 8.917058e-08 9.337156e-08 4.7730524e-08
2.4154664e-07 3.2264133e-08 9.0326026e-08 2.8629478e-07 7.209055e-08 1.4917224e-07 2.6399766e-07 1.3472892e-07
8.176196e-08 8.073948e-08 2.3134102e-07 2.4822964e-07 2.1232642e-08 3.121971e-07 1.2353657e-07 1.9298842e-07
1.6769012e-07 2.8285697e-08 1.5412686e-08 1.2864749e-07 1.9228628e-07 5.3019253e-08 3.1790137e-07 7.705937e-08
7.7486284e-08 1.1825086e-07 3.099647e-08 1.6640604e-08 4.0159392e-07 1.2390021e-07 9.776893e-08 1.7045032e-07
3.928735e-08 1.10246624e-07 2.6588392e-08 8.2387665e-08 2.173777e-08 8.70388e-08 4.9230042e-08 1.15832876e-07
2.3699045e-07 7.289335e-08 9.368368e-08 8.042809e-08 1.2120436e-08 2.0417193e-07 2.2378186e-08 9.56663e-08
1.7739163e-07 1.4681e-07 5.9022423e-08 7.653857e-08 1.9682188e-08 8.18608e-08 3.2076053e-07 6.5798886e-08
7.54275e-08 5.4312114e-08 7.038923e-08 1.79251e-07 5.341296e-08 4.5306628e-08 2.7850496e-07 1.17600756e-07
00000000: 8dd9 c134 91be 4834 e45d 9b33 b794 3434
00000010: 1768 3334 521b 1533 1ee2 2334 4820 0934
00000020: 8057 2f34 4b55 d333 f128 2f34 0895 3033
00000030: d5a5 f333 db73 d632 1748 3434 6577 7933
00000040: b71d 2733 fa91 8c32 23f6 0a34 77fb 6534
00000050: 60bd c133 1262 b033 a627 9633 8795 b234
00000060: 9b70 6433 ce37 1233 f7a1 a034 5d40 7932
00000070: fe4f 7633 4bcb f934 3a50 8d34 4534 3b33
00000080: 6535 0335 62ea b533 f629 9034 c1f5 8033
00000090: ebe9 ed32 27a1 2434 be10 6133 0474 7f34
000000a0: 8c6c 7234 a625 c133 a890 3834 6948 7933
000000b0: 2ac4 7333 3afa 6134 9c8d bf33 44d9 5934
000000c0: 0ceb 7433 8a37 8534 6b95 8034 0ec4 a234
000000d0: 40aa 7534 9477 f532 1971 3c33 631d 3933
000000e0: 2168 b532 5891 9534 e981 9032 c06f 0634
000000f0: 454e dc32 0b7e bf33 8f83 c833 4400 4d33
00000100: ebad 8134 ca92 0a33 42f9 c133 0eb4 9934
00000110: 33d0 9a33 272c 2034 90bb 8d34 01aa 1034
00000120: 1d95 af33 0063 ad33 8966 7834 6c44 8534
00000130: 1363 b632 0b9c a734 79a5 0434 4138 4f34
00000140: 4f0e 3434 e8f8 f232 db64 8432 5a22 0a34
00000150: 4077 4e34 49b7 6333 08ac aa34 d67b a533
00000160: 8966 a633 19f1 fd33 fb20 0533 13f1 8e32
00000170: a69a d734 6e09 0534 0af5 d133 0705 3734
00000180: e6bc 2833 b9c0 ec33 7e64 e432 19ed b033
00000190: ddb9 ba32 16ea ba33 0171 5333 ccbf f833
000001a0: 7077 7e34 8b89 9c33 262f c933 cfb7 ac33
000001b0: 3e3a 5032 5a3a 5b34 273a c032 1b71 cd33
000001c0: 0a79 3e34 d3a2 1d34 d77f 7d33 865d a433
000001d0: 9711 a932 73cb af33 fe34 ac34 524d 8d33
000001e0: b5fa a133 cd44 6933 e328 9733 2478 4034
000001f0: 2c68 6533 2a97 4233 6e85 9534 b38b fc33
