UnityController/results/alex/MoveToGoal/MoveToGoal-82.onnx (onnx, 72951 bytes, 7 tensors)

action_model._continuous_distribution.log_sigma f4 [1, 2]
0.0 0.0
00000000: 0000 0000 0000 0000

action_model._continuous_distribution.mu.bias f4 [2]
0.0 0.0
00000000: 0000 0000 0000 0000

action_model._continuous_distribution.mu.weight f4 [2, 128]
-0.022803484 0.011618848 0.018256567 0.007444486 0.03219511 0.012745141 0.030251795 0.013733144
0.026581923 -0.017749203 -0.006734688 0.002413206 0.019304445 0.019395221 0.018931424 0.0049890825
0.005480734 -0.01708181 0.0005632106 -0.016967054 -0.0016174375 -0.006653085 0.019999912 -0.0021937974
0.018111527 -0.011623331 -0.00054592144 -0.0013400234 -0.001927703 0.008833776 -0.012886397 -0.018207928
0.026418125 -0.01963438 -0.008618306 -0.011583956 0.014463938 0.014249198 -0.0071472204 0.011824292
0.014736536 -0.005204858 0.013103378 0.0033600305 0.013281441 0.021650104 -0.0073356885 0.0025693767
-0.00012115971 0.01660128 -0.015922396 0.00041026995 -0.0010242822 0.023241756 0.009518754 -0.0036360961
-0.006976357 0.009867509 -0.01817839 -0.012309537 0.018964028 -0.0058839135 -0.009223278 0.0046421257
0.018543597 -0.0018355895 -0.025404109 0.0024453294 -0.00023638413 0.016592273 0.0055643027 0.021862516
0.0132409185 0.015445608 -0.011221229 0.0026820055 -0.0008103656 -0.015608276 0.013031325 0.022721436
0.006588034 -0.02330449 -0.0009796958 -0.025458192 -0.013614723 0.0036003203 -0.0129836975 0.0068458975
0.016072666 0.006881635 0.009995821 0.00065677636 0.00049019465 0.020583235 -0.0027706055 -0.030140728
-0.0001801915 0.008021756 0.009640322 0.01783917 -0.025288826 0.025283752 0.014687044 -0.0056951954
-0.0011962482 -0.023512416 0.012295135 -0.03452241 -0.0012497216 0.020800201 -0.014398025 0.022769554
-0.03410953 -0.017034253 0.022027073 0.030104399 -0.0031582967 0.01663561 -0.017446412 -0.032596376
0.015168204 0.016563062 0.038587198 -0.010256625 0.020437134 -0.00366745 -0.017097574 -0.032861378
0.020829914 -0.011697447 -0.03020986 0.012933043 0.022440828 -0.016604377 -0.015892973 -0.013337604
0.025149075 -0.003743466 0.010813467 0.002119118 0.007975982 0.014873832 -0.005944099 0.024735687
-0.005871728 0.023680052 0.029661972 0.0055286484 0.004728648 -0.017487187 0.014769857 0.017235428
-0.013027114 -0.01766358 0.028384224 -0.0049500423 -0.0022358168 -0.036922216 -0.0035419501 0.02177066
-0.026694408 0.00501056 0.03253739 -0.02886009 0.022426544 0.028228495 0.013135481 -0.009656797
0.017787753 -0.006619274 -0.02988082 0.0020359892 0.022616081 -0.027639125 0.00077143917 -0.0025484979
-0.026429687 0.007073279 -0.032153707 -0.020276276 0.027134374 -0.037668362 0.012156448 -0.00084610254
0.014568636 0.040525228 -0.058509883 0.006065231 0.0053377007 0.02190432 -0.015707362 -0.018300584
-0.00033411407 0.00018303114 0.010065864 -0.029137522 0.013545455 -0.00022843748 0.007377752 0.0021422063
-0.013423978 0.0076266504 0.0056480407 0.016915414 0.023212932 0.028130481 -0.006147369 0.0044113784
0.00076119165 0.0025031061 -0.02743635 0.0077608475 -0.026275918 -0.004731403 -0.010839938 -0.013213256
-0.009669199 0.0008312004 0.0075504854 -0.022371655 -0.0027001782 0.0263343 0.018701194 0.008337394
0.010729706 0.015207346 -0.015768446 0.021265855 -0.032773327 0.0074798646 -0.03726663 0.0059251124
-0.025500765 -0.02278669 0.008196855 0.026721556 0.001861516 -0.029617457 -0.011006207 -0.021154579
0.008115411 -0.0022032745 -0.010605713 0.0037645753 0.023367858 0.009850995 -0.019503152 -0.01760774
0.03397958 0.025942588 0.013076198 -0.013415657 0.00099677 -0.022751613 0.0064644194 -0.014539703
00000000: 5fce babc fb5c 3e3c cc8e 953c e0f0 f33b
00000010: 05df 033d ffd0 503c 9dd2 f73c fb00 613c
00000020: 55c2 d93c c766 91bc a8ae dcbb e126 1e3b
00000030: 5b24 9e3c bae2 9e3c 1316 9b3c 757b a33b
00000040: bb97 b33b 27ef 8bbc 6ca4 133a 7efe 8abc
00000050: 3200 d4ba 1f02 dabb dbd6 a33c d0c5 0fbb
00000060: a05e 943c c96f 3ebc 2b1c 0fba b9a3 afba
00000070: fbaa fcba 8bbb 103c 7721 53bc cb28 95bc
00000080: d36a d83c 47d8 a0bc cc33 0dbc a2ca 3dbc
00000090: 27fa 6c3c 7875 693c 3b33 eabb adba 413c
000000a0: 8371 713c 838d aabb 8daf 563c f533 5c3b
000000b0: 679a 593c 8f5b b13c 3760 f0bb fd62 283b
000000c0: 2017 feb8 68ff 873c af6f 82bc 8019 d739
000000d0: 3541 86ba 7f65 be3c 8cf4 1b3c 924b 6ebb
000000e0: ed99 e4bb 55ab 213c d9ea 94bc f1ad 49bc
000000f0: 735a 9b3c d8cd c0bb 3b1d 17bc f91c 983b
00000100: bee8 973c 2a98 f0ba 471c d0bc d241 203b
00000110: e2dd 77b9 85ec 873c c154 b63b 0519 b33c
00000120: 70f0 583c 930f 7d3c 3fd9 37bc 96c4 2f3b
00000130: b76e 54ba dbb9 7fbc 5781 553c 4e22 ba3c
00000140: 6fe0 d73b 0fe9 bebc 2369 80ba b38d d0bc
00000150: 4a10 5fbc 5af3 6b3b 93b9 54bc 8d53 e03b
00000160: d3aa 833c 577f e13b 83c5 233c 842b 2c3a
00000170: 6880 003a 2c9e a83c 0c93 35bb b0e9 f6bc
00000180: caf1 3cb9 af6d 033c 71f2 1d3c 7323 923c
00000190: 832a cfbc df1f cf3c eda1 703c c39e babb
000001a0: 6ecb 9cba 1c9d c0bc 8971 493c 5f67 0dbd
000001b0: b3cd a3ba 2f65 aa3c b2e5 6bbc 3787 ba3c
000001c0: 6fb6 0bbd 6b8b 8bbc 1f72 b43c 809d f63c
000001d0: 6dfb 4ebb 6747 883c c7eb 8ebc c783 05bd
000001e0: 0f84 783c 42af 873c 9c0d 1e3d 670b 28bc
000001f0: c76b a73c 9a59 70bb 3610 8cbc a799 06bd
00000200: 7fa3 aa3c a6a6 3fbc ab7a f7bc 1de5 533c
00000210: d4d5 b73c e705 88bc fb31 82bc f785 5abc
00000220: 6f05 ce3c f054 75bb f82a 313c e7e0 0a3b
00000230: b1ad 023c 60b1 733c b7c6 c2bb 7fa2 ca3c
00000240: a067 c0bb abfc c13c aafd f23c aa29 b53b
00000250: c6f2 9a3b 4a41 8fbc 45fd 713c 5031 8d3c
00000260: ad6f 55bc 36b3 90bc 0886 e83c f733 a2bb
00000270: c886 12bb c03b 17bd 1020 68bb 6258 b23c
00000280: 3bae dabc a02f a43b ed45 053d ff6b ecbc
00000290: dfb7 b73c 723f e73c 3336 573c 8b37 1ebc
000002a0: 9fb7 913c 7fe6 d8bb 9fc8 f4bc 3b6e 053b
000002b0: 5c45 b93c 726b e2bc 683a 4a3a b304 27bb
000002c0: 1283 d8bc f7c6 e73b 9bb3 03bd 6f1a a6bc
000002d0: e848 de3c 244a 1abd d72b 473c fbcc 5dba
000002e0: 4ab1 6e3c c8fd 253d 0fa8 6fbd d8be c63b
000002f0: e1e7 ae3b b070 b33c baac 80bc 1beb 95bc
00000300: 082c afb9 0cec 3f39 4beb 243c d0b1 eebc
00000310: c2ed 5d3c b888 6fb9 12c1 f13b 4264 0c3b
00000320: 3ff0 5bbc fbe8 f93b 3313 b93b 3292 8a3c
00000330: 0c29 be3c e571 e63c de6f c9bb 538d 903b
00000340: b58a 473a 270b 243b 32c2 e0bc b54e fe3b
00000350: 9840 d7bc e309 9bbb ff99 31bc 6a7c 58bc
00000360: 8f6b 1ebc eae4 593a 106a f73b c344 b7bc
00000370: 79f5 30bb 08bb d73c 3f33 993c 9199 083c
00000380: a6cb 2f3c 3b28 793c d42c 81bc bb35 ae3c
00000390: 533d 06bd a719 f53b e5a4 18bd 7227 c23b
000003a0: fbe6 d0bc 27ab babc 1a4c 063c 2ae7 da3c
000003b0: 1dfe f33a 4fa0 f2bc 6153 34bc 5e4c adbc
000003c0: 80f6 043c d064 10bb 96c3 2dbc 18b7 763b
000003d0: f36d bf3c 1166 213c 13c5 9fbc 1b3e 90bc
000003e0: 2c2e 0b3d 8d85 d43c 8d3d 563c 58cd 5bbc
000003f0: 0da6 823a 9761 babc 7bd3 d33b ef37 6ebc

network_body.linear_encoder.seq_layers.0.bias f4 [128]
0.0 0.0 0.0 0.0 0.0 0.0 0.0 0.0
0.0 0.0 0.0 0.0 0.0 0.0 0.0 0.0
0.0 0.0 0.0 0.0 0.0 0.0 0.0 0.0
0.0 0.0 0.0 0.0 0.0 0.0 0.0 0.0
0.0 0.0 0.0 0.0 0.0 0.0 0.0 0.0
0.0 0.0 0.0 0.0 0.0 0.0 0.0 0.0
0.0 0.0 0.0 0.0 0.0 0.0 0.0 0.0
0.0 0.0 0.0 0.0 0.0 0.0 0.0 0.0
0.0 0.0 0.0 0.0 0.0 0.0 0.0 0.0
0.0 0.0 0.0 0.0 0.0 0.0 0.0 0.0
0.0 0.0 0.0 0.0 0.0 0.0 0.0 0.0
0.0 0.0 0.0 0.0 0.0 0.0 0.0 0.0
0.0 0.0 0.0 0.0 0.0 0.0 0.0 0.0
0.0 0.0 0.0 0.0 0.0 0.0 0.0 0.0
0.0 0.0 0.0 0.0 0.0 0.0 0.0 0.0
0.0 0.0 0.0 0.0 0.0 0.0 0.0 0.0
00000000: 0000 0000 0000 0000 0000 0000 0000 0000
00000010: 0000 0000 0000 0000 0000 0000 0000 0000
00000020: 0000 0000 0000 0000 0000 0000 0000 0000
00000030: 0000 0000 0000 0000 0000 0000 0000 0000
00000040: 0000 0000 0000 0000 0000 0000 0000 0000
00000050: 0000 0000 0000 0000 0000 0000 0000 0000
00000060: 0000 0000 0000 0000 0000 0000 0000 0000
00000070: 0000 0000 0000 0000 0000 0000 0000 0000
00000080: 0000 0000 0000 0000 0000 0000 0000 0000
00000090: 0000 0000 0000 0000 0000 0000 0000 0000
000000a0: 0000 0000 0000 0000 0000 0000 0000 0000
000000b0: 0000 0000 0000 0000 0000 0000 0000 0000
000000c0: 0000 0000 0000 0000 0000 0000 0000 0000
000000d0: 0000 0000 0000 0000 0000 0000 0000 0000
000000e0: 0000 0000 0000 0000 0000 0000 0000 0000
000000f0: 0000 0000 0000 0000 0000 0000 0000 0000
00000100: 0000 0000 0000 0000 0000 0000 0000 0000
00000110: 0000 0000 0000 0000 0000 0000 0000 0000
00000120: 0000 0000 0000 0000 0000 0000 0000 0000
00000130: 0000 0000 0000 0000 0000 0000 0000 0000
00000140: 0000 0000 0000 0000 0000 0000 0000 0000
00000150: 0000 0000 0000 0000 0000 0000 0000 0000
00000160: 0000 0000 0000 0000 0000 0000 0000 0000
00000170: 0000 0000 0000 0000 0000 0000 0000 0000
00000180: 0000 0000 0000 0000 0000 0000 0000 0000
00000190: 0000 0000 0000 0000 0000 0000 0000 0000
000001a0: 0000 0000 0000 0000 0000 0000 0000 0000
000001b0: 0000 0000 0000 0000 0000 0000 0000 0000
000001c0: 0000 0000 0000 0000 0000 0000 0000 0000
000001d0: 0000 0000 0000 0000 0000 0000 0000 0000
000001e0: 0000 0000 0000 0000 0000 0000 0000 0000
000001f0: 0000 0000 0000 0000 0000 0000 0000 0000

network_body.linear_encoder.seq_layers.0.weight f4 [128, 6]
0.05957218 0.4408088 0.5310505 -0.17177603 0.13540144 0.42714247 0.42697063 0.43317175
0.05002658 0.16754916 -0.1875328 0.18404213 0.40665606 -0.36919796 0.46951994 -0.14457898
0.85821337 -0.16871928 -0.94822276 0.08603369 0.11496931 0.067058645 0.38787895 -0.34557864
0.47950068 -0.06259098 0.16871132 0.2885367 0.14457293 0.21113953 -0.1793911 -0.4947839
-0.16830072 0.316745 -0.83797187 -0.2314931 -0.21454166 -0.0748305 0.064802065 0.14715692
0.20738415 0.033638578 0.1878355 -0.17055148 -0.4924914 -0.022640698 0.51353717 -0.35030267
0.24564826 -0.29727456 0.74877083 0.43888316 -0.22047359 0.45197496 0.40178052 0.21839176
-0.138885 0.55211496 0.046814155 0.29992467 -0.33438575 -0.29297692 -0.18042737 -0.04220474
0.1014847 0.14287837 -0.85653204 0.8361199 -0.6379028 -0.16583563 0.8207807 0.032690678
0.43552548 0.5431864 -0.2778691 0.03462314 1.3731544 -0.004401423 0.32073414 -0.40296835
0.011486578 0.38901597 0.30055243 0.40125412 0.55529124 -0.24127354 -0.016207926 -0.024270304
0.120691836 0.75625753 -0.20817897 -0.6270243 0.21771047 0.12245863 -0.6724695 0.07944284
-0.2500641 0.23133229 0.010360248 -0.7708403 0.10369748 0.5976272 0.23375905 0.21287674
-0.04677901 0.010979241 -0.723075 -0.23539592 0.035825226 0.20987168 -0.29219314 0.89321756
0.9237241 0.6069189 0.8482854 0.021720905 -0.3234829 0.17423241 -1.3058178 -0.017439615
-0.319825 0.14720406 0.5952076 -0.10232591 -0.62190264 0.061528333 -0.42206627 0.024652906
-0.45791352 0.5181181 -0.33169833 0.33557695 -0.5958266 0.9682033 -0.1580224 0.24799667
0.70019025 -0.079236284 0.36885527 -0.20636646 -0.06351177 0.15236892 -0.22742087 -0.3241661
-0.37528554 -0.6918752 -0.8428539 -0.36176646 0.3464893 0.07368602 -0.26685098 -0.31373194
-0.0133045465 -0.2482941 0.1673827 -0.3451289 -0.034497306 0.07301011 -0.432099 0.018047573
0.16658989 -0.31675252 -0.10128002 0.08426845 -0.4543395 -0.55860525 -0.11637819 0.20242964
-0.5224527 0.06403658 0.10116313 -0.25977376 -0.7550672 0.5847812 0.025906565 -0.42364192
0.03809599 -0.54721713 0.68962157 0.20771885 0.21457945 -0.14650768 -0.48702547 -0.2410761
-0.41329905 -0.27212846 0.052216154 0.12785989 -0.037618596 -0.28533277 0.027177528 0.5045535
0.26540607 0.11271157 0.13689275 0.8052536 -0.29178295 0.034343783 0.32052025 0.19514476
-0.59118503 -0.24695465 -0.27245015 -0.33148125 0.45863554 -0.029367734 0.34150025 0.1963266
1.0216942 0.040358454 0.15714575 -0.26778376 -0.4154608 -0.08199301 0.2506131 -0.3462402
-0.096461415 -0.035926074 -0.06878718 -0.40952298 0.11474904 0.07542978 -0.3078212 -0.35030034
-0.018685102 -0.10687114 0.07543803 0.25814068 0.18914098 0.3083904 0.06215563 -0.3197928
0.1447125 -0.18080299 0.29138342 -0.6295978 0.5168772 0.18442337 -0.35822082 -0.18428117
-0.26515302 -0.5060453 -0.756752 -0.04012908 -0.12739503 0.39654437 0.5411526 0.12122898
0.084053606 -0.37609023 -0.4389815 0.20607696 0.107750654 0.7622577 -0.26918274 0.20539293
00000000: f501 743d b1b1 e13e edf2 073f 0ee6 2fbe
00000010: ada6 0a3e 6bb2 da3e e59b da3e b0c8 dd3e
00000020: ace8 4c3d 0292 2b3e 9908 40be 8a75 3c3e
00000030: 3935 d03e 8407 bdbe eb64 f03e 830c 14be
00000040: dfb3 5b3f bfc4 2cbe babe 72bf 6e32 b03d
00000050: 0875 eb3d 0b56 893d 1298 c63e afef b0be
00000060: 1d81 f53e b32f 80bd a9c2 2c3e 15bb 933e
00000070: ed0a 143e f634 583e 4db2 37be 5154 fdbe
00000080: 0657 2cbe 672c a23e 5385 56bf 870c 6dbe
00000090: cfb0 5bbe bc40 99bd f2b6 843d 4eb0 163e
000000a0: 835c 543e 9bc8 093d f357 403e 0ca5 2ebe
000000b0: d527 fcbe fc78 b9bc 2c77 033f df5a b3be
000000c0: 388b 7b3e 5f34 98be 72af 3f3f 4bb5 e03e
000000d0: d4c3 61be 4369 e73e 2db6 cd3e 17a2 5f3e
000000e0: df37 0ebe 6857 0d3f 33c0 3f3d ba8f 993e
000000f0: 9c34 abbe 1201 96be f4c1 38be e1de 2cbd
00000100: 36d7 cf3d b54e 123e af45 5bbf f40b 563f
00000110: 994d 23bf d1d0 29be af1e 523f a9e6 053d
00000120: 32fd de3e 440e 0b3f dc44 8ebe fed0 0d3d
00000130: 86c3 af3f d039 90bb 4437 a43e de51 cebe
00000140: 3332 3c3c 1a2d c73e 02e2 993e 2e71 cd3e
00000150: 9127 0e3f 6910 77be 7cc6 84bc 84d2 c6bc
00000160: 482d f73d 189a 413f de2c 55be aa84 20bf
00000170: 7eef 5e3e 97cb fa3d f626 2cbf edb2 a23d
00000180: 6708 80be 5fe2 6c3e 08be 293c ca55 45bf
00000190: 585f d43d 19fe 183f 885e 6f3e 5cfc 593e
000001a0: 599b 3fbd 46e2 333c 711b 39bf a10b 71be
000001b0: 79bd 123d 9ae8 563e 579a 95be e8a9 643f
000001c0: 2f79 6c3f 095f 1b3f 3b29 593f 0af0 b13c
000001d0: 8d9f a5be fb69 323e 0a25 a7bf 86dd 8ebc
000001e0: 1ac0 a3be a9bc 163e 865f 183f 3f90 d1bd
000001f0: 0335 1fbf 2205 7c3d 1219 d8be e4f4 c93c
00000200: a473 eabe 63a3 043f 5dd4 a9be bed0 ab3e
00000210: 1888 18bf 2cdc 773f a0d0 21be d7f2 7d3e
00000220: ab3f 333f a246 a2bd 99da bc3e bb51 53be
00000230: 7512 82bd 9906 1c3e 04e1 68be 19f9 a5be
00000240: 6d25 c0be bc1e 31bf 46c5 57bf 7439 b9be
00000250: 0c67 b13e b2e8 963d b1a0 88be 79a1 a0be
00000260: 50fb 59bc cf40 7ebe 5f66 2b3e bcb4 b0be
00000270: 0c4d 0dbd 5386 953d 153c ddbe 81d8 933c
00000280: 8a96 2a3e 632d a2be e66b cfbd f094 ac3d
00000290: 309f e8be c100 0fbf b057 eebd b749 4f3e
000002a0: 76bf 05bf 9c25 833d 9d2e cf3d 1101 85be
000002b0: 164c 41bf 39b4 153f 013a d43c 98e7 d8be
000002c0: 8a0a 1c3d 6c16 0cbf 0a8b 303f 40b4 543e
000002d0: b7ba 5b3e 1c06 16be 675b f9be a7dc 76be
000002e0: ef9b d3be 6c54 8bbe 9be0 553d b4ed 023e
000002f0: f515 1abd 2317 92be 68a3 de3c 6b2a 013f
00000300: 4ee3 873e 53d5 e63d 9d2d 0c3e 1a25 4e3f
00000310: 9364 95be 11ac 0c3d 3b1b a43e 07d4 473e
00000320: e757 17bf aee1 7cbe 967e 8bbe e9b7 a9be
00000330: 47d2 ea3e 9a94 f0bc 1fd9 ae3e d709 493e
00000340: e0c6 823f e84e 253d d1ea 203e f41a 89be
00000350: 47b7 d4be f4eb a7bd 5c50 803e 6546 b1be
00000360: 908d c5bd 3827 13bd 4be0 8cbd ffac d1be
00000370: 8b01 eb3d ee7a 9a3d be9a 9dbe 915a b3be
00000380: 8011 99bc 42df dabd 417f 9a3d 042b 843e
00000390: 2cae 413e 59e5 9d3e e796 7e3d e2bb a3be
000003a0: 832f 143e 6b24 39be 3530 953e 522d 21bf
000003b0: 1052 043f 7bd9 3c3e b868 b7be 34b4 3cbe
000003c0: 23c2 87be 2f8c 01bf 80ba 41bf 645e 24bd
000003d0: d873 02be dd07 cb3e fa88 0a3f e646 f83d
000003e0: 4c24 ac3d e68e c0be 2fc2 e0be d705 533e
000003f0: 60ac dc3d 5223 433f 52d2 89be 8652 523e

network_body.linear_encoder.seq_layers.2.bias f4 [128]
0.0 0.0 0.0 0.0 0.0 0.0 0.0 0.0
0.0 0.0 0.0 0.0 0.0 0.0 0.0 0.0
0.0 0.0 0.0 0.0 0.0 0.0 0.0 0.0
0.0 0.0 0.0 0.0 0.0 0.0 0.0 0.0
0.0 0.0 0.0 0.0 0.0 0.0 0.0 0.0
0.0 0.0 0.0 0.0 0.0 0.0 0.0 0.0
0.0 0.0 0.0 0.0 0.0 0.0 0.0 0.0
0.0 0.0 0.0 0.0 0.0 0.0 0.0 0.0
0.0 0.0 0.0 0.0 0.0 0.0 0.0 0.0
0.0 0.0 0.0 0.0 0.0 0.0 0.0 0.0
0.0 0.0 0.0 0.0 0.0 0.0 0.0 0.0
0.0 0.0 0.0 0.0 0.0 0.0 0.0 0.0
0.0 0.0 0.0 0.0 0.0 0.0 0.0 0.0
0.0 0.0 0.0 0.0 0.0 0.0 0.0 0.0
0.0 0.0 0.0 0.0 0.0 0.0 0.0 0.0
0.0 0.0 0.0 0.0 0.0 0.0 0.0 0.0
00000000: 0000 0000 0000 0000 0000 0000 0000 0000
00000010: 0000 0000 0000 0000 0000 0000 0000 0000
00000020: 0000 0000 0000 0000 0000 0000 0000 0000
00000030: 0000 0000 0000 0000 0000 0000 0000 0000
00000040: 0000 0000 0000 0000 0000 0000 0000 0000
00000050: 0000 0000 0000 0000 0000 0000 0000 0000
00000060: 0000 0000 0000 0000 0000 0000 0000 0000
00000070: 0000 0000 0000 0000 0000 0000 0000 0000
00000080: 0000 0000 0000 0000 0000 0000 0000 0000
00000090: 0000 0000 0000 0000 0000 0000 0000 0000
000000a0: 0000 0000 0000 0000 0000 0000 0000 0000
000000b0: 0000 0000 0000 0000 0000 0000 0000 0000
000000c0: 0000 0000 0000 0000 0000 0000 0000 0000
000000d0: 0000 0000 0000 0000 0000 0000 0000 0000
000000e0: 0000 0000 0000 0000 0000 0000 0000 0000
000000f0: 0000 0000 0000 0000 0000 0000 0000 0000
00000100: 0000 0000 0000 0000 0000 0000 0000 0000
00000110: 0000 0000 0000 0000 0000 0000 0000 0000
00000120: 0000 0000 0000 0000 0000 0000 0000 0000
00000130: 0000 0000 0000 0000 0000 0000 0000 0000
00000140: 0000 0000 0000 0000 0000 0000 0000 0000
00000150: 0000 0000 0000 0000 0000 0000 0000 0000
00000160: 0000 0000 0000 0000 0000 0000 0000 0000
00000170: 0000 0000 0000 0000 0000 0000 0000 0000
00000180: 0000 0000 0000 0000 0000 0000 0000 0000
00000190: 0000 0000 0000 0000 0000 0000 0000 0000
000001a0: 0000 0000 0000 0000 0000 0000 0000 0000
000001b0: 0000 0000 0000 0000 0000 0000 0000 0000
000001c0: 0000 0000 0000 0000 0000 0000 0000 0000
000001d0: 0000 0000 0000 0000 0000 0000 0000 0000
000001e0: 0000 0000 0000 0000 0000 0000 0000 0000
000001f0: 0000 0000 0000 0000 0000 0000 0000 0000

network_body.linear_encoder.seq_layers.2.weight f4 [128, 128]
-0.102078624 0.043318618 -0.14937668 -0.069021836 -0.1223158 0.15792243 0.023534639 -0.015694171
-0.16144127 -0.027524486 -0.03875002 -0.0769657 0.09582862 -0.04841813 0.08415432 -0.018339844
-0.020119814 -0.061812505 -0.041944783 -0.0003456395 0.09502415 -0.06698529 0.037558306 -0.008438977
0.11017514 -0.0040417975 0.1343571 0.021432823 -0.14265688 0.16417895 -0.025166394 0.015075431
0.052422296 -0.02727494 0.06841898 -0.13065335 0.0030742127 -0.06958673 -0.011633136 -0.043902952
0.022395981 0.08671415 0.09882318 -0.0810129 0.008617238 0.16526736 0.09667168 -0.084865235
0.09214679 -0.031552766 0.00045487212 0.09922622 0.08577686 -0.10382382 0.029258734 -0.11084193
0.015489411 -0.029747318 0.06645724 -0.025755085 0.04514339 -0.001496513 -0.2001913 -0.07597704
-0.07829299 0.14617151 -0.09939277 0.079279035 0.098716475 -0.013485537 0.123243116 0.02565364
0.019476403 -0.09813688 -0.03387767 0.04641203 0.14626372 -0.18205054 -0.028426914 -0.048523255
-0.06590174 0.06628028 0.058589768 -0.046551295 0.16850428 -0.19044985 0.06051355 -0.03375109
0.049204938 -0.043308638 -0.040037762 -0.013395896 0.10142333 -0.045652553 -0.023688452 0.014216958
-0.124888055 -0.19492035 -0.06830874 0.053357393 -0.040468354 -0.099696085 0.1289467 0.0167523
0.057449147 -0.20976019 -0.11171981 0.12194877 0.058272615 0.050234497 0.16139823 0.08340302
0.0424317 0.10506733 0.1352928 -0.001748194 0.007822426 0.05730708 -0.023175703 0.14953282
-0.10846766 0.052480698 -0.07498766 -0.032619897 -0.17092098 -0.04162572 0.05556559 -0.030984439
-0.13711466 -0.09954649 0.037767336 0.12712233 0.01882981 0.012293059 -0.017652407 0.179505
0.048089568 -0.0221764 -0.03616189 -0.029749162 -0.05565302 0.10672836 -0.08828316 0.06565087
0.010447937 -0.09818508 0.03474199 -0.053663842 0.12214478 0.033478554 -0.038957175 0.205673
-0.023867128 -0.023270078 -0.16751684 0.122574136 0.046315018 -0.086879045 -0.12341039 0.21598138
-0.011722742 0.012199385 0.060874477 0.19166426 -0.007459406 0.207691 0.05262463 0.118912555
0.02302997 -0.019575829 -0.104243755 -0.109449744 0.13051882 0.050586738 0.008267411 0.09809155
0.030574355 0.0016594728 -0.0043129236 0.066391945 0.023611307 -0.090541966 0.094952926 -0.018419387
0.013720093 -0.046278056 0.048175633 -0.088339806 0.07160909 0.16633081 0.21833816 0.020904005
-0.025595622 0.07206843 0.059326783 -0.1033796 -0.008190254 0.0868249 0.04502946 0.028819753
-0.014200598 0.13131854 0.080692336 -0.15097098 -0.13216028 0.00772695 0.026866747 -0.08650846
0.10158761 0.0933557 0.033774327 -0.10982309 -0.0030396678 0.14168048 0.15648578 -0.015402382
0.063842885 0.0766233 0.04228496 -0.01380873 0.110194564 -0.07380795 0.0628559 0.03239849
0.13859351 -0.03066018 0.022545427 0.043287072 -0.10560874 -0.12234949 -0.0025857072 -0.102052554
-0.13180391 -0.0680685 -0.10688649 0.0037049437 -0.043900676 0.06327006 0.03633496 0.0048952904
0.07627725 0.079330735 0.02318756 -0.0020666097 0.022707826 -0.07939845 -0.08905975 0.044673406
-0.042041782 -0.0077429786 0.0053890375 0.0026644173 0.16804747 -0.0704894 0.052628256 -0.07441947
00000000: 990e d1bd dd6e 313d 33f6 18be 525b 8dbd
00000010: b580 fabd 6bb6 213e b7cb c03c 1091 80bc
00000020: dc50 25be 087b e1bc 57b8 1ebd 31a0 9dbd
00000030: cc41 c43d 1752 46bd 1a59 ac3d 713d 96bc
00000040: 4fd2 a4bc 1c2f 7dbd 4bce 2bbd f336 b5b9
00000050: 069c c23d 952f 89bd bdd6 193d a343 0abc
00000060: 81a3 e13d 0e71 84bb e894 093e e393 af3c
00000070: a514 12be 871e 283e c129 cebc f1fe 763c
00000080: c3b8 563d b26f dfbc 401f 8c3d fec9 05be
00000090: bb78 493b 7d83 8ebd e998 3ebc 95d3 33bd
000000a0: c777 b73c 3097 b13d cf63 ca3d 17ea a5bd
000000b0: 512f 0d3c d93b 293e cdfb c53d d3cd adbd
000000c0: 75b7 bc3d 793d 01bd e77b ee39 1e37 cb3d
000000d0: c7ab af3d 95a1 d4bd 03b0 ef3c 1801 e3bd
000000e0: 4cc7 7d3c a6b0 f3bc bc1a 883d 54fc d2bc
000000f0: 46e8 383d a526 c4ba f3fe 4cbe da99 9bbd
00000100: 1358 a0bd fcad 153e 708e cbbd 0c5d a23d
00000110: dd2b ca3d 71f2 5cbc e366 fc3d 9527 d23c
00000120: fa8c 9f3c fdfb c8bd 50c3 0abd 8a1a 3e3d
00000130: 28c6 153e 756b 3abe 8fdf e8bc 52c0 46bd
00000140: 7ef7 86bd f5bd 873d d3fb 6f3d 92ac 3ebd
00000150: 638c 2c3e 4905 43be 0edd 773d 953e 0abd
00000160: 1e8b 493d 6664 31bd a3fe 23bd 767a 5bbc
00000170: 09b7 cf3d 2cfe 3abd 490e c2bc 3eee 683c
00000180: 4fc5 ffbd 3399 47be 74e5 8bbd 488d 5a3d
00000190: 25c2 25bd 762d ccbd 9b0a 043e 1f3c 893c
000001a0: cc4f 6b3d 60cb 56be 5bcd e4bd 47c0 f93d
000001b0: 44af 6e3d b0c2 4d3d 9445 253e 34cf aa3d
000001c0: ddcc 2d3d 8a2d d73d 328a 0a3e a823 e5ba
000001d0: a229 003c d4ba 6a3d f9da bdbc 221f 193e
000001e0: 4b24 debd 00f6 563d 2193 99bd 719c 05bd
000001f0: e905 2fbe bb7f 2abd be98 633d 14d3 fdbc
00000200: c967 0cbe 08df cbbd ecb1 1a3d 5b2c 023e
00000210: f940 9a3c d468 493c c89b 90bc 29d0 373e
00000220: 91f9 443d 48ab b5bc 7d1e 14bd 84b4 f3bc
00000230: 6cf4 63bd 6694 da3d cdcd b4bd f773 863d
00000240: d32d 2b3c 4215 c9bd 9e4d 0e3d 9ece 5bbd
00000250: 0b27 fa3d cf20 093d 8f91 1fbd f19b 523e
00000260: ff84 c3bc e4a0 bebc 8989 2bbe 2608 fb3d
00000270: d1b4 3d3d a4ed b1bd 96be fcbd 392a 5d3e
00000280: be10 40bc eedf 473c 8457 793d a343 443e
00000290: 086e f4bb f3ac 543e ed8c 573d 6d88 f33d
000002a0: 59a9 bc3c 7d5d a0bc c07d d5bd 3027 e0bd
000002b0: baa6 053e 0a34 4f3d 0974 073c 39e4 c83d
000002c0: 1277 fa3c ab82 d93a 6d53 8dbb 80f8 873d
000002d0: 806c c13c 116e b9bd ae76 c23d 41e4 96bc
000002e0: 3eca 603c 0f8e 3dbd d053 453d 80eb b4bd
000002f0: c9a7 923d a052 2a3e 0a94 5f3e e03e ab3c
00000300: e9ad d1bc 9d98 933d a400 733d afb8 d3bd
00000310: 6a30 06bc 41d1 b13d d070 383d 6717 ec3c
00000320: a0a9 68bc 5e78 063e 0642 a53d 2398 1abe
00000330: 0655 07be 5b32 fd3b a717 dc3c 592b b1bd
00000340: 2a0d d03d 4631 bf3d f356 0a3d eeea e0bd
00000350: 2a35 47bb b014 113e cf3d 203e 465a 7cbc
00000360: 0fc0 823d adec 9c3d ff32 2d3d 033e 62bc
00000370: b0ad e13d 9f28 97bd 98ba 803d 47b4 043d
00000380: 75eb 0d3e 0f2b fbbc 30b1 b83c c94d 313d
00000390: 6549 d8bd 5f92 fabd f874 29bb ee00 d1bd
000003a0: 9bf7 06be 7f67 8bbd 4ee7 dabd a4ce 723b
000003b0: 32d1 33bd bc93 813d f8d3 143d ac68 a03b
000003c0: 3f37 9c3d 2778 a23d d6f3 bd3c f56f 07bb
000003d0: c305 ba3c a89b a2bd f564 b6bd 76fb 363d
000003e0: 0134 2cbd d0b8 fdbb 8696 b03b 819d 2e3b
000003f0: a314 2c3e bf5c 90bd ba90 573d 3c69 98bd
