UnityController/results/alex/MoveToGoal/MoveToGoal-225848.onnx (onnx, 72951 bytes, 7 tensors)

action_model._continuous_distribution.log_sigma f4 [1, 2]
00000000: ad20 25bc 2f13 5f3a
-0.010078591 0.00085096335

action_model._continuous_distribution.mu.bias f4 [2]
00000000: 20ff 38ba 4bae 73bb
-0.00070570596 -0.0037182744

action_model._continuous_distribution.mu.weight f4 [2, 128]
00000000: a95d f5bb 6e52 983c 7261 69ba 3254 ec3b
00000010: fa36 51bd 0409 a8bc e838 b3bc d387 aabb
00000020: 42f5 2c3d 442b c83c dd27 f6bc 2bc0 19bc
00000030: 6da1 19bd 57aa 3abd 0b85 4ebd 33dc 42bd
00000040: 65df dfbc e2ab 89bc f470 87bd 3b16 40bd
00000050: 9a30 ff3c 1db2 9dbc 3967 d03b 74b5 fa38
00000060: 1c5a 32bc 3834 b1bb 875a 4bbd 17c4 cd3b
00000070: d8c0 df3c 93f8 c4bc 0b92 bb3b 0aac e33b
00000080: 608b 2a3d 8059 a8bc 3da1 dd3c 13eb 5e3d
00000090: 045d 373c a399 333d 7c3a 023d c3ff 6b3d
000000a0: 6d80 623c 1095 68bd af5d cb3c 6f03 13bd
000000b0: d351 83bc 868f d13d d1f3 c2bc 27cf 97bc
000000c0: 3123 253d 63df 2cbc 5cee 873b 4a7d fd3c
000000d0: 4ce0 55bd 545c fbbc babe f13c 7045 9f3c
000000e0: 6be6 663d 3271 a3bb 8c6a c33b 5e6e 0d3c
000000f0: db85 263d 9173 a03d 605a 9abd 0bbe 443d
00000100: 6dfb 80bd cbcb fa3b 4987 a33c 50f4 c43a
00000110: 99c0 46bc dde6 da3c d3a5 f93c d1e1 b63c
00000120: 6fac 38ba 6df7 e9bc 1e7f db3c 0923 07bd
00000130: 1219 15bb 0c3a 46bc 3f52 b23c 3156 323d
00000140: 359a 5d3c 7054 98bc e1dc 12bd ae37 8a3c
00000150: 6613 3b3d 2df1 633d c92d fe3c 8a8e a5bc
00000160: 6ce0 9cbc e8bf c3bc 218c d53b 4fea 053d
00000170: 5a5f fbbc 4111 0fbc 7c66 233c 1b70 c33c
00000180: 9e1c 20bc ec8a a2bb e306 bb3a a27b 5e3d
00000190: 75cb d23c cbe6 223b 51c5 14ba db9d 80bd
000001a0: 88db 173c fa6c 213d 2020 3cbc 9cf0 b73c
000001b0: 0616 ac3c 1ad7 4a3c 94cc fc3a e078 0b3d
000001c0: a998 223c d122 7a3d e386 fabc de93 92bc
000001d0: e17e 093d bbf1 c5bb 13ba 533b eaaf ab3b
000001e0: 2c25 753c 2ffa e63c a652 113d ed25 453d
000001f0: a55c d73b 53da 1a3d 9220 80bc a10d 883c
00000200: 5afb d73c 23bd 55bd b2ee a03c 0c5e 07bd
00000210: ae7b 423d 1a02 a43c a2a1 a13c b0e0 12bd
00000220: 566f d93c a73d 0ebd 0937 c1bb 41ad d0bb
00000230: 0c3e 6a3b 5803 4fbb 8e12 9c3c 5dfa c63c
00000240: 9ffc 593c 9ff0 afbc d5e4 4f3d 8437 c53c
00000250: 37cc 613c 7b44 6a3b ba5a 793d 7614 3b3c
00000260: ae96 053b b61e b5bb fe40 47bc fb13 323d
00000270: c1d4 563b b17e 83bc 6bac 89bc 15b6 c7bc
00000280: 96e3 4d3c d282 cb3c 2acd 363d bac8 9ebb
00000290: c728 adbc 4886 bc3c 4caf 8f3c 384d 173d
000002a0: a647 87bc 3c1e 5f3d 43b4 f73c ec9c a0bc
000002b0: 3d1f 38bd 5182 6fbb 88d4 58bd ec23 68bd
000002c0: be5e dabc 2ccb c4bc 8de6 2dbc 276c b93b
000002d0: e03c 11bd 292e 7e3c f03c c43c 5a89 6a3c
000002e0: 168f 843d 1642 dabc e86b d03c 7502 1d3c
000002f0: aa48 1fbd 8540 b8bc 8006 b03c 23a4 5ebc
00000300: 9579 77bd 0433 fdbc 5079 1d3c 7be9 193c
00000310: 18cc 173d af94 92bc a738 ea3b 4fe9 04bd
00000320: 3a7c 31bd 3bae c8bc ade0 b23c 7d0d 903c
00000330: 43f1 1f3b 01e3 86bc 71be 523d 1f8f 80bc
00000340: 3438 edbb 3ad3 54bd 74fc 01bd 3770 14bd
00000350: 7205 a2ba d065 0b3d e9e1 ebbc d525 4a3b
00000360: a592 77bd 651c c83c 0e36 d3bc 15dc 543c
00000370: 4b7f 73bd 2604 6abc 150b f23c 2028 74bb
00000380: c02f ac3c 4008 233b a1b5 2c3d d337 41bc
00000390: fcbf 2cbc c1bd 95bd 4baa 8abd 1a64 6fbc
000003a0: db9e eb3c bdee 9e3c c4af 8c3c c018 26bd
000003b0: f4e9 843d 0d72 b63c 5e07 84bd f4f6 13bd
000003c0: 8870 713c 6890 c2bc 3c1c cbbc 772c fb3c
000003d0: a91d 1fbd f604 27bb f65d d93b c27f 283a
000003e0: c53f 07bd 6a52 483d 85a6 57bd bc63 0bbd
000003f0: 3dbb 533d dc5b adbb 40fa ce3c 401e 29bd
-0.007487972 0.018593993 -0.0008902765 0.0072121853 -0.05107782 -0.020512111 -0.021877721 -0.00520418
0.042226084 0.024434693 -0.030048305 -0.009384195 -0.037507463 -0.045572605 -0.05041985 -0.04757328
-0.027328203 -0.016805593 -0.06613341 -0.0468962 0.031151105 -0.01924997 0.0063599613 0.00011954727
-0.010885742 -0.0054078363 -0.04964688 0.0062794792 0.027313635 -0.02404431 0.005724197 0.006947999
0.041636825 -0.02055049 0.027054423 0.054423403 0.01119161 0.04384769 0.031794056 0.05761696
0.013824564 -0.056782782 0.024824945 -0.035891946 -0.016030228 0.10232453 -0.023797901 -0.018531395
0.040316764 -0.010551306 0.0041482877 0.030943532 -0.05221586 -0.030683674 0.02950989 0.01944229
0.056372087 -0.004987859 0.005963629 0.008632271 0.040655 0.078345425 -0.07536769 0.0480328
-0.06297956 0.0076536885 0.01996197 0.0015026424 -0.01213088 0.026721412 0.030474579 0.022324475
-0.00070447376 -0.028560365 0.026794013 -0.032992397 -0.0022750539 -0.0120988 0.021767734 0.04353923
0.013525535 -0.01859495 -0.035855178 0.016872253 0.045672797 0.055649925 0.031027691 -0.02020957
-0.019149981 -0.023895219 0.006516949 0.032694157 -0.030685116 -0.008732141 0.009973165 0.023857167
-0.009772448 -0.0049604084 0.001426902 0.054317124 0.025731781 0.0024856802 -0.00056751544 -0.062801085
0.009268649 0.03941057 -0.011482269 0.022453599 0.021006595 0.012380386 0.0019287043 0.034050822
0.009924092 0.06106836 -0.030581897 -0.017892774 0.033568267 -0.0060407794 0.0032306954 0.0052394764
0.014962476 0.028195469 0.03547921 0.048131872 0.0065723234 0.037805866 -0.01564053 0.016608061
0.026364971 -0.052182328 0.019645069 -0.033048674 0.04748123 0.020020533 0.019730393 -0.03585881
0.026542347 -0.034726765 -0.0058964533 -0.0063683097 0.003574255 -0.0031587686 0.019051816 0.024289304
0.0133048585 -0.021477042 0.05075534 0.024074323 0.013781599 0.0035746384 0.06087754 0.0114184525
0.0020384002 -0.0055273427 -0.012161491 0.043476086 0.003278062 -0.016051622 -0.016805848 -0.024378816
0.012566468 0.024842653 0.044629253 -0.004845706 -0.021137608 0.023013249 0.017539643 0.036938876
-0.016513657 0.054472193 0.030237323 -0.019606076 -0.044951666 -0.003654618 -0.05293706 -0.056674883
-0.026656505 -0.024022661 -0.01061405 0.0056586447 -0.035458446 0.015513935 0.023954839 0.014314974
0.06472604 -0.02664284 0.025442079 0.009583105 -0.038887657 -0.022491703 0.021487474 -0.013588938
-0.060418684 -0.030908115 0.009611443 0.009394045 0.037059873 -0.017893163 0.0071478668 -0.032449063
-0.043331362 -0.024497142 0.02183565 0.017584557 0.0024405278 -0.016465666 0.05145115 -0.015693245
-0.007239366 -0.051959254 -0.0317349 -0.03623983 -0.0012361242 0.034032643 -0.028794246 0.0030845304
-0.060442585 0.024427602 -0.025782611 0.012991925 -0.059447568 -0.014283216 0.0295463 -0.0037255362
0.021018863 0.0024876744 0.042165402 -0.011793095 -0.0105438195 -0.07311583 -0.06770762 -0.014611268
0.028762272 0.019400949 0.017173655 -0.040550947 0.064899355 0.02227118 -0.06446718 -0.036124185
0.014736302 -0.023750499 -0.024793737 0.03066085 -0.038846646 -0.0025485135 0.0066335155 0.0006427729
-0.0330198 0.04890672 -0.05264904 -0.03403066 0.051692236 -0.0052904915 0.025265813 -0.041288614

network_body.linear_encoder.seq_layers.0.bias f4 [128]
00000000: 9374 153d 348b 763c ac4d 413d ee3f bbbb
00000010: 735b 603d c524 0f3d 3775 813c 1639 56bc
00000020: 0502 b03c 6631 02bd 65f4 b23c f8b3 043d
00000030: 1b87 023d 59ae ebbc bb1c 883c 939c 503c
00000040: cb1b a0bc 3401 4ebc 0f10 cf3c a3a7 fe3c
00000050: 6f01 abba 0540 a73c 6ef2 813a 2369 ee3c
00000060: 6e18 883c 55f9 65bb 426c 713d 8a67 333d
00000070: f45a 18bb 54ff 003d 38d1 363c a159 673d
00000080: 7ef8 d23c 8f20 053d 035c 363d d5ac 2b3d
00000090: 5480 3e3d ccc4 503d 8201 acbb f86c 9d3c
000000a0: 0193 703c 7b6c 173d 343d b7bc 690b e93c
000000b0: 46a0 80bc df73 1e3d b9e1 07bd 945d 223d
000000c0: 4777 70bd f59c 1d3c 1913 3dbb a2bd fa3c
000000d0: 2db0 733c 7cdc b3bc 74f0 0d3c 9a1d 0d3d
000000e0: 94ea cf3c 9988 263d 77ad 673c e247 eb3c
000000f0: d255 18bd 7294 b7bc 04bc 1e3d 8f41 063d
00000100: 847f 7a3d c719 e33a 53b1 54bb 15a1 763d
00000110: 49ef 1b3c 625e 4dbb 6470 933c 5cc0 2c3d
00000120: 09db ab3c 880a be3b fdaa b33b ef0b 2e3d
00000130: 2d2f bf3c 6e91 ae3c 8af9 303d e3e4 893c
00000140: 3e08 55bb b3d0 b63b 4f77 e13c 02b1 073c
00000150: 92ba b1b8 4ba8 f3bc 5607 103d 3740 c03b
00000160: e5f5 793a 7b60 0f3c 352e 7ebc 0a69 003d
00000170: ae0e 293d 1491 d23c 2af6 f43b d2a2 a73c
00000180: 125f 443d 2838 c33c 5e17 29bd 022e 9f3d
00000190: fb00 e4bc 92a1 b43c a27e 673c 4642 24bc
000001a0: be75 243d 8e6e b7bc 24f5 e83c 714d 0b3d
000001b0: 84d0 2cbd 3ba1 d73b d486 57bb a583 3d3d
000001c0: 499c 0a3d 1cb9 7e3d 69c0 b43c 113f 77ba
000001d0: 62e0 cf3c 3710 6bbc 3ee1 253d ef28 483d
000001e0: 9c4f 813c c7d2 473c 7f6c 973c 593a 013d
000001f0: f81a b1bc c0cb 923c bc5c f03c 43ad aebc
0.036488127 0.015047837 0.047193214 -0.005714408 0.054774713 0.034947176 0.015802963 -0.013075134
0.021485338 -0.03178539 0.021845052 0.032398194 0.031867128 -0.028769659 0.016615262 0.012732643
-0.019544503 -0.012573529 0.025276212 0.031085795 -0.0013046692 0.02041627 0.0009914169 0.029102867
0.016613211 -0.003509124 0.058941133 0.043799914 -0.0023247572 0.0314935 0.01115828 0.05648196
0.025753256 0.032501753 0.044521343 0.041912872 0.046509102 0.05096893 -0.005249203 0.019217
0.014683486 0.03696869 -0.022368051 0.028447824 -0.015701424 0.038684722 -0.03317425 0.039640024
-0.0587075 0.009619941 -0.0028850494 0.030608002 0.014873547 -0.021955721 0.0086632855 0.03445206
0.02538041 0.040657613 0.014140478 0.0287208 -0.03719122 -0.022409651 0.038753524 0.032777365
0.061156765 0.0017326408 -0.0032454326 0.060212214 0.009517499 -0.0031336774 0.017997928 0.042175636
0.020978468 0.0057995953 0.00548303 0.04249185 0.023337925 0.02130958 0.04320673 0.016832775
-0.0032506133 0.005579078 0.027522711 0.008281948 -8.474769e-05 -0.029743334 0.035163246 0.00586703
0.00095352373 0.00875103 -0.015513946 0.031350173 0.041273765 0.025703944 0.007475634 0.020463381
0.04794223 0.023830488 -0.04128205 0.07772447 -0.027832499 0.022049699 0.014129313 -0.010025566
0.04015135 -0.022391584 0.028437205 0.0340094 -0.042191043 0.0065804995 -0.003288676 0.046268124
0.03384045 0.062188253 0.022064405 -0.00094317 0.025375549 -0.014347128 0.04049801 0.048867162
0.015785031 0.012196249 0.018484352 0.031549785 -0.021619305 0.017919421 0.029341094 -0.021322852

network_body.linear_encoder.seq_layers.0.weight f4 [128, 6]
00000000: 8fb7 14be 6a2e 073f b5b7 6dbf c900 083f
00000010: a660 42bf ce17 eb3e abfa 37bf 0199 a63e
00000020: b74c f13e ee70 2abe e0e0 99bb 597f 6bbf
00000030: a27e 1abf d8c6 23be ce71 e3be f506 453e
00000040: 2049 c63d f974 72be 67f6 443e 02f4 9abe
00000050: f90e 713e 4088 36be 596a b43e 8bbc 13be
00000060: 8615 e3bc d4cf e9bd 81da 8dbe 69fa 9cbe
00000070: 2d29 a6be cb97 433f 38fb cdbe adeb 8dbe
00000080: f2e4 46bd e41d 833e f43a f9bd 9682 cdbd
00000090: d289 383f f726 eabe 8d3c 1dbf a0d2 483e
000000a0: 592f a73e 8723 c03e b47b 0dbf 4c9a ad3d
000000b0: 3b3c 08bf 4663 c53e 4281 23be 09bf 4b3e
000000c0: 5a59 7b3e cb93 11bf 355c cdbe 9e74 bfbd
000000d0: e255 27bd 594d b63f d4e5 0ebe 2cb6 bd3c
000000e0: aca9 193f 46b7 a9be 17d7 303f fb37 26bb
000000f0: 0b87 513e 9f80 fd3d b3f3 de3d e729 c6be
00000100: b879 04be e255 593e 2bdc 71be 9fb0 a63e
00000110: 494a e8be 193b 36be e041 023e f289 16bf
00000120: 1822 f4be 4bdb 283f 36e4 03bf 83a6 303e
00000130: 4db2 083f f7b6 fbbe e12a 743e adc0 90bd
00000140: c1db 2fbd e5d8 babe 0fbe 953e 9dbc 9abe
00000150: 157f 1b3f de89 f43d 34ef 083e 79c0 a5be
00000160: f4dd 47be 4bf1 4fbf 4df1 623c 995c 94be
00000170: 4d77 b63d 7bcd d73d c4f5 99be d857 b9be
00000180: 6472 593d f4fb 033f 5730 2cbd f370 353f
00000190: 12d6 1a3e acd1 80be 3ece 9fbb fb35 f9be
000001a0: 7782 03bf 4e6e 32bf d5c5 633e cff8 efbe
000001b0: d8cd a93e 7218 a1bd 1443 61be 4fca eabd
000001c0: 5eef af3e 359f a6be 1d15 023f 4fae 563f
000001d0: 5b42 883d 62af c4be b91c d2be 1d47 dabe
000001e0: 753c 443d 1dac 0cbf 40bb bebe 9a81 c1be
000001f0: d2f4 b5bd ebf0 ecbc 69dc b93e feba 47bd
00000200: 47cb 16bf 3f4b adbc 0383 94bd 51d9 09bf
00000210: f2de 3f3e 1324 6bbe 8743 17bd 5bf7 903e
00000220: 9d36 283f 4655 46be 0a62 56be bc19 f83c
00000230: a123 9b3e 09bc 3e3e 6fd3 143f 1815 28be
00000240: a711 a63e aae5 15be ff9d 273f 990b 0a3f
00000250: 4b01 0a3e 8a2e 4c3e 6d01 793e 839b 89be
00000260: d100 42bd f5a2 a33e d845 07bf 8c9a d9be
00000270: d9fd 1a3f 6b45 d53d 366e f73d 2401 04bf
00000280: 30ac a7be ec97 13bf 87d6 223d 56c5 7ebf
00000290: f2da 59bd dd95 bc3e e26f e7bd cc85 a7be
000002a0: ebd3 e33e f1ca 493e cb40 303f 5a5d 18bf
000002b0: 2a4d e0be 7b4d 553e 0669 a8be b1bd 0a3f
000002c0: 09aa 09bf 58da f7bd d1ce 26bf 92dd 243f
000002d0: 0c2d 8c3e bd80 073f a65e 0bbf 5a3d 25bf
000002e0: a797 e93c 1e55 36be 18b2 1d3f f6ce 2fbe
000002f0: a4a7 233f 5227 823d 8b77 80be f780 4b3e
00000300: 9b2a 3b3d 2d1c 82be 5dbb 223f 6ca1 673e
00000310: af13 9b3e 5d85 91bd 282a cd3e 10ee 89be
00000320: cbb5 e73b fa87 06bd 2006 4d3f 3a8b 333f
00000330: d4f7 a23e 528b 363e fe89 ce3e 85c0 5bbf
00000340: f72d fe3e 434f 1b3d 2585 203e d6ed 0f3f
00000350: e9ff 103f 1241 27bf 8a64 a6bc e880 fa3e
00000360: 2599 ce3d 958a b63e dba2 3c3e 63fe 1bbc
00000370: 7ba7 383f f5c6 ab3e d7c5 91bf e21e febe
00000380: 8bcb a2bd f8b4 383f 9c04 63bf 408f 253e
00000390: 36b4 253f 0c6d 883c 6a22 8a3e 61ff c13e
000003a0: aeac 283f 027b bbbe c639 17bf 370f 973f
000003b0: 1874 183e 4115 84bd d2a6 1a3f 7097 60bf
000003c0: e715 2b3f a227 0a3f 293e f33e b51d 813e
000003d0: 79ba 0e3d 58e3 c7be 71e4 72be dca3 26be
000003e0: 3275 30bf c8ba 63bd f852 77be f283 c53e
000003f0: 861d 2e3f 26ef 6d3e 023b 493f 937e 2fbd
-0.14523147 0.528052 -0.9285844 0.531262 -0.75928724 0.459166 -0.71866864 0.32538608
0.4712884 -0.16644642 -0.0046959966 -0.9199119 -0.60349476 -0.15993822 -0.44422764 0.19240935
0.09681916 -0.23677434 0.1923462 -0.30264288 0.23540868 -0.17825413 0.35237387 -0.14427392
-0.027720224 -0.11416593 -0.27705768 -0.30659798 -0.3245329 0.7640349 -0.40230727 -0.2771887
-0.048558183 0.25608742 -0.121694475 -0.10034673 0.720853 -0.45732853 -0.6142052 0.19611597
0.3265331 0.37527105 -0.5526688 0.084766954 -0.53216904 0.38552302 -0.15967277 0.19897093
0.24545804 -0.5686614 -0.4010941 -0.09348415 -0.04085339 1.4242355 -0.1395486 0.023158155
0.60024524 -0.3314764 0.690782 -0.0025362957 0.20461671 0.12378048 0.10886326 -0.38703844
-0.12937057 0.21224168 -0.23619144 0.32556626 -0.45369175 -0.17795981 0.12720442 -0.5880424
-0.4768226 0.65959615 -0.515201 0.17251019 0.53397065 -0.4916303 0.23844482 -0.07068
-0.042934183 -0.36493602 0.29246566 -0.30222026 0.60740787 0.119403586 0.13372499 -0.32373407
-0.19518262 -0.8122756 0.013851476 -0.28976896 0.089094736 0.10537239 -0.30070317 -0.36199832
0.053087607 0.51556325 -0.042038288 0.7087547 0.15120724 -0.25159967 -0.004876881 -0.48673996
-0.5137095 -0.6969956 0.22243436 -0.46869513 0.3316486 -0.07865991 -0.21998245 -0.114643686
0.3436231 -0.3254334 0.50813466 0.83859724 0.06653281 -0.38415056 -0.4103754 -0.4263238
0.04790922 -0.54950124 -0.37252235 -0.3779419 -0.088845864 -0.028923472 0.36300972 -0.048762314
-0.58903927 -0.021154044 -0.07251551 -0.53847224 0.1873739 -0.2296298 -0.036929633 0.28313717
0.65708333 -0.19368467 -0.20935836 0.030285709 0.3030062 0.18626417 0.5813512 -0.16414297
0.32435343 -0.14638391 0.6547546 0.53923947 0.13477056 0.19939628 0.2431695 -0.2687646
-0.04736406 0.31960264 -0.5284095 -0.42500722 0.6054359 0.10413631 0.12081568 -0.5156424
-0.32748556 -0.5765369 0.03975537 -0.9951986 -0.05318732 0.36833087 -0.11300637 -0.32719266
0.44497618 0.19706322 0.68848866 -0.59517443 -0.43808872 0.20830338 -0.32892627 0.54195696
-0.5377508 -0.12102193 -0.65159327 0.6440059 0.27378118 0.52930814 -0.544413 -0.6454674
0.028514696 -0.17805907 0.61599874 -0.17168793 0.63927674 0.06355156 -0.25091204 0.19873415
0.04569493 -0.2541212 0.63567144 0.22620171 0.30288455 -0.07105515 0.40071225 -0.2693944
0.007071232 -0.03284452 0.8008747 0.7013432 0.31829703 0.17826584 0.40339655 -0.85840636
0.49644443 0.037917387 0.1567579 0.56222284 0.5664049 -0.65333664 -0.020311613 0.48926473
0.10087804 0.35652605 0.184215 -0.0095211 0.72130555 0.3355023 -1.1388501 -0.49632937
-0.07948979 0.72151136 -0.8867891 0.16167927 0.64728105 0.01665356 0.2697938 0.3789015
0.6588849 -0.36617285 -0.5907253 1.1801518 0.14888036 -0.06449366 0.604108 -0.87731075
0.66830295 0.53966725 0.47508362 0.25217977 0.034845803 -0.39040637 -0.23719956 -0.16273445
-0.68928826 -0.05559805 -0.24152744 0.3857723 0.680138 0.23235759 0.78605664 -0.04284532

network_body.linear_encoder.seq_layers.2.bias f4 [128]
00000000: 52a5 973b 1fc0 a13c ba93 5bbc 6208 e73c
00000010: 450b 203d 8e03 adbb 9dd8 b13b c6a4 5f3b
00000020: 1044 963c 619a 7f3c 7ccd 2e3c 8ecf aebc
00000030: 8e5c 503c e6b4 04bb fd40 1e3d 686a 1f3d
00000040: a101 173d 84f0 3a3c 4786 293d f565 053d
00000050: a7d9 9eba b5f2 f53b b2b2 bc3c fae6 84bc
00000060: 354c 9bbc 0ad7 debc fd87 823c 4d32 243d
00000070: a545 953c 3b7e 1d3d 8282 3c3b 61c8 3d3c
00000080: 7bed c63c 07d9 ab3c 46fe 7c3d 446a 1c3d
00000090: bc61 b6bc 0069 263a fa2a 9a3c 5c18 433d
000000a0: 52f6 463c 178e 6b3c 2c43 143c 205e e83b
000000b0: d187 eb3c b400 833d 388d 033d bc58 ab3c
000000c0: 8844 bf3c 236b 433d 314b 1b3c 3a18 ea3c
000000d0: 91b3 ad3c 3f8a 9b3c 4b44 d83c 0d90 83bc
000000e0: 2f02 e43c 2646 d13c da6b 6c3a 2199 af3a
000000f0: 8ac5 db3c 746b 853d c3e8 073d 50c5 5bbb
00000100: 9a64 333d a931 503c c818 a63c 08cf 01b9
00000110: ae8c 7a3c c782 f63b ff9d 363d 4fd9 283c
00000120: e226 72ba c278 083d efa7 043d c7bc 563c
00000130: b7df 37bc 7683 643c f726 b5bb d9ee ea3c
00000140: c47a a8bb dbfe 003d 856e be3b 9dcb ac3c
00000150: 976d ce3c 3a30 8e3d 538b 1e3c 7b79 eb3b
00000160: a968 ae3c 8e30 1c3d f31e 55bb be7d 2d3d
00000170: 6d3e d93c 9560 5dbc c8d7 af3b 1c83 cc3c
00000180: 9267 04bc 2efb aabb 1c8f 063d ef33 a03c
00000190: 0145 1a3c e327 7e3d abf1 a03c a621 3f3d
000001a0: 0a36 9d3c bfda 993c 50f3 3b3c 508e d93c
000001b0: 321c f33c 9617 073c cab9 293d 9b88 b03b
000001c0: f841 073c 3d1b 523d 612e 183b cc12 af3c
000001d0: a822 7b3c 86a9 80bc fed4 96bb 2b7f 09bc
000001e0: abe7 893c 5586 643d 2344 c43c adcd 123d
000001f0: d2dd 5c3c 9e78 573c 73dc c13b 90d3 193d
0.004627862 0.01974493 -0.01340192 0.02820224 0.039073247 -0.005279965 0.0054274336 0.0034125312
0.018343002 0.015600772 0.0106691085 -0.021339204 0.012717379 -0.0020249425 0.038636196 0.038919836
0.036866788 0.011409882 0.041387822 0.032567937 -0.0012119309 0.0075057396 0.023034427 -0.01622342
-0.018957237 -0.027202148 0.015933985 0.040087033 0.018221686 0.03845046 0.0028764312 0.011583419
0.024283161 0.02097751 0.06176593 0.03818728 -0.0222634 0.00063480437 0.018819321 0.047630653
0.012143688 0.014377139 0.009049218 0.0070912987 0.028751286 0.063966185 0.0321171 0.020916335
0.023348108 0.047709595 0.009478376 0.028576005 0.021203788 0.01898682 0.026399752 -0.0160599
0.027833072 0.025546145 0.00090187567 0.0013397076 0.026827592 0.06514636 0.033180963 -0.0033534355
0.043797113 0.012707152 0.020275488 -0.00012379524 0.01529233 0.007522914 0.04458427 0.010305717
-0.00092373614 0.03331829 0.032386716 0.013106531 -0.011222771 0.013947358 -0.0055283266 0.028678345
-0.005141588 0.03149305 0.005811515 0.021093184 0.02519874 0.06942792 0.009676772 0.0071861125
0.02129014 0.038132243 -0.0032519668 0.042356245 0.026519025 -0.0135117965 0.0053662993 0.024964862
-0.008081334 -0.0052179312 0.032851323 0.019556014 0.009415866 0.062049758 0.019646486 0.04666295
0.019190807 0.018781064 0.011471584 0.026557118 0.02967653 0.008245369 0.041436948 0.0053873784
0.008255474 0.051295508 0.0023221003 0.021371268 0.015328087 -0.015705835 -0.0046030274 -0.008392136
0.0168341 0.05579217 0.023958271 0.03584068 0.01348062 0.013151316 0.005916172 0.037555277

network_body.linear_encoder.seq_layers.2.weight f4 [128, 128]
00000000: 88de 943d 6b8b ba3d c73b 2e3d fdd0 41be
00000010: 7312 2e3d 5e82 ca3c 5abb 88bd 675a 58bd
00000020: a715 d2bd 287c 8f3c 756d 733c 4616 113d
00000030: d6a8 8abd 2064 cebb 555c a2bd 6859 623d
00000040: eab6 9dbd e08e 2fbd f079 81bd faa2 94bc
00000050: d7a3 c5bd 07e2 cabd 34c1 0abe 990f ad3c
00000060: 6096 a73c 6008 123d 84d5 7eba 6814 2bbd
00000070: 32fa 8abd bcae e83d 7c79 df3d 7bd3 a3bd
00000080: d5ca 01be 4d8c 4b3e affa 173d c2d1 09bd
00000090: ac13 123c 03d8 ebbb 0ccb cdbd 7d2d ff3c
000000a0: 6796 4ebe 2ef8 db3c 8d00 20bd 773c 8f3b
000000b0: 99ca 83bd 4137 df3d bf74 2b3d d9e5 dbbb
000000c0: 9f10 0b3b fb66 4fbd 2558 49bd 37c7 06bd
000000d0: 6950 86bb c74e 9e3d 751c 18bd 615f 5d3d
000000e0: cdb6 3e3e 46e4 33be 7eed c2bd ba0b fc3d
000000f0: 48a5 8b3c 65a4 013e 7566 2cbc 8952 023d
00000100: 8a0f 6f3b 80ea 10be c5f7 2e3d 6615 46bc
00000110: 7568 4bbd 12a0 8f3d 7709 35bc 04a2 30bc
00000120: 4a3c c2bc 31b0 033d 1044 a73d b5a8 df3c
00000130: 63f0 fabd fd07 7e3d 106d d63d a0c6 a3bc
00000140: e6e1 08be 0821 2d3d e4ed c0bc 3083 bdbd
00000150: c427 9a3d bd7e 7cbd 2611 5f3b af76 ea3b
00000160: 4f87 0abd 366c 013e 4054 933d 5c48 f0bc
00000170: 4aec 2b3e 8866 df3b 8a5b fd39 da3c 00bd
00000180: ead6 73bc f122 8cbd 069d 4cbe 86a8 c0bd
00000190: fe36 abbc e4f3 1a3e 65dc 203e 1a22 d23d
000001a0: a5cb 2c3d 80ab febd de11 2cbc 19d4 f3bc
000001b0: c8a7 123e dac8 843d eb5b 553d e7c8 743c
000001c0: c253 383d 9598 b53c 758e d13d cda5 a43c
000001d0: 8934 c0bd 7269 9abd 720f a6bc 1808 563d
000001e0: f538 123e aa11 acbd 9fe5 94bb 285d e9bd
000001f0: ad55 bebd 77b1 05bd 02b4 c2bd 744a e33d
00000200: 4e08 a53d 2be4 42bd 3829 9dbd 4c1a 6a3d
00000210: f459 d4bd 426b f23d 9131 d53c 6d88 e83c
00000220: a5c5 43bd 4f0a 6bbb 76f1 7c3d 2efd 853d
00000230: e6df f63d 3f51 583d e360 ee3d b363 0dbd
00000240: 8165 88bd 9a1b b33d 3a7a c13c dcf4 5c3d
00000250: 3dfd babc 8dcd 303e d3c0 e63b 67a5 ba3d
00000260: 94fe 0ebe bc05 77bd df83 8f3d f3f3 053d
00000270: 70b0 9ebc 9452 6d3c 279a e43b ef01 a43d
00000280: b48c e53d 71f1 073c d588 b6bd 4034 d9bd
00000290: f5b2 0d3e 5ef6 063e e38e f53d 2b24 38bd
000002a0: 426d 39be ad69 4c3b 638a 733d 9dbe 81bd
000002b0: bdcc 34be 34e4 cbbd 2535 1cbe d59d 49bd
000002c0: 100e 5b3d 3331 083e 777e c33c 17c7 bebd
000002d0: 38a9 29be 42fc 8cbd f15a 85bc a6a6 7bbb
000002e0: 2794 d1bd c2cd 39bd cd5a bc3c 4e80 27be
000002f0: 7b56 bbbd d645 143e 5585 a7bc a4fe 9e3b
00000300: 54a7 bcbd cfce 103e 8ddb f7bc aada 1a3d
00000310: bd3b e43c 1ece aa3c 4d3c 253c 2141 803d
00000320: 6869 43bc f566 d33d 9281 d0bb 6958 91bd
00000330: d7fc 1e3e c12c 043d c490 193d 2f03 c0bc
00000340: 3a61 203d 7408 813d 8862 723d f5fb dd3d
00000350: 55d3 613d 95f6 8b3d f18e cfbc f923 ca3d
00000360: 8eba aa3d dec1 a5b7 02bc b43d c7b6 f0bd
00000370: 2e33 a4bd efe8 e0bd ca7b 54bd 0dbb cdbd
00000380: 6ca8 d63d 4f1f 143d fcf4 2e3d b10d 31be
00000390: 0fb1 cebc 11ab 31be ac4f 473c b99d 1abe
000003a0: cb94 583e 98c2 4bbd c248 1d3d 7765 253e
000003b0: 7634 2cbd d877 b0bd e751 f6bd f8c5 923d
000003c0: 38f1 79bc 8590 cfbc f767 b63b 987f ffbd
000003d0: 91aa 373d 5201 afbc 943f 35be fa7c 8d3d
000003e0: 39ca ff3d 7211 fdbc 310f 093e 4af6 193c
000003f0: dc6c 24bd 6384 91bd 326d 9f3b aad0 b43d
0.07269007 0.09108623 0.042537477 -0.18927379 0.042498063 0.024720367 -0.066763595 -0.05282059
-0.10258036 0.017515257 0.01485764 0.035421632 -0.06770484 -0.006298557 -0.07927767 0.055261046
-0.07700904 -0.042860866 -0.06322086 -0.01814412 -0.096503906 -0.099063925 -0.13550264 0.021125602
0.020457447 0.03565252 -0.00097211474 -0.041767508 -0.06786002 0.11361453 0.10911843 -0.07999321
-0.1267503 0.19877739 0.037104305 -0.033647306 0.008915823 -0.0071973815 -0.10048494 0.03114962
-0.20174561 0.02685174 -0.039063025 0.0043712216 -0.06435127 0.10899211 0.041859385 -0.0067107496
0.0021219624 -0.05063532 -0.049156327 -0.03290483 -0.004098941 0.07729869 -0.037136514 0.05404604
0.1862442 -0.17567548 -0.09517954 0.12306924 0.017046586 0.12660368 -0.010522475 0.031816993
0.0036477768 -0.14151955 0.04271676 -0.012090063 -0.049660165 0.07012953 -0.01104962 -0.010780815
-0.023710389 0.03215045 0.08167279 0.027302125 -0.122528814 0.062019337 0.10470021 -0.019992173
-0.13367423 0.04226783 -0.023550935 -0.09253538 0.07527116 -0.061644305 0.003403732 0.0071552615
-0.033820447 0.12638935 0.07193804 -0.029331379 0.16789356 0.0068176426 0.00048324122 -0.031308033
-0.0148827825 -0.06842602 -0.19981775 -0.09407143 -0.020900246 0.151321 0.15709074 0.102604106
0.042186398 -0.12435055 -0.010502307 -0.029764222 0.14321816 0.06483622 0.052089613 0.014940477
0.045001753 0.022167483 0.1023225 0.020098591 -0.0938502 -0.07539643 -0.020271037 0.052253813
0.1427954 -0.08401807 -0.0045439745 -0.11394721 -0.09293685 -0.032639947 -0.0950699 0.11098185
0.080582246 -0.04758088 -0.076738775 0.057153985 -0.1036872 0.11836864 0.026024612 0.028385365
-0.04779591 -0.0035864299 0.061753713 0.06542431 0.12054424 0.052811857 0.116395734 -0.03451891
-0.06659985 0.08745499 0.023617852 0.053944454 -0.022825832 0.17265911 0.0070420294 0.09113579
-0.13964301 -0.060308203 0.07007574 0.03270335 -0.019371241 0.01448502 0.006976384 0.08008181
0.112084776 0.00829731 -0.089128174 -0.10605669 0.13837798 0.13179919 0.11990144 -0.044956367
-0.18108085 0.0031190917 0.059458148 -0.06335185 -0.17656226 -0.09955636 -0.15254648 -0.049222786
0.053480208 0.13300018 0.023864014 -0.09315317 -0.16568458 -0.06884052 -0.016278716 -0.003839889
-0.10233336 -0.04536224 0.022992516 -0.16357538 -0.09147354 0.14479765 -0.02044932 0.004852133
-0.09211603 0.14141391 -0.030256057 0.03780619 0.027860517 0.020850237 0.010085178 0.06262422
-0.011926986 0.10322372 -0.0063631022 -0.07096941 0.15526138 0.032269243 0.037491575 -0.023439018
0.039155222 0.063004404 0.059175998 0.108390726 0.055133183 0.06834141 -0.025336714 0.098701425
0.08336364 -1.975981e-05 0.08824922 -0.11753612 -0.08017574 -0.109819286 -0.051875867 -0.10045443
0.10481343 0.03616267 0.042714104 -0.17290379 -0.025230912 -0.17350413 0.012164991 -0.15099229
0.2115051 -0.049746126 0.038399465 0.16151987 -0.04204222 -0.086166084 -0.120273404 0.07166666
-0.015255265 -0.025337467 0.005566593 -0.124755085 0.0448404 -0.021362934 -0.17700034 0.06908603
0.12489743 -0.030892108 0.13384701 0.009397099 -0.04014288 -0.07105329 0.004865312 0.08828862
