UnityController/results/alex/MoveToGoal/MoveToGoal-747.onnx (onnx, 77049 bytes, 6 tensors)

action_model._discrete_distribution.branches.0.bias f4 [7]
000000 00 00 00 00 00 00 00 00 00 00 00 00 00 00 00 00
       0.0 0.0 0.0 0.0
000010 00 00 00 00 00 00 00 00 00 00 00 00
       0.0 0.0 0.0

action_model._discrete_distribution.branches.0.weight f4 [7, 128]
000000 ad 08 71 bc 79 31 43 3b e7 dc 0d 3c ef cb 0c bc
       -0.014711541 0.0029784127 0.008658624 -0.008593543
000010 cd c6 d4 bb 97 a2 19 bc 18 9b 11 3c d3 fb 32 bc
       -0.0064934255 -0.009377143 0.008887075 -0.010924297
000020 46 7c b7 bc 77 86 a4 bc 67 1b c6 bb c5 7d 8c 3c
       -0.022398125 -0.02008365 -0.006045747 0.017149815
000030 62 71 d1 3a b3 53 f5 3a 8f f7 f8 3b 0d 0e e1 bb
       0.0015979225 0.0018716961 0.0075978707 -0.00686813
000040 27 af 4c 3c cb ca d6 3b bb c9 07 bb 7a 5d 91 39
       0.012492931 0.0065549365 -0.0020719606 0.000277262
000050 6d 52 90 3a ea 1d 1c 3c b6 8c 84 3b 7a 7a 51 bc
       0.0011010893 0.009528616 0.0040450944 -0.012785548
000060 5b 20 f5 bb 2c 38 27 bc f2 62 39 3c f9 68 cc 37
       -0.0074806637 -0.0102062635 0.011315094 2.4367577e-05
000070 f3 52 12 bc db 9a f2 3b 97 02 c4 bb 6a b7 b8 ba
       -0.008930909 0.007403714 -0.005981754 -0.0014092748
000080 04 9b 05 bc 8f 3a 81 bb 38 d8 d5 3b 44 45 b3 3b
       -0.008154634 -0.0039437483 0.0065260194 0.0054709036
000090 2d 72 bf 3b f6 af 9e 39 53 28 0b 3c 0e c9 c0 bb
       0.0058424682 0.0003026721 0.008493501 -0.0058833426
0000a0 5f 97 af bb a0 02 e2 bb 94 d2 2c bb 3f 11 b7 3a
       -0.005358621 -0.0068972856 -0.0026370632 0.0013966932
0000b0 62 2a 6e 3a 69 69 26 bb e0 25 f6 3b 97 48 99 3b
       0.0009085295 -0.002539242 0.0075118393 0.004677843
0000c0 33 fd 1b 3c 69 ab b1 3b ab 87 0d 3c 62 55 59 ba
       0.009520817 0.005422045 0.008638303 -0.0008290616
0000d0 cf 06 14 3c cc 0b 9f 3b ef c9 aa 3b 46 a3 2e bc
       0.009034826 0.004853701 0.0052120606 -0.010659045
0000e0 93 ed b1 b9 27 65 f6 3b 11 13 44 bb 46 64 b0 b9
       -0.00033937077 0.0075193825 -0.002991859 -0.00033644045
0000f0 17 9d 16 bc e1 0f 17 3b 6d a9 68 bc e6 e9 40 3a
       -0.009192727 0.0023050236 -0.0142005505 0.00073590723
000100 f7 d1 35 3c d4 d2 83 3c 4d d8 bf bb cb ff 9b bb
       0.011097423 0.016091742 -0.0058546425 -0.0047607175
000110 e7 cd 11 3c 27 04 08 bc d7 17 32 b8 88 3b b6 bb
       0.008899189 -0.008301771 -4.246071e-05 -0.005561296
000120 0b fb fd bb 17 15 18 3a 41 d7 87 3b c3 c5 fa bb
       -0.007750874 0.00058014825 0.0041455333 -0.0076529696
000130 d5 48 4b 3a 05 85 5f 3c ba 0a 2c 3c bb 18 48 bb
       0.0007754688 0.013642554 0.010500604 -0.0030532319
000140 8f d6 ac bb 0c 84 2f bb 2f 86 40 bc ad 1a 16 ba
       -0.005274601 -0.0026781587 -0.011750742 -0.0005726021
000150 72 8d e0 3b db 96 d1 ba 1d b1 e4 bb 4c c8 9a bc
       0.006852799 -0.0015990393 -0.0069791214 -0.018894337
000160 f6 55 03 b8 fa d4 1d 3c 1e eb 88 3b 42 c7 ad 3b
       -3.131289e-05 0.009633297 0.004178419 0.0053032944
000170 a4 14 0f bc 2f 98 fd 3b e0 4e 5f bc 91 c8 b7 3b
       -0.008732948 0.007739089 -0.013629645 0.005608626
000180 2f 24 f5 3b 2e a0 19 bb 34 ae b2 3b e2 00 9d 3b
       0.00748112 -0.0023441422 0.0054528955 0.004791365
000190 d7 45 df bb 4a d7 e4 3b ad 1d ef 3b e8 1c 22 bc
       -0.0068137455 0.0069836723 0.007297239 -0.009894587
0001a0 c7 e3 2a bb 67 e3 b7 38 53 50 4f 3b 0f c0 8c 3c
       -0.0026075707 8.768477e-05 0.003163357 0.017181424
0001b0 46 ba b6 bb 8e 2c 86 bb 82 71 5d 3b 31 43 4c bb
       -0.0055764047 -0.004094667 0.003378958 -0.003116798
0001c0 c2 1f 6e 3c 5a b1 08 3c f5 8a b7 bb d5 f6 54 3c
       0.014533939 0.008343065 -0.0056012818 0.0129983025
0001d0 a4 8e 1a 3c 83 3d 15 3c 0e 63 10 3c 67 fa cc 3b
       0.009433422 0.009108904 0.008812679 0.006255436
0001e0 a8 be 00 3b 33 61 a0 ba 13 ba 95 3a 5a 06 04 3c
       0.001964489 -0.0012235999 0.0011423252 0.008058155
0001f0 8f 42 7c bb d3 f6 c9 bb 8b 9f e5 3b a8 38 f9 ba
       -0.003849182 -0.006163457 0.0070075444 -0.0019014077
000200 e2 e8 fe ba 87 46 8e bb 03 55 7c bb 3d cc a8 bb
       -0.0019448067 -0.0043419036 -0.003850282 -0.0051513
000210 35 5b 7d 3b 22 30 cd bb 58 39 a2 bc 07 f7 a8 3b
       0.00386591 -0.0062618414 -0.019802734 0.005156401
000220 db 33 3b 3b 42 43 4c 3c 80 37 e6 3b 27 d3 6e 3a
       0.0028564844 0.012467207 0.007025659 0.00091104436
000230 b8 da 04 39 50 ea 01 3c 1a 26 be 3b f6 30 39 bc
       0.0001266998 0.0079294 0.005802882 -0.011303177
000240 96 92 9f bb 1b dc 69 3b a0 2f fe 3b 90 d7 8a 3a
       -0.0048697693 0.0035684172 0.007757142 0.0010592807
000250 fe 1b c6 3a 88 5e 52 3c 85 c1 f5 3a 45 f8 8f 3b
       0.0015114543 0.012839921 0.001874969 0.0043936097
000260 95 5a cd 3b f5 fc 29 3c 3f 57 0e 3b 94 e4 a8 3b
       0.0062669017 0.010375251 0.0021719483 0.0051542018
000270 2e cb 16 bc 58 6b 8a 3a 0a 42 e5 3b c3 cb 5d 3c
       -0.009203715 0.0010560555 0.006996398 0.01353735
000280 b3 ab f4 bb 12 dc 11 3b 4c 0a 04 3a 4a 7c 15 bc
       -0.007466757 0.0022256416 0.0005036935 -0.009123871
000290 88 cd 2d 3c ee 3e aa bb d5 d2 ac bb be 4c 41 37
       0.0106080845 -0.00519549 -0.0052741566 1.1521564e-05
0002a0 b4 0f 25 bc aa d4 02 3b ef 77 65 3c ba b8 20 bc
       -0.010074545 0.0019963183 0.014005645 -0.009809667
0002b0 1d 77 ae bc f9 d2 2d 3b b2 58 6a 39 8a de 58 3b
       -0.021297032 0.0026523455 0.0002234902 0.0033091628
0002c0 e0 a3 21 bc 35 01 0c bc ed b4 f5 bb 92 51 1f 3b
       -0.009865731 -0.00854521 -0.0074983747 0.0024310094
0002d0 4d 46 3a 3c e0 47 56 3b 74 83 a3 ba 00 ce ea 3b
       0.0113693 0.003269665 -0.0012475089 0.0071656704
0002e0 eb 13 95 bb 42 63 12 bc b6 b9 99 bc b4 65 34 bc
       -0.0045494935 -0.008934798 -0.018765312 -0.011010576
0002f0 5f 0c f8 bb 4a d7 6e 3b d7 0b 18 3c fd f2 74 3c
       -0.007569834 0.003644424 0.009280167 0.014950511
000300 a9 0e 1e bc 5d ad f9 3a bf 5a e8 3b 05 38 dd bb
       -0.00964705 0.0019048859 0.007090896 -0.006751063
000310 5d 22 77 bb 17 0d 1a bb 94 c6 10 bc 4b d4 64 ba
       -0.003770969 -0.0023506337 -0.008836407 -0.0008729144
000320 96 ab 8f 3b 18 d2 b4 3c 13 75 c0 bb bb 92 32 bb
       0.0043844683 0.022072837 -0.0058733313 -0.0027248103
000330 af 7a 22 bc 24 24 12 3b c8 fb b8 bb af 35 98 3b
       -0.009916945 0.0022299374 -0.005645249 0.0046450715
000340 4e 4d 07 bc e7 8f 6c ba af fc 8a 3a 18 04 7c 3a
       -0.008258177 -0.00090241287 0.001060387 0.0009613647
000350 20 0b 04 3b ce 57 28 3c 75 f0 5d 3b 4b a7 d3 bb
       0.0020148233 0.0102748405 0.0033865247 -0.006459152
000360 d4 70 90 3c fb d9 00 bc 7e 51 2e bc d3 06 3b bc
       0.017631926 -0.007864471 -0.010639546 -0.011415201
000370 f8 55 11 b9 fb 90 d5 bc d3 66 36 3b 78 d9 41 39
       -0.00013860303 -0.026070109 0.0027832284 0.00018486928
000380 dd fa 44 bb 5a c9 2c bb 4c 9e 84 bc d7 26 07 bb
       -0.0030056753 -0.0026365132 -0.016188763 -0.0020622516
000390 1e 1b a8 3b 75 f3 c6 b9 4d 03 bb bb 9a ff 95 bb
       0.0051301857 -0.00037946893 -0.0057071806 -0.004577589
0003a0 75 46 60 3b 3f 34 99 3b 02 a0 de bb 33 be d6 3b
       0.0034221683 0.0046754177 -0.0067939768 0.006553435
0003b0 c2 bf 8e bb 8f 8f f0 3b 2d 8c 11 bb db 99 3d 3c
       -0.0043563554 0.0073413323 -0.0022208795 0.0115723265
0003c0 53 e0 87 bb 90 01 ef bb 02 2d b2 bb 6d ed 51 bb
       -0.0041466146 -0.0072938874 -0.0054374943 -0.0032032386
0003d0 c0 2f fc 3b 5f 2b 8c ba 60 8f 53 bc 4d 4c e8 3b
       0.007696122 -0.0010694078 -0.012912601 0.007089174
0003e0 f3 96 89 3b df eb 2e bc 03 55 0e 3c 1f f5 71 3b
       0.0041989028 -0.010676353 0.008687261 0.0036919785
0003f0 47 be 66 bb ba b7 72 bc ae 2f 41 bc bf 92 5a 3c
       -0.003520863 -0.014814312 -0.011791153 0.013340651

network_body.linear_encoder.seq_layers.0.bias f4 [128]
000000 00 00 00 00 00 00 00 00 00 00 00 00 00 00 00 00
       0.0 0.0 0.0 0.0
000010 00 00 00 00 00 00 00 00 00 00 00 00 00 00 00 00
       0.0 0.0 0.0 0.0
000020 00 00 00 00 00 00 00 00 00 00 00 00 00 00 00 00
       0.0 0.0 0.0 0.0
000030 00 00 00 00 00 00 00 00 00 00 00 00 00 00 00 00
       0.0 0.0 0.0 0.0
000040 00 00 00 00 00 00 00 00 00 00 00 00 00 00 00 00
       0.0 0.0 0.0 0.0
000050 00 00 00 00 00 00 00 00 00 00 00 00 00 00 00 00
       0.0 0.0 0.0 0.0
000060 00 00 00 00 00 00 00 00 00 00 00 00 00 00 00 00
       0.0 0.0 0.0 0.0
000070 00 00 00 00 00 00 00 00 00 00 00 00 00 00 00 00
       0.0 0.0 0.0 0.0
000080 00 00 00 00 00 00 00 00 00 00 00 00 00 00 00 00
       0.0 0.0 0.0 0.0
000090 00 00 00 00 00 00 00 00 00 00 00 00 00 00 00 00
       0.0 0.0 0.0 0.0
0000a0 00 00 00 00 00 00 00 00 00 00 00 00 00 00 00 00
       0.0 0.0 0.0 0.0
0000b0 00 00 00 00 00 00 00 00 00 00 00 00 00 00 00 00
       0.0 0.0 0.0 0.0
0000c0 00 00 00 00 00 00 00 00 00 00 00 00 00 00 00 00
       0.0 0.0 0.0 0.0
0000d0 00 00 00 00 00 00 00 00 00 00 00 00 00 00 00 00
       0.0 0.0 0.0 0.0
0000e0 00 00 00 00 00 00 00 00 00 00 00 00 00 00 00 00
       0.0 0.0 0.0 0.0
0000f0 00 00 00 00 00 00 00 00 00 00 00 00 00 00 00 00
       0.0 0.0 0.0 0.0
000100 00 00 00 00 00 00 00 00 00 00 00 00 00 00 00 00
       0.0 0.0 0.0 0.0
000110 00 00 00 00 00 00 00 00 00 00 00 00 00 00 00 00
       0.0 0.0 0.0 0.0
000120 00 00 00 00 00 00 00 00 00 00 00 00 00 00 00 00
       0.0 0.0 0.0 0.0
000130 00 00 00 00 00 00 00 00 00 00 00 00 00 00 00 00
       0.0 0.0 0.0 0.0
000140 00 00 00 00 00 00 00 00 00 00 00 00 00 00 00 00
       0.0 0.0 0.0 0.0
000150 00 00 00 00 00 00 00 00 00 00 00 00 00 00 00 00
       0.0 0.0 0.0 0.0
000160 00 00 00 00 00 00 00 00 00 00 00 00 00 00 00 00
       0.0 0.0 0.0 0.0
000170 00 00 00 00 00 00 00 00 00 00 00 00 00 00 00 00
       0.0 0.0 0.0 0.0
000180 00 00 00 00 00 00 00 00 00 00 00 00 00 00 00 00
       0.0 0.0 0.0 0.0
000190 00 00 00 00 00 00 00 00 00 00 00 00 00 00 00 00
       0.0 0.0 0.0 0.0
0001a0 00 00 00 00 00 00 00 00 00 00 00 00 00 00 00 00
       0.0 0.0 0.0 0.0
0001b0 00 00 00 00 00 00 00 00 00 00 00 00 00 00 00 00
       0.0 0.0 0.0 0.0
0001c0 00 00 00 00 00 00 00 00 00 00 00 00 00 00 00 00
       0.0 0.0 0.0 0.0
0001d0 00 00 00 00 00 00 00 00 00 00 00 00 00 00 00 00
       0.0 0.0 0.0 0.0
0001e0 00 00 00 00 00 00 00 00 00 00 00 00 00 00 00 00
       0.0 0.0 0.0 0.0
0001f0 00 00 00 00 00 00 00 00 00 00 00 00 00 00 00 00
       0.0 0.0 0.0 0.0

network_body.linear_encoder.seq_layers.0.weight f4 [128, 9]
000000 e6 c7 c2 3e 62 52 30 3e 3c 8a 8d bd 02 3d 25 be
       0.38043135 0.17218927 -0.06911132 -0.16136554
000010 e8 28 4a 3e be 16 d8 3e 96 e3 85 be 77 96 d3 3d
       0.19742167 0.4220485 -0.26150197 0.10331433
000020 c0 a6 05 3f 4f 7b 6f be 9d 97 97 be 70 ff 1c 3f
       0.52207565 -0.23386882 -0.2960786 0.61327267
000030 ee 96 25 3f 7f ef 25 bd 9b af 42 3e 3f 56 10 be
       0.64683425 -0.040511604 0.190123 -0.140954
000040 c4 ef 94 3e b3 2f 3b 3f 8e 98 83 be fa 86 d8 3d
       0.29089177 0.7311966 -0.25702327 0.1057262
000050 64 d7 89 3d b7 66 54 be ca a1 85 3e ca a6 d0 3d
       0.067305356 -0.20742308 0.26099998 0.101880625
000060 0b 4e d8 3c 4c a1 10 3e e2 5b 67 be 26 e8 ad be
       0.026404401 0.1412403 -0.22593644 -0.33966178
000070 f0 6d 81 3e 2b 22 e4 3d a0 36 65 bd 0e 6b 1a bf
       0.25279188 0.111393295 -0.055960298 -0.603196
000080 ac d4 f0 bd ba cf 34 3e 17 37 2c 3e ea 40 a0 3c
       -0.11759314 0.17657366 0.1681789 0.019562203
000090 a6 29 1e bf e0 f6 3a 3e 02 bb c7 be 2e 77 d2 3e
       -0.617823 0.18258238 -0.39009863 0.41106552
0000a0 6c 9b 25 bf 2e ca 2e 3e 6f b4 35 3e 9e 06 0d bf
       -0.6469028 0.17069313 0.17744611 -0.5508822
0000b0 fe 4e e5 bd ca 8d 0f 3e 82 45 7a bd 5e a7 ed be
       -0.11196707 0.14018932 -0.061101444 -0.46416754
0000c0 1a 36 73 3e 17 67 c4 be 3f df 11 3e 4e 52 e0 bd
       0.23751107 -0.383599 0.14245318 -0.109531984
0000d0 98 57 fd 3e 0d 05 88 3e 43 06 b1 3c ae 82 77 3e
       0.4948089 0.26566353 0.021609431 0.24170944
0000e0 9b 5c 5c 3e ba 17 cc be 61 db 81 bd 30 22 de be
       0.21519701 -0.39861852 -0.06340671 -0.43385458
0000f0 26 fa d6 3c 68 21 ef 3d 8f c1 1c bf 1a d8 a1 bc
       0.026242327 0.116762936 -0.61232847 -0.019756366
000100 4b 85 e5 bc 4c 80 00 3e 36 9a fe 3d 47 2c 4e be
       -0.02801766 0.12548941 0.12431757 -0.20134078
000110 1a 11 cb 3e af 56 3b 3e 24 87 b0 be 82 49 50 bf
       0.39661485 0.18294786 -0.34478104 -0.81362164
000120 13 05 22 3f fe 84 14 3e 92 bc 13 be e2 16 eb 3d
       0.6328899 0.14503857 -0.14427403 0.11478974
000130 ff ff 15 bf e3 d1 4a bd 34 92 62 be ee 98 ef 3d
       -0.58593744 -0.04951657 -0.22126085 0.11699091
000140 0a 32 03 3f 98 d5 e5 be 65 d7 1b 3f 22 35 33 bf
       0.5124823 -0.44889522 0.6087554 -0.7000295
000150 e2 94 02 3f 30 2d f6 bd cb 63 ec 3d 90 eb 04 be
       0.5100843 -0.120203376 0.115424715 -0.12980485
000160 ec ac a2 be 0e d0 4d 3f c0 7f 2f 3e de 90 96 3e
       -0.31772554 0.8039559 0.17138577 0.294074
000170 3c a0 8b 3e c1 f9 0e 3d 32 68 c9 bd c6 c6 02 3f
       0.27270687 0.034906153 -0.09834327 0.51084554
000180 73 8a 8a be 58 f0 73 bb e9 bb 1f be 84 cc 00 bc
       -0.27058753 -0.0037222113 -0.15599026 -0.00786126
000190 83 42 d9 3c 2e 1a f4 3e 50 82 bb 3e a2 e0 ba be
       0.026520973 0.47676224 0.36622858 -0.36499506
0001a0 bf 8b ae be 4a 19 e2 3e f0 aa 23 bd dc 4e d0 3d
       -0.34090993 0.4415992 -0.03995794 0.10171291
0001b0 a2 9c 91 3d 82 0a f2 be 1e 68 85 be e2 4c 84 be
       0.071099535 -0.47273642 -0.26055998 -0.25839907
0001c0 bf 80 62 be 64 99 f7 3e 4b 6e c8 be 5f e7 d2 bd
       -0.22119425 0.48359215 -0.39146647 -0.10298037
0001d0 e4 9c 92 3b a6 92 7f be dc 91 97 3d 7c 2f 01 3e
       0.004474269 -0.24958286 0.07400867 0.1261577
0001e0 2e f8 18 3f f3 f4 92 3c 37 8e b2 bc da d3 e0 3e
       0.5975369 0.017939067 -0.021796329 0.4391163
0001f0 4c 62 18 be 4b b9 bf 3e 36 44 9e 3d 08 c8 ed 3d
       -0.14881247 0.37446055 0.07727854 0.116104186
000200 92 f6 42 bd 1c 97 db bd c0 d1 bf be 00 eb 5b 3e
       -0.04759843 -0.10722181 -0.37464714 0.21476364
000210 92 26 c3 be 0a fc b5 3e ab f5 a2 3c 27 ca 8c 3e
       -0.38115364 0.35543853 0.019892534 0.2749798
000220 0d ea 00 3e e2 3d f3 be 63 54 a5 be f4 48 92 3f
       0.12589283 -0.4750815 -0.32290944 1.1428514
000230 0b a9 68 bf 92 ce 95 be 03 52 e1 3e 14 b8 78 3c
       -0.9088294 -0.29259163 0.44007882 0.015180606
000240 db 2d 2c 3d ab 33 f9 3e 7b bb 41 bf aa 92 15 3f
       0.04203592 0.48672232 -0.756767 0.58426917
000250 72 21 d6 3e cf 40 c1 3d a0 c3 85 3d a2 3e 37 3f
       0.41822392 0.094361894 0.06531453 0.71579945
000260 b5 8a 87 be 67 8f 21 bf f3 3c b3 3d c6 3b d3 3e
       -0.26473013 -0.6310944 0.087518595 0.4125654
000270 76 3a 3f be 80 f0 e3 3e d2 da 90 bd 63 86 b1 3d
       -0.18674645 0.44519424 -0.07072987 0.0866821
000280 6b b7 3a bf 5c 96 40 be 4b c5 41 bf f3 a1 14 3f
       -0.72936124 -0.18807358 -0.7569167 0.58059615
000290 76 c8 5c be d8 b5 48 3e 32 ab 9a bf 03 1e b6 bf
       -0.21560845 0.19600618 -1.2083495 -1.4227909
0002a0 93 b1 b5 3e ca fe 18 3f bb 0f d4 be a9 ca a9 be
       0.3548704 0.5976378 -0.4141825 -0.3316243
0002b0 c4 68 41 3f bb bf be 3e d6 44 be 3e e4 87 0f 3f
       0.75550485 0.37255654 0.37161893 0.5606673
0002c0 b2 95 e7 bd 7c b2 f2 bd 72 6b a5 bd d3 cf 82 3e
       -0.11307849 -0.118504494 -0.08077134 0.25549182
0002d0 d8 ac cb 3d 7a 37 9e be ff ca 70 3e 77 b0 cd 3e
       0.09945077 -0.309017 0.23514937 0.40173694
0002e0 a6 69 b9 be 66 bc 23 3e 9f d9 20 bd 84 c0 aa be
       -0.36213416 0.15989837 -0.03927004 -0.33350003
0002f0 32 8f 28 3f 2b 9e 4b be 28 0f 1e be 83 aa c1 3d
       0.658435 -0.19884555 -0.15435469 0.09456351
000300 50 fa c2 be 6e a0 e4 3e 86 a5 0d 3f 4c 48 3c be
       -0.38081598 0.44653648 0.55330694 -0.18386954
000310 43 55 f1 3e fa e0 52 bd 92 73 11 be da 94 e3 3d
       0.47135362 -0.051484086 -0.14204243 0.111123756
000320 9c 24 0f be 72 d0 09 be a7 d1 75 bd 32 6e 12 3f
       -0.13978809 -0.13458422 -0.060014393 0.57199395
000330 9d 4d 24 3e e8 4d 2b 3e 9b ee 77 3e f8 44 0b bf
       0.16045232 0.16728938 0.24212115 -0.5440211
000340 5f 13 04 3e 49 cb 03 3e 6c 64 9a 3e 8d 27 a9 be
       0.12898014 0.12870516 0.3015474 -0.33037987
000350 f0 72 2e bf 72 86 5f be fc 2d 02 3f 59 ba 23 3d
       -0.6814413 -0.2182863 0.50851417 0.039972637
000360 ee 37 49 bd 17 b8 78 3e e9 66 03 3e 1e 23 e6 3d
       -0.049125604 0.24288975 0.12832226 0.11237167
000370 33 0c d7 3e 8b c1 ea 3e 1b 6c 8c be 2c a7 17 bf
       0.42001495 0.45850787 -0.27426228 -0.5923946
000380 cd 1b 93 be 26 cc af 3d 40 2a d4 3e 36 0a 6d 3c
       -0.28732148 0.0858386 0.41438484 0.0144677665
000390 1f 25 b7 be 04 a6 74 3d de f5 82 3e 78 10 34 be
       -0.3577051 0.059728637 0.25578207 -0.17584407
0003a0 87 f8 37 be 80 96 a6 be d3 42 67 bd 3a 80 53 bf
       -0.179659 -0.32536697 -0.056460213 -0.82617533
0003b0 02 9f 01 bf b5 06 9a 3d ec 78 91 3c aa ae 09 3d
       -0.5063325 0.075208105 0.017757855 0.03361384
0003c0 7b d3 4e 3d 67 8c 5f bf 1c 5a 0a 3f 8b 79 5f 3e
       0.050494652 -0.8732361 0.54043746 0.21823709
0003d0 87 aa b0 3d 06 25 69 3f d6 ef f6 be 97 4b 9f be
       0.086262755 0.9107212 -0.48229855 -0.31112358
0003e0 c4 c2 02 3f 08 96 fc bd 4f 12 c7 be c8 c8 7e bd
       0.5107844 -0.12333304 -0.38881156 -0.0622032
0003f0 b6 d9 7f 3e f4 ac f2 3d 8f ea 32 be 22 4a 5c bd
       0.24985394 0.118493944 -0.1747229 -0.053781636

network_body.linear_encoder.seq_layers.2.bias f4 [128]
000000 00 00 00 00 00 00 00 00 00 00 00 00 00 00 00 00
       0.0 0.0 0.0 0.0
000010 00 00 00 00 00 00 00 00 00 00 00 00 00 00 00 00
       0.0 0.0 0.0 0.0
000020 00 00 00 00 00 00 00 00 00 00 00 00 00 00 00 00
       0.0 0.0 0.0 0.0
000030 00 00 00 00 00 00 00 00 00 00 00 00 00 00 00 00
       0.0 0.0 0.0 0.0
000040 00 00 00 00 00 00 00 00 00 00 00 00 00 00 00 00
       0.0 0.0 0.0 0.0
000050 00 00 00 00 00 00 00 00 00 00 00 00 00 00 00 00
       0.0 0.0 0.0 0.0
000060 00 00 00 00 00 00 00 00 00 00 00 00 00 00 00 00
       0.0 0.0 0.0 0.0
000070 00 00 00 00 00 00 00 00 00 00 00 00 00 00 00 00
       0.0 0.0 0.0 0.0
000080 00 00 00 00 00 00 00 00 00 00 00 00 00 00 00 00
       0.0 0.0 0.0 0.0
000090 00 00 00 00 00 00 00 00 00 00 00 00 00 00 00 00
       0.0 0.0 0.0 0.0
0000a0 00 00 00 00 00 00 00 00 00 00 00 00 00 00 00 00
       0.0 0.0 0.0 0.0
0000b0 00 00 00 00 00 00 00 00 00 00 00 00 00 00 00 00
       0.0 0.0 0.0 0.0
0000c0 00 00 00 00 00 00 00 00 00 00 00 00 00 00 00 00
       0.0 0.0 0.0 0.0
0000d0 00 00 00 00 00 00 00 00 00 00 00 00 00 00 00 00
       0.0 0.0 0.0 0.0
0000e0 00 00 00 00 00 00 00 00 00 00 00 00 00 00 00 00
       0.0 0.0 0.0 0.0
0000f0 00 00 00 00 00 00 00 00 00 00 00 00 00 00 00 00
       0.0 0.0 0.0 0.0
000100 00 00 00 00 00 00 00 00 00 00 00 00 00 00 00 00
       0.0 0.0 0.0 0.0
000110 00 00 00 00 00 00 00 00 00 00 00 00 00 00 00 00
       0.0 0.0 0.0 0.0
000120 00 00 00 00 00 00 00 00 00 00 00 00 00 00 00 00
       0.0 0.0 0.0 0.0
000130 00 00 00 00 00 00 00 00 00 00 00 00 00 00 00 00
       0.0 0.0 0.0 0.0
000140 00 00 00 00 00 00 00 00 00 00 00 00 00 00 00 00
       0.0 0.0 0.0 0.0
000150 00 00 00 00 00 00 00 00 00 00 00 00 00 00 00 00
       0.0 0.0 0.0 0.0
000160 00 00 00 00 00 00 00 00 00 00 00 00 00 00 00 00
       0.0 0.0 0.0 0.0
000170 00 00 00 00 00 00 00 00 00 00 00 00 00 00 00 00
       0.0 0.0 0.0 0.0
000180 00 00 00 00 00 00 00 00 00 00 00 00 00 00 00 00
       0.0 0.0 0.0 0.0
000190 00 00 00 00 00 00 00 00 00 00 00 00 00 00 00 00
       0.0 0.0 0.0 0.0
0001a0 00 00 00 00 00 00 00 00 00 00 00 00 00 00 00 00
       0.0 0.0 0.0 0.0
0001b0 00 00 00 00 00 00 00 00 00 00 00 00 00 00 00 00
       0.0 0.0 0.0 0.0
0001c0 00 00 00 00 00 00 00 00 00 00 00 00 00 00 00 00
       0.0 0.0 0.0 0.0
0001d0 00 00 00 00 00 00 00 00 00 00 00 00 00 00 00 00
       0.0 0.0 0.0 0.0
0001e0 00 00 00 00 00 00 00 00 00 00 00 00 00 00 00 00
       0.0 0.0 0.0 0.0
0001f0 00 00 00 00 00 00 00 00 00 00 00 00 00 00 00 00
       0.0 0.0 0.0 0.0

network_body.linear_encoder.seq_layers.2.weight f4 [128, 128]
000000 74 03 be bc b6 68 ab bd 0e 8e 0d bc 1a 46 69 bd
       -0.023195006 -0.083695814 -0.0086398255 -0.05695162
000010 29 1b ab 3d 52 9a 06 3e 79 6b 28 3c 2a b8 98 bc
       0.0835479 0.13144806 0.01027953 -0.018642504
000020 20 a4 2e 3e e5 bb 02 be 1b e9 ed bd 9f 97 c5 3d
       0.17054796 -0.12766989 -0.11616727 0.0964806
000030 39 24 80 bd c4 4c c6 bd a9 b6 a6 3d 60 8b eb 3d
       -0.06256909 -0.09682611 0.081403084 0.11501193
000040 b1 ab 82 3d 16 00 1f bd de ba 8a bd d2 e4 a4 3d
       0.06380404 -0.03881844 -0.06773923 0.080514565
000050 6a 7e 63 3d 25 2b e6 bc a9 34 21 bd 52 90 dd 3c
       0.05554048 -0.028096745 -0.03935686 0.027046356
000060 2e f0 7e 3d dd 51 8f 3c 2e a8 f5 3d 27 b0 de bd
       0.062240772 0.01749509 0.11994968 -0.10873442
000070 04 0d ab 3d 24 6b 10 bc ac 80 06 bc c8 5f a4 bb
       0.08352092 -0.008814607 -0.008209389 -0.005016301
000080 22 f7 8e 3d a2 05 aa bc 92 0f d1 bc 8e fe 07 3e
       0.069807306 -0.020754639 -0.02552012 0.13280699
000090 9f 13 02 3d 83 04 c2 bd 98 be 7a bd 87 86 d2 3d
       0.031756993 -0.09473517 -0.06121692 0.10279565
0000a0 d1 67 b4 3d 67 d0 a1 bc 6a e6 d8 bc 21 6c d5 bd
       0.08808864 -0.019752694 -0.026477057 -0.104210146
0000b0 88 dd c4 bd fb ef 8e bc 80 8c ea bd 24 66 fa 3d
       -0.09612566 -0.017448416 -0.114525795 0.12226513
0000c0 81 5c 0e 3c 1e df f0 3d 3a 8b c9 3c de ff da 3d
       0.008689047 0.11761306 0.024602521 0.10693334
0000d0 e3 08 fc bc c8 c0 5f be 5e 6b 05 bd 71 ab 0a bd
       -0.030765956 -0.21850884 -0.032573096 -0.033854906
0000e0 f8 1f 26 bd c9 e2 00 be 0a 2b 64 be c1 ac 0f 3d
       -0.04055783 -0.12586512 -0.22282043 0.03507686
0000f0 62 f4 5a 3e ce 9b da 3d 37 99 05 be a6 17 f3 3c
       0.21382287 0.10674249 -0.13046728 0.029674362
000100 f7 90 6f bd 7c 49 64 3d dd c8 f4 bc 82 1d 3c 3d
       -0.05848786 0.055734143 -0.029880935 0.04592658
000110 2f 77 f0 bd b7 2c 18 bd e7 1a 0f be 87 c4 99 3d
       -0.117414825 -0.03715202 -0.13975106 0.07508188
000120 e0 85 e6 bc aa 03 79 3d 20 64 8c bc ae 39 f1 bd
       -0.028140008 0.06079451 -0.017137587 -0.1177858
000130 b2 8a 88 bd 72 f7 53 bd 99 5c 47 3d 05 ec 74 3d
       -0.06667079 -0.051749654 0.048672292 0.0597954
000140 1d 77 6e be d7 c7 22 3d f4 c3 57 bc bb 29 72 3d
       -0.23287626 0.039741363 -0.013169277 0.05912183
000150 3a b6 16 bd 0f 35 49 bd e0 c6 7d bc 88 8a db bd
       -0.03679488 -0.049122866 -0.01548931 -0.10719782
000160 9d db 3b 3d 84 70 78 bb 27 60 d1 3c 05 aa d7 bd
       0.045863736 -0.0037908861 0.025558544 -0.105304755
000170 ed 75 5e 3d 8f c0 c4 3d 03 78 42 3c 8c 7b 85 bd
       0.05431168 0.0960704 0.011869433 -0.06517705
000180 43 25 f0 3d e5 ac cf 3d 79 f0 7e bd 79 7b 37 3e
       0.11725857 0.10140399 -0.06224105 0.17918195
000190 81 a7 6f bb 50 8b 1a 3d 0b 9f df bc a4 0a 12 bc
       -0.0036568346 0.037730515 -0.027297517 -0.00891367
0001a0 cc 2e 60 3d 64 d6 84 bd 35 2f a2 bd a2 90 fc 3c
       0.05473213 -0.06486204 -0.0791916 0.030830685
0001b0 60 32 16 3d 86 d3 2d 3e ad f1 8e bd d2 70 f1 3d
       0.036669135 0.16975221 -0.0697969 0.11789097
0001c0 31 e8 b7 3d 0c 20 c7 3d b5 92 c4 3d 72 0f d9 bd
       0.08979834 0.09722909 0.09598295 -0.10598649
0001d0 88 59 98 3d f8 63 f4 3d e9 af dc bc f7 75 0c 3e
       0.07438952 0.1193313 -0.02693935 0.13716875
0001e0 6c 2e 90 bd c5 8a 4b 3c d1 2e 2d 3e 1f ab 56 3d
       -0.07040104 0.012423222 0.1691239 0.052409288
0001f0 92 9e 03 bc 2d 91 00 3e d2 51 cc 3d 91 99 53 bd
       -0.008033412 0.1255538 0.099765435 -0.051660124
000200 e7 e8 f1 3c 41 a1 a7 bb bd a1 4c 3c f8 38 52 bd
       0.029530002 -0.0051156585 0.012489733 -0.05132386
000210 d9 fd 61 bb 1f 5b d5 3d ab 0a 89 bd 6a e6 8e 3d
       -0.003448358 0.104177706 -0.06691488 0.06977542
000220 2c 1a fe 3d f6 2d c6 bd 6d f2 da 3d 5e 71 49 bd
       0.12407336 -0.09676735 0.1069077 -0.04918038
000230 99 d3 55 3e db 2c 60 3d 17 6a d8 bd 42 dc 21 3d
       0.208815 0.054730278 -0.1056711 0.039516695
000240 72 b5 1c be 63 b4 ac bc c7 85 aa 3c 52 c3 41 3d
       -0.15303591 -0.021082109 0.020815743 0.047305413
000250 87 50 19 bd f5 3a 60 3e b4 cc 67 bd 6c ed ad 3d
       -0.037430312 0.2189749 -0.056591704 0.0849255
000260 53 45 3c bc 89 c6 a7 bb f4 c1 de 3d 21 83 5a 3d
       -0.011491138 -0.005120103 0.108768374 0.05334771
000270 9e 72 b8 bd a8 3a a6 3d e5 c8 4e bd e1 db 85 bc
       -0.090062365 0.081166565 -0.050484557 -0.016340198
000280 d5 da 0b 3e eb 22 1a 3e 7a f4 0b be 2c 04 e0 3d
       0.13657697 0.15052383 -0.13667479 0.10938296
000290 94 9a ad 3c 6d 6c 79 3d e8 38 b3 3b 0a 41 99 bd
       0.021191873 0.06089442 0.0054694302 -0.07483108
0002a0 79 6e 15 3e bb 3f ef 3d 27 59 03 3e e1 2b a7 3d
       0.14592923 0.116820775 0.12826978 0.08162666
0002b0 96 9d c7 3d d5 a5 6c 3d 46 6e 80 3d 2e 36 a8 bc
       0.09746854 0.057775337 0.06271033 -0.020533647
0002c0 95 be 91 bd 45 6e 75 bc be 7a af 3d d5 db b4 3d
       -0.07116429 -0.014979904 0.08568333 0.08830992
0002d0 4e de 09 bd 7b a1 b0 3d ab 48 07 bd 9a be 8a 3d
       -0.033659272 0.0862455 -0.033028286 0.067746356
0002e0 ee 72 3e bd 45 5b 2a 3e 19 4b 64 bd 67 16 76 bb
       -0.046496324 0.16636379 -0.05573568 -0.0037549974
0002f0 ad 9d 3a be 01 d0 38 be ff a7 3f 3b 3c c3 06 be
       -0.18224211 -0.18048097 0.002924442 -0.13160414
000300 3c 22 c9 3d dc 2c a8 3c a5 ce 0e 3e d9 5d 5f 3d
       0.09820983 0.020529203 0.13946016 0.05453286
000310 6c 2a 6a 3d cd 37 a3 bc 8a eb e3 3d 93 0c 17 be
       0.057169363 -0.019924069 0.1112891 -0.1475089
000320 db 14 b5 bc 06 bc f4 3d 3e b3 22 bc df e6 67 bd
       -0.022104671 0.11949925 -0.00993043 -0.05661666
000330 d3 18 c8 3d f0 cc 97 bd 2e 03 ac 3d 88 57 e1 3c
       0.0977036 -0.074121356 0.08399044 0.027507558
000340 ed de c2 bd 20 36 c1 bd 52 74 8f 3d 6c 1a 07 3e
       -0.09515176 -0.09434152 0.07004608 0.13193673
000350 e1 0a 80 3d c9 20 4d 3e 61 96 07 3e c3 5b 0e bd
       0.06252075 0.20032038 0.13240959 -0.03475548
000360 cd f5 10 3d 03 97 2a 3c 5f dc 8f bb 6a cf cc 3c
       0.035390664 0.010411981 -0.004390284 0.025001246
000370 53 f8 d8 bd 48 ca d8 3d 89 22 6e 3d 16 92 a4 bd
       -0.10594239 0.10585457 0.058138404 -0.08035676
000380 a5 16 db bd 7b f9 87 bd 72 ab 31 3d c7 57 1d be
       -0.106976785 -0.066393815 0.043376394 -0.15365516
000390 47 e4 c8 3c 9d 3b b8 bd 6f 37 79 bd e2 86 59 3d
       0.024522914 -0.08995745 -0.06084388 0.05310715
0003a0 9b ad 5b bd 2f e2 9b 3b c3 07 72 3d 10 6d 98 bd
       -0.05363236 0.004757188 0.059089433 -0.07442677
0003b0 a8 b6 f5 bd 25 1e ca bd ac 42 4b be 55 33 b4 3d
       -0.119977295 -0.09869031 -0.19849652 0.08798853
0003c0 67 60 74 3b f1 91 eb 3c 45 38 9c bd 81 e8 ad 3d
       0.0037288906 0.028756114 -0.0762792 0.08491612
0003d0 84 49 1a 3c 2e ad b8 bd 74 e3 0b 3e 07 e9 1d bc
       0.009416942 -0.090174064 0.13660985 -0.009638078
0003e0 a2 09 fc bc b4 fd b2 bb 71 ed 3a bd dc 84 8b bd
       -0.030766312 -0.0054623727 -0.045636598 -0.0681245
0003f0 79 33 bc bd 59 7d f5 bd 42 60 1d 3d db 5a b0 3c
       -0.09189505 -0.11986799 0.038421877 0.021527698
