UnityController/results/alex/MoveToGoal/MoveToGoal-896.onnx (onnx, 76533 bytes, 6 tensors)

action_model._discrete_distribution.branches.0.bias f4 [6]
00000000: 0000 0000 0000 0000 0000 0000 0000 0000
00000010: 0000 0000 0000 0000
0.0 0.0 0.0 0.0 0.0 0.0

action_model._discrete_distribution.branches.0.weight f4 [6, 128]
00000000: ac4d 803c e77e d1bb e199 ac3c f3fc 08bb
00000010: 7c70 13bc 6238 0c3c 33b6 b33b d2e6 febb
00000020: 3471 ab3a 78a8 75bb 0a79 4d3c 75e2 793b
00000030: d9f7 093c 6175 0bbc a04d 91bc e0c7 7e3b
00000040: 08a4 4d3c 72eb dcbb b3cd 393c 4745 aabb
00000050: 2249 7ebb 3f1e 003c 80ab 70bc 53e3 de3b
00000060: 667b 47bc 6d2b 0b3c 9014 263c 44ae 8a3c
00000070: 6cf3 4a3c d710 c83b 1b42 00bb c87a 5bbc
00000080: 8b2b 72ba ddbe 08bc 674d 2dbc 4e48 8dba
00000090: f864 bc3a ba33 7b3b 0558 393b c307 063c
000000a0: 2a2f 383b aa08 58bb 7545 cf3a c0c7 3abb
000000b0: c07f 46bc aac1 543b 20d4 e2bb 2596 cbbb
000000c0: dce4 313c e839 98bb 29a1 823c 8f4b 8d3b
000000d0: b3f8 25bc 908b f4b9 5d3c 27bb f928 143b
000000e0: 465d 83bc f622 c73a f6d6 8cbc 89b4 08bc
000000f0: abc7 d23b af83 c939 f205 67bc e5d5 8fbc
00000100: fbbc ec3b db44 00bb dab5 29ba b39a f33b
00000110: bb6e 33b8 67aa 603c 3f56 2c3b 138b a93b
00000120: bb74 2f3c 9c1a ab3a 652f 1abc 5746 cc3b
00000130: 8535 523c 0d4f 8bbc f02a 8cbc 9b9e df3b
00000140: 90f7 963b 422b 7fbc 2f8d 05bc 1877 af3a
00000150: a022 67bb 5f44 0c3c 2d1a 803b 4820 f039
00000160: 17cd ab3b 8923 383c b1f1 99bc 776a 47bc
00000170: fe1b 91ba 3aaf 943c 836d a33b 75e6 d03b
00000180: 6b93 a83b 5b8c 6fbc ac6c 043c 5f83 5dbc
00000190: 33f9 063c 6cc6 053c 1220 5d3c c375 063c
000001a0: 37b4 383c 97bf cc3a fb2b 95bb d737 37bb
000001b0: 3330 153c 37df cc38 df13 3b3b 901a 683b
000001c0: 0215 06bb 8792 b03b bde7 bcba 72da 34ba
000001d0: d8c6 b43a 9811 d83a 48af 543c 5e5d 4cba
000001e0: e78a a8ba b8da 143c b334 a8b9 60a3 833a
000001f0: 2bce a13c e703 b2bb d5ea b3ba 0f1c 75bc
00000200: 1dde a73b a2db ccbb 20ad 513b 8074 fcba
00000210: 4b93 54bb bd4e 083c da44 68bc 120f f9bb
00000220: 322e 58bb 077e 333c 05de 88bb 3be8 a4bb
00000230: 32bd 4abc 97ea 8abc 05eb 753b d013 c03b
00000240: 5412 39bc 9565 08bb 03db ddbb 320f 943b
00000250: 573a 9ebc 5fe4 3b3c 6bb6 bd3a 7dc9 62bc
00000260: 2cae 863b 1eb4 0abc cebb 18ba 7a28 ce3c
00000270: 3f09 033c 9fe5 b6ba f771 db3b df41 a8bb
00000280: eba8 eebb 3adb 79bc ad6d c63b b8e9 6e3b
00000290: d741 8e3c 7530 94bb 3829 26bb d3ca a9bc
000002a0: b95e 19ba cde2 20bc 9a86 89bb 7b3f 0ebc
000002b0: 1a77 543b ad04 2c3c 2b20 8b3c e0ec e33b
000002c0: 0a2e eaba 4b60 cbbb 87f2 973b 9770 89ba
000002d0: d2c5 3c3c 3fdb 943b 0e86 b7bb 360e 94bb
000002e0: 572e f239 d37c e43b e6f6 083b 6245 a9ba
000002f0: d4f5 3bbc 1fa4 0ebc 4e39 253c 3d02 1a3b
00000300: 4b5d 64bc e144 05bc 05ef 40bc c475 0abc
00000310: 461d 0b3b 0b47 89bb 407f 1239 3db9 66bb
00000320: 8fdc 363b 8114 a839 26e2 89bb ab68 46bc
00000330: 05a9 f7ba db12 44bc 902e 4b3b 3020 f53b
00000340: 8a15 e9bb 75a0 a93c 054a 473a d8e4 87bb
00000350: 5f0f 703c 8365 1b3c 8aa4 913b f764 06bc
00000360: 8dc0 edba 6fac 8d3b 73ce 8bbb 6f91 b4bb
00000370: 97bf 3cbc b065 763b f286 733b b59b e9bb
00000380: 0b61 503b 1374 1e3c 8b0b 9a3c 2281 abbb
00000390: dfdc 6139 9f46 a8bc bf26 dc3b c2fc 0abb
000003a0: 075d 603c cf20 13bc d336 df3b 0490 063c
000003b0: 3aa0 88b9 ce48 3c3c 27da b33b 525f 0cbc
000003c0: a99c 36bb b156 b0bb b6c4 c4bb 542a a6bb
000003d0: 3aa6 dfbc 4d1f a93b 237e 213b 2d81 aebb
000003e0: 4f67 7f3b d3c5 16bc 75a2 52bb 6ac5 903b
000003f0: 4319 123c a777 81bb 575f db3c 5aa4 45bc
0.015662037 -0.0063933018 0.021069469 -0.0020902723 -0.008998986 0.008558365 0.0054843663 -0.007778981
0.0013080002 -0.0037484448 0.012541065 0.0038129364 0.008420908 -0.008511872 -0.01773721 0.003887646
0.012551315 -0.0067419345 0.011340546 -0.005196247 -0.0038800915 0.007819711 -0.014689326 0.0068020015
-0.012175417 0.00849424 0.010136738 0.0169288 0.012387138 0.006105523 -0.0019570652 -0.013395973
-0.0009238056 -0.008346287 -0.010577536 -0.0010778995 0.0014373353 0.0038330392 0.0028281223 0.0081805615
0.0028104284 -0.0032964149 0.0015813546 -0.0028500408 -0.012115419 0.0032464066 -0.00692226 -0.006212967
0.010857787 -0.004645575 0.015945988 0.004311986 -0.010130095 -0.0004664329 -0.0025518157 0.002260743
-0.016035687 0.0015192914 -0.017192345 -0.008343824 0.0064324937 0.0003843582 -0.014100539 -0.017558048
0.0072246767 -0.001957229 -0.00064739364 0.007434213 -4.278005e-05 0.013712502 0.0026296524 0.0051740496
0.010708983 0.0013054195 -0.009410714 0.006233971 0.012830143 -0.017005468 -0.017110318 0.006824327
0.0046071485 -0.015574278 -0.008151337 0.0013386933 -0.003526844 0.008561223 0.0039093704 0.0004580042
0.0052429545 0.011238941 -0.018792005 -0.012171379 -0.0011070964 0.01814996 0.00498742 0.006375129
0.0051445267 -0.014620866 0.00808255 -0.013520091 0.008238125 0.008164983 0.013496416 0.0082067875
0.011273435 0.0015621063 -0.004552362 -0.0027956867 0.00910573 9.769055e-05 0.002854578 0.0035416223
-0.00204593 0.005388561 -0.0014412325 -0.0006899006 0.001379217 0.0016484736 0.012981243 -0.0007795895
-0.0012858779 0.00908535 -0.0003208272 0.0010043196 0.019751629 -0.005432594 -0.0013726602 -0.014960303
0.0051229135 -0.006251768 0.003199406 -0.0019260794 -0.0032436426 0.008319554 -0.014176572 -0.0076006735
-0.003298652 0.01095534 -0.0041768574 -0.005032567 -0.012374209 -0.016957564 0.0037524116 0.005861737
-0.011295874 -0.00208125 -0.006770493 0.004518413 -0.019314928 0.011468022 0.001447392 -0.013841984
0.0041101184 -0.008465795 -0.0005826325 0.025165785 0.00799781 -0.001395393 0.0066969353 -0.0051348056
-0.00728332 -0.015250022 0.006055555 0.0036455225 0.01736538 -0.004522378 -0.0025354158 -0.020726597
-0.00058506016 -0.0098196985 -0.004196954 -0.008682127 0.0032419623 0.010499162 0.016983112 0.006955728
-0.0017866504 -0.0062065474 0.004637066 -0.0010485825 0.011521773 0.0045427377 -0.0056006974 -0.0045182956
0.00046192363 0.006972888 0.0020899116 -0.0012914354 -0.011472184 -0.008706122 0.010084463 0.002349987
-0.013938258 -0.008134098 -0.011775737 -0.008450929 0.0021227165 -0.004189377 0.0001397105 -0.0035205625
0.002790246 0.00032058734 -0.004207867 -0.012109916 -0.0018894976 -0.011967386 0.0031003095 0.0074806437
-0.0071131634 0.020706395 0.00076022773 -0.0041471533 0.014652102 0.0094846515 0.0044446634 -0.008202783
-0.001813905 0.004323534 -0.004266554 -0.005510501 -0.011520288 0.0037597232 0.003715929 -0.0071291574
0.0031796123 0.009671229 0.018804332 -0.0052338997 0.00021539953 -0.020541487 0.006718486 -0.0021207784
0.013694054 -0.00897999 0.0068119555 0.008213047 -0.0002605932 0.011491967 0.0054886523 -0.008567648
-0.0027864373 -0.005381428 -0.006004895 -0.005070964 -0.027300943 0.005161202 0.0024641834 -0.0053254575
0.0038971489 -0.009202438 -0.003214029 0.004418065 0.008917156 -0.0039510312 0.02677886 -0.01206311

network_body.linear_encoder.seq_layers.0.bias f4 [128]
00000000: 0000 0000 0000 0000 0000 0000 0000 0000
00000010: 0000 0000 0000 0000 0000 0000 0000 0000
00000020: 0000 0000 0000 0000 0000 0000 0000 0000
00000030: 0000 0000 0000 0000 0000 0000 0000 0000
00000040: 0000 0000 0000 0000 0000 0000 0000 0000
00000050: 0000 0000 0000 0000 0000 0000 0000 0000
00000060: 0000 0000 0000 0000 0000 0000 0000 0000
00000070: 0000 0000 0000 0000 0000 0000 0000 0000
00000080: 0000 0000 0000 0000 0000 0000 0000 0000
00000090: 0000 0000 0000 0000 0000 0000 0000 0000
000000a0: 0000 0000 0000 0000 0000 0000 0000 0000
000000b0: 0000 0000 0000 0000 0000 0000 0000 0000
000000c0: 0000 0000 0000 0000 0000 0000 0000 0000
000000d0: 0000 0000 0000 0000 0000 0000 0000 0000
000000e0: 0000 0000 0000 0000 0000 0000 0000 0000
000000f0: 0000 0000 0000 0000 0000 0000 0000 0000
00000100: 0000 0000 0000 0000 0000 0000 0000 0000
00000110: 0000 0000 0000 0000 0000 0000 0000 0000
00000120: 0000 0000 0000 0000 0000 0000 0000 0000
00000130: 0000 0000 0000 0000 0000 0000 0000 0000
00000140: 0000 0000 0000 0000 0000 0000 0000 0000
00000150: 0000 0000 0000 0000 0000 0000 0000 0000
00000160: 0000 0000 0000 0000 0000 0000 0000 0000
00000170: 0000 0000 0000 0000 0000 0000 0000 0000
00000180: 0000 0000 0000 0000 0000 0000 0000 0000
00000190: 0000 0000 0000 0000 0000 0000 0000 0000
000001a0: 0000 0000 0000 0000 0000 0000 0000 0000
000001b0: 0000 0000 0000 0000 0000 0000 0000 0000
000001c0: 0000 0000 0000 0000 0000 0000 0000 0000
000001d0: 0000 0000 0000 0000 0000 0000 0000 0000
000001e0: 0000 0000 0000 0000 0000 0000 0000 0000
000001f0: 0000 0000 0000 0000 0000 0000 0000 0000
0.0 0.0 0.0 0.0 0.0 0.0 0.0 0.0
0.0 0.0 0.0 0.0 0.0 0.0 0.0 0.0
0.0 0.0 0.0 0.0 0.0 0.0 0.0 0.0
0.0 0.0 0.0 0.0 0.0 0.0 0.0 0.0
0.0 0.0 0.0 0.0 0.0 0.0 0.0 0.0
0.0 0.0 0.0 0.0 0.0 0.0 0.0 0.0
0.0 0.0 0.0 0.0 0.0 0.0 0.0 0.0
0.0 0.0 0.0 0.0 0.0 0.0 0.0 0.0
0.0 0.0 0.0 0.0 0.0 0.0 0.0 0.0
0.0 0.0 0.0 0.0 0.0 0.0 0.0 0.0
0.0 0.0 0.0 0.0 0.0 0.0 0.0 0.0
0.0 0.0 0.0 0.0 0.0 0.0 0.0 0.0
0.0 0.0 0.0 0.0 0.0 0.0 0.0 0.0
0.0 0.0 0.0 0.0 0.0 0.0 0.0 0.0
0.0 0.0 0.0 0.0 0.0 0.0 0.0 0.0
0.0 0.0 0.0 0.0 0.0 0.0 0.0 0.0

network_body.linear_encoder.seq_layers.0.weight f4 [128, 9]
00000000: fc0c 103f 84de 043f 4eaf 71be 6386 62bd
00000010: dc60 f83e b1d1 0dbe caca b3be 2806 a83d
00000020: 5418 fb3e 2f01 ebbd e2dc 83bc d555 1b3e
00000030: 3c26 703e c0cb c1be 4a57 123f c088 3e3e
00000040: bc3d ae3e a39b 77bc ba63 943d bba4 08be
00000050: 43e1 ab3e 88f2 a53d e31c fdbd 2ca0 9d3e
00000060: 975b 933e 0a5b 0a3e e098 cd3d 651f 11be
00000070: c3b2 0bbe 1fa8 2b3f dfa0 40be b2b6 25bf
00000080: bc01 e53d 6e75 8a3e 1b72 32be c448 86be
00000090: d090 aabe 3218 bb3e ca18 7bbe 7634 c4be
000000a0: 7a51 b53e eff8 e6bd 49a3 9f3d da89 b2bd
000000b0: ee8f 433f 33f4 cb3e 6836 40be 6a04 cfbd
000000c0: cc57 6b3e db5c 663e 63e2 3dbf 111f 0bbf
000000d0: 5081 563e 26af 20bf f0ad b13e 444a a13e
000000e0: 9c62 07be fbff 71be 17f8 0abe 50d9 96be
000000f0: 82f4 1a3d 17b3 bfbe 20c5 893d 573d 8bbd
00000100: 661a 7c3e e698 153e 4aa4 593f 96c0 edbd
00000110: 2a20 27bc 25e4 18bf 0258 3cbf fdd1 083f
00000120: dc6e 58be 7a04 b43e 4e7d 8e3e 6afd b43e
00000130: 80ba 9f3e 4602 3c3d 185a 903e 160f adbe
00000140: 6096 c5be da5b a63d 5e72 503e 57d8 d2be
00000150: 2c06 1f3d be54 71be 62c6 5bbe bbc3 afbe
00000160: 0516 96bc 3806 bc3e 3e7f ebbe 04ba 2cbe
00000170: 1f5d eb3e 67bd 74bd 24b6 273e 7ec1 abbc
00000180: 2e66 28bf eeed 763e e0e1 e9be 93cf bb3e
00000190: eaa7 5dbe d8c8 a23e 3b57 aa3d 5f50 8abe
000001a0: 8067 b73e 4849 b2bd f3b6 e63c 3c4e a8be
000001b0: e386 413f 4ae6 d7be efec 97be b1d4 133f
000001c0: 9480 8e3e 5ead 40be 864a bdbd e000 12bf
000001d0: 3a40 2b3e 9af4 273f b8c8 ba3e 14c0 d6be
000001e0: d81d 4d3e 17ac ea3e d66a e53e b692 eb3d
000001f0: b269 04bf b7aa d0be ce6e 11be badb 833e
00000200: 7749 6d3e 38bd ae3d 3e8c 3e3f 3a95 5dbf
00000210: a610 4c3f f0ab 543d 236f e7be a427 57be
00000220: 193a a2bc 9231 da3e 40ce 92be fb22 d33e
00000230: 4879 ba3e e078 f9be 5a6f a63d 4624 58be
00000240: 9235 5c3e 1acb 7a3d 2f46 b3be 6780 2e3f
00000250: 4763 333e 434b 91be b885 373f fa9c 093f
00000260: 4806 e2be bcd5 92be 43d7 b0bb 40e5 0c3e
00000270: 97b9 5a3e fecc febe 2e0e 953e c47d 34be
00000280: 4005 a33e 66c7 f1be ccce 593e 3c08 3d3e
00000290: 9e84 383f 62e3 c6be c42b e93e 3a5b 4fbe
000002a0: a210 d33d 07a9 bc3d ee2c ddbd 680a 24bf
000002b0: 930e 71bc 1f2f 31bf f74e 5cbe b6f8 30bd
000002c0: efd2 0e3d b805 98bd 8817 73bd 726e 34bf
000002d0: e06b cd3e 6776 18bf 2aac 10bf da09 fbbd
000002e0: 3ee2 0d3f 9c72 c23e ca32 933e 3717 af3d
000002f0: 27cc 9c3e ea4d 403d c477 2dbf a4b9 703e
00000300: 86f7 333d 4ca3 c33d b33e fa3d f325 66be
00000310: 30d6 0d3f 2473 333e aa32 d53e 9832 b4bc
00000320: 5aaa 8bbe 0236 22bf c3de 043e b26d a9be
00000330: fc8c 103f c76f 103f 3ef8 123e f01e a0be
00000340: d8c9 7abf 0697 41bf 475b bcbe e7b1 e43e
00000350: f1d8 243f ab5f dcbd d37b dcbe 5029 d7bd
00000360: ee36 da3e cc94 fbbd b68b 8ebc e83e 6ebd
00000370: fbe8 e4be 9ea4 843d 5a23 153c ca8a 203d
00000380: efef edbd 6f07 a1bd 1ca4 0cbd ab87 ac3c
00000390: 6fd7 d2bd 761a 443e b3d2 343f c3bb 86bd
000003a0: b475 b33e c59d 193f 9ba0 323e 72ad 963e
000003b0: 5a8b de3d e498 c53d 636d 5a3c aaa8 1cbe
000003c0: 8f04 713e 878d ce3e 6e87 b63e aaf8 e6bd
000003d0: b4c5 9abe 7430 1e3c de64 eebd 7e2f 1f3e
000003e0: 6ed3 c4be 84d9 7fbe 3d12 0e3d 30f1 273e
000003f0: 3a58 9dbd a6a9 24bd 6481 67bd 8475 3f3c
0.5626981 0.5190203 -0.2360203 -0.055303942 0.48511398 -0.13849522 -0.35115653 0.08204299
0.49041998 -0.11474835 -0.016096536 0.15169461 0.23452085 -0.3785076 0.5716444 0.18606853
0.34031475 -0.01511279 0.07245584 -0.1334409 0.335703 0.081029 -0.12359025 0.30786264
0.28780815 0.13511291 0.10038924 -0.14172132 -0.13642411 0.6705341 -0.18811367 -0.64731896
0.111819714 0.27042717 -0.1742634 -0.2622739 -0.33313608 0.36541897 -0.24521175 -0.38321275
0.35413724 -0.11277949 0.07794816 -0.08717699 0.76391494 0.39834747 -0.18770754 -0.10108264
0.2298271 0.22496359 -0.74173564 -0.5434428 0.20947766 -0.62767255 0.34703016 0.31501973
-0.1322121 -0.23632805 -0.13571201 -0.2946267 0.037830837 -0.37441322 0.06727052 -0.06798809
0.24619445 0.14609107 0.8501631 -0.116089985 -0.01020054 -0.5972312 -0.7357179 0.53445417
-0.2113604 0.35159665 0.27829975 0.3534959 0.31196976 0.045900606 0.28193736 -0.33800572
-0.3859129 0.08122988 0.20356128 -0.4118068 0.038824245 -0.23567483 -0.21462396 -0.34329018
-0.018321047 0.36723495 -0.45995516 -0.16867834 0.45969483 -0.05975094 0.16378075 -0.020966288
-0.65780914 0.241142 -0.4568014 0.36681804 -0.21646085 0.31793857 0.08317419 -0.27014443
0.35821152 -0.087053835 0.028163409 -0.32872188 0.75596446 -0.42167884 -0.29672953 0.57746416
0.27832472 -0.18816134 -0.0924273 -0.57032585 0.16723719 0.6560761 0.3648126 -0.4194342
0.20030916 0.4583442 0.44808072 0.11502592 -0.5172378 -0.40755245 -0.14202425 0.25753576
0.23172556 0.08532184 0.7443274 -0.86555827 0.79712903 0.051921785 -0.45201978 -0.21011215
-0.019803094 0.42615944 -0.2867298 0.41237625 0.36420655 -0.48725033 0.081267074 -0.21107587
0.2150481 0.06122885 -0.35014483 0.68164676 0.1751834 -0.28377733 0.71688414 0.5375515
-0.44145417 -0.2867869 -0.005396755 0.13759327 0.2135986 -0.49765772 0.2911238 -0.17626101
0.31839943 -0.4722244 0.21270293 0.18460172 0.7207736 -0.38845354 0.45541203 -0.20249644
0.10305907 0.09211927 -0.10799585 -0.6407838 -0.014712947 -0.69212526 -0.21514498 -0.04320594
0.03486913 -0.07422966 -0.059348613 -0.70481026 0.40121365 -0.5955567 -0.565127 -0.122577384
0.55423343 0.37978065 0.28749686 0.0854935 0.30624506 0.046949305 -0.6776087 0.23508316
0.04393723 0.09552631 0.1221899 -0.22475414 0.5540495 0.17524391 0.41640216 -0.021996781
-0.27278405 -0.6336366 0.12975602 -0.33091503 0.56465125 0.5642056 0.1435251 -0.31273603
-0.9796424 -0.7562107 -0.3678839 0.4466698 0.64393526 -0.10760435 -0.4306322 -0.105059266
0.42620033 -0.1228424 -0.017400604 -0.05816546 -0.44709 0.06476711 0.009102667 0.03919486
-0.11618029 -0.07862746 -0.034336194 0.021060785 -0.10294997 0.19150719 0.70634 -0.065787815
0.35050738 0.6000636 0.17444079 0.29429203 0.10866423 0.09648302 0.013331744 -0.15298715
0.23536895 0.40342352 0.356502 -0.11277898 -0.3022896 0.009655107 -0.11640333 0.1554546
-0.38442558 -0.2498532 0.034685362 0.164006 -0.076828435 -0.04020085 -0.05651988 0.011685733

network_body.linear_encoder.seq_layers.2.bias f4 [128]
00000000: 0000 0000 0000 0000 0000 0000 0000 0000
00000010: 0000 0000 0000 0000 0000 0000 0000 0000
00000020: 0000 0000 0000 0000 0000 0000 0000 0000
00000030: 0000 0000 0000 0000 0000 0000 0000 0000
00000040: 0000 0000 0000 0000 0000 0000 0000 0000
00000050: 0000 0000 0000 0000 0000 0000 0000 0000
00000060: 0000 0000 0000 0000 0000 0000 0000 0000
00000070: 0000 0000 0000 0000 0000 0000 0000 0000
00000080: 0000 0000 0000 0000 0000 0000 0000 0000
00000090: 0000 0000 0000 0000 0000 0000 0000 0000
000000a0: 0000 0000 0000 0000 0000 0000 0000 0000
000000b0: 0000 0000 0000 0000 0000 0000 0000 0000
000000c0: 0000 0000 0000 0000 0000 0000 0000 0000
000000d0: 0000 0000 0000 0000 0000 0000 0000 0000
000000e0: 0000 0000 0000 0000 0000 0000 0000 0000
000000f0: 0000 0000 0000 0000 0000 0000 0000 0000
00000100: 0000 0000 0000 0000 0000 0000 0000 0000
00000110: 0000 0000 0000 0000 0000 0000 0000 0000
00000120: 0000 0000 0000 0000 0000 0000 0000 0000
00000130: 0000 0000 0000 0000 0000 0000 0000 0000
00000140: 0000 0000 0000 0000 0000 0000 0000 0000
00000150: 0000 0000 0000 0000 0000 0000 0000 0000
00000160: 0000 0000 0000 0000 0000 0000 0000 0000
00000170: 0000 0000 0000 0000 0000 0000 0000 0000
00000180: 0000 0000 0000 0000 0000 0000 0000 0000
00000190: 0000 0000 0000 0000 0000 0000 0000 0000
000001a0: 0000 0000 0000 0000 0000 0000 0000 0000
000001b0: 0000 0000 0000 0000 0000 0000 0000 0000
000001c0: 0000 0000 0000 0000 0000 0000 0000 0000
000001d0: 0000 0000 0000 0000 0000 0000 0000 0000
000001e0: 0000 0000 0000 0000 0000 0000 0000 0000
000001f0: 0000 0000 0000 0000 0000 0000 0000 0000
0.0 0.0 0.0 0.0 0.0 0.0 0.0 0.0
0.0 0.0 0.0 0.0 0.0 0.0 0.0 0.0
0.0 0.0 0.0 0.0 0.0 0.0 0.0 0.0
0.0 0.0 0.0 0.0 0.0 0.0 0.0 0.0
0.0 0.0 0.0 0.0 0.0 0.0 0.0 0.0
0.0 0.0 0.0 0.0 0.0 0.0 0.0 0.0
0.0 0.0 0.0 0.0 0.0 0.0 0.0 0.0
0.0 0.0 0.0 0.0 0.0 0.0 0.0 0.0
0.0 0.0 0.0 0.0 0.0 0.0 0.0 0.0
0.0 0.0 0.0 0.0 0.0 0.0 0.0 0.0
0.0 0.0 0.0 0.0 0.0 0.0 0.0 0.0
0.0 0.0 0.0 0.0 0.0 0.0 0.0 0.0
0.0 0.0 0.0 0.0 0.0 0.0 0.0 0.0
0.0 0.0 0.0 0.0 0.0 0.0 0.0 0.0
0.0 0.0 0.0 0.0 0.0 0.0 0.0 0.0
0.0 0.0 0.0 0.0 0.0 0.0 0.0 0.0

network_body.linear_encoder.seq_layers.2.weight f4 [128, 128]
00000000: b845 94b9 da31 ca3b 58ec db3b 8ef0 0c3d
00000010: 5439 69bc 9c4d 8dbd 4307 cfbc b2a9 2cbd
00000020: ee8b cf3b 6e84 0ebc 6ed3 dcbd 0644 15be
00000030: 4c3f aeba cb9c aa3d d670 083c a592 42bd
00000040: aa6c fa3b 2037 83bd bb2f 173c d6f1 99bd
00000050: 9c17 0f3e 964a 693d c83e 00be 865c 783c
00000060: 97dc 78bd 00eb 983d dc09 733d 3464 563e
00000070: f233 ce3d b438 d8bd 021e d2bd 3a2b 9d3d
00000080: c531 cbbb d442 66bb cba4 483d 660c 30bd
00000090: 5dcd e83d 3575 23bd 8fdc 54be e640 f63c
000000a0: d767 aabd 7178 e03d 0264 0cbe be9d 84bd
000000b0: 80ec 1f3e 4e85 9fbd 6add 12be 27d7 543c
000000c0: 7406 0ebd 98b7 1cba e970 79be 76a9 aabc
000000d0: 86d9 3a3d b014 923d c42d f83b b188 58bd
000000e0: 31fa 15bc b956 a23d 3462 49bd 2383 2cbd
000000f0: 051b 3ebe 821e c0bd 716a 223d bb3c 97bd
00000100: 519d d73b cf4c a5bd fc71 4c3d 626e 1ebd
00000110: 728f 57bc cba0 2cbd 3242 883d ae07 8c3d
00000120: 94ec adbb b7fd ec3d 338b 213e 9947 c3bd
00000130: 14dc f83c 5dbd 58bd 76cb 923d f76b 893d
00000140: b7b7 12be 923e 983d aa95 60bd 4aab 003d
00000150: 71f3 2f3e 2701 463d 2750 f63d 04e0 86bd
00000160: 2def ed3c eddf f33d ce5b e43d 453b 85bd
00000170: 1028 ddbc a5ef 8fbc 637e f8bc c208 c13d
00000180: f278 843c 2a22 c4bc 1028 14be c3b8 683d
00000190: 9102 d33d 4640 033d b025 363d b570 903c
000001a0: 6d58 f1bd b0c7 be3c 2535 e53d 0358 a5bc
000001b0: c852 4d3d 572f 11bd 36f3 c43a d743 74bd
000001c0: 6fc0 7d3d 9598 e0bd 2b54 273d 7140 823c
000001d0: 22a5 66bc 9279 503d e174 4e3e 1488 d9bd
000001e0: 07ca 96bd 4898 5bbd b64b 18bd 2f5a 92bc
000001f0: a8d1 39be d3bd 713e a318 143e c02e 0f3e
00000200: e0aa 543b 1d6c dd3c 8276 13bd a188 4ebe
00000210: 1e4a 6a3b 16c2 6dbc 13a8 273d 3cdd d93d
00000220: 987b d9bd 4251 793e 2da9 00bd 23e5 e2bb
00000230: daa2 d2bd 71e7 763c 8f32 153e b0fe 67bd
00000240: 4cb9 7abb cc0c ecbd fc28 353e f15b ab3d
00000250: 3a21 dabd b4cd 793c d136 173e b264 d6bd
00000260: 2f38 c3bb 5a55 3fbd 884c 183d c354 13be
00000270: 3995 8a3d eca1 f93d 13d1 96bd 2857 12be
00000280: 1da8 0abd ca29 16be 1b62 a13d 8222 073c
00000290: d84f 2b3e 2d01 8e3d 5c44 583a ceb3 2fbd
000002a0: b0c9 b73d 80a1 e83d ac07 40bd a24e 793c
000002b0: ce66 20bc db6a 13be 0959 103e eb24 9bbd
000002c0: a1d0 5f3d ac58 94bc ce51 203d 8469 cd3d
000002d0: c0d8 083e 947a b4bc d891 e93d 6e55 9abd
000002e0: 2214 27bc 0554 07be 184a 403e 1e9a 74bd
000002f0: 6c5d 10be 7533 c43c eede 033d 414e e23d
00000300: 03f1 aabd 51b3 a1bd 5e93 44ba 11dd bb3c
00000310: 6c72 a9bd 2781 4d3e b157 033e a9d4 7cbd
00000320: 8bb9 30bc ec2e f4bd b096 e8bd 46d4 5c3c
00000330: afa7 4bbd 10b0 4abd ccd5 a33d 444a 273d
00000340: 5322 3fbc c6a2 323e e45a 36bc d8f8 13bd
00000350: f35b eabd 5771 1a3d 82a5 23bd 8c91 ac3d
00000360: 6ae6 89bd b73a 98bd 1510 60be d146 1bbd
00000370: 100b 063d 750a 113e baa5 bf3d cfcf c3bc
00000380: 83f6 ed3c eea0 fe3d 30e3 123d c69c f03d
00000390: d585 18be a899 39bd 1d7b 92bd 8060 d63d
000003a0: cbf2 823c f0c7 5b3e 9b03 dfbd 3dcb 3dbd
000003b0: 4a69 2d3e be95 963d ecca 23bd bbf0 293d
000003c0: b19a e53c b256 da3a 0027 723d 5042 b0bd
000003d0: 051a 36bd a258 923d 0421 083d a90e d4bd
000003e0: a44c 88bd ed45 b1bb a677 f33d 6bc8 bcbd
000003f0: d12c efbd 5dd5 dc3d a14a ae3c cb24 e13d
-0.00028280704 0.0061704936 0.006711524 0.0344091 -0.0142348595 -0.068995684 -0.025272017 -0.04215402
0.0063338196 -0.008698566 -0.107825145 -0.1457673 -0.001329401 0.08330687 0.008327683 -0.047503132
0.0076423483 -0.06406999 0.009227688 -0.0751683 0.1397385 0.056955896 -0.12523949 0.015158778
-0.060757246 0.07466698 0.059335575 0.20936662 0.100685015 -0.1055769 -0.1025963 0.076742604
-0.0062010013 -0.0035135048 0.048985284 -0.042980574 0.11367295 -0.0399067 -0.20787261 0.030060243
-0.08320587 0.109604724 -0.13710025 -0.064753994 0.15617561 -0.07789098 -0.14342275 0.012990749
-0.034674123 -0.00059782853 -0.24359478 -0.020832758 0.045617603 0.07132852 0.007573815 -0.052864734
-0.009153889 0.07926697 -0.04916592 -0.04211725 -0.18564995 -0.09380819 0.03965229 -0.0738463
0.006580033 -0.08071291 0.04991339 -0.038679488 -0.013156759 -0.04214553 0.06653251 0.06837402
-0.0053077433 0.1157183 0.15775757 -0.095351405 0.030378379 -0.052914966 0.07167713 0.06710046
-0.14327894 0.07433809 -0.05483023 0.031413354 0.1718271 0.048340943 0.120270066 -0.06585696
0.029044712 0.11907945 0.11150323 -0.065054454 -0.026996642 -0.017570326 -0.030333703 0.094254985
0.016170952 -0.023942072 -0.14468408 0.056816828 0.10303224 0.032043718 0.044469535 0.017631868
-0.11784444 0.023288578 0.11191777 -0.020183569 0.050127774 -0.035445537 0.0015026096 -0.05963501
0.061951097 -0.10966603 0.040851753 0.015899869 -0.014077457 0.05089719 0.20161773 -0.10621658
-0.073627524 -0.053612024 -0.03718158 -0.017865269 -0.18146384 0.23607568 0.14462523 0.13982677
0.0032450482 0.027029091 -0.03600169 -0.20169307 0.0035749744 -0.014511606 0.040931772 0.106379
-0.10619277 0.24347404 -0.03141134 -0.006924288 -0.10284968 0.015069828 0.14570068 -0.056639373
-0.0038257418 -0.11525878 0.17691416 0.08367146 -0.10650869 0.015246797 0.14767005 -0.10468425
-0.0059576253 -0.046712257 0.03718236 -0.14387803 0.06766743 0.12189087 -0.073640965 -0.1429106
-0.03385173 -0.14664379 0.0788004 0.008247973 0.16729677 0.06933818 0.00082499324 -0.042896084
0.08974016 0.11358929 -0.046882316 0.015216501 -0.009790136 -0.14396231 0.14096464 -0.07575401
0.054642323 -0.018108688 0.039140515 0.10029891 0.13363934 -0.022031106 0.114047706 -0.07535826
-0.010197671 -0.13215645 0.18778265 -0.05971729 -0.14098138 0.023950318 0.032195024 0.11050082
-0.083467506 -0.0789553 -0.0007498766 0.022932561 -0.08273777 0.20068799 0.1282642 -0.061726246
-0.010786424 -0.11923012 -0.11356866 0.013478344 -0.049720462 -0.049484313 0.07999763 0.04084231
-0.011665898 0.17444906 -0.011130068 -0.036125988 -0.11443319 0.037705746 -0.039952762 0.08426198
-0.06733401 -0.07433074 -0.21881135 -0.037909333 0.032725394 0.14164145 0.09357782 -0.023902802
0.02904821 0.12433039 0.035861194 0.11748652 -0.14894803 -0.045312554 -0.07152388 0.10467625
0.015984913 0.21462989 -0.108893596 -0.0463364 0.16934696 0.0735278 -0.039988443 0.041489344
0.028027864 0.0016657917 0.059119225 -0.08606398 -0.044458408 0.071458116 0.03323461 -0.10354359
-0.06655243 -0.005409947 0.118880555 -0.09217914 -0.1167847 0.10782883 0.02127582 0.10993346
