UnityController/results/alex/MoveToGoal/MoveToGoal-273857.pt (torch, 438623 bytes, 36 tensors)

network_body.linear_encoder.seq_layers.0.weight f4 [128, 6]
-0.32506555 0.22916815 -0.65380764 0.22731571 -0.9594123 0.3781732 -0.258235 0.0077745416
-0.110914886 -0.12493275 -0.13770601 0.1588754 -0.120706566 0.5375078 -0.26204127 -0.13495855
0.52697647 0.8232562 0.36664104 0.9223653 -0.041011274 -0.44290635 -0.058384717 0.3416344
-0.065416716 0.20069493 0.004876502 0.5560758 0.63829565 0.6944445 -0.09064231 0.5518786
0.8891237 0.18432944 0.15076408 -0.2286063 0.663615 0.11684432 0.0006781553 -0.41831627
0.29493764 0.13111041 -0.3477757 -0.21251458 0.53185636 0.41271302 -0.008144046 -0.109598346
-0.49616632 0.3417063 -0.45974675 0.026182791 -0.017535599 -0.41458213 0.1395869 -0.74804235
-0.26078528 0.8925073 0.32369736 0.3765906 0.32324216 0.086549066 -0.318713 0.22145161
-0.58059007 0.2560467 0.39525393 -0.92385757 -0.14066632 0.019880101 0.254877 0.101945415
-0.2106365 -0.4844092 0.40005457 -0.17471169 0.013169946 0.05865945 -0.12648003 0.08926466
-0.30849007 -0.034871146 0.098057814 0.293923 0.02054431 0.067443945 0.2026487 -0.46316323
0.32207865 -0.3320278 0.263584 0.18550123 -0.6713248 -0.36401555 0.03412296 -0.06640252
0.0989335 -0.2478081 -0.38966936 0.10545577 -0.06145519 0.014674006 -0.3340227 0.92273766
-0.3902313 1.0695645 -0.03846149 0.28548008 0.49347106 0.04577274 0.54425836 -0.8285085
-0.5661522 0.16488627 -0.62208474 -0.37769994 -0.061945073 0.15875815 0.3703953 -0.50061953
-0.4814183 -0.18425006 0.05096575 0.28875855 0.012079204 -0.30700776 0.37637264 -0.10844688
0.3992213 0.7777388 -0.13038714 -0.24622327 -0.0909533 -0.49388146 -0.48082986 0.029584212
0.24421729 0.14131366 -0.055146657 -0.25749496 -0.4211088 -0.16658501 0.44408798 -0.13037148
-0.26963556 -0.68427914 -0.6475059 -0.08328342 0.16385043 -0.21292752 -0.67220914 0.20224069
-0.2761678 -0.5814434 -0.031476196 0.20254675 0.33157837 0.4487432 -0.3383166 0.03090682
-0.1872903 0.1267804 -0.23977938 0.43407264 -0.86262876 0.38436574 0.5977568 -0.3243178
0.6815253 -0.32045332 -0.13153222 0.48217738 0.10715493 1.1864133 -0.8618642 -0.5994148
-0.0044146236 0.092850246 -0.055014893 -0.12877788 0.038263872 -0.12290031 -0.005663591 0.03757424
0.7239939 0.358857 -0.081147596 0.020508517 -0.20258674 0.6743518 0.0023608971 0.24913698
-0.48218286 -0.04618809 -0.080216855 -0.772368 0.4760185 0.13080695 0.042663377 0.8656694
-0.45700106 0.52124214 0.04717692 -0.06721316 0.5333588 -0.3191932 -0.004125251 -0.22354428
0.2082931 -0.735317 -0.19863299 0.25327167 -0.04381012 0.44279116 0.46368474 -0.42779294
0.25706953 -0.84697294 -0.45580202 -1.2110331 -0.3063673 -0.295591 0.7671754 -0.15373464
1.1537309 -0.5969521 0.36222553 -0.18320125 0.24199884 0.27025568 0.30538338 -0.0692741
0.30938816 0.42958814 0.5095416 -0.7218981 0.022010578 0.3956951 -0.40461802 -0.45303944
0.33304352 0.34347486 0.6499587 0.29735118 -0.15034822 0.14317513 0.4067258 0.72275597
0.090712935 0.055913884 0.09604434 -0.22637911 -0.3279818 -0.5236805 0.24157627 -0.015285279
00000000: fe6e a6be 0eab 6a3e f05f 27bf 73c5 683e
00000010: 0b9c 75bf eb9f c13e 6137 84be 95c1 fe3b
00000020: 5827 e3bd bedc ffbd ce02 0dbe 3cb0 223e
00000030: 0135 f7bd 1c9a 093f 462a 86be 9332 0abe
00000040: eee7 063f ebc0 523f 60b8 bb3e 2220 6c3f
00000050: 70fb 27bd 9fc4 e2be d024 6fbd b4ea ae3e
00000060: 33f9 85bd f982 4d3e 10cb 9f3b fc5a 0e3f
00000070: 5867 233f 1dc7 313f ada2 b9bd ea47 0d3f
00000080: 9c9d 633f dbc0 3c3e e661 1a3e c517 6abe
00000090: ace2 293f 134c ef3d 3bc6 313a 8d2d d6be
000000a0: 1102 973e cf41 063e a80f b2be 6c9d 59be
000000b0: bd27 083f 1f4f d33e 9b6e 05bc 1975 e0bd
000000c0: 8309 febe 21f4 ae3e ed63 ebbe 4b7d d63c
000000d0: d1a6 8fbc 1c44 d4be deef 0e3e b47f 3fbf
000000e0: a685 85be 5c7b 643f a9bb a53e 7cd0 c03e
000000f0: ff7f a53e a340 b13d 5a2e a3be 36c4 623e
00000100: 8da1 14bf 8e18 833e b95e ca3e ee81 6cbf
00000110: d50a 10be 98db a23c 3d7f 823e c2c8 d03d
00000120: 18b1 57be 7c04 f8be f4d3 cc3e 9fe7 32be
00000130: c2c6 573c e444 703d fb83 01be 64d0 b63d
00000140: 69f2 9dbe 0cd5 0ebd 89d2 c83d 137d 963e
00000150: 8a4c a83c 0d20 8a3d 2483 4f3e bb23 edbe
00000160: 7ee7 a43e 8cff a9be 7bf4 863e 09f4 3d3e
00000170: f1db 2bbf 3f60 babe 84c4 0b3d 0bfe 87bd
00000180: a69d ca3d 68c1 7dbe be82 c7be 32f9 d73d
00000190: 70b8 7bbd 3e6b 703c 0605 abbe 8938 6c3f
000001a0: 66cc c7be 7de7 883f cc89 1dbd 722a 923e
000001b0: 3da8 fc3e 327c 3b3d 8454 0b3f 2219 54bf
000001c0: 5aef 10bf f2d7 283e f240 1fbf e361 c1be
000001d0: 1eba 7dbd 7f91 223e 74a4 bd3e 9a28 00bf
000001e0: 767c f6be 0cac 3cbe 76c1 503d 29d8 933e
000001f0: dbe7 453c 1f30 9dbe eab3 c03e 6619 debd
00000200: bc66 cc3e e419 473f 3584 05be f421 7cbe
00000210: b945 babd 08de fcbe 552f f6be 975a f23c
00000220: 1914 7a3e 87b4 103e 76e1 61bd 61d6 83be
00000230: 939b d7be 4395 2abe 805f e33e 1a80 05be
00000240: ac0d 8abe eb2c 2fbf f2c2 25bf 7f90 aabd
00000250: 68c8 273e ac09 5abe e615 2cbf 2f18 4f3e
00000260: de65 8dbe 7ad9 14bf 2fed 00bd 6a68 4f3e
00000270: a4c4 a93e abc1 e53e d537 adbe 4d30 fd3c
00000280: 07c9 3fbe b9d2 013e ba88 75be c53e de3e
00000290: 3dd5 5cbf 96cb c43e 9706 193f fc0c a6be
000002a0: 7178 2e3f 7512 a4be 62b0 06be f4df f63e
000002b0: 0b74 db3d 64dc 973f 22a3 5cbf 4073 19bf
000002c0: 8ca8 90bb 4528 be3d 4c57 61bd 59de 03be
000002d0: 94ba 1c3d 28b3 fbbd a595 b9bb 72e7 193d
000002e0: aa57 393f 1bbc b73e b630 a6bd 7a01 a83c
000002f0: e672 4fbe 52a2 2c3f 48b9 1a3b c41d 7f3e
00000300: ace0 f6be b92f 3dbd bc48 a4bd e9b9 45bf
00000310: b2b8 f33e 42f2 053e cbbf 2e3d 839c 5d3f
00000320: 0bfc e9be 2070 053f 963c 413d 0ea7 89bd
00000330: 348a 083f 4b6d a3be 1d2d 87bb cbe8 64be
00000340: c94a 553e bc3d 3cbf 7266 4bbe d3ac 813e
00000350: 3e72 33bd 86b5 e23e 1668 ed3e ad07 dbbe
00000360: 9e9e 833e 38d3 58bf e25e e9be 2203 9bbf
00000370: 2ddc 9cbe b457 97be 9b65 443f 9d6c 1dbe
00000380: 74ad 933f dad1 18bf a075 b93e 1c99 3bbe
00000390: 8bce 773e f45e 8a3e 365b 9c3e 94df 8dbd
000003a0: 2068 9e3e faf2 db3e 5171 023f 50ce 38bf
000003b0: 874f b43c 8c98 ca3e 182a cfbe c9f4 e7be
000003c0: ae84 aa3e f0db af3e b263 263f 6a3e 983e
000003d0: e2f4 19be 809c 123e 5d3e d03e 8906 393f
000003e0: b4c7 b93d f505 653d e5b2 c43d edcf 67be
000003f0: 3bed a7be ed0f 06bf c55f 773e 1b6f 7abc

network_body.linear_encoder.seq_layers.0.bias f4 [128]
0.032312453 -0.02251932 0.02088683 -0.032938126 0.00637482 -0.038384408 -0.032436226 -0.02991633
-0.035052378 -0.014332477 0.0281689 -0.03153971 -0.028128898 -0.03195234 0.03928726 -0.04698643
0.041963935 0.047008637 -0.0054040253 0.04110408 0.03799765 0.046264943 0.016020544 0.008093076
0.027038299 -0.038601447 -0.021736005 -0.008446557 -0.006768042 -0.0069751535 -0.00475053 0.010961198
0.021683872 0.02329788 -0.012859772 0.058747843 0.022297738 0.02710992 -0.014476919 0.038790565
0.002250493 0.05898817 -0.01976607 -0.008157542 -0.041953985 -0.027718764 -0.009220381 -0.021215653
-0.033614893 -0.022468884 0.02204501 -0.008972562 -0.025498006 0.025127122 0.016717896 0.008947896
-0.01844713 0.035058025 0.00067209493 0.02633707 0.01205641 -0.033984806 -0.0104077635 0.009567485
0.00071702263 0.014012844 0.041303284 0.004120406 -0.010785905 6.242837e-05 0.058571767 0.021472128
-0.0065043326 0.024835095 -0.007958968 -0.01877817 0.015498529 0.047751877 0.05704031 0.030307654
0.018366188 0.052170157 -0.0006143548 -0.007646901 -0.03234515 0.0008844261 -0.004089739 -0.020326523
-0.027435357 0.03728055 -0.013893027 -0.0029251785 -0.006434555 0.015398717 0.044877645 -0.029273357
-0.001391415 -0.030854415 0.0016488772 0.027722588 0.00023824035 0.03349239 -0.018007243 -0.009531404
0.014505344 -0.0016703862 -0.016347764 0.020897832 -7.910901e-06 -0.02502158 -0.020560488 0.016265145
0.00046808878 -0.0034854824 0.0453937 0.060921337 -0.021030437 0.009320931 0.0506512 -0.036474157
-0.022000324 0.033082515 -0.00025023433 0.041474026 0.028248094 -0.019949222 -0.022366738 0.020541098
00000000: 105a 043d 707a b8bc db1a ab3c 21ea 06bd
00000010: dee3 d03b f838 1dbd d9db 04bd 1713 f5bc
00000020: 1593 0fbd c4d2 6abc 77c2 e63c c82f 01bd
00000030: 936e e6bc 75e0 02bd aeeb 203d d874 40bd
00000040: 60e2 2b3d 218c 403d 4014 b1bb c05c 283d
00000050: 6da3 1b3d 4f80 3d3d 843d 833c d298 043c
00000060: 6c7f dd3c 8d1c 1ebd b50f b2bc 6e63 0abc
00000070: 74c6 ddbb d48f e4bb 55aa 9bbb 9996 333c
00000080: 60a2 b13c 32db be3c cbb1 52bc 94a1 703d
00000090: bfa9 b63c 9f15 de3c 9930 6dbc dbe2 1e3d
000000a0: 027d 133b 949d 713d 74ec a1bc 36a7 05bc
000000b0: f1d7 2bbd 7612 e3bc 1511 17bc 73cc adbc
000000c0: c5af 09bd aa10 b8bc bd97 b43c a701 13bc
000000d0: 32e1 d0bc 65d7 cd3c f8f3 883c 329a 123c
000000e0: 701e 97bc 0199 0f3d 872f 303a d7c0 d73c
000000f0: 4088 453c a733 0bbd 5385 2abc f1c0 1c3c
00000100: 93f6 3b3a 2196 653c a22d 293d 7904 873b
00000110: 5db7 30bc faeb 8238 f3e8 6f3d 51e6 af3c
00000120: 4c22 d5bb f872 cb3c 5566 02bc add4 99bc
00000130: 8bed 7d3c 7997 433d 1aa3 693d c247 f83c
00000140: b074 963c 60b0 553d a70c 21ba db92 fabb
00000150: 597c 04bd d5d8 673a 3803 86bb cf83 a6bc
00000160: 1dc0 e0bc 7db3 183d 949f 63bc 5ab4 3fbb
00000170: f6d8 d2bb e64a 7c3c 9fd1 373d aece efbc
00000180: 2460 b6ba 66c2 fcbc 231f d83a 7b1a e33c
00000190: 28d0 7939 512f 093d ed83 93bc 9b29 1cbc
000001a0: d3a7 6d3c dcf0 daba bfeb 85bc ee31 ab3c
000001b0: 10b9 04b7 0efa ccbc 786e a8bc 7b3e 853c
000001c0: d069 f539 b16c 64bb bfee 393d a788 793d
000001d0: 0648 acbc d1b6 183c a277 4f3d ed65 15bd
000001e0: 063a b4bc 8881 073d e231 83b9 abe0 293d
000001f0: 8c68 e73c 8d6c a3bc 733a b7bc ce45 a83c

network_body.linear_encoder.seq_layers.2.weight f4 [128, 128]
0.057079107 0.037790973 0.094053425 -0.13853864 -0.1800183 -0.07004873 -0.03320931 -0.028902588
0.009212567 0.11730438 -0.06849884 0.07028385 -0.10704231 -0.13485742 0.20354657 -0.07941509
-0.11109968 -0.010361265 0.028850524 -0.05411755 -0.051243175 0.039929304 -0.08268174 0.09198265
-0.078276515 -0.12011056 -0.09463812 -0.053040348 0.020753853 0.047967136 0.11881142 -0.093852215
0.08614049 0.020180773 -0.064676166 -0.0011386618 0.029884258 -0.10140121 0.18798111 -0.054613322
-0.05816047 -0.02697333 0.046609264 0.030644786 0.11173062 0.0920698 -0.06553502 -0.12807643
0.031732153 -0.16161785 0.062443946 0.053072374 0.00756512 0.08342132 -0.10749778 -0.05007523
0.17495814 -0.16316794 -0.102820836 0.022258805 0.0012677416 0.078402594 -0.14402835 0.09558524
-0.0034638026 0.17791595 0.07474885 0.1605038 0.14034705 -0.046206057 0.14578012 -0.10726649
-0.051802255 -0.062232982 0.03309793 -0.14320812 -0.10100186 -0.06833905 -0.082233846 0.051758345
0.103397384 0.03336152 -0.04176085 -0.046658225 -0.073819414 0.010196145 -0.15750629 -0.09654002
0.137897 -0.02188535 0.08189007 0.11327923 -0.031621795 -0.14718963 0.010182875 0.027625227
0.026149489 -0.017000968 -0.031466227 -0.05308274 0.0034724844 0.14122021 -0.006583746 0.022967692
-0.063843116 -0.094060436 0.02116952 0.107845314 0.04924124 -0.02621592 0.005967463 0.029461358
4.180641e-05 -0.022363625 -0.0678065 0.02095267 -0.01946642 -0.040456817 -0.002399328 0.07730224
-0.17350256 0.10206501 -0.18534954 -0.027428148 0.026405836 0.014130399 -0.0052552912 0.04001399
0.057049073 0.0073237964 0.044809967 0.15956941 0.15321557 0.046185493 0.017950581 0.062187362
0.048210297 0.029353539 0.032989472 -0.05724383 -0.06966625 -0.117086545 0.14383686 0.036373843
-0.00210094 -0.07400627 0.16078518 -0.043362286 0.06489013 0.09047959 -0.046014477 0.011519679
0.057561718 -0.17165312 0.08747471 -0.012958244 -0.00019812466 -0.07383095 0.18949209 0.123678364
0.19675699 -0.091401815 0.06202956 -0.011126181 0.06905081 -0.0013507504 0.2077214 0.038189407
-0.05892236 0.049769018 -0.14036594 0.11081477 -0.012317789 0.051374476 -0.20211193 -0.015787449
-0.0478976 0.047103472 0.03292362 0.11132311 -0.0446869 -0.08560289 0.018799158 0.028661765
0.1249077 -0.06008717 -0.02258464 -0.12803322 -0.014319766 -0.05084276 -0.14775781 -0.05331833
-0.011478915 -0.062400047 -0.068477556 0.14662232 0.010456453 0.11545906 -0.0069111814 -0.017678529
0.13855195 -0.09591532 -0.11993587 -0.11314464 -0.004325108 -0.033494256 -0.080900274 0.048242822
-0.046577584 0.10354291 -0.059796892 0.08097373 -0.021354083 -0.13532658 0.047415704 -0.08991787
0.039438345 -0.0032509 -0.021163952 -0.0007469345 -0.0060259546 0.08971447 -0.032343544 -0.007252345
0.14956516 0.063633375 0.19103175 0.101094835 0.04852552 -0.015265328 0.02331572 0.06264401
-0.06283572 0.023178162 0.02756063 0.08048054 -0.024320014 -0.09178668 -0.16132559 0.077170715
-0.0090959715 0.004595938 0.016485058 -0.005820094 -0.051275488 -0.07033379 -0.08559702 -0.06046371
0.0795458 -0.051518455 0.10580691 0.019689396 -0.05314237 0.08452924 -0.08145369 -0.042718917
00000000: c8cb 693d b5ca 1a3d 159f c03d 13dd 0dbe
00000010: b856 38be b575 8fbd 7c06 08bd 1fc5 ecbc
00000020: 4ef0 163c 473d f03d 1f49 8cbd fbf0 8f3d
00000030: 0039 dbbd 1018 0abe 836e 503e 61a4 a2bd
00000040: 3b88 e3bd 4cc2 29bc ef57 ec3c 5daa 5dbd
00000050: 5de4 51bd e98c 233d 0b55 a9bd 6661 bc3d
00000060: 704f a0bd 86fc f5bd a1d1 c1bd d640 59bd
00000070: fc03 aa3c 3079 443d 6753 f33d 9735 c0bd
00000080: 6d6a b03d 2652 a53c f074 84bd 263f 95ba
00000090: d5cf f43c 70ab cfbd 1f7e 403e 38b2 5fbd
000000a0: ac39 6ebd 2cf7 dcbc 5be9 3e3d c60a fb3c
000000b0: 06d3 e43d 178f bc3d 3937 86bd 7826 03be
000000c0: 93f9 013d 267f 25be 39c5 7f3d 6b62 593d
000000d0: d3e4 f73b ccd8 aa3d cc27 dcbd af1b 4dbd
000000e0: 3a28 333e 7f15 27be bb93 d2bd 1958 b63c
000000f0: 592a a63a 8a91 a03d 2b7c 13be 32c2 c33d
00000100: f700 63bb 992f 363e ed15 993d 1c5b 243e
00000110: 23b7 0f3e 9042 3dbd 6247 153e 89ae dbbd
00000120: 9a2e 54bd 03e8 7ebd b291 073d 26a5 12be
00000130: 10da cebd 58f5 8bbd 386a a8bd 8f00 543d
00000140: 02c2 d33d 17a6 083d 6d0d 2bbd b21c 3fbd
00000150: a22e 97bd bb0d 273c 5449 21be c6b6 c5bd
00000160: df34 0d3e e848 b3bc fbb5 a73d f1fe e73d
00000170: db85 01bd e1b8 16be 13d6 263c 4d4e e23c
00000180: 7437 d63c 9d45 8bbc bbe2 00bd 4a6d 59bd
00000190: 9f92 633b 089c 103e 77bc d7bb be26 bc3c
000001a0: 2ec0 82bd c2a2 c0bd b46b ad3c 01de dc3d
000001b0: 2fb1 493d c5c2 d6bc b58a c33b f258 f13c
000001c0: 4a59 2f38 ec33 b7bc 22de 8abd efa4 ab3c
000001d0: 0b78 9fbc 0cb6 25bd 0b3e 1dbb a350 9e3d
000001e0: a8aa 31be 7607 d13d 45cc 3dbe ffb0 e0bc
000001f0: 0d51 d83c 3083 673c 9434 acbb b6e5 233d
00000200: 4aac 693d 75fc ef3b a88a 373d 2a66 233e
00000210: 8be4 1c3e 002d 3d3d 190d 933c 2db8 7e3d
00000220: 2978 453d d576 f03c f81f 073d 8278 6abd
00000230: 2ead 8ebd 12cb efbd f849 133e bdfc 143d
00000240: edaf 09bb 9990 97bd dfa4 243e a79c 31bd
00000250: 1ee5 843d 5d4d b93d ad79 3cbd 09bd 3c3c
00000260: d6c5 6b3d d6c5 2fbe f125 b33d d14e 54bc
00000270: afbf 4fb9 ae34 97bd 370a 423e 154b fd3d
00000280: aa7a 493e e030 bbbd b512 7e3d 964a 36bc
00000290: 836a 8d3d aa0b b1ba ebb4 543e 7f6c 1c3d
000002a0: 9358 71bd 99da 4b3d 17bc 0fbe dbf2 e23d
000002b0: 8dd0 49bc 0b6e 523d 6ef6 4ebe ae54 81bc
000002c0: 4630 44bd 92ef 403d ebda 063d 5ffd e33d
000002d0: 9c09 37bd 9150 afbd b100 9a3c 14cc ea3c
000002e0: 9ccf ff3d f71d 76bd 6c03 b9bc 241b 03be
000002f0: 749d 6abc 7f40 50bd d34d 17be 5264 5abd
00000300: 0f12 3cbc 3197 7fbd f63d 8cbd 2924 163e
00000310: 8b51 2b3c cd75 ec3d 3177 e2bb 90d2 90bc
00000320: 90e0 0d3e 406f c4bd f0a0 f5bd 61b8 e7bd
00000330: a3b9 8dbb 4631 09bd 0baf a5bd 449a 453d
00000340: 23c8 3ebd 4e0e d43d 96ed 74bd 8ed5 a53d
00000350: c2ee aebc 0d93 0abe f836 423d dc26 b8bd
00000360: 1a8a 213d 0d0d 55bb 0660 adbc edcd 43ba
00000370: 5f75 c5bb 38bc b73d aa7a 04bd 14a5 edbb
00000380: 9c27 193e 3752 823d d49d 433e cf0a cf3d
00000390: b2c2 463d 6d1b 7abc 9c00 bf3c 814b 803d
000003a0: 04b0 80bd 21e0 bd3c d5c6 e13c fbd2 a43d
000003b0: c43a c7bc a8fa bbbd 8932 25be ae0b 9e3d
000003c0: 4507 15bc 8699 963b ac0b 873c 7db6 bebb
000003d0: 3f06 52bd 290b 90bd 7e4d afbd cca8 77bd
000003e0: e9e8 a23d 0405 53bd 4bb1 d83d a84b a13c
000003f0: d0ab 59bd ab1d ad3d 31d1 a6bd 08fa 2ebd

network_body.linear_encoder.seq_layers.2.bias f4 [128]
0.035645973 -0.044387225 0.041289505 -0.040747847 0.005161344 0.021063061 0.0449896 -0.023972144
0.0071608936 -0.024116687 -0.02547912 -0.038105495 -0.032313697 -0.028846858 -0.03214561 0.06188349
0.0148573965 0.038536176 -0.03828782 -0.052955385 0.0339916 0.0028852005 -0.04307873 0.023175593
-0.014127777 3.6648173e-05 0.04504287 0.023920232 -0.023716548 -0.017150031 0.042598646 0.048028424
-0.0033771917 -0.04327309 0.04838693 -0.024937654 -0.00035622876 -0.009619407 -0.02523392 0.04474834
0.03758861 -0.027365288 -0.037052985 -0.019616008 0.04066784 -0.051325623 -0.02366947 0.027559338
-0.034953848 0.00229238 0.016907275 -0.025509626 0.026589317 -0.012981861 0.032469504 0.035386465
0.03600166 -0.047417626 0.01781894 -0.04248515 0.041438483 0.015887484 -0.046179295 -0.026499916
0.0102160275 0.012824237 -0.037556004 0.05027345 -0.04057103 0.042866614 -0.017428206 -0.0016867847
-0.051100593 0.0068269633 0.048006058 -0.05103669 0.0010880264 -0.038023192 0.0035285165 -0.026843073
-0.01934815 0.048735026 -0.009849717 -0.033698782 -0.024737926 -0.032128844 -0.0102977315 0.038318757
0.029486168 -0.02682372 0.04170974 0.04463821 -0.040880844 0.0070863026 0.038771667 0.0039194045
-0.018413538 0.0028386367 -0.032573916 -0.04138804 -0.015695611 -0.028218042 0.025753828 0.0066046906
-0.0057594553 -0.019676728 -0.0014414452 -0.0016622985 0.04256586 -0.005330224 0.019735396 -0.020350821
0.01298095 0.05656418 -0.0414666 0.03535207 -0.026184265 0.04006012 0.031088714 0.010214902
-0.016866868 0.024135375 0.09719341 0.0053001796 0.03172078 -0.03621979 -0.024480758 0.038734715
00000000: 8301 123d 61cf 35bd 2f1f 293d 37e7 26bd
00000010: 7e20 a93b 718c ac3c 0447 383d 3b61 c4bc
00000020: eea5 ea3b 5c90 c5bc 96b9 d0bc 8214 1cbd
00000030: 5e5b 04bd 3f50 ecbc 1dab 03bd 8b79 7d3d
00000040: 706c 733c 1cd8 1d3d b0d3 1cbd bfe7 58bd
00000050: c73a 0b3d a215 3d3b 5373 30bd beda bd3c
00000060: 3178 67bc adb6 1938 df7e 383d 5df4 c33c
00000070: 3549 c2bc 397e 8cbc eb7b 2e3d 74b9 443d
00000080: e053 5dbb 203f 31bd 6031 463d 0d4a ccbc
00000090: 37c4 bab9 b89a 1dbc 5eb7 cebc 094a 373d
000000a0: 84f6 193d 2b2d e0bc dfc4 17bd c0b1 a0bc
000000b0: 5293 263d d13a 52bd 7ae6 c1bc 1fc4 e13c
000000c0: c42b 0fbd c13b 163b 2081 8a3c 90f9 d0bc
000000d0: d7d1 d93c dfb1 54bc befe 043d 66f1 103d
000000e0: 7a76 133d fc38 42bd 07f9 913c e904 2ebd
000000f0: 66bb 293d 7826 823c 8026 3dbd 5a16 d9bc
00000100: 2061 273c c01c 523c 53d4 19bd 88eb 4d3d
00000110: cf2d 26bd e794 2f3d 99c5 8ebc 1a17 ddba
00000120: db4e 51bd b8b4 df3b 00a2 443d d90b 51bd
00000130: 1c9c 8e3a 35be 1bbd af3e 673b 01e6 dbbc
00000140: 0380 9ebc 619e 473d b560 21bc bc07 0abd
00000150: 31a7 cabc 8999 03bd d1b7 28bc 21f4 1c3d
00000160: fa8c f13c 6bbd dbbc d5d7 2a3d 8ed6 363d
00000170: ac72 27bd 3734 e83b 0acf 1e3d 596e 803b
00000180: fdd7 96bc 6c08 3a3b 3a6c 05bd 8186 29bd
00000190: 1594 80bc 8629 e7bc b1f9 d23c 296c d83b
000001a0: d0b9 bcbb 1731 a1bc e0ee bcba 7be1 d9ba
000001b0: 8a59 2e3d 29a9 aebb 20ac a13c c4b6 a6bc
000001c0: 0dae 543c d7af 673d e2d8 29bd 55cd 103d
000001d0: 6280 d6bc 1516 243d c2ad fe3c 685c 273c
000001e0: 632c 8abc 8db7 c53c 570d c73d 21ad ad3b
000001f0: a6ed 013d 345b 14bd df8b c8bc 4ba8 1e3d

action_model._continuous_distribution.log_sigma f4 [1, 2]
0.013942419 -0.006869888
00000000: be6e 643c cc1c e1bb

action_model._continuous_distribution.mu.weight f4 [2, 128]
-0.03126908 0.030888464 -0.017709227 0.018756043 -0.0018038367 -0.039135523 -0.045316663 -0.011742977
-0.0006808198 0.04942668 0.013151317 0.0019833185 0.0070179 0.012577264 0.027199632 -0.023730965
0.011168843 0.0011888156 0.046135966 0.06241585 -0.0055499338 0.03757755 0.04294217 -0.021689488
-0.0005814864 -0.017083677 -0.020231262 -0.008977865 -0.0051314235 0.021797659 -0.045926202 -0.011138504
-0.021666145 0.020224517 -0.02963988 0.0020527197 -0.009969529 -0.012129051 0.011119972 -0.017433189
-0.011479354 0.03043053 0.071906336 0.007876063 -0.038337253 0.09256528 0.018779263 0.0012260184
0.026811365 -0.01247786 -0.029056754 0.09023361 -0.03231556 0.019982845 -0.009524406 0.019552398
-0.033087295 0.07537478 0.028350508 0.011713682 0.008347675 -0.002477283 0.010092207 0.05434974
0.0027843104 -0.0033570966 0.06081962 -0.040039424 0.0164337 -0.004548505 0.027808588 -0.004094679
0.053286064 -0.0022625003 0.017490951 0.010672417 -0.0043230704 0.032210506 0.008829862 0.0051597957
-0.0020017885 -0.010229696 0.028267704 0.028267995 0.024266882 0.041361358 0.030410973 0.00991202
-0.014747564 0.008420582 -0.005644303 -0.0409586 0.032133188 0.011335772 -0.014043611 0.036328595
-0.0038577786 0.013520981 -0.0021320127 0.015287804 -0.008445278 0.104785055 0.014710735 -0.019731063
-0.0125573985 0.030781874 -0.017863795 0.022056252 -0.027697679 -0.0061743394 -0.021929225 -0.004919685
-0.010849799 -0.035170104 0.021505393 -0.0226357 -0.00637145 0.028659597 -0.0143405665 -0.0022952897
0.096951276 -0.006751495 -0.029404327 0.0050905184 -0.010221121 0.026585765 0.026841803 -0.029364523
-0.026174946 -0.011177256 0.00527175 -0.050240193 -0.0053277253 -0.021593802 0.0055979653 -0.029002337
0.013184391 -0.009184225 -0.046331856 -0.012204382 -0.026168674 0.0019439483 -0.07397679 0.009446507
0.0058160564 0.02343694 -0.0056381607 -0.0064133876 0.036360335 0.009244251 -0.04551584 0.0039127585
-0.030748686 -0.032339256 0.009136072 0.0016225178 -0.012982025 0.012303924 0.02305617 0.02304227
-0.04350134 -0.02949539 -0.007144682 -0.039237846 -0.07473686 -0.065036416 -0.02644538 0.010562571
0.031287313 0.0071915393 -0.06871482 -0.012821712 0.007798143 -0.019896252 -0.0457508 0.031928763
-0.024363114 -0.015194513 -0.016740296 0.01151029 -0.0045536025 0.00793867 0.0124387 0.035696607
0.0031153117 -0.026504347 0.036028203 -0.010436354 0.04862656 0.045831874 -0.012624233 -0.0036917797
0.027907444 -0.003023501 -0.035153896 0.02291872 -0.012826882 0.012652717 0.0063376497 -0.00014414251
-0.02110218 0.0034622466 0.039841115 -0.014374186 -0.023177065 -0.037194774 0.007591561 -0.027113073
-0.016992953 -0.0043669003 0.027316282 -0.0062097264 0.003592548 -0.016167128 0.030292736 0.021324936
0.022598328 -0.05451266 0.02189888 0.009622872 -0.014914954 0.026137708 0.024062859 0.037418097
-0.027384138 0.016752908 -0.022969723 -0.019711653 -0.04924817 -0.061639678 0.031165576 -0.053716805
-0.025451198 0.008930535 -0.03166817 -0.06191077 0.019680448 -0.034081433 -0.016690345 -0.01235979
-0.021209108 0.012894949 -0.030386038 0.0020308173 -0.016801603 0.03532725 0.006021265 -0.0023527204
-0.10042759 -0.007711543 0.039638482 0.0052688876 0.028157152 -0.0047537354 0.018155415 0.013620013
00000000: 0214 00bd ce09 fd3c f112 91bc 46a6 993c
00000010: b76e ecba 924c 20bd f79d 39bd 9e65 40bc
00000020: 0b79 32ba a173 4a3d 9f78 573c 90fa 013b
00000030: 69f6 e53b de10 4e3c c3d1 de3c 7167 c2bc
00000040: 86fd 363c 08d2 9b3a 11f9 3c3d c3a7 7f3d
00000050: 38dc b5bb ebea 193d 21e4 2f3d 27ae b1bc
00000060: e46e 18ba 11f3 8bbc 08bc a5bc e517 13bc
00000070: 8025 a8bb 0191 b23c 1d1d 3cbd 467e 36bc
00000080: 337d b1bc e3ad a53c 55cf f2bc ec86 063b
00000090: 3c57 23bc edb8 46bc 8b30 363c 0cd0 8ebc
000000a0: e713 3cbc 7249 f93c a143 933d 9a0a 013c
000000b0: 8607 1dbd de92 bd3d f8d6 993c 5ab2 a03a
000000c0: 82a3 db3c f06f 4cbc 6e08 eebc 66cc b83d
000000d0: 525d 04bd 10b3 a33c 410c 1cbc 5a2c a03c
000000e0: 8b86 07bd 185e 9a3d 533f e83c beea 3f3c
000000f0: b0c4 083c e959 22bb c959 253c d59d 5e3d
00000100: fa78 363b bc02 5cbb fe1d 793d 6100 24bd
00000110: f89f 863c a00b 95bb d6ce e33c a82c 86bb
00000120: 7d42 5a3d 7546 14bb 2f49 8f3c 5cdb 2e3c
00000130: 8ba8 8dbb 2aef 033d 20ab 103c 8113 a93b
00000140: 7030 03bb 749a 27bc ac91 e73c 4892 e73c
00000150: 57cb c63c 876a 293d 6f20 f93c 0666 223c
00000160: c49f 71bc 7bf6 093c d8f3 b8bb 34c4 27bd
00000170: 179e 033d adb9 393c 2c17 66bc 4bcd 143d
00000180: c9d2 7cbb 1b87 5d3c 3db9 0bbb b379 7a3c
00000190: 105e 0abc 8c99 d63d 4b05 713c 0aa3 a1bc
000001a0: 8cbd 4dbc 452a fc3c 1857 92bc 50af b43c
000001b0: 3ee6 e2bc 1d52 cabb eba4 b3bc 4f35 a1bb
000001c0: 5bc3 31bc 870e 10bd 142c b03c 816e b9bc
000001d0: 99c7 d0bb 88c7 ea3c b2f4 6abc 926c 16bb
000001e0: 648e c63d a53b ddbb 58e1 f0bc 5dce a63b
000001f0: 7d76 27bc 64ca d93c 57e3 db3c de8d f0bc
00000200: d76c d6bc cf20 37bc a5be ac3b a9c8 4dbd
00000210: 3394 aebb 7ce5 b0bc 236f b73b 4f96 edbc
00000220: 5803 583c 6f79 16bc 79c6 3dbd e3f4 47bc
00000230: b05f d6bc 15cc fe3a 2581 97bd 86c5 1a3c
00000240: 9e94 be3b d3fe bf3c 52c0 b8bb 6527 d2bb
00000250: 93ee 143d 3375 173c d16e 3abd 9936 803b
00000260: abe4 fbbc 2b76 04bd 77af 153c aaaa d43a
00000270: 8fb2 54bc 6696 493c 4be0 bc3c 25c3 bc3c
00000280: 762e 32bd 51a0 f1bc f01d eabb ddb7 20bd
00000290: a40f 99bd d031 85bd fba3 d8bc a20e 2d3c
000002a0: 2027 003d 01a7 eb3b 5bba 8cbd 2812 52bc
000002b0: 9187 ff3b 77fd a2bc 3165 3bbd bcc7 023d
000002c0: 2795 c7bc 68f2 78bc f222 89bc a895 3c3c
000002d0: 6336 95bb 3211 023c b0cb 4b3c 9b36 123d
000002e0: 422a 4c3b a51f d9bc 4f92 133d 3efd 2abc
000002f0: a52c 473d 34ba 3b3d dfd5 4ebc c9f1 71bb
00000300: 279e e43c ee25 46bb 88fd 0fbd 0ac0 bb3c
00000310: d827 52bc 574d 4f3c 0fac cf3b f624 17b9
00000320: 7bde acbc dce6 623b 7030 233d b581 6bbc
00000330: d4dd bdbc 8c59 18bd a1c2 f83b 3c1c debc
00000340: ce34 8bbc 3718 8fbb 65c6 df3c f67a cbbb
00000350: f470 6b3b ed70 84bc 7928 f83c a2b1 ae3c
00000360: 2120 b93c ab48 5fbd 4865 b33c 40a9 1d3c
00000370: da5d 74bc bf1e d63c 791f c53c b843 193d
00000380: b354 e0bc 653d 893c 002b bcbc 557a a1bc
00000390: 73b8 49bd e379 7cbd f34e ff3c 2706 5cbd
000003a0: 087f d0bc 6151 123c 7cb6 01bd 2696 7dbd
000003b0: e438 a13c f998 0bbd 31ba 88bc b780 4abc
000003c0: b9be adbc 5645 533c 24ec f8bc 7617 053b
000003d0: 84a3 89bc 4eb3 103d 084e c53b 1930 1abb
000003e0: fbac cdbd 1cb1 fcbb f65b 223d a2a6 ac3b
000003f0: d4a9 e63c 39c5 9bbb aaba 943c 7a26 5f3c

action_model._continuous_distribution.mu.bias f4 [2]
-0.04268063 0.02649428
00000000: e2d1 2ebd 880a d93c

exp_avg f4 [128, 6]
0.00019517587 -3.4896835e-05 0.00018446201 2.674452e-05 0.0 -0.00014172377 -0.00015981318 3.4706845e-05
-0.00033658976 5.0398874e-05 0.0 0.00027529395 0.00037712714 -8.9179994e-05 7.850575e-05 6.397147e-05
0.0 -0.00041120627 0.00011512217 -1.94748e-06 0.0003173283 1.3881687e-05 0.0 -0.00012547469
-0.00024485707 -3.2121122e-06 -0.00013626665 -0.00028322748 0.0 6.50555e-05 0.000108477994 -2.5959178e-05
-0.00042897658 -0.0002616244 0.0 1.030969e-05 1.2312576e-06 3.0340376e-05 0.00024008442 5.863271e-05
0.0 1.3068351e-05 0.00041938864 -5.614913e-05 -0.00038672303 -0.00038841 0.0 -0.00015201663
-0.00013344173 5.1863273e-05 -0.00023030516 6.966588e-05 0.0 0.00023893855 0.00015262153 -1.3425807e-05
-0.00018457693 -8.402478e-05 0.0 -9.3754854e-05 0.0002923753 -5.893367e-05 0.00025848806 0.00020759722
0.0 -0.00024161646 3.8227303e-05 2.6425982e-05 7.709441e-05 0.00012499903 0.0 1.8818999e-05
0.00020937766 3.2815078e-05 -3.3379234e-05 -0.0002787225 0.0 9.717709e-05 -0.00036230186 9.456182e-05
-0.0002484702 4.117463e-05 0.0 0.00051928946 -0.00016939516 -2.3376087e-05 -0.00022618024 -0.00025387827
0.0 -0.00013072982 -0.00012654735 3.24464e-05 -3.3233457e-05 -5.5714798e-05 0.0 0.00018350016
-0.00015949956 4.2522104e-05 -0.00011523198 -3.001137e-05 0.0 8.9210225e-05 3.4490757e-05 -4.8670395e-06
0.00017467573 0.0001344428 0.0 -0.00020567796 4.38339e-05 -3.4276316e-05 -2.7347905e-05 7.3796844e-05
0.0 -0.00012636358 -0.000100858684 1.739506e-05 -2.349278e-05 -9.621399e-06 0.0 0.00017818835
-9.385273e-05 -7.382936e-06 -3.5272453e-05 -0.00019623475 0.0 -4.150405e-05 -2.2112486e-05 -3.130478e-05
0.0001263534 -0.0003177286 0.0 5.3508502e-05 -0.0003559393 6.9000605e-05 -0.00015608376 -3.6478792e-05
0.0 0.00015538538 0.00014735438 2.5650024e-06 -8.979987e-05 -1.581241e-05 0.0 2.2108356e-05
-7.0582406e-05 -3.4249815e-06 5.914839e-05 4.841778e-05 0.0 -5.8607213e-05 -0.0005161798 0.00013528529
-2.6069432e-05 0.00031162947 0.0 0.0006288483 9.384857e-05 -2.0457115e-05 0.00018819126 0.00013586767
0.0 -0.00012183077 -0.00018134085 7.141749e-05 -0.00026791097 -6.119815e-06 0.0 0.00021445611
0.00033239537 -5.0481885e-05 0.00013320196 0.00013290287 0.0 -0.00037607597 -0.0001998752 4.957215e-05
-0.0009682917 -0.00043593496 0.0 0.00041669497 0.00045485588 -8.982437e-05 0.00019807409 8.1693535e-05
0.0 -0.00042231358 -0.00028024602 5.721514e-05 -4.824943e-05 -7.882786e-05 0.0 0.00013049351
-7.577743e-05 -2.8446124e-05 -0.000111653055 4.744098e-05 0.0 -0.00011728215 -0.00026578514 4.6828925e-05
-6.311926e-05 -0.00012867579 0.0 -4.25079e-05 -0.00018883937 -5.544295e-06 -0.00021452141 -0.00026066022
0.0 0.00015923809 -0.0001503198 -1.5108473e-05 2.1075219e-05 -9.333181e-05 0.0 0.00013509537
0.00011925469 -1.3457327e-05 0.00038855756 -3.9270817e-05 0.0 -0.00042274775 -0.00016698832 -7.337437e-05
-0.00035576662 -0.00011020976 0.0 0.00026107355 0.00026665017 -6.736961e-05 -5.8611813e-06 5.6485263e-05
0.0 -0.00021150989 -0.00018715064 -4.3160697e-05 -6.9405956e-05 -0.00021386685 0.0 5.3224103e-05
0.00013908639 -0.00010421628 -0.00071048364 0.00014552305 0.0 0.0002806337 1.5376501e-05 -2.4788376e-05
-9.962716e-06 -7.0444556e-05 0.0 0.00010507158 0.0003533804 -7.8690115e-05 -0.00071685296 -0.0006449973
00000000: 20a8 4c39 315e 12b8 256c 4139 6b59 e037
00000010: 0000 0000 af9b 14b9 8693 27b9 3192 1138
00000020: 5078 b0b9 6163 5338 0000 0000 5455 9039
00000030: 26b9 c539 2506 bbb8 74a3 a438 6c28 8638
00000040: 0000 0000 2c97 d7b9 bf6d f138 74b1 02b6
00000050: 155f a639 64e5 6837 0000 0000 db91 03b9
00000060: 2960 80b9 ab8f 57b6 cde2 0eb9 267e 94b9
00000070: 0000 0000 686e 8838 ae7e e338 e9c2 d9b7
00000080: 43e8 e0b9 a22a 89b9 0000 0000 c8f7 2c37
00000090: b041 a535 7683 fe37 2cbf 7b39 65ec 7538
000000a0: 0000 0000 2440 5b37 64e1 db39 ab81 6bb8
000000b0: 16c1 cab9 82a3 cbb9 0000 0000 a766 1fb9
000000c0: 7eec 0bb9 c487 5938 127e 71b9 9619 9238
000000d0: 0000 0000 948b 7a39 0809 2039 673f 61b7
000000e0: fe8a 41b9 7636 b0b8 0000 0000 419e c4b8
000000f0: f349 9939 8c2f 77b8 ae85 8739 74ae 5939
00000100: 0000 0000 6d5a 7db9 4156 2038 5dad dd37
00000110: bfad a138 2c12 0339 0000 0000 7edd 9d37
00000120: 638c 5b39 eca2 0938 ae00 0cb8 8021 92b9
00000130: 0000 0000 8ecb cb38 55f3 bdb9 7e4f c638
00000140: 1b45 82b9 ecb2 2c38 0000 0000 ed20 083a
00000150: ab9f 31b9 c417 c4b7 cc2a 6db9 f71a 85b9
00000160: 0000 0000 8514 09b9 ccb1 04b9 0f17 0838
00000170: 2764 0bb8 4faf 69b8 0000 0000 f369 4039
00000180: 563f 27b9 c359 3238 b3a8 f1b8 edc0 fbb7
00000190: 0000 0000 6016 bb38 2baa 1038 8d4f a3b6
000001a0: 2929 3739 37f9 0c39 0000 0000 42ab 57b9
000001b0: 4bda 3738 eac3 0fb8 2e69 e5b7 61c3 9a38
000001c0: 0000 0000 7780 04b9 1884 d3b8 9beb 9137
000001d0: 5c12 c5b7 986b 21b7 0000 0000 12d8 3a39
000001e0: cdd2 c4b8 f0ba f7b6 82f1 13b8 5dc4 4db9
000001f0: 0000 0000 a214 2eb8 347e b9b7 404d 03b8
00000200: bc7d 0439 d094 a6b9 0000 0000 516e 6038
00000210: 5d9d bab9 6bb4 9038 6aaa 23b9 ce00 19b8
00000220: 0000 0000 f2ee 2239 2483 1a39 6822 2c36
00000230: f052 bcb8 e4a4 84b7 0000 0000 5575 b937
00000240: a405 94b8 bcd8 65b6 1a16 7838 3214 4b38
00000250: 0000 0000 04d1 75b8 3d50 07ba 5edb 0d39
00000260: aeaf dab7 3362 a339 0000 0000 4cd9 243a
00000270: 91d0 c438 529b abb7 3555 4539 b377 0e39
00000280: 0000 0000 667f ffb8 5026 3eb9 f9c5 9538
00000290: 6776 8cb9 d058 cdb6 0000 0000 a0df 6039
000002a0: 5a45 ae39 83bc 53b8 21ac 0b39 d85b 0b39
000002b0: 0000 0000 102c c5b9 9795 51b9 b1eb 4f38
000002c0: f5d4 7dba 338e e4b9 0000 0000 da77 da39
000002d0: b979 ee39 1760 bcb8 1cb2 4f39 e252 ab38
000002e0: 0000 0000 f869 ddb9 fced 92b9 4afa 6f38
000002f0: 6e5f 4ab8 6350 a5b8 0000 0000 16d5 0839
00000300: b3ea 9eb8 969f eeb7 4727 eab8 5dfb 4638
00000310: 0000 0000 60f5 f5b8 1459 8bb9 2d6a 4438
00000320: e55e 84b8 25ed 06b9 0000 0000 834a 32b8
00000330: 2f03 46b9 2209 bab6 27f1 60b9 39a9 88b9
00000340: 0000 0000 26f9 2639 2a9f 1db9 667a 7db7
00000350: b0ca b037 22bb c3b8 0000 0000 63a8 0d39
00000360: 6018 fa38 c8c6 61b7 50b7 cb39 b8b6 24b8
00000370: 0000 0000 3ea4 ddb9 9619 2fb9 91e0 99b8
00000380: 3086 bab9 6a20 e7b8 0000 0000 b3e0 8839
00000390: 2ecd 8b39 c948 8db8 2aab c4b6 97ea 6c38
000003a0: 0000 0000 c1c8 5db9 de3d 44b9 7207 35b8
000003b0: 0a8e 91b8 7241 60b9 0000 0000 f23c 5f38
000003c0: b8d7 1139 b08e dab8 c03f 3aba 8c97 1839
000003d0: 0000 0000 0522 9339 c9fc 8037 a2f0 cfb7
000003e0: 8a25 27b7 a2bb 93b8 0000 0000 e059 dc38
000003f0: ea45 b939 6f06 a5b8 30eb 3bba 0915 29ba

exp_avg_sq f4 [128, 6]
5.302351e-07 2.15527e-08 6.201198e-07 9.041084e-07 0.0 8.480156e-07 2.1756799e-07 7.624235e-09
2.1843857e-07 2.958173e-07 0.0 3.231383e-07 1.2043544e-07 4.777768e-09 1.1164072e-07 1.9489383e-07
0.0 1.9160846e-07 1.2053958e-07 5.817626e-09 2.5170172e-07 2.482987e-07 0.0 1.15647175e-07
9.7586216e-08 5.2687623e-09 1.4948034e-07 2.7686164e-07 0.0 1.6625799e-07 3.5192295e-07 2.5839247e-08
8.7733014e-07 8.5472254e-07 0.0 7.20219e-07 7.42717e-08 3.6906584e-09 1.7270575e-07 1.5896255e-07
0.0 1.1203258e-07 1.9914161e-07 1.2543949e-08 4.4806737e-07 5.983147e-07 0.0 4.6560487e-07
1.163532e-07 3.3874656e-09 1.2230998e-07 1.4522226e-07 0.0 1.2651432e-07 7.841597e-08 4.163609e-09
1.5482054e-07 2.2218508e-07 0.0 1.6213393e-07 2.5825625e-07 1.2494007e-08 3.8035665e-07 5.31919e-07
0.0 4.6080996e-07 6.4832115e-08 1.8364019e-09 9.3997244e-08 7.751962e-08 0.0 4.7251206e-08
3.4143548e-07 1.1593108e-08 4.1955346e-07 5.271822e-07 0.0 4.4941527e-07 2.6489906e-07 9.878773e-09
3.3883182e-07 4.371507e-07 0.0 4.1373255e-07 3.2188794e-07 1.3968292e-08 4.989551e-07 6.4915537e-07
0.0 5.8343676e-07 8.986262e-08 3.5068093e-09 1.5819411e-07 1.9372717e-07 0.0 1.3102088e-07
6.456616e-08 3.4209342e-09 1.8116327e-07 1.978456e-07 0.0 1.0071278e-07 1.1344656e-07 7.450932e-09
2.9535798e-07 3.330618e-07 0.0 3.338804e-07 1.339374e-07 4.795877e-09 1.1929349e-07 2.5338667e-07
0.0 1.709348e-07 3.3224416e-07 1.4038265e-08 4.4819748e-07 5.4168254e-07 0.0 4.078752e-07
1.4351146e-07 4.9514512e-09 1.3375342e-07 1.9925942e-07 0.0 1.6067028e-07 9.609498e-08 6.6896377e-09
1.4247065e-07 1.6720769e-07 0.0 2.0546514e-07 4.501685e-07 1.9617355e-08 1.0303822e-06 1.0108706e-06
0.0 9.169932e-07 2.5655143e-07 1.1885954e-08 7.755151e-07 8.0798816e-07 0.0 3.0359607e-07
1.09033685e-07 2.3068982e-09 8.378107e-08 1.0301145e-07 0.0 7.472637e-08 4.2182285e-07 1.8665101e-08
7.6106556e-07 8.1713756e-07 0.0 7.718596e-07 3.8336175e-08 2.3343862e-09 1.12752815e-07 1.141238e-07
0.0 5.9189134e-08 1.3336772e-07 6.4105374e-09 3.3182332e-07 3.764307e-07 0.0 2.2415271e-07
2.0954265e-07 1.1366696e-08 1.9195396e-07 5.0545844e-07 0.0 5.499234e-07 1.4139059e-06 4.9639617e-08
2.0881196e-06 2.4025974e-06 0.0 2.4148715e-06 2.1521464e-07 7.890374e-09 1.9582836e-07 3.7939034e-07
0.0 3.5390173e-07 2.1974078e-07 1.0120115e-08 2.910002e-07 4.793228e-07 0.0 4.0310468e-07
2.0490594e-07 7.51454e-09 2.541043e-07 3.047387e-07 0.0 2.5744203e-07 1.2373025e-07 7.919222e-09
2.6750178e-07 3.6620827e-07 0.0 2.846739e-07 9.597248e-08 5.086413e-09 2.4070405e-07 2.2853067e-07
0.0 3.1179323e-07 7.1706395e-08 5.3575424e-09 1.4529171e-07 1.613404e-07 0.0 1.6019656e-07
4.7624133e-07 1.4971286e-08 5.524365e-07 8.048099e-07 0.0 6.1438993e-07 6.0275994e-08 6.9993233e-09
3.1263735e-07 3.0078047e-07 0.0 2.3180613e-07 8.120877e-08 4.4386215e-09 1.3660734e-07 1.7602731e-07
0.0 1.6990202e-07 1.7142405e-07 9.556849e-09 4.1428055e-07 3.1003142e-07 0.0 3.5831343e-07
3.099175e-07 2.1205224e-08 8.1659124e-07 9.888334e-07 0.0 8.041232e-07 7.240215e-08 5.4464913e-09
1.7241989e-07 1.7686814e-07 0.0 1.2253277e-07 4.9517996e-07 2.7413584e-08 1.4125684e-06 1.2433849e-06
00000000: 7b55 0e35 e322 b932 4f76 2635 dbb1 7235
00000010: 0000 0000 30a3 6335 a29c 6934 bdfb 0232
00000020: f08b 6a34 d2d0 9e34 0000 0000 ca7b ad34
00000030: 0b51 0134 b129 a431 23bf ef33 0244 5134
00000040: 0000 0000 efbc 4d34 ab6d 0134 61e4 c731
00000050: 9f21 8734 ea4d 8534 0000 0000 b559 f833
00000060: 9790 d133 8608 b531 d880 2034 93a3 9434
00000070: 0000 0000 a684 3234 ecef bc34 1bf5 dd32
00000080: ab81 6b35 1670 6535 0000 0000 1355 4135
00000090: 4d7f 9f33 c09e 7d31 ff70 3934 4baf 2a34
000000a0: 0000 0000 9096 f033 a1d3 5534 df80 5732
000000b0: e98d f034 e09b 2035 0000 0000 3ff8 f934
000000c0: d9dd f933 edc8 6831 5054 0334 64ee 1b34
000000d0: 0000 0000 fed7 0734 a365 a833 7e0f 8f31
000000e0: bf3c 2634 c591 6e34 0000 0000 0917 2e34
000000f0: 78a6 8a34 39a5 5632 d233 cc34 32c9 0e35
00000100: 0000 0000 3d65 f734 d539 8b33 a664 fc30
00000110: 88db c933 dd78 a633 0000 0000 40f1 4a33
00000120: 894e b734 072b 4732 fd3e e134 af83 0d35
00000130: 0000 0000 2a47 f134 7337 8e34 4eb7 2932
00000140: b1e8 b534 89b1 ea34 0000 0000 f81e de34
00000150: f1cf ac34 33f9 6f32 efef 0535 9e41 2e35
00000160: 0000 0000 789d 1c35 7ffa c033 71fc 7031
00000170: 11dc 2934 5203 5034 0000 0000 bfae 0c34
00000180: 9fa7 8a33 b615 6b31 c885 4234 626f 5434
00000190: 0000 0000 7047 d833 e89f f333 8c01 0032
000001a0: b191 9e34 aacf b234 0000 0000 2c40 b334
000001b0: 6fd0 0f34 fbc8 a431 2517 0034 3309 8834
000001c0: 0000 0000 338a 3734 4a5f b234 f12c 7132
000001d0: cb9f f034 2468 1135 0000 0000 f1f9 da34
000001e0: 2118 1a34 6d21 aa31 dc9d 0f34 03f4 5534
000001f0: 0000 0000 b684 2c34 c65c ce33 adda e531
00000200: 09fa 1834 b389 3334 0000 0000 d49d 5c34
00000210: b0ae f134 0583 a832 aa4b 8a35 40ad 8735
00000220: 0000 0000 4b27 7635 29bc 8934 fb32 4c32
00000230: fe2c 5035 86e4 5835 0000 0000 edfd a234
00000240: e725 ea33 6287 1e31 21eb b333 2537 dd33
00000250: 0000 0000 4279 a033 e476 e234 fe54 a032
00000260: 074c 4c35 4459 5b35 0000 0000 ca31 4f35
00000270: 12a7 2433 f56a 2031 8422 f233 3914 f533
00000280: 0000 0000 2437 7e33 d733 0f34 af43 dc31
00000290: 7325 b234 3e18 ca34 0000 0000 a1ae 7034
000002a0: a5fe 6034 4247 4332 e71b 4e34 d7ae 0735
000002b0: 0000 0000 739e 1335 70c5 bd35 5633 5533
000002c0: 9f21 0c36 4f3c 2136 0000 0000 2d0f 2236
000002d0: c015 6734 3b8e 0732 e444 5234 03af cb34
000002e0: 0000 0000 e2ff bd34 e3f1 6b34 bddc 2d32
000002f0: c33a 9c34 d0aa 0035 0000 0000 496a d834
00000300: 1e04 5c34 4c19 0132 d46b 8834 f89a a334
00000310: 0000 0000 9036 8a34 b6da 0434 1b0d 0832
00000320: 2a9d 8f34 489b c434 0000 0000 48d5 9834
00000330: 6e19 ce33 90c4 ae31 1d3a 8134 0862 7534
00000340: 0000 0000 8964 a734 02fd 9933 7115 b831
00000350: 7b01 1c34 e93c 2d34 0000 0000 7f02 2c34
00000360: 1cae ff34 359a 8032 264b 1435 1d0a 5835
00000370: 0000 0000 8eec 2435 1471 8133 b37e f031
00000380: 8dd8 a734 f47a a134 0000 0000 62e6 7834
00000390: fe64 ae33 8782 9831 57ae 1234 0502 3d34
000003a0: 0000 0000 506e 3634 af10 3834 772f 2432
000003b0: 496a de34 6572 a634 0000 0000 395e c034
000003c0: bd62 a634 c826 b632 b933 5b35 0fb8 8435
000003d0: 0000 0000 edda 5735 817b 9b33 d823 bb31
000003e0: 6b22 3934 25e9 3d34 0000 0000 8d91 0334
000003f0: 82ec 0435 1c7b eb32 7b97 bd35 61e2 a635

exp_avg f4 [128]
-0.00010660114 9.990926e-05 -0.00018389517 6.418568e-06 -2.0025163e-07 -4.1579588e-05 6.9107395e-05 -0.00011041071
0.000119886856 -1.6826103e-05 -0.00012944694 6.7542765e-05 7.939583e-05 0.0002121964 -5.4752356e-05 7.991814e-05
7.631955e-05 -1.0883353e-05 -8.0856116e-05 4.4723372e-05 -1.4295297e-05 -6.4941276e-05 0.00010657197 -2.096633e-05
-7.904249e-06 0.0003132415 -4.4551125e-05 0.00014580693 -0.00010983812 0.00016543815 -0.00018193382 0.0001237401
-5.7279234e-05 9.4296796e-05 -1.6629296e-05 -2.9614703e-05 -3.0347197e-05 -0.00015291163 -0.00013068554 -8.865705e-05
-0.00020570203 -5.390141e-05 -0.00016138544 -0.00012076934 -8.3319974e-05 0.00010062852 0.00026084474 3.9945306e-05
9.307862e-05 0.000118052194 -2.9531922e-05 7.112149e-05 6.890402e-05 -1.7032835e-05 3.264843e-05 2.7178121e-05
4.069806e-05 -1.3446239e-05 2.9394721e-05 -0.00010982807 -0.00011586151 -8.865025e-05 -0.00021228916 -0.0003313132
-0.00015993124 -0.00012895808 -9.333185e-05 2.5606802e-05 -5.2051833e-05 -3.212077e-05 -0.00010881994 9.620501e-05
-8.282077e-05 4.42537e-05 2.1610358e-05 0.00012790001 1.34825705e-05 -4.9756793e-05 8.862822e-05 -7.7720426e-05
-1.5137301e-05 -5.5174114e-05 0.00011328434 -0.00011722633 7.479441e-05 3.7923455e-06 -3.3800126e-05 2.953066e-05
-4.7945647e-05 -4.88161e-05 -0.00020339972 -0.00012524061 -0.00016966375 3.072599e-05 -3.8224385e-05 9.874169e-05
2.8886725e-06 2.2532678e-05 2.327357e-06 -0.00010625319 -0.00018444158 -0.0001323924 4.9310787e-05 -4.0495383e-05
8.8179215e-05 0.00025171804 0.00011829077 3.9038357e-05 0.00015596012 -7.827656e-05 4.605235e-05 -6.3536936e-05
-8.8374174e-05 -9.8035234e-05 -8.4515676e-05 -0.00025847723 4.873985e-05 -8.304416e-06 0.0001737191 6.5644796e-05
-8.5372565e-05 -0.00011066605 0.0003358942 -0.00012622158 -4.7567493e-05 0.00013907725 8.1319835e-05 -0.00015395065
00000000: 0d8f dfb8 6086 d138 fcd3 40b9 145f d736
00000010: c004 57b4 be65 2eb8 c0ed 9038 4c8c e7b8
00000020: c46b fb38 c825 8db7 26bc 07b9 bfa5 8d38
00000030: 5081 a638 0a81 5e39 e5a5 65b8 ba99 a738
00000040: bf0d a038 a597 36b7 4c91 a9b8 5b95 3b38
00000050: d5d5 6fb7 1531 88b8 647f df38 dae0 afb7
00000060: 7e9c 04b7 903a a439 68dc 3ab8 c0e3 1839
00000070: e458 e6b8 7779 2d39 7dc5 3eb9 3bc0 0139
00000080: 1c3f 70b8 35c1 c538 247f 8bb7 176d f8b7
00000090: 1c92 feb7 e756 20b9 a208 09b9 64ed b9b8
000000a0: b8b1 57b9 3314 62b8 9339 29b9 8c45 fdb8
000000b0: 12bc aeb8 8608 d338 fdc1 8839 f28a 2738
000000c0: 3433 c338 ca92 f738 52bb f7b7 0f27 9538
000000d0: 9080 9038 bce1 8eb7 fcef 0838 92fc e337
000000e0: 36b3 2a38 2897 61b7 af94 f637 7f53 e6b8
000000f0: adfa f2b8 bee9 b9b8 f099 5eb9 1bb4 adb9
00000100: 37b3 27b9 ec38 07b9 28bb c3b8 30ce d637
00000110: 3b52 5ab8 6ab9 06b8 4336 e4b8 acc1 c938
00000120: 10b0 adb8 0c9d 3938 e447 b537 e61c 0639
00000130: 3333 6237 f3b1 50b8 eadd b938 d6fd a2b8
00000140: 36f6 7db7 c16a 67b8 1193 ed38 68d7 f5b8
00000150: f1da 9c38 0080 7e36 9cc4 0db8 9cb8 f737
00000160: 3f19 49b8 e3bf 4cb8 b247 55b9 0553 03b9
00000170: c4e7 31b9 c8df 0038 1f53 20b8 8b13 cf38
00000180: 04db 4136 8f04 bd37 b02f 1c36 3fd4 deb8
00000190: a966 41b9 d0d2 0ab9 0ed3 4e38 96d9 29b8
000001a0: dbec b838 06f9 8339 e012 f838 1ebd 2338
000001b0: 3a89 2339 6828 a4b8 5628 4138 223f 85b8
000001c0: 8655 b9b8 4498 cdb8 023e b1b8 3a84 87b9
000001d0: 046e 4c38 3253 0bb7 5e28 3639 c8aa 8938
000001e0: 0c0a b3b8 6215 e8b8 f51a b039 595a 04b9
000001f0: 3583 47b8 44d5 1139 418a aa38 d06d 21b9

exp_avg_sq f4 [128]
8.7431864e-08 3.1218338e-08 1.9981124e-08 2.3527095e-08 2.1937312e-08 1.0685423e-07 1.5230821e-08 5.175156e-08
1.3951791e-08 1.8292628e-08 5.274682e-08 8.062535e-09 4.7345928e-08 4.0129084e-08 5.6430196e-08 1.4249569e-08
1.45696895e-08 3.0101045e-08 1.9798696e-08 5.8128876e-08 2.0434621e-08 2.763393e-08 8.1374075e-08 4.8459338e-08
9.452186e-09 7.4760926e-08 9.615073e-09 2.6656796e-08 4.7231996e-08 2.0429725e-07 3.2655553e-08 4.183825e-08
3.0448387e-08 3.2965758e-08 2.04241e-08 2.255717e-08 6.130237e-08 2.8533396e-08 1.8106965e-08 4.006856e-08
8.5910614e-08 2.2859666e-08 1.1292648e-07 5.858207e-08 2.1689262e-08 9.374603e-09 6.21959e-08 3.5702086e-09
1.3099924e-08 6.0782256e-08 1.746269e-08 3.372808e-08 9.183597e-08 1.8815568e-08 8.472935e-08 4.414983e-08
4.0998277e-08 3.0068918e-08 7.927986e-09 8.727798e-09 1.1988418e-08 2.8187046e-08 7.1219986e-08 4.467271e-08
1.4486942e-08 3.1729755e-08 1.3962002e-08 2.3182876e-08 9.790201e-09 1.5070666e-08 9.1651074e-08 6.9563086e-08
2.1013673e-08 3.461907e-08 3.2753697e-08 2.1210338e-08 1.3098624e-08 2.6919382e-08 7.2208515e-08 1.7292113e-08
5.7354352e-08 1.3553107e-08 3.3218967e-08 1.5344142e-08 1.634115e-08 1.30993465e-08 1.6721286e-08 8.921081e-09
5.6598708e-08 7.7958234e-08 3.9564963e-08 1.6421252e-08 1.289601e-07 1.7687913e-08 1.2666048e-07 1.9298756e-08
1.7945377e-08 4.463496e-08 3.6539445e-09 3.2152187e-08 3.1666662e-08 2.1498586e-08 5.44055e-09 5.2655025e-08
1.8442355e-08 9.4140994e-08 1.6972049e-08 1.5995306e-08 8.123938e-08 2.6269262e-08 1.8129732e-08 1.3071973e-08
1.8685563e-08 2.6847449e-08 3.0134746e-08 8.202281e-08 1.1155002e-08 1.3693951e-08 1.1870953e-07 7.015458e-08
9.378701e-09 2.7788339e-08 1.1281986e-07 1.98294e-08 2.836773e-08 1.3808979e-07 1.3195432e-08 3.5462314e-08
00000000: 2dc2 bb33 ed14 0633 f5a2 ab32 a118 ca32
00000010: a970 bc32 bc77 e533 eed4 8232 7145 5e33
00000020: a0b0 6f32 ea21 9d32 be8b 6233 6783 0a32
00000030: 6659 4b33 655a 2c33 a85d 7233 44ce 7432
00000040: 2c4e 7a32 7348 0133 cb11 aa32 60a9 7933
00000050: 3588 af32 a85f ed32 dfbf ae33 9b21 5033
00000060: 2763 2232 418c a033 8a2f 2532 eafa e432
00000070: 21dc 4a33 cd5c 5b34 2941 0c33 a4b1 3333
00000080: 5bc6 0233 3c96 0d33 1271 af32 bec3 c132
00000090: 56a5 8333 9a19 f532 a389 9b32 d917 2c33
000000a0: dc7d b833 f05c c432 fd81 f233 ab9b 7b33
000000b0: 314f ba32 f10d 2132 8f90 8533 c657 7531
000000c0: 130e 6132 6687 8233 dd00 9632 6bdc 1033
000000d0: 5c37 c533 df9f a132 74f4 b533 409f 3d33
000000e0: 1516 3033 2025 0133 a733 0832 43f1 1532
000000f0: 9ff5 4d32 f81f f232 9af1 9833 2ade 3f33
00000100: 3fe2 7832 3c47 0833 89dd 6f32 af23 c732
00000110: c231 2832 bf74 8132 b6d1 c433 b662 9533
00000120: 8e81 b432 12b0 1433 12ad 0c33 0732 b632
00000130: 5c08 6132 593c e732 0d11 9b33 c289 9432
00000140: c755 7633 32d7 6832 a4ac 0e33 20ce 8332
00000150: 925e 8c32 890b 6132 7fa2 8f32 5443 1932
00000160: f016 7333 fe69 a733 23ee 2933 b70e 8d32
00000170: 4878 0a34 22f0 9732 2b00 0834 6ac6 a532
00000180: 4d26 9a32 a8b4 3f33 df18 7b31 b417 0a33
00000190: dd01 0833 e4ab b832 95ef ba31 d026 6233
000001a0: 2b6b 9e32 8f2a ca33 eec9 9132 0d66 8932
000001b0: d275 ae33 b8a6 e132 b4bb 9b32 2593 6032
000001c0: fd81 a032 2a9e e632 816d 0133 8424 b033
000001d0: 38a4 3f32 a242 6b32 41ed fe33 e3a7 9633
000001e0: f71f 2132 34b3 ee32 6047 f233 5055 aa32
000001f0: 4cad f332 d545 1434 20b2 6232 3a4f 1833
