UnityController/results/alex/MoveToGoal/MoveToGoal-225848.pt (torch, 438623 bytes, 36 tensors)

network_body.linear_encoder.seq_layers.0.weight f4 [128, 6]
00000000: 23c2 14be f227 073f aab2 6dbf 9efe 073f
00000010: a660 42bf 5b1b eb3e 55fa 37bf 1699 a63e
00000020: 3546 f13e 7a70 2abe e0e0 99bb 1284 6bbf
00000030: a67f 1abf 47c5 23be 5b76 e3be a2fd 443e
00000040: 2049 c63d 208b 72be 49fa 443e f6f2 9abe
00000050: 8406 713e c67a 36be 596a b43e b2bf 13be
00000060: 9c82 e3bc a6dd e9bd 6dd6 8dbe 81ff 9cbe
00000070: 2d29 a6be dc97 433f 87fb cdbe a5ee 8dbe
00000080: 9bd4 46bd ee19 833e f43a f9bd 2e84 cdbd
00000090: 7c86 383f 572d eabe 823b 1dbf 2bc9 483e
000000a0: 592f a73e c921 c03e 537c 0dbf f18d ad3d
000000b0: f93a 08bf 495e c53e 4281 23be c5bd 4b3e
000000c0: 3f4b 7b3e f495 11bf 4d5c cdbe 7791 bfbd
000000d0: e255 27bd c94c b63f 12db 0ebe b399 bd3c
000000e0: 0ba8 193f 14b2 a9be 17d7 303f 3471 27bb
000000f0: 7c7b 513e a17b fd3d 33f2 de3d bd2e c6be
00000100: b879 04be cd57 593e 03e0 71be 70aa a63e
00000110: b74b e8be f036 36be e041 023e 1a8a 16bf
00000120: dc23 f4be 3eda 283f 0ce6 03bf 69a6 303e
00000130: 4db2 083f b3bd fbbe d11c 743e 3ec3 90bd
00000140: 10c2 2fbd dae0 babe 0fbe 953e 5cb5 9abe
00000150: cb7e 1b3f 859d f43d a9da 083e 30bc a5be
00000160: f4dd 47be f9f5 4fbf 43a3 633c 6b56 94be
00000170: 3750 b63d d4dd d73d c4f5 99be ba61 b9be
00000180: 85ca 593d 50ff 033f 755b 2cbd d674 353f
00000190: 12d6 1a3e 6cd1 80be afa7 9fbb 7540 f9be
000001a0: 107f 03bf 9a6a 32bf d5c5 633e 1df1 efbe
000001b0: 11c8 a93e 8e33 a1bd 0037 61be cbc5 eabd
000001c0: 5eef af3e 9799 a6be 3e12 023f 86ac 563f
000001d0: 153f 883d ddab c4be b91c d2be ec42 dabe
000001e0: 4705 443d 85ac 0cbf a9b3 bebe df8b c1be
000001f0: d2f4 b5bd 2a83 ecbc 7dd6 b93e 0e10 48bd
00000200: 4dc6 16bf 2c91 adbc 0383 94bd 77d7 09bf
00000210: 4bd0 3f3e 3a32 6bbe 5236 17bd 63f2 903e
00000220: 9d36 283f 5759 46be 7858 56be 35f2 f73c
00000230: 6a23 9b3e 8abe 3e3e 6fd3 143f 181d 28be
00000240: a610 a63e fdef 15be e19c 273f 5608 0a3f
00000250: 4b01 0a3e 9f33 4c3e c614 793e 3e97 89be
00000260: c32c 42bd 73aa a33e d845 07bf c09e d9be
00000270: 22fb 1a3f 8730 d53d 566b f73d 4000 04bf
00000280: 30ac a7be 3996 13bf 54ee 223d a5c4 7ebf
00000290: 5c16 5abd 1f99 bc3e e26f e7bd 508a a7be
000002a0: afd1 e33e ebc5 493e b33f 303f ec5c 18bf
000002b0: 2a4d e0be 0f51 553e bf6f a8be 9abc 0a3f
000002c0: 4fa7 09bf 73ec f7bd d1ce 26bf eedd 243f
000002d0: 7923 8c3e 237d 073f 7e5a 0bbf 6740 25bf
000002e0: a797 e93c 1e41 36be 71b1 1d3f d2e5 2fbe
000002f0: 7ca6 233f 3e2c 823d 8b77 80be ff7c 4b3e
00000300: f448 3b3d ae1f 82be feba 223f 3fa9 673e
00000310: af13 9b3e f98a 91bd 7923 cd3e 83f3 89be
00000320: 916d e83b 9199 06bd 2006 4d3f ba88 333f
00000330: 61fa a23e 327e 363e d489 ce3e e0bd 5bbf
00000340: f72d fe3e 127e 1b3d d182 203e 19ea 0f3f
00000350: 3fff 103f f53f 27bf 8a64 a6bc d081 fa3e
00000360: 4a96 ce3d e58a b63e a0ad 3c3e 93dc 1bbc
00000370: 7ba7 383f 74c8 ab3e 9cc6 91bf 8d26 febe
00000380: 38be a2bd 38b3 383f 9c04 63bf fe8c 253e
00000390: 49b0 253f 7f7b 883c fb22 8a3e 8bfc c13e
000003a0: aeac 283f 8f7a bbbe fe37 17bf cf0e 973f
000003b0: c965 183e ed0a 84bd d2a6 1a3f 3b9b 60bf
000003c0: f017 2b3f 9d28 0a3f 1c37 f33e af21 813e
000003d0: 79ba 0e3d 2ce9 c7be f6f8 72be 08bc 26be
000003e0: 2d70 30bf 93f0 63bd f852 77be 378c c53e
000003f0: 351f 2e3f d6f1 6d3e 703a 493f be27 2fbd
-0.14527182 0.52795327 -0.92850745 0.5312289 -0.75928724 0.45919308 -0.7186635 0.3253867
0.47123876 -0.16644469 -0.0046959966 -0.919984 -0.60351026 -0.15993224 -0.44426236 0.19237378
0.09681916 -0.23685884 0.19236101 -0.3026349 0.23537642 -0.17820272 0.35237387 -0.14428595
-0.02777224 -0.11419229 -0.27702656 -0.30663684 -0.3245329 0.76403594 -0.40230963 -0.27721134
-0.0485426 0.2560572 -0.121694475 -0.10034977 0.72080207 -0.45737717 -0.61418927 0.1960799
0.3265331 0.37525776 -0.5526783 0.08474339 -0.53214985 0.38548496 -0.15967277 0.1989661
0.24540423 -0.56869435 -0.40109482 -0.09353917 -0.04085339 1.4242183 -0.13950756 0.023144579
0.6002204 -0.33143675 0.690782 -0.0025549652 0.20457262 0.12377096 0.108860396 -0.38707533
-0.12937057 0.212249 -0.2362061 0.32551908 -0.45370266 -0.17794394 0.12720442 -0.58804476
-0.4768361 0.6595801 -0.515229 0.1725098 0.53397065 -0.49168167 0.23839118 -0.070684895
-0.04290968 -0.36499673 0.29246566 -0.3021649 0.60740346 0.11944107 0.13364662 -0.32370138
-0.19518262 -0.812347 0.013893905 -0.28972182 0.089020185 0.10540357 -0.30070317 -0.36207372
0.053171653 0.5156145 -0.042079408 0.708814 0.15120724 -0.25159776 -0.0048722844 -0.4868199
-0.51365757 -0.6969391 0.22243436 -0.46863642 0.3316045 -0.078711614 -0.21993637 -0.11463507
0.3436231 -0.32539055 0.50809085 0.83857 0.06652657 -0.3841237 -0.4103754 -0.42629182
0.047856595 -0.54950744 -0.37246445 -0.37802026 -0.088845864 -0.028871138 0.36296454 -0.048843436
-0.5889633 -0.021187387 -0.07251551 -0.538444 0.18731801 -0.22968379 -0.03691704 0.28309926
0.65708333 -0.19370018 -0.20932186 0.03026686 0.30300456 0.18627372 0.5813512 -0.16417348
0.32434577 -0.1464233 0.65473753 0.5391897 0.13477056 0.19941567 0.2432433 -0.268732
-0.04740597 0.3196598 -0.5284095 -0.4250393 0.6053945 0.104096465 0.120810196 -0.5156288
-0.32748556 -0.57651097 0.03977807 -0.99518806 -0.05324398 0.36835572 -0.11300637 -0.32722712
0.44495913 0.19704406 0.688472 -0.5951679 -0.43808872 0.20831703 -0.32897756 0.54194033
-0.5377092 -0.12105646 -0.65159327 0.6440114 0.27370813 0.5292532 -0.54434955 -0.64551395
0.028514696 -0.17798278 0.6159888 -0.17177513 0.6392591 0.06356095 -0.25091204 0.19871901
0.04572387 -0.25414795 0.6356658 0.22623156 0.30288455 -0.07106585 0.40066126 -0.26943597
0.0070931395 -0.032861296 0.8008747 0.70130503 0.3183165 0.17821577 0.4033953 -0.858366
0.49644443 0.037962027 0.15674902 0.5621658 0.56639475 -0.65331966 -0.020311613 0.48927164
0.10087259 0.35652843 0.18425608 -0.009513038 0.72130555 0.3355137 -1.1388736 -0.49638787
-0.079464376 0.72148466 -0.8867891 0.16167066 0.64722115 0.01666045 0.26979813 0.37887987
0.6588849 -0.36616942 -0.5906981 1.1801394 0.14882578 -0.064473964 0.604108 -0.8773686
0.668334 0.5396822 0.47502983 0.2522101 0.034845803 -0.39045084 -0.23727784 -0.16282666
-0.68921167 -0.05564935 -0.24152744 0.38583538 0.6801637 0.23236784 0.78604794 -0.04276251

network_body.linear_encoder.seq_layers.0.bias f4 [128]
00000000: 6912 153d 6bd1 763c 1466 413d 6304 bbbb
00000010: 5153 603d 8af7 0e3d 7cfb 803c dba7 56bc
00000020: f0d8 af3c f744 02bd 50e9 b23c 2194 043d
00000030: 957d 023d 54d9 ebbc 3092 883c f3a3 513c
00000040: 9288 9fbc 0d56 4fbc ca84 ce3c d152 fe3c
00000050: 9711 acba 4d8a a63c e5d4 743a ff66 ee3c
00000060: d9d7 873c 3bf6 62bb cf35 713d 118f 333d
00000070: 2ffa 19bb e6fe 003d 8acd 353c 0601 673d
00000080: 0cd8 d23c 10fa 043d 0728 363d 3e69 2b3d
00000090: 4289 3e3d 6772 503d a9ea abbb 8c77 9d3c
000000a0: a221 713c 4c19 173d 3f27 b7bc c207 e93c
000000b0: d6d2 80bc a580 1e3d 74d6 07bd 9876 223d
000000c0: 5350 70bd 8b54 1d3c 7bf8 3fbb a9ad fa3c
000000d0: c6a6 723c 1bf8 b3bc 2984 0d3c 8234 0d3d
000000e0: cf56 cf3c 6f7f 263d ef48 673c a72b eb3c
000000f0: 581a 18bd ef08 b8bc 786e 1e3d d513 063d
00000100: d58b 7a3d 6ebc e33a 37cf 53bb 3e64 763d
00000110: 9400 1b3c 89a6 4fbb a55c 933c 6b6f 2c3d
00000120: dfd3 ab3c 3463 be3b 5d75 b33b 0ad5 2d3d
00000130: 96b8 be3c e564 ae3c 6cd9 303d 7e76 893c
00000140: 643f 58bb e3e4 b83b 9875 e13c e405 073c
00000150: cb39 9eb8 57d0 f3bc d7d3 0f3d fb02 c03b
00000160: 4e8d 7a3a 3f14 0f3c 16a4 7dbc d607 003d
00000170: 640f 293d ea2a d23c a383 f43b 3a55 a73c
00000180: 243a 443d dd54 c33c 9723 29bd 1c01 9f3d
00000190: 4c2c e4bc 5c81 b43c 4e10 673c 0e93 23bc
000001a0: f142 243d bd3c b7bc 80ca e83c ea22 0b3d
000001b0: 60bb 2cbd 7fee d53b 1fc2 59bb ed92 3d3d
000001c0: d0ad 0a3d 9d91 7e3d 5f7a b43c 997b 86ba
000001d0: 1db8 cf3c c781 6cbc 9fc2 253d f2ea 473d
000001e0: 4e1c 813c 0850 483c 721d 973c 0c22 013d
000001f0: cc89 b1bc daf5 913c d7b2 ef3c 4e20 aebc
0.03639451 0.015064578 0.04721649 -0.00570731 0.054766957 0.03490404 0.015744917 -0.013101543
0.021465749 -0.03180405 0.021839768 0.03236783 0.031858046 -0.028790154 0.01667127 0.012795436
-0.019474301 -0.012654793 0.025209803 0.03104535 -0.0013127801 0.020329619 0.0009339585 0.029101847
0.016582416 -0.0034631628 0.058889206 0.04383761 -0.0023495068 0.03149309 0.011096368 0.05639746
0.025737785 0.03246504 0.044471767 0.041848414 0.046517618 0.050890353 -0.0052464795 0.019222043
0.014717491 0.03688936 -0.022357581 0.028446082 -0.015725534 0.038696904 -0.033163503 0.03966388
-0.058670353 0.009602676 -0.0029292393 0.030600386 0.01481027 -0.021968892 0.0086374665 0.034473903
0.025309948 0.040648874 0.01411651 0.028707338 -0.0371345 -0.022465197 0.03867957 0.032733757
0.06116851 0.0017374882 -0.0032319555 0.060154192 0.009460587 -0.0031684956 0.017988512 0.042098444
0.020975051 0.005810166 0.0054766373 0.042439498 0.023281377 0.021288345 0.0431761 0.016780134
-0.0032996768 0.00564252 0.027521893 0.0082411505 -7.544792e-05 -0.02976243 0.035114136 0.0058597303
0.0009557799 0.008732854 -0.015481016 0.031257473 0.041274443 0.025655229 0.0074619814 0.020426381
0.04790701 0.023844177 -0.041293707 0.077638835 -0.027853154 0.02203434 0.014103008 -0.009983791
0.040102903 -0.02236783 0.028416872 0.033968844 -0.042170882 0.006528675 -0.0033227277 0.046282697
0.033857167 0.062150586 0.022031007 -0.0010260224 0.025356347 -0.014435238 0.04046881 0.048808046
0.015760567 0.012226112 0.018446658 0.03152661 -0.021672152 0.017817426 0.029260082 -0.021255638

network_body.linear_encoder.seq_layers.2.weight f4 [128, 128]
00000000: 5ace 943d bc85 ba3d 9d31 2e3d 52d0 41be
00000010: c30d 2e3d 6095 ca3c 0cae 88bd 435a 58bd
00000020: e51e d2bd 2bb4 8f3c 348d 733c def5 103d
00000030: 41b4 8abd 6bb6 cfbb 3a7b a2bd d31e 623d
00000040: 7dc2 9dbd 28af 2fbd 808e 81bd 4604 95bc
00000050: fdaf c5bd 32f4 cabd 92c9 0abe a73c ad3c
00000060: 18dd a73c 4cd3 113d f9d4 85ba d448 2bbd
00000070: aff1 8abd 16ac e83d 3768 df3d d2c1 a3bd
00000080: 14c2 01be 138a 4b3e 4bff 173d d6be 09bd
00000090: 5a58 123c 930d ebbb 53c7 cdbd 2503 ff3c
000000a0: 338d 4ebe d1e2 db3c a0d5 1fbd 8d3c 8f3b
000000b0: e9ea 83bd 3927 df3d b18d 2b3d 11a7 dbbb
000000c0: f87f 0c3b 3d46 4fbd 2249 49bd e0db 06bd
000000d0: 0856 87bb f444 9e3d db46 18bd 2a5f 5d3d
000000e0: 7dad 3e3e 06eb 33be dde2 c2bd 5509 fc3d
000000f0: bcbc 8b3c 51aa 013e bf3f 2cbc 1550 023d
00000100: 8e24 6c3b 57df 10be ad2a 2f3d 38b8 45bc
00000110: d059 4bbd 15a8 8f3d 9363 34bc 2a24 31bc
00000120: 6432 c2bc 73ce 033d ac4e a73d 02c3 df3c
00000130: 6adc fabd e4f6 7d3d ac66 d63d cbb0 a3bc
00000140: 63e6 08be 2c17 2d3d e910 c1bc ca77 bdbd
00000150: cd29 9a3d 4471 7cbd 2c7f 5c3b 3991 ea3b
00000160: cb6e 0abd 996f 013e 6d5c 933d 37e7 efbc
00000170: 41ea 2b3e 1fff de3b 2afd 053a fd30 00bd
00000180: 91be 73bc e728 8cbd 779a 4cbe 83af c0bd
00000190: 7a0f abbc acee 1a3e 14e2 203e 1424 d23d
000001a0: 8bb3 2c3d feb9 febd b61d 2cbc ffe3 f3bc
000001b0: 4b9d 123e 70cb 843d 8552 553d 40f2 743c
000001c0: f53a 383d 2b9c b53c f396 d13d 3381 a43c
000001d0: 5438 c0bd cc7c 9abd d56e a6bc b71d 563d
000001e0: 8130 123e 1208 acbd 37db 93bb 265a e9bd
000001f0: ed3c bebd e9bb 05bd 1ec0 c2bd 8f4e e33d
00000200: 9b0f a53d 2602 43bd 8528 9dbd 9dfe 693d
00000210: be66 d4bd b463 f23d 92f1 d53c dc5b e83c
00000220: f6ce 43bd 8909 6dbb 55cf 7c3d 90fc 853d
00000230: 1ee0 f63d 861b 583d d458 ee3d d735 0dbd
00000240: 8d53 88bd 330c b33d 3490 c13c cfc3 5c3d
00000250: 4226 bbbc 96d0 303e 2652 e93b c89c ba3d
00000260: 8dfb 0ebe 57d8 76bd a468 8f3d 5b41 063d
00000270: 1ddd 9ebc 93f4 6c3c 8ab7 e23b 5906 a43d
00000280: 7a8d e53d 9d02 083c f49e b6bd 8242 d9bd
00000290: b1af 0d3e 0aef 063e 2db7 f53d d543 38bd
000002a0: 3f61 39be bf22 4c3b 7189 733d 52d4 81bd
000002b0: 54ca 34be 07e0 cbbd ae3d 1cbe 1c62 49bd
000002c0: 6b24 5b3d d028 083e aa5c c33c 00d4 bebd
000002d0: 40aa 29be 0c17 8dbd 0a4a 85bc aba9 7dbb
000002e0: 8f92 d1bd 180d 3abd 620e bc3c cf82 27be
000002f0: 6d69 bbbd 6f3f 143e 5e93 a7bc a2bc 9e3b
00000300: 89a8 bcbd efd5 103e b7a8 f7bc e6b0 1a3d
00000310: bdf6 e33c 6bd3 aa3c 46ab 253c 0f22 803d
00000320: 8dc8 43bc 5d58 d33d f270 d1bb a268 91bd
00000330: 5a00 1f3e 405c 043d e595 193d 2b45 c0bc
00000340: 096f 203d 30fe 803d 8791 723d 06ea dd3d
00000350: ffa6 613d 6800 8c3d 8820 d0bc 4b19 ca3d
00000360: eab4 aa3d 34ad 72b8 5baa b43d 6b99 f0bd
00000370: ab3e a4bd 82eb e0bd 9c89 54bd 15cc cdbd
00000380: 8b97 d63d b011 143d 0dff 2e3d e600 31be
00000390: f882 cebc 58b6 31be ea0d 473c 85a1 1abe
000003a0: 3686 583e 6702 4cbd d821 1d3d 706e 253e
000003b0: c510 2cbd 6569 b0bd cb5c f6bd a5c0 923d
000003c0: eb40 79bc 41c4 cfbc 64b1 b63b 767c ffbd
000003d0: 5faa 373d 4e0b afbc 4e44 35be 766a 8d3d
000003e0: c1a2 ff3d 0486 fcbc 9b0a 093e 4b45 193c
000003f0: 0c48 24bd 477c 91bd 789c a13b 33f6 b43d
0.07265921 0.09107539 0.042527784 -0.18927124 0.042493593 0.02472943 -0.06673822 -0.052820455
-0.10259799 0.017541965 0.014865208 0.035390727 -0.06772662 -0.0063388846 -0.0793366 0.055205178
-0.07703111 -0.04289165 -0.06326008 -0.018190514 -0.09652708 -0.09909858 -0.13553455 0.021147085
0.020491168 0.0356019 -0.0010210566 -0.0418175 -0.06784379 0.11360948 0.10908549 -0.07995953
-0.12671691 0.1987689 0.0371087 -0.03362926 0.0089321975 -0.007173249 -0.10047784 0.03112943
-0.2017105 0.026841553 -0.039022088 0.004371232 -0.0644129 0.10896153 0.041883174 -0.0067032655
0.002143858 -0.050604094 -0.04914201 -0.032924533 -0.004130129 0.077279955 -0.037176948 0.054045834
0.18620868 -0.17570123 -0.09515927 0.123064674 0.017057769 0.12662627 -0.010513245 0.031814653
0.003603253 -0.14147697 0.04276531 -0.012067847 -0.0496462 0.07014481 -0.0110100685 -0.010811845
-0.023705669 0.032179307 0.08169302 0.027314667 -0.12249072 0.06200303 0.10468802 -0.019981762
-0.13369136 0.042258427 -0.023567634 -0.092513636 0.07527504 -0.061631456 0.0033645136 0.007158425
-0.033797067 0.12640227 0.07195363 -0.029285057 0.1678858 0.006805315 0.0005111272 -0.03129672
-0.014876978 -0.06843739 -0.19980799 -0.09408476 -0.020881403 0.15130109 0.15711242 0.102607876
0.042163413 -0.12437819 -0.0105051305 -0.029771803 0.14317815 0.06484115 0.05208065 0.014950335
0.0449781 0.022169193 0.102338694 0.020081138 -0.09385744 -0.07543334 -0.02031652 0.052274432
0.14276315 -0.08399977 -0.0045122164 -0.113941476 -0.092889644 -0.03264991 -0.095093 0.11098968
0.08059617 -0.04760947 -0.07673744 0.057127584 -0.10371159 0.11835423 0.026116166 0.028364114
-0.047804795 -0.0036169013 0.061721165 0.06542313 0.12054466 0.052760623 0.11638036 -0.034475174
-0.06656561 0.08742561 0.023628332 0.053897675 -0.022845391 0.17267069 0.0071203886 0.09111935
-0.13963147 -0.06026491 0.070023805 0.03277717 -0.019392544 0.014462608 0.006918852 0.08009023
0.11208625 0.008301404 -0.08917037 -0.106083885 0.13836552 0.13177124 0.11997829 -0.044986565
-0.18103503 0.003114864 0.059457246 -0.06339325 -0.17655307 -0.09954839 -0.15257904 -0.04916583
0.053501528 0.13296819 0.023847897 -0.093177795 -0.16568851 -0.068891615 -0.016270656 -0.0038705866
-0.10233032 -0.045422643 0.022956077 -0.16358493 -0.09150968 0.14477323 -0.020456012 0.004844264
-0.09211833 0.14144109 -0.030231817 0.03776636 0.027827615 0.020852765 0.010111636 0.06256496
-0.0119496705 0.10319588 -0.006391638 -0.07100035 0.15527478 0.03231454 0.037496466 -0.023470482
0.03916839 0.062984824 0.059220817 0.10835652 0.0550909 0.06836015 -0.025406137 0.098681055
0.08335288 -5.7858604e-05 0.08821555 -0.11748012 -0.080197655 -0.109824196 -0.051889047 -0.10048691
0.10478123 0.03614968 0.042723704 -0.17285499 -0.025208935 -0.17354715 0.012149313 -0.15100677
0.21144947 -0.04980698 0.038362354 0.1615541 -0.04200818 -0.086138524 -0.120294176 0.0716565
-0.015213232 -0.025362136 0.005575346 -0.12474911 0.044840213 -0.021367695 -0.17701837 0.069050714
0.12482215 -0.030825622 0.13382952 0.0093549 -0.04010777 -0.07103782 0.0049319826 0.08836021

network_body.linear_encoder.seq_layers.2.bias f4 [128]
00000000: 4958 973b 376a a13c 72fc 5bbc 9d2d e73c
00000010: 4b20 203d 8eee aebb ff21 b13b 2873 603b
00000020: 59fa 953c 77cb 7f3c 1007 2e3c 5ec1 aebc
00000030: 7c55 4f3c 01a7 07bb 2b12 1e3d f25b 1f3d
00000040: 7fcc 163d 9dff 3a3c 6f7c 293d fa2e 053d
00000050: 4e2e 9dba 82b5 f53b 2f68 bc3c 6c16 85bc
00000060: a665 9bbc 68c0 debc 2865 823c 95fe 233d
00000070: 64dc 943c 9256 1d3d 616a 3d3b a022 3e3c
00000080: 66ba c63c bc58 ab3c 91b6 7c3d 9353 1c3d
00000090: 864c b6bc 8399 253a 19dd 993c 9ed9 423d
000000a0: 034b 473c 0425 6b3c 13c1 133c 9eaf e73b
000000b0: ee10 eb3c 69ee 823d 9081 033d 533d ab3c
000000c0: 5b60 bf3c 6558 433d 0252 1c3c 73cf e93c
000000d0: a735 ad3c bcda 9a3c b270 d73c bf98 83bc
000000e0: bfad e33c fb09 d13c 260b 5d3a bf1b ac3a
000000f0: a6c2 db3c 1a65 853d b2a6 073d 1185 5abb
00000100: c741 333d 8acf 4f3c 59c1 a53c dcce 1fb9
00000110: b3d0 793c c57e f63b ca7e 363d 0330 293c
00000120: 7169 6eba 6744 083d 5683 043d dfa1 563c
00000130: e40f 38bc d9c7 633c 4c30 b6bb e1fc ea3c
00000140: bcee a7bb eefc 003d f713 be3b a0f5 ac3c
00000150: 0a30 ce3c 4016 8e3d 4c00 1f3c a8a3 ea3b
00000160: 0f86 ae3c 49e6 1b3d 19f4 54bb c943 2d3d
00000170: 20f2 d83c a52e 5dbc 61d2 af3b c353 cc3c
00000180: a30c 05bc fb55 acbb e957 063d 6937 a03c
00000190: 1eb8 193c 0a3c 7e3d abcb a03c a9f9 3e3d
000001a0: faf5 9c3c e5b2 993c e267 3b3c 26b9 d93c
000001b0: 0aaa f23c de87 063c f2b1 293d 5f4c b13b
000001c0: 1026 063c b808 523d 1131 183b 43be ae3c
000001d0: e150 7b3c 6bca 80bc bc5c 97bb 856d 09bc
000001e0: dd34 8a3c 5bf4 633d 545d c43c 2cd5 123d
000001f0: 355b 5c3c 6be4 573c c5dc c03b eade 193d
0.0046186787 0.019703967 -0.013426887 0.028219992 0.039093297 -0.0053384965 0.005405664 0.0034248326
0.018307852 0.015612475 0.010621801 -0.021332439 0.012654658 -0.0020698907 0.038591545 0.038906045
0.036816116 0.011413482 0.041378435 0.032515503 -0.0011991949 0.007498444 0.022998897 -0.016246043
-0.018969368 -0.027191356 0.015917376 0.04003771 0.018171497 0.038412638 0.0028902518 0.011604935
0.024258804 0.020916335 0.061697546 0.03816564 -0.022253286 0.00063171255 0.018782185 0.047570817
0.01216388 0.014352087 0.0090182 0.0070704957 0.028694596 0.063931294 0.032105982 0.020903265
0.023361376 0.04769172 0.009541037 0.028541302 0.021143747 0.018903129 0.026298855 -0.016064046
0.02779281 0.025517454 0.0008432142 0.0013130828 0.026826214 0.06513424 0.033117957 -0.0033343474
0.043763902 0.0126837585 0.020233797 -0.00015240483 0.015247512 0.0075224363 0.04455451 0.010326388
-0.00090946915 0.03326836 0.032351814 0.0131001165 -0.011234257 0.013902628 -0.0055599567 0.028685035
-0.005124895 0.031491213 0.00580072 0.021113217 0.025169391 0.069378376 0.009704661 0.0071606226
0.021304158 0.038061414 -0.0032494126 0.042300973 0.026482642 -0.01349989 0.0053656553 0.024942284
-0.008120689 -0.005259273 0.03279868 0.019557672 0.009382276 0.062068976 0.019628366 0.046624813
0.01916026 0.018762061 0.011438342 0.026577543 0.029622097 0.008211104 0.041429467 0.0054107155
0.008187786 0.051277846 0.0023222605 0.021330958 0.015339107 -0.01572152 -0.004619209 -0.008387928
0.01687091 0.055652957 0.023970284 0.035847828 0.01344948 0.013177018 0.005885693 0.037566103

action_model._continuous_distribution.log_sigma f4 [1, 2]
00000000: ef3e 25bc 7a7d 613a
-0.010085805 0.00086017663

action_model._continuous_distribution.mu.weight f4 [2, 128]
00000000: 74e7 f4bb ce6c 983c e86b 63ba 5fda ec3b
00000010: 5a3d 51bd 2bbb a7bc ed18 b3bc c368 aabb
00000020: 45c2 2c3d e825 c83c 2bb6 f5bc 336d 19bc
00000030: b752 19bd e066 3abd 1d3a 4ebd 7de8 42bd
00000040: 6faa dfbc 7141 89bc 6376 87bd 11de 3fbd
00000050: 9748 ff3c c894 9dbc d7da cf3b 044f 2339
00000060: 6bfb 31bc 07dc b1bb 9026 4bbd 88af cd3b
00000070: 1992 df3c f59f c4bc fdf0 bb3b 571c e53b
00000080: 8f82 2a3d d408 a8bc ec94 dd3c f1f0 5e3d
00000090: 4c54 373c a4b2 333d 962e 023d 5dca 6b3d
000000a0: b28b 623c 5090 68bd 3b57 cb3c 6dd8 12bd
000000b0: def2 82bc e378 d13d ef8d c2bc 2e81 97bc
000000c0: ba06 253d 3c31 2cbc 80a3 883b 528a fd3c
000000d0: e091 55bd 02c9 fabc 052c f13c 598c 9f3c
000000e0: 0dea 663d 344e a3bb e286 c33b 84ae 0d3c
000000f0: 4a8b 263d 8148 a03d ad2e 9abd 48f4 443d
00000100: 4be0 80bd 43d6 fa3b 806c a33c ac69 c53a
00000110: ad78 46bc 631c db3c 78a9 f93c 3920 b73c
00000120: 813e 37ba a667 e9bc 4b7a db3c c12c 07bd
00000130: 6428 14bb 2e9d 45bc fc7c b23c 3a4c 323d
00000140: 210d 5e3c 73d4 97bc b5c7 12bd e965 8a3c
00000150: daff 3a3d 0abf 633d 584f fe3c 1642 a5bc
00000160: 085f 9cbc 6d98 c3bc a59b d53b 73d4 053d
00000170: 4ffb fabc 29fb 0ebc 5f74 233c 9768 c33c
00000180: 8caf 1fbc 99af a1bb a7e7 ba3a 0b75 5e3d
00000190: 42b8 d23c ef1d 253b 6e74 0cba df87 80bd
000001a0: 7f9e 173c 447a 213d d4d4 3bbc 0933 b83c
000001b0: 75f1 ab3c d025 4b3c ac85 003b 9f90 0b3d
000001c0: 19e7 213c 820b 7a3d 9d28 fabc 397f 92bc
000001d0: 1193 093d eeb6 c4bb e691 533b 43d8 ab3b
000001e0: f264 753c 3ed2 e63c cf74 113d b420 453d
000001f0: a8eb d63b 1af4 1a3d 42d5 7fbc c561 883c
00000200: 23ee d73c e579 55bd 5ab4 a03c f979 07bd
00000210: 225e 423d 689e a33c 884b a13c 3dd2 12bd
00000220: d84e d93c e83f 0ebd 8259 c1bb 73ce d1bb
00000230: c662 683b eb38 51bb 8fcf 9b3c 1702 c73c
00000240: 1f80 593c 662f b0bc 1cd8 4f3d bc28 c53c
00000250: 2897 613c e875 6b3b fe49 793d 2da8 3a3c
00000260: e989 043b b306 b5bb 5cc3 47bc 74fc 313d
00000270: 0aea 573b e96b 83bc f7ae 89bc fec5 c7bc
00000280: 2cb6 4d3c 5cf6 ca3c 12a6 363d 6208 9fbb
00000290: 7b29 adbc fb4b bc3c 6192 8f3c 122b 173d
000002a0: e05f 87bc b8fd 5e3d c856 f73c 3888 a0bc
000002b0: 3def 37bd 40f8 6dbb 74e0 58bd 6312 68bd
000002c0: 7631 dabc afe0 c4bc 8056 2ebc c33d b83b
000002d0: 5016 11bd 3485 7d3c 1816 c43c a274 6a3c
000002e0: a174 843d dbe4 d9bc 74e3 cf3c cb75 1c3c
000002f0: 9327 1fbd 6faa b8bc 06bc af3c 40e6 5ebc
00000300: 436c 77bd 7eec fcbc 432e 1d3c 38ce 193c
00000310: 2aa2 173d 0777 92bc a4f5 e93b f6fe 04bd
00000320: d78c 31bd 26cf c8bc 99a5 b23c eb10 903c
00000330: 6e1f 1e3b f677 86bc 798f 523d 1bcd 80bc
00000340: cc6c edbb 86db 54bd 0401 02bd 287d 14bd
00000350: ea25 a4ba 5673 0b3d 972b ecbc 34cb 483b
00000360: 5a9f 77bd 1ea2 c73c 754a d3bc 7b64 543c
00000370: 395e 73bd 5f11 6abc 9130 f23c 2122 74bb
00000380: a00f ac3c f811 213b b27a 2c3d c110 41bc
00000390: b947 2cbc 30bd 95bd fe99 8abd 34dc 6ebc
000003a0: 6c7c eb3c d9e3 9e3c 5082 8c3c be1b 26bd
000003b0: 6fd8 843d ba15 b63c cf01 84bd c802 14bd
000003c0: 4f30 713c d8ac c2bc 3038 cbbc 2fd4 fa3c
000003d0: fe10 1fbd 760b 28bb 1752 d93b 7115 253a
000003e0: b259 07bd 97c5 473d beb2 57bd 0154 0bbd
000003f0: 35a3 533d a459 aebb 49ab ce3c c239 29bd
-0.0074738804 0.01860657 -0.0008675442 0.0072281803 -0.0510839 -0.02047499 -0.021862471 -0.005200477
0.042177457 0.024432138 -0.029994091 -0.009364414 -0.0374324 -0.045508265 -0.05034839 -0.047585
-0.027302949 -0.016754838 -0.06614377 -0.04684264 0.031162543 -0.019235983 0.0063432264 0.00015574327
-0.010863165 -0.0054278406 -0.049597323 0.0062770285 0.027291344 -0.024002055 0.005735515 0.0069919038
0.041628417 -0.020512022 0.02704855 0.054429 0.011189532 0.043871537 0.03178271 0.057566036
0.013827251 -0.056778252 0.024821868 -0.03585093 -0.015984949 0.102281354 -0.02374932 -0.018494215
0.040289618 -0.010509785 0.0041698813 0.030949745 -0.05214107 -0.030613426 0.029439935 0.019476103
0.056375552 -0.004983688 0.005967007 0.008647565 0.04066018 0.07826329 -0.07528434 0.048084527
-0.062927805 0.0076549365 0.019949198 0.00150614 -0.012113732 0.026746934 0.030476317 0.022354232
-0.000699021 -0.028491806 0.026791712 -0.033001665 -0.0022607083 -0.0120614 0.021788113 0.043529727
0.013552935 -0.01853392 -0.035834987 0.016894298 0.045654155 0.05560211 0.031043693 -0.020173114
-0.019088283 -0.023876393 0.0065187984 0.03267331 -0.030637411 -0.008726873 0.0099764755 0.023853583
-0.0097464435 -0.004934263 0.0014259712 0.05431084 0.025722627 0.0025194844 -0.00053579255 -0.06275915
0.009254097 0.039423242 -0.011464316 0.022485273 0.02098916 0.012399152 0.0019610925 0.03407347
0.009881758 0.06104613 -0.030536944 -0.01788293 0.03358752 -0.006003252 0.0032283007 0.0052442863
0.0149776805 0.028176423 0.035511788 0.04812689 0.006558854 0.03783045 -0.0156148095 0.016648183
0.02635867 -0.0521182 0.019617248 -0.033075307 0.047453053 0.019972995 0.019689336 -0.03584503
0.026526853 -0.034728914 -0.0059005627 -0.0064027845 0.0035459264 -0.0031924795 0.01901987 0.024292989
0.013275175 -0.021506976 0.050743207 0.024067275 0.013768949 0.0035928432 0.06086158 0.011392635
0.0020223802 -0.0055244802 -0.012192573 0.04345365 0.0032945895 -0.016042667 -0.016807063 -0.024386402
0.01255564 0.024775676 0.04459197 -0.004853294 -0.021137943 0.022985449 0.017525854 0.03690631
-0.016525209 0.054441184 0.030192748 -0.019596204 -0.04490589 -0.0036311299 -0.05294843 -0.05665816
-0.026634913 -0.024032919 -0.01064074 0.005622597 -0.03542167 0.015473653 0.023936316 0.014310034
0.06467558 -0.026598385 0.025377013 0.009549568 -0.0388561 -0.022542207 0.021451961 -0.013604701
-0.06040598 -0.030874487 0.009593549 0.009387545 0.037019886 -0.017879022 0.0071398783 -0.032469712
-0.043347206 -0.024512839 0.021807479 0.017586192 0.002412762 -0.016414624 0.051406357 -0.015722802
-0.0072456356 -0.051967166 -0.03173925 -0.03625217 -0.0012523506 0.03404554 -0.028829379 0.0030638697
-0.060454704 0.024369296 -0.02579234 0.01296341 -0.05941603 -0.014286368 0.029564174 -0.0037251788
0.021003544 0.002457736 0.0421092 -0.01178378 -0.010515147 -0.07311475 -0.06767653 -0.014578868
0.028745852 0.019395756 0.017151982 -0.0405538 0.06486594 0.022227157 -0.064456575 -0.036135465
0.01472099 -0.023764059 -0.024807066 0.030618755 -0.038834564 -0.0025641597 0.0066321003 0.00062974455
-0.033044524 0.04877242 -0.052660696 -0.03401566 0.05166932 -0.0053207446 0.02522816 -0.041314848

action_model._continuous_distribution.mu.bias f4 [2]
00000000: f893 36ba 0814 75bb
-0.0006964798 -0.0037395973

exp_avg f4 [128, 6]
00000000: 438d 15ba 560b 47b9 d66b 923a beb4 b6b9
00000010: 0000 0000 a83c 6239 90f9 4c37 b22c 4ab7
00000020: bf72 14ba f2ba edb8 0000 0000 b758 41ba
00000030: fef9 91b8 3e11 a937 d4ba ccb9 6c73 58b9
00000040: 0000 0000 cc6e 1fba 3c54 3737 987b c8b6
00000050: 1cc4 a0b9 6482 c539 0000 0000 cafd c2b7
00000060: bf94 9cb9 d639 35b8 f60a 5539 333f 65b9
00000070: 0000 0000 1cc0 dcb8 5cc4 2cb8 0085 f634
00000080: a565 f6b7 78dc 00b9 0000 0000 7262 18b9
00000090: b404 d1b9 f758 3eb8 a6e6 a439 3ad1 8fb9
000000a0: 0000 0000 0091 37b6 1650 59b9 c7c1 c737
000000b0: a60e a4b8 5954 d4b9 0000 0000 4e6b f4b9
000000c0: aed5 bcb9 da88 2eb8 4038 a536 c4ef e1b9
000000d0: 0000 0000 1212 7cb9 0651 f138 9e09 4ab7
000000e0: 5ef1 1eb9 f9f5 7b39 0000 0000 d4c2 7db8
000000f0: b024 98b9 ec7e 8fb6 58bf 85b7 84aa 7bb9
00000100: 0000 0000 c006 d737 beff bcb8 25a0 81b8
00000110: 6950 5538 ea17 7b38 0000 0000 44b2 e438
00000120: 96fd c5b8 459d 85b7 4137 bcb9 7f17 21b8
00000130: 0000 0000 9c40 e8b9 be3e 08b9 b26f 22b7
00000140: 85ab 2d39 0ed5 2eb9 0000 0000 3a69 9739
00000150: 80f0 df37 94d5 c637 357f 5aba 0902 8439
00000160: 0000 0000 a335 33ba aa81 4a39 e08e 1438
00000170: ffba 1dba ea5a d538 0000 0000 18f5 10ba
00000180: dc1c c839 9569 b637 8118 85b9 d836 7f39
00000190: 0000 0000 4c60 2f38 60d5 4f38 d495 00b8
000001a0: 33a7 3039 1915 6439 0000 0000 e047 2339
000001b0: e883 a9b9 2002 bab8 e495 223a a436 0839
000001c0: 0000 0000 4f58 113a 269e dab9 5425 c2b8
000001d0: 848a 8439 fa11 ba39 0000 0000 5772 1d3a
000001e0: 6438 adb9 204c 5836 6d0b ef39 5abb 1cba
000001f0: 0000 0000 439f ea39 262a acb9 e97d 8cb8
00000200: 59d0 1d3a 422a 54b9 0000 0000 dc1f 1839
00000210: d0bc d6b9 9bbb 27b8 beb9 0739 10a8 88b9
00000220: 0000 0000 1c83 92b8 94c7 8539 44ed 8fb8
00000230: 66f8 ffb8 c354 1db9 0000 0000 da06 1bb9
00000240: 41ab bab8 6464 0db8 a0df 2eb8 04a2 c4b9
00000250: 0000 0000 0f6e 2739 6fbb bd39 1a76 ff37
00000260: 8bd1 b6b9 16a5 8939 0000 0000 0e6a 95b9
00000270: ceeb cdb9 1619 0cb9 bf95 b139 694f d339
00000280: 0000 0000 cd6e 263a f91a 6638 0002 07b5
00000290: 5274 3eb9 2d66 8838 0000 0000 ec0b d5b8
000002a0: 118a a4b8 a089 9bb6 b910 bfb8 3563 3638
000002b0: 0000 0000 1b1e 8f38 bc88 3eba 5729 53b8
000002c0: 9faf e739 0b1c 0dba 0000 0000 7c20 40b9
000002d0: 02eb 47ba 82a8 07b9 8ffb 893a 6610 0eba
000002e0: 0000 0000 f8a0 a43a 2bed 01b9 5d0a a3b8
000002f0: 64ea 02b9 a0df f7b5 0000 0000 c04c 96b7
00000300: 554c 4e39 9e10 aab8 38e1 1ab9 7cbb 0939
00000310: 0000 0000 a4ad ee38 64fd 60b9 d801 17b8
00000320: 1cae 0839 50af 1f37 0000 0000 08ca 8db9
00000330: 1c40 3839 c4e6 d6b8 a254 0c39 5ae8 093a
00000340: 0000 0000 4e92 1a3a f548 2bb9 34ef 50b8
00000350: b0cd 1eb8 f24d 7137 0000 0000 d65f 2b38
00000360: 804c 8436 6271 a936 3b67 9b38 c45e 3d38
00000370: 0000 0000 0000 75b2 fa2b 66b9 2fcf 8cb8
00000380: 0342 3e39 428b 5fb9 0000 0000 eebe 06b9
00000390: 2cb7 b9b9 fab7 0bb6 2643 4739 e05a 28b9
000003a0: 0000 0000 d9c4 2839 610f 1139 cca7 3db8
000003b0: 6b1d 08ba 4f38 2f38 0000 0000 e3a9 17ba
000003c0: 5c5b 6439 d018 20b7 5064 3dba 4d16 6539
000003d0: 0000 0000 d2fd d4b9 e2d8 0aba bc97 bab8
000003e0: ef40 153a 321d b8b9 0000 0000 f221 eb39
000003f0: 9212 c637 1e25 4a37 38b9 d8b7 4c95 263a
-0.00057049486 -0.00018982342 0.0011171054 -0.00034848409 0.0 0.00021575636 1.2217453e-05 -1.2050545e-05
-0.00056628505 -0.00011335862 0.0 -0.0007375585 -6.9607035e-05 2.0154399e-05 -0.0003904911 -0.00020642363
0.0 -0.00060818787 1.0927262e-05 -5.9748527e-06 -0.0003066369 0.00037671917 0.0 -2.3244782e-05
-0.00029865463 -4.3207627e-05 0.00020317346 -0.00021862685 0.0 -0.00010526201 -4.119087e-05 4.591784e-07
-2.9372817e-05 -0.00012289162 0.0 -0.00014532523 -0.0003986709 -4.5382385e-05 0.00031452364 -0.0002743097
0.0 -2.7353526e-06 -0.00020724567 2.3812883e-05 -7.822858e-05 -0.00040498635 0.0 -0.00046619255
-0.00036017358 -4.1612286e-05 4.9239316e-06 -0.00043093984 0.0 -0.00024039324 0.00011506867 -1.2042377e-05
-0.0001515797 0.00024028857 0.0 -6.050135e-05 -0.00029019034 -4.2765078e-06 -1.5943937e-05 -0.00024000747
0.0 2.563314e-05 -9.012174e-05 -6.1810286e-05 5.0858045e-05 5.9865335e-05 0.0 0.00010905092
-9.440926e-05 -1.592807e-05 -0.00035899322 -3.8407274e-05 0.0 -0.00044298626 -0.00012993344 -9.6819585e-06
0.00016562462 -0.00016673302 0.0 0.00028879364 2.6695663e-05 2.3702894e-05 -0.00083349954 0.00025178518
0.0 -0.00068363006 0.00019312525 3.5419012e-05 -0.00060169393 0.000101735655 0.0 -0.0005529686
0.00038168475 2.1745256e-05 -0.00025385994 0.00024339126 0.0 4.1812935e-05 4.9551367e-05 -3.0657116e-05
0.00016846955 0.00021751634 0.0 0.00015571667 -0.0003233247 -8.869567e-05 0.0006202145 0.00012990326
0.0 0.000554447 -0.0004169803 -9.257594e-05 0.00025280204 0.00035490078 0.0 0.00060061127
-0.00033039146 3.2230819e-06 0.00045594145 -0.00059788453 0.0 0.00044750617 -0.000328378 -6.699173e-05
0.0006020121 -0.00020233638 0.0 0.00014507718 -0.00040957937 -3.9990624e-05 0.00012943798 -0.00026065158
0.0 -6.9862435e-05 0.00025516434 -6.8629655e-05 -0.00012205615 -0.00015004263 0.0 -0.00014784504
-8.90107e-05 -3.3710516e-05 -4.16931e-05 -0.00037504744 0.0 0.00015967361 0.00036188538 3.0453364e-05
-0.00034869867 0.00026253675 0.0 -0.00028498512 -0.00039276335 -0.00013360786 0.0003387164 0.0004030422
0.0 0.0006348908 5.4861393e-05 -5.029433e-07 -0.00018163145 6.504017e-05 0.0 -0.00010158852
-7.845846e-05 -4.6353816e-06 -9.1107046e-05 4.3484575e-05 0.0 6.824379e-05 -0.00072683 -5.034482e-05
0.000441906 -0.0005382902 0.0 -0.00018322648 -0.00076262665 -0.00012937377 0.0010527241 -0.00054193137
0.0 0.001256018 -0.0001239075 -7.774376e-05 -0.00012485083 -1.8468018e-06 0.0 -1.7917133e-05
0.00019674127 -8.109327e-05 -0.00014770485 0.00013135182 0.0 0.000113810675 -0.000214567 -3.6002923e-05
0.00013034831 9.517957e-06 0.0 -0.0002704414 0.0001757149 -0.000102472986 0.00013382969 0.00052607583
0.0 0.0005896435 -0.0001633501 -4.981384e-05 -3.7861697e-05 1.4382867e-05 0.0 4.085883e-05
3.9428123e-06 5.049792e-06 7.410204e-05 4.514937e-05 0.0 -1.4260877e-08 -0.00021950892 -6.714311e-05
0.00018144403 -0.00021318815 0.0 -0.00012850363 -0.00035422423 -2.0819703e-06 0.00019003134 -0.00016055582
0.0 0.0001609506 0.00013834007 -4.5217384e-05 -0.0005192372 4.1775693e-05 0.0 -0.0005785508
0.00021777808 -9.54252e-06 -0.00072247256 0.0002184745 0.0 -0.00040624902 -0.00052966 -8.897434e-05
0.0005693575 -0.00035116967 0.0 0.00044847984 2.3612087e-05 1.204878e-05 -2.5835456e-05 0.00063546444

exp_avg_sq f4 [128, 6]
00000000: d1d0 f335 8458 a533 ec0a 5036 83c5 1736
00000010: 0000 0000 dcf5 5d36 5e52 9635 749a 2633
00000020: d724 d035 fd79 a335 0000 0000 b803 0336
00000030: c822 1b35 fb39 8732 4d0d 0535 0412 2735
00000040: 0000 0000 1d46 1a35 4a01 9135 9b04 0033
00000050: 5908 f235 7663 9c35 0000 0000 d6e5 d035
00000060: 2713 8335 53a9 fe32 6f48 b135 dd91 8b35
00000070: 0000 0000 23c1 c935 133e 7834 ac41 d631
00000080: b8be a934 185e 8034 0000 0000 34da bc34
00000090: f504 a335 4c14 f432 1acf a835 af11 b835
000000a0: 0000 0000 51dd a435 8ff0 5535 a9a7 f132
000000b0: 9b61 bd35 8869 7635 0000 0000 e038 d735
000000c0: 0d3b 9d35 1e24 f432 5106 b635 3be7 a935
000000d0: 0000 0000 54a2 c335 c944 2035 ad03 a132
000000e0: bf03 9c35 b20a 2b35 0000 0000 0fb2 9135
000000f0: 0a1e a435 d24f ef32 00c4 b635 eeb1 8e35
00000100: 0000 0000 d43e c235 ec80 aa34 b740 1632
00000110: 4f0a 4334 6148 c234 0000 0000 5c51 b534
00000120: d4b7 2735 0d0b d032 0880 7135 b585 2e35
00000130: 0000 0000 7889 7f35 574b 0434 8e13 a531
00000140: b935 6534 fdcd 1034 0000 0000 37ef 7934
00000150: b1a0 8335 22fd 1d33 2581 c335 20bc 8f35
00000160: 0000 0000 46be f735 d9b8 a034 ceb9 5c32
00000170: 9fa7 3635 397c bc34 0000 0000 0e5d 4e35
00000180: df03 a134 d04a 0832 59bd 8534 1081 c334
00000190: 0000 0000 7297 9634 81cb 1e34 7d05 6a31
000001a0: 60c6 2234 0d88 1034 0000 0000 6fdf 2034
000001b0: ad6b 6f35 c428 d432 76a5 7b35 166c 5b35
000001c0: 0000 0000 9c8f 8835 b3d4 d935 5d65 4133
000001d0: 4798 e535 edf3 d435 0000 0000 299f f035
000001e0: f338 0935 2648 a632 7803 6b35 e50d 2835
000001f0: 0000 0000 80ed 8835 db08 e534 8455 9f32
00000200: ffd9 7035 af5f 0a35 0000 0000 35aa 6935
00000210: 2d55 2335 d9fd 8232 feaf 1935 b1e5 5835
00000220: 0000 0000 693c 0f35 68ec f735 c120 5433
00000230: 5590 3636 d4b8 de35 0000 0000 2c0a 1b36
00000240: 43d2 cc34 903c 3632 3f1a cd34 a3f6 1335
00000250: 0000 0000 4221 d334 6da6 9434 d3ea 0132
00000260: 2c50 c634 e5e7 8f34 0000 0000 ba88 d634
00000270: b01a 1436 17ad 8933 f545 0e36 673a 1d36
00000280: 0000 0000 05a6 2736 c3b9 e733 9acb 5f31
00000290: 9629 c633 d7f0 1134 0000 0000 3995 0b34
000002a0: ab94 b634 6075 1f32 f9d3 1b35 e6a4 aa34
000002b0: 0000 0000 a97f 1835 cbb1 8136 7557 c833
000002c0: b741 7a36 b825 8d36 0000 0000 30a8 8336
000002d0: 02b9 c335 d3f1 7533 128c 3436 7163 ed35
000002e0: 0000 0000 75ce 3736 35cd 7b34 14dc 1332
000002f0: 6b81 0335 5cf6 7134 0000 0000 f352 cb34
00000300: 83d1 4936 0170 c233 b887 b736 96e3 4336
00000310: 0000 0000 0f3f 9736 b8a2 f734 0c99 6d32
00000320: d11a 0c35 4a28 0d35 0000 0000 bbbe 1835
00000330: e5b1 ef35 0eab 5733 3efa 0836 3773 0a36
00000340: 0000 0000 7318 0836 0610 0b35 f1a3 4d32
00000350: e85c 0035 86e2 1335 0000 0000 a011 d134
00000360: 3652 3134 63b1 a031 2d9f 3e34 bf8d 5b34
00000370: 0000 0000 a392 5f34 b921 b835 3e75 ea32
00000380: 23fc 9f35 4b03 ab35 0000 0000 84cf c135
00000390: fecf d534 5300 3032 ac8a e934 5d64 e034
000003a0: 0000 0000 810c 0035 702c f235 d8ac 5033
000003b0: 54e3 0236 2e3e f735 0000 0000 45ce 2436
000003c0: bf8b e135 bfa4 4d33 f535 d635 ac41 1536
000003d0: 0000 0000 6d4a da35 fe7f 0835 99eb 9b32
000003e0: 8b6a 8035 d5f4 1b35 0000 0000 a1a1 9235
000003f0: b257 8235 68f0 0a33 1bd8 f535 4548 9935
1.8165684e-06 7.699512e-08 3.1000773e-06 2.261572e-06 0.0 3.3074675e-06 1.1199843e-06 3.879036e-08
1.550793e-06 1.217995e-06 0.0 1.9522686e-06 5.7792613e-07 1.5742435e-08 4.9565716e-07 6.2238564e-07
0.0 5.74715e-07 1.0803717e-06 2.980651e-08 1.8032835e-06 1.1651853e-06 0.0 1.5564099e-06
9.765835e-07 2.9646491e-08 1.3208609e-06 1.0398759e-06 0.0 1.5031877e-06 2.3119382e-07 6.2356857e-09
3.161747e-07 2.391032e-07 0.0 3.5176492e-07 1.2145889e-06 2.8414568e-08 1.257725e-06 1.3714215e-06
0.0 1.2283364e-06 7.969874e-07 2.8132336e-08 1.4110004e-06 9.179571e-07 0.0 1.6035301e-06
1.1714598e-06 2.8421763e-08 1.3561895e-06 1.2658778e-06 0.0 1.4575876e-06 5.970474e-07 1.8744538e-08
1.1623996e-06 6.371803e-07 0.0 1.0855164e-06 1.2227695e-06 2.785956e-08 1.36171e-06 1.0631609e-06
0.0 1.4472412e-06 3.175877e-07 8.745864e-09 1.816454e-07 3.6187978e-07 0.0 3.3773074e-07
6.2479853e-07 2.4219412e-08 8.9965806e-07 6.501462e-07 0.0 9.5194946e-07 1.2320866e-07 4.804355e-09
2.1346831e-07 1.3485983e-07 0.0 2.3276958e-07 9.807028e-07 3.6784634e-08 1.4566218e-06 1.0709082e-06
0.0 1.8458311e-06 2.9936817e-07 1.28479325e-08 6.8044204e-07 3.5108113e-07 0.0 7.687639e-07
2.9991403e-07 7.933252e-09 2.491095e-07 3.6415486e-07 0.0 2.8049868e-07 1.4788931e-07 3.4054601e-09
1.5159594e-07 1.346054e-07 0.0 1.4982446e-07 8.9191127e-07 2.4698586e-08 9.3745564e-07 8.1741143e-07
0.0 1.0174585e-06 1.6229664e-06 4.5028504e-08 1.7106148e-06 1.5866223e-06 0.0 1.7927715e-06
5.111935e-07 1.9357753e-08 8.754937e-07 6.2605096e-07 0.0 1.0201911e-06 4.2661017e-07 1.8548924e-08
8.9724193e-07 5.1548244e-07 0.0 8.704695e-07 6.084618e-07 1.5249428e-08 5.7253044e-07 8.0800515e-07
0.0 5.335956e-07 1.8471737e-06 4.9389886e-08 2.7204126e-06 1.6594081e-06 0.0 2.310272e-06
3.8150947e-07 1.0607565e-08 3.8203322e-07 5.512067e-07 0.0 3.932601e-07 2.768824e-07 7.562181e-09
3.6938707e-07 2.680455e-07 0.0 3.9960088e-07 2.2069253e-06 6.4110445e-08 2.120037e-06 2.3428818e-06
0.0 2.4981575e-06 1.07905656e-07 3.2566505e-09 9.227658e-08 1.3591794e-07 0.0 1.299967e-07
3.4008312e-07 9.281706e-09 5.805046e-07 3.1784947e-07 0.0 5.681018e-07 3.8651974e-06 9.329134e-08
3.7291154e-06 4.2065185e-06 0.0 3.923684e-06 1.4582477e-06 5.7263446e-08 2.6903622e-06 1.7686817e-06
0.0 2.7389299e-06 2.345085e-07 8.606566e-09 4.898963e-07 2.2534499e-07 0.0 3.787205e-07
3.0073286e-06 9.0542024e-08 5.4696247e-06 2.9189737e-06 0.0 4.5074917e-06 4.612573e-07 1.38300145e-08
5.219309e-07 5.258522e-07 0.0 5.690196e-07 1.7858662e-06 5.021416e-08 2.041124e-06 2.0630666e-06
0.0 2.027981e-06 5.180485e-07 1.19698464e-08 4.781891e-07 5.50914e-07 0.0 3.8942107e-07
1.6514318e-07 4.6767794e-09 1.7753037e-07 2.0447531e-07 0.0 2.082184e-07 1.3718883e-06 2.72945e-08
1.1919805e-06 1.2741451e-06 0.0 1.4440016e-06 3.9825676e-07 1.0244622e-08 4.350053e-07 4.1796275e-07
0.0 4.770191e-07 1.8043338e-06 4.8585974e-08 1.9503832e-06 1.8421031e-06 0.0 2.455797e-06
1.6804478e-06 4.7880118e-08 1.5959946e-06 2.2240956e-06 0.0 1.6263926e-06 5.08502e-07 1.8151512e-08
9.567751e-07 5.8098277e-07 0.0 1.0924888e-06 9.711277e-07 3.2349277e-08 1.8316817e-06 1.1420422e-06

exp_avg f4 [128]
00000000: c820 c4b9 1641 8b37 e469 9638 c81a 1db7
00000010: 971c 45b8 bb50 c3b7 c2e7 f0b8 ba0d 0e38
00000020: f021 81b8 86a0 14b8 a0a9 77b6 d23c cdb8
00000030: b4cd 14b7 cbdc 10b8 b181 e938 0737 d738
00000040: e954 9738 e355 84b8 b710 58b9 c321 53b9
00000050: a0f7 3936 d0db 24b9 f687 c7b8 c3fa 90b8
00000060: 25ae 69b8 f15f b238 2d84 98b9 13be d137
00000070: a693 85b7 f80f b6b7 aa32 8fb9 1218 1db9
00000080: 3e67 d0b8 da0c 8fb8 509c 51b9 ab71 e5b8
00000090: 7bc0 8737 31e1 3db9 7dac 64b7 4099 2cb8
000000a0: 1c80 8438 2d03 2db9 f700 0b38 60fa d1b7
000000b0: f2df cdb8 1849 beb7 ae4b 0b38 e80a 2938
000000c0: 7c1a a338 f8f4 87b8 50fc 15b9 8c15 5cb8
000000d0: 1c93 17b9 b03f 32b8 4e6b 87b8 c281 8937
000000e0: d547 b5b8 82a4 18b9 3b1a 14b8 d9cf 77b8
000000f0: df0f 7238 49d0 d0b8 17fe 4eb9 b29e e6b7
00000100: 00eb ccb7 e833 92b6 c824 de37 ebdb 4fb9
00000110: 41e4 08b9 c708 c6b8 2219 8bb7 9a69 8ab9
00000120: e465 3438 a001 ae35 d818 47b7 08b7 51b9
00000130: 7620 81b8 ac5a 85b8 66dd 8136 1fb8 09b9
00000140: 7407 b0b8 9a10 a338 36f8 cb37 baf2 09b9
00000150: 078c 4737 9ffc 19b7 8171 89b9 61fc bbb7
00000160: 0b2a 2237 5135 87b8 b911 2838 dc71 d2b8
00000170: 0061 ec34 55aa d5b8 4170 16b8 b867 73b8
00000180: d69b 17b8 7cb0 ae37 d0ae 3236 8646 3eb9
00000190: 873e b0b7 c250 a2b8 b0ff bbb8 2f0f d138
000001a0: a9c3 44b9 62e7 cb37 16b5 1ab8 1ba1 0bb9
000001b0: 8c14 9737 74c6 04b9 46e8 5cb7 0ae0 2138
000001c0: ab69 1139 f40c bfb8 8f40 62b8 8ba3 18b9
000001d0: 72d0 dfb7 faff 4ab9 c80a f4b8 5db7 07b9
000001e0: da72 92b8 e3f6 0638 e4ab 5fb8 944f c5b8
000001f0: 186f c5b8 12f0 23b9 ce0a 9eb9 1e44 0a39
-0.00037408457 1.66004e-05 7.172281e-05 -9.364165e-06 -4.6995086e-05 -2.3283405e-05 -0.0001148726 3.3868222e-05
-6.157521e-05 -3.543545e-05 -3.6904603e-06 -9.7864904e-05 -8.869381e-06 -3.4537905e-05 0.00011134463 0.000102622485
7.216057e-05 -6.310248e-05 -0.00020605592 -0.00020135105 2.7711285e-06 -0.00015722145 -9.514384e-05 -6.913163e-05
-5.5713714e-05 8.505572e-05 -0.00029090178 2.5003252e-05 -1.592359e-05 -2.1703527e-05 -0.00027312833 -0.00014981654
-9.937443e-05 -6.821165e-05 -0.00019990024 -0.00010940743 1.6182885e-05 -0.00018108335 -1.363002e-05 -4.115072e-05
6.318113e-05 -0.00016499749 3.314108e-05 -2.5031331e-05 -9.816875e-05 -2.2683802e-05 3.3210665e-05 4.0302897e-05
7.777379e-05 -6.4829306e-05 -0.00014303741 -5.2472154e-05 -0.00014455285 -4.249782e-05 -6.457289e-05 1.6392096e-05
-8.644132e-05 -0.00014557134 -3.531038e-05 -5.9082962e-05 5.7712077e-05 -9.957009e-05 -0.00019740347 -2.7492035e-05
-2.4428125e-05 -4.3571818e-06 2.648159e-05 -0.00019822984 -0.00013055002 -9.443011e-05 -1.6581795e-05 -0.0002640009
4.3010237e-05 1.2964483e-06 -1.1867109e-05 -0.00019999978 -6.157246e-05 -6.358823e-05 3.8702738e-06 -0.00013133929
-8.393722e-05 7.775538e-05 2.4315068e-05 -0.00013155761 1.1893927e-05 -9.178329e-06 -0.00026215243 -2.240966e-05
9.665741e-06 -6.4472326e-05 4.0070827e-05 -0.00010034788 4.4029002e-07 -0.00010188358 -3.586733e-05 -5.803231e-05
-3.614634e-05 2.0824598e-05 2.6625821e-06 -0.00018146084 -2.1009952e-05 -7.739804e-05 -8.9644804e-05 9.968725e-05
-0.00018764906 2.4307232e-05 -3.688511e-05 -0.0001331609 1.801017e-05 -0.0001266243 -1.3167102e-05 3.8594044e-05
0.00013867642 -9.1100024e-05 -5.3942724e-05 -0.00014556774 -2.6680736e-05 -0.0001935958 -0.00011636835 -0.00012942911
-6.983215e-05 3.217802e-05 -5.332743e-05 -9.4085146e-05 -9.414385e-05 -0.00015634325 -0.00030144159 0.00013186081

exp_avg_sq f4 [128]
00000000: 414d b134 43a3 3734 3307 8e33 4530 0734
00000010: a071 0434 39c2 ec32 c1a2 0434 5692 f733
00000020: fd70 fb33 cf66 a333 977d f533 0b59 2333
00000030: 6a6b dc33 5a4b b332 cf6d 2c34 9796 6e33
00000040: 1eee 1233 030a 7f32 c63c dd33 9477 4334
00000050: 992f ba33 565c aa33 d3fc 8933 46aa 6134
00000060: df43 3b33 c697 0433 dff1 8934 5279 7232
00000070: 58d0 2333 e180 ce34 0b8e 8134 eb02 1f33
00000080: e353 cc34 a66a 7b33 5291 6334 9ccc 5833
00000090: 84be 9d32 2154 f333 9e7b 3233 7ae1 6434
000000a0: 8973 5e34 1401 ad33 b18b 1234 a817 6733
000000b0: 4893 5933 15c7 5234 6ed9 9233 74fc 2d34
000000c0: 85af 3233 dd3f 5734 97c0 2434 dec5 7f34
000000d0: ac67 6634 752d ed32 183a 1533 39ad 1033
000000e0: d69e a132 69f9 8434 a58e 6432 f2e1 d033
000000f0: 9c8e cc32 0592 9c33 365c 9f33 15c9 1733
00000100: 96c5 7a34 ef87 de32 1868 9833 14ac 6e34
00000110: 9e0e 8433 f63c 1434 12d0 5734 42b4 0934
00000120: 5226 8f33 9989 9733 0c84 4034 2e84 3234
00000130: 9bb4 8732 a669 7e34 3da9 e333 648d 1434
00000140: fd65 2434 7b5b ed32 64e6 7232 d92b ed33
00000150: 5727 2034 a7bc 3833 67ae 8534 0d7a 8d33
00000160: 888a 9533 2c39 d633 7e33 c632 6e29 7a32
00000170: 9752 9534 ed76 fa33 b9fc b233 958d 1b34
00000180: 6ccd 0133 8fa6 cf33 d88c aa32 9a65 8533
00000190: 56ff 9432 4ca6 a433 41c9 2d33 f519 b133
000001a0: c337 2d34 b417 8333 3793 a633 0d0c 8a33
000001b0: f98f 4a32 4baa 2034 5c09 9c32 88ae ab33
000001c0: c9d3 3134 230b 0b34 d8a9 2233 5d4e 8633
000001d0: b060 9632 af33 a533 3f98 5934 679e 5c33
000001e0: 1cf2 9f33 4f9c 5a33 a68e 4033 35f9 0c34
000001f0: e7fd 4c33 c251 3533 1e0b 8234 a8d7 d633
3.302503e-07 1.7102597e-07 6.6137e-08 1.2590415e-07 1.2334795e-07 2.7562338e-08 1.2352668e-07 1.1528452e-07
1.1708651e-07 7.60898e-08 1.1431546e-07 3.803238e-08 1.0264087e-07 2.0872609e-08 1.6058696e-07 5.5550654e-08
3.420984e-08 1.484523e-08 1.0302169e-07 1.8204292e-07 8.669958e-08 7.933038e-08 6.425548e-08 2.1016703e-07
4.360106e-08 3.0871682e-08 2.5694223e-07 1.4113839e-08 3.8140882e-08 3.8464262e-07 2.4131472e-07 3.7022726e-08
3.8058997e-07 5.8537488e-08 2.119389e-07 5.047751e-08 1.8363842e-08 1.1330872e-07 4.1556284e-08 2.1316183e-07
2.0717393e-07 8.0561364e-08 1.3648129e-07 5.3805394e-08 5.06582e-08 1.96302e-07 6.838205e-08 1.6203722e-07
4.160349e-08 2.0046669e-07 1.5343754e-07 2.382071e-07 2.1458135e-07 2.7611103e-08 3.4744602e-08 3.3685158e-08
1.8815097e-08 2.4768386e-07 1.330378e-08 9.726854e-08 2.3813577e-08 7.290877e-08 7.4207875e-08 3.534031e-08
2.3354946e-07 2.5906017e-08 7.096986e-08 2.2228079e-07 6.149388e-08 1.3805752e-07 2.0099131e-07 1.2824697e-07
6.665927e-08 7.056514e-08 1.7929432e-07 1.6625629e-07 1.5798198e-08 2.3694028e-07 1.06012955e-07 1.3835012e-07
1.5310793e-07 2.7632032e-08 1.4138639e-08 1.1044148e-07 1.4915473e-07 4.3012417e-08 2.4900075e-07 6.588025e-08
6.963552e-08 9.975551e-08 2.307365e-08 1.4561335e-08 2.7813505e-07 1.1663165e-07 8.334741e-08 1.4487007e-07
3.0221983e-08 9.6694855e-08 1.9854653e-08 6.211776e-08 1.7345581e-08 7.667094e-08 4.046274e-08 8.246926e-08
1.6132167e-07 6.1044744e-08 7.7567556e-08 6.428318e-08 1.1790683e-08 1.4963113e-07 1.8165046e-08 7.994555e-08
1.6561457e-07 1.2949435e-07 3.7873036e-08 6.2541154e-08 1.7506267e-08 7.6928124e-08 2.0265087e-07 5.1366808e-08
7.448054e-08 5.0899242e-08 4.483322e-08 1.3129177e-07 4.7728374e-08 4.2216705e-08 2.4222476e-07 1.0004379e-07
