UnityController/results/alex/MoveToGoal/MoveToGoal-2115.onnx (onnx, 76017 bytes, 6 tensors)

action_model._discrete_distribution.branches.0.bias f4 [5]
00000000: 0000 0000 0000 0000 0000 0000 0000 0000
00000010: 0000 0000
0.0 0.0 0.0 0.0 0.0

action_model._discrete_distribution.branches.0.weight f4 [5, 128]
00000000: e079 383c aab2 cf3a 89f7 11ba 9ac1 85bb
00000010: 0ba4 5f3b 7b9b b73a bec6 99bc 474b c13b
00000020: 7b2a 09bb 87cb 33bc eceb 98bc 0a02 94bc
00000030: 5c0d 89bb 7db2 a2bc 0f6e 1c3c a067 cf3b
00000040: d27b a5bb 0bf5 5bbc 4f24 0bbc 2d6f 3ebb
00000050: 3ea3 83ba b795 ecbb 468b c2bb efe7 873b
00000060: 669d 8ebb f1cf 163c 463f 94bb 4237 193c
00000070: 2ee3 81bc 341b 9dbb 8f48 b4bb efcb 00bb
00000080: 4f72 de3b d15f 223c 2c54 9b3b 496f 0a3b
00000090: 95a6 8bbc bffa c93a b844 69bc 3178 813b
000000a0: 9001 7f3b 4a23 753c d2d4 fd3b 4d92 4bbc
000000b0: 038c bdba 3176 29bc dd54 993b 50f5 febb
000000c0: 13ca 08bc 87ae ffbb c095 cc3b adbd e9b9
000000d0: d2c5 5abc f40c 013c 04d3 273c 9020 b33a
000000e0: 98cf 703b ff37 9a3c 0c02 15bc 9f6b 2b3b
000000f0: 7bdb b73b 9e5b b23b 0c61 22bc 3d03 7c3b
00000100: 475f 653c 9d9d a53b 6f96 bd3b c001 28bb
00000110: cdd8 7a3c 130a a5ba c737 c7bb 65ca 383c
00000120: 0fbf 933c 07aa 28bc b747 6c3a f9e6 04bc
00000130: 9fa0 a03b 3b1f aaba 2bee 31bc 80d6 a93b
00000140: 8825 75bc 3c16 1dbb 7875 343c 5bed b63a
00000150: c9ab 383b ac6c 21bc ede3 48bc e4f4 093a
00000160: b317 debb 3009 3b3c 20c4 9bbc 320d f63b
00000170: d7eb 15bc f687 aabb cf13 903c 5d0a 58bc
00000180: 0b73 f0bb f80a 1ebc 47c0 243c ad03 803b
00000190: eb88 093c 036a ac3c 2b62 8a3b 224a eebb
000001a0: 495d 1f3c d7ad 363c 13a6 dc3b 7dc2 18bb
000001b0: 3014 d7bb ef0b 783a e35b 06bb a094 0dbc
000001c0: 562f 963c 51b9 98ba aec2 983a 175d 973b
000001d0: 05ae 0e3c 2280 403a 9d7c d6bb 6108 c1bb
000001e0: 7f7a 603c b36a ab39 b226 8c39 a7fb 8b3c
000001f0: 78e3 243c 6b40 ff3b d223 dfbb 2d05 5e3c
00000200: cf18 983b e022 48bc 418c c2ba f29c ebbb
00000210: 4273 363c efeb 793c 7bb4 293b bc8c a3bb
00000220: bfdb 9e3c 639a 0d3c 3147 1c3c dd68 f2bb
00000230: 0f03 b43a c73d 243c 7b91 5fbc b2f3 cbbb
00000240: bbef de3b 9afa 643b 75db 9abb 477c 80bc
00000250: 2f4b 513b e3bf 0fbc 542c 18bc d985 a33b
00000260: c7b9 60bc 12ea 573c 986d 0d3c a704 c239
00000270: 8f74 55bc 7759 13bc 7247 eabb 8333 053c
00000280: f01c 673b ec3e 0b3b 12bd fd38 874e c63b
00000290: d762 c73b 1340 c7ba 8589 edbb 77ca 783b
000002a0: fde4 693c 03c1 08bc ab60 48ba 1f70 4c3b
000002b0: eae3 783b 78ba dbba 0f87 b6bb e091 723c
000002c0: 9ed6 aebb 67db f83b 833b fcbb 00fe 9b3a
000002d0: 237f 58bc d845 84bb ef4d 983c bbcd 9d3b
000002e0: 7fe0 41bb aa4e b13b 5bac c53b 1b96 a2bb
000002f0: 028c 66bc f7cd 503c f31d e3bb ae5a 13bc
00000300: 5f6e 7ebb b2f3 22bb 4594 d1bb 8884 0abc
00000310: d83f 543c e83f c93c e563 23bc ebae 4dbc
00000320: 29d2 17bc e345 5cba 09c4 40bc 4ce9 253b
00000330: 43a1 a23c 2736 583c f944 c23b ff87 9fbb
00000340: ff0a 1dbb 456e 2aba e08f d5bb 2b01 3c3a
00000350: 9fa4 a63b cced 94bb 38a4 3dbc a24e 80bb
00000360: a132 ccbb dc6b 923b 65aa e33b d46b 353b
00000370: 8a2b 0bbb cb17 fb38 c3ac bdbb beb0 ccbc
00000380: b6a6 45bc f00b 753c 1fbe 81bb 9b33 7c3b
00000390: 0f31 b7bb 2749 593b f8d8 36bc b7dd f8bb
000003a0: 9792 a53b 1012 f73b dfe1 273b 28b7 323b
000003b0: 2fe3 a53b 1fba 40bc 9e3a 0cbc 9a88 a93c
000003c0: 3ed7 063a 9992 ad3c 703d df39 9333 6c3a
000003d0: 1cb5 093b ea7e 363b 1f2c 10bb 1379 f6bb
000003e0: 583e d3ba a75e c13b ebd3 80bb 523e a23b
000003f0: d0a3 f9bb 00aa 2b3c 4a26 53bc c701 38bc
0.011259526 0.0015846093 -0.00055681966 -0.004081917 0.0034124877 0.0014008129 -0.018771525 0.0058988663
-0.0020929861 -0.010973818 -0.018667184 -0.018067379 -0.0041825008 -0.0198605 0.009547724 0.0063294917
-0.005050161 -0.013425122 -0.008492543 -0.0029057965 -0.0010043157 -0.007219996 -0.005937013 0.0041475217
-0.0043522594 0.0092048505 -0.0045241443 0.009351553 -0.015855398 -0.0047945026 -0.0055018137 -0.0019652804
0.006788529 0.00991054 0.0047402587 0.002112346 -0.017047206 0.0015409811 -0.014237575 0.0039510955
0.0038910843 0.014962027 0.0077463174 -0.012425018 -0.0014461282 -0.01034312 0.004679306 -0.0077807084
-0.0083489595 -0.0078027877 0.0062434375 -0.00044582543 -0.013352828 0.007876623 0.010243181 0.0013666321
0.003674483 0.01882553 -0.009094726 0.0026156676 0.005610881 0.0054430505 -0.009910833 0.0038454079
0.013999767 0.0050541894 0.0057857553 -0.0025635809 0.015310478 -0.0012591503 -0.006079647 0.011278723
0.01803544 -0.010294444 0.0009013372 -0.008111709 0.00490196 -0.0012979278 -0.010860006 0.005183041
-0.014962561 -0.0023969552 0.011014335 0.0013956235 0.0028178564 -0.00985257 -0.012261373 0.0005262627
-0.0067777275 0.011415765 -0.019014418 0.007508897 -0.009150467 -0.005204196 0.01758757 -0.013186065
-0.007337933 -0.00964617 0.010055608 0.003906688 0.00839446 0.021046644 0.0042231283 -0.007272021
0.009726831 0.011149845 0.006733665 -0.0023309283 -0.006563686 0.00094622275 -0.0020501546 -0.008641392
0.018333118 -0.0011651908 0.0011654699 0.0046192515 0.008708482 0.0007343312 -0.006545617 -0.0058908914
0.01370108 0.0003269516 0.0002673171 0.01708777 0.010063998 0.0077896616 -0.00680969 0.013551039
0.0046416293 -0.012215346 -0.0014842824 -0.00719034 0.011135878 0.015254005 0.0025894928 -0.004991142
0.019391892 0.008642766 0.009538458 -0.0073977546 0.0013733822 0.0100244945 -0.013645525 -0.006224119
0.0068034804 0.003493941 -0.0047258683 -0.01568426 0.0031935682 -0.008773777 -0.009287912 0.004990321
-0.013716168 0.013178365 0.008632086 0.0003700603 -0.013028278 -0.008993498 -0.00714963 0.008129957
0.003526505 0.002124722 0.00012099197 0.0060518417 0.0060847807 -0.0015201591 -0.0072490596 0.0037962475
0.0142757865 -0.008346799 -0.0007643799 0.003119476 0.0037977644 -0.0016763946 -0.0055702995 0.014805287
-0.005335643 0.007594514 -0.007697524 0.001190126 -0.0132139055 -0.0040366463 0.01859185 0.0048157847
-0.0029583273 0.005410989 0.0060325093 -0.0049617416 -0.014071466 0.012744418 -0.0069310605 -0.008993788
-0.003882311 -0.0024864492 -0.006395849 -0.0084544495 0.012954675 0.024566606 -0.009972547 -0.012553911
-0.009266415 -0.0008402748 -0.011765488 0.0025316058 0.019852286 0.013196505 0.0059286323 -0.004868507
-0.0023962853 -0.0006501417 -0.0065173954 0.0007171805 0.0050855423 -0.004544949 -0.011574797 -0.0039156238
-0.0062316214 0.0044684242 0.006947803 0.0027682679 -0.0021235668 0.000119730445 -0.005788417 -0.024986621
-0.012063673 0.014956459 -0.003959432 0.0038482908 -0.005590565 0.0033155174 -0.011160128 -0.00759479
0.0050528753 0.007539995 0.0025616807 0.0027269814 0.005062483 -0.011763125 -0.008558897 0.02069502
0.0005143768 0.021188067 0.0004257965 0.00090103707 0.002101249 0.0027846643 -0.0021998954 -0.0075217574
-0.0016116602 0.005901176 -0.0039315126 0.004951277 -0.007618405 0.010477543 -0.012887547 -0.0112308925

network_body.linear_encoder.seq_layers.0.bias f4 [128]
00000000: 0000 0000 0000 0000 0000 0000 0000 0000
00000010: 0000 0000 0000 0000 0000 0000 0000 0000
00000020: 0000 0000 0000 0000 0000 0000 0000 0000
00000030: 0000 0000 0000 0000 0000 0000 0000 0000
00000040: 0000 0000 0000 0000 0000 0000 0000 0000
00000050: 0000 0000 0000 0000 0000 0000 0000 0000
00000060: 0000 0000 0000 0000 0000 0000 0000 0000
00000070: 0000 0000 0000 0000 0000 0000 0000 0000
00000080: 0000 0000 0000 0000 0000 0000 0000 0000
00000090: 0000 0000 0000 0000 0000 0000 0000 0000
000000a0: 0000 0000 0000 0000 0000 0000 0000 0000
000000b0: 0000 0000 0000 0000 0000 0000 0000 0000
000000c0: 0000 0000 0000 0000 0000 0000 0000 0000
000000d0: 0000 0000 0000 0000 0000 0000 0000 0000
000000e0: 0000 0000 0000 0000 0000 0000 0000 0000
000000f0: 0000 0000 0000 0000 0000 0000 0000 0000
00000100: 0000 0000 0000 0000 0000 0000 0000 0000
00000110: 0000 0000 0000 0000 0000 0000 0000 0000
00000120: 0000 0000 0000 0000 0000 0000 0000 0000
00000130: 0000 0000 0000 0000 0000 0000 0000 0000
00000140: 0000 0000 0000 0000 0000 0000 0000 0000
00000150: 0000 0000 0000 0000 0000 0000 0000 0000
00000160: 0000 0000 0000 0000 0000 0000 0000 0000
00000170: 0000 0000 0000 0000 0000 0000 0000 0000
00000180: 0000 0000 0000 0000 0000 0000 0000 0000
00000190: 0000 0000 0000 0000 0000 0000 0000 0000
000001a0: 0000 0000 0000 0000 0000 0000 0000 0000
000001b0: 0000 0000 0000 0000 0000 0000 0000 0000
000001c0: 0000 0000 0000 0000 0000 0000 0000 0000
000001d0: 0000 0000 0000 0000 0000 0000 0000 0000
000001e0: 0000 0000 0000 0000 0000 0000 0000 0000
000001f0: 0000 0000 0000 0000 0000 0000 0000 0000
0.0 0.0 0.0 0.0 0.0 0.0 0.0 0.0
0.0 0.0 0.0 0.0 0.0 0.0 0.0 0.0
0.0 0.0 0.0 0.0 0.0 0.0 0.0 0.0
0.0 0.0 0.0 0.0 0.0 0.0 0.0 0.0
0.0 0.0 0.0 0.0 0.0 0.0 0.0 0.0
0.0 0.0 0.0 0.0 0.0 0.0 0.0 0.0
0.0 0.0 0.0 0.0 0.0 0.0 0.0 0.0
0.0 0.0 0.0 0.0 0.0 0.0 0.0 0.0
0.0 0.0 0.0 0.0 0.0 0.0 0.0 0.0
0.0 0.0 0.0 0.0 0.0 0.0 0.0 0.0
0.0 0.0 0.0 0.0 0.0 0.0 0.0 0.0
0.0 0.0 0.0 0.0 0.0 0.0 0.0 0.0
0.0 0.0 0.0 0.0 0.0 0.0 0.0 0.0
0.0 0.0 0.0 0.0 0.0 0.0 0.0 0.0
0.0 0.0 0.0 0.0 0.0 0.0 0.0 0.0
0.0 0.0 0.0 0.0 0.0 0.0 0.0 0.0

network_body.linear_encoder.seq_layers.0.weight f4 [128, 9]
00000000: 0ab0 dbbe 7a6a 893e f787 0e3e 7016 4b3e
00000010: d607 633c feae 9fbe f4a8 f43e c035 09be
00000020: c4de 443e ace3 473d 1ab4 6abe 6046 4ebc
00000030: 96dc 763e 9f9d e83d 0b5d c3be 9994 a8bd
00000040: 203f 903d 58f8 5c3e 2647 29bf 56e4 7dbe
00000050: 72b1 e3bd 52a6 63bd 6cad ea3c 56ea dfbe
00000060: 045a 8fbe da19 17be 785e 08bf 8cd8 d03e
00000070: de41 3dbe 506f 7f3e db07 47be 2b31 ea3e
00000080: d800 0f3e 70eb 32bd 92aa 433f 384c b23e
00000090: ae67 58bf e78b e83c becb ff3e b72c ca3e
000000a0: c841 71be ceb7 d53d 56e0 f3bd a2ca 6f3c
000000b0: 2a6c 973d c67a dbbe 92d6 673e 3b57 cfbe
000000c0: 3ed7 d6be 9867 20bc 9c90 043e 2e0a 963e
000000d0: c86e 3c3f 5f4c 3bbf ea9d 49be 18d5 e73d
000000e0: b9e2 833e ea3d 1cbe 5175 a83e 86e9 1abe
000000f0: d6b1 a83c 8fe1 733c 7a8a 61be 72d9 f3bd
00000100: 3729 b63c 23e8 0c3f e2db b53e 1457 063e
00000110: c666 4bbe a6b5 1ebf 8684 a3be bcf1 d43d
00000120: 02a6 e8be ae31 9b3e 949a 2bbe 3eb4 bbbe
00000130: 68e1 dc3e cc6a 3bbe 346e bd3e 8e25 27bc
00000140: 7a8c 72be 4633 d93e 3054 c03e 5a19 ac3d
00000150: fc2e ddbe a88f a93d 5f0a 8fbe 3c40 f9be
00000160: 137d 4cbd 96f5 2c3f 1cac c2bd c1da a33e
00000170: f2e1 10be 28a7 91bd 68a3 ba3d 58bc 0abe
00000180: ead4 433e 1486 a8bc 28ba fdbd 56ff 433e
00000190: 07da 1bbf f288 fc3e f696 963e 8e9c 893d
000001a0: 20da 32bf 1b2a 2c3d 93af 133f 4b6c 013b
000001b0: ad7f 9b3d 30ca 0e3f 8003 663e 1b4e dbbd
000001c0: baaf aa3e 8436 8a3e edc5 1ebe 57c2 b63e
000001d0: e896 32bd 4e40 9c3c 8a4f cb3e 1ec8 9b3e
000001e0: da22 f33e d360 69be dce1 8dbe 7608 923d
000001f0: 9f2e 4b3e cb32 ccbe de93 6bbe abac 333e
00000200: b067 f53e 0e0e 04be 1c6b d63d 176d d23d
00000210: 73be e53e 8434 51be d356 8cbd 3004 e0be
00000220: b3ca f73c 6379 7b3d 8f9a c73e 8eb1 bc3d
00000230: 5daa a3be b357 183f 1708 463e 7cb6 9ebd
00000240: b4cc 903e f635 cf3e c332 2c3e 64d8 a13d
00000250: 2bb4 cdbd 4223 72be 0420 5c3f f60e 55bf
00000260: 7b99 ab3e 0af8 f23d 1c5d 78bd b6d2 0ebf
00000270: 6afc dfbe 6b07 3b3e 439e 1ebe 145a 9cbd
00000280: 6c8f dcbe 46a2 a03e e056 363e be50 41be
00000290: 27ed 3b3f 3e3b 313d 2f05 f0bd 4c83 a0bd
000002a0: 7e0c 0fbf bf0d 44bf 28ce 1abf 1898 f8be
000002b0: b29d 92be 3687 843e bc0a 89bd 576b 7a3e
000002c0: f0ae aa3e 02f4 24be 4a24 b8bd 248a 81be
000002d0: 7426 9e3d 5b39 493f d26b 0a3e 34eb 0ebf
000002e0: 0e83 7b3e 0c02 75be 906b 99be e888 36bd
000002f0: da44 4bbe 4cb7 07bc d291 e5be 8753 1ebf
00000300: bce0 953e 76d1 813e 91bf 13be 3c8f f2be
00000310: cb20 6d3e e264 68bd 27c5 80be a0ad 1ebd
00000320: 9f65 a9bb 625a a7bb c8dd 0abf 5c2a 023f
00000330: f548 97bc 170a 123f cc4c 81be ab14 b4be
00000340: 3e21 cdbe 05df a6be d3c7 bdbe 06be 033e
00000350: 2a1a eabc cea6 43be 5798 1a3f 020b a0bd
00000360: 2e57 edbe d268 a03e 4cb4 1b3e a889 f5bd
00000370: bc28 093d 4f1f d53c 0278 823e 8bad 2dbf
00000380: 2eed 86be 7028 3fbd b27c 4abd 32c5 5bbe
00000390: d267 ad3e 276a 74be 53ef 40bf 23f4 7bbe
000003a0: e47c 93be f2be 4b3e fe6f c73d 1b23 efbc
000003b0: 0cb5 b5be de45 933d e3ff c6be 83ca 673d
000003c0: 23c3 2a3f 1406 0abd d7e1 2e3e 88a9 dfbd
000003d0: 4f21 6f3d 623f 18bd 7f0f b2be 96d2 cfbd
000003e0: 6e30 19bf 7af4 163e 8679 e23c 80ee 28bf
000003f0: e28e 033f 2226 033f 64e7 9bbe 5279 cd3e
-0.42907745 0.26839048 0.13919054 0.19832778 0.013856849 -0.31188196 0.4778515 -0.1339941
0.19225603 0.04880111 -0.22920266 -0.012590021 0.24107584 0.11358189 -0.38156924 -0.08231468
0.0704329 0.2157911 -0.6612419 -0.24794134 -0.111178294 -0.055578537 0.028647147 -0.43733472
-0.27998364 -0.14755955 -0.5326915 0.40790212 -0.18482158 0.24944806 -0.1943659 0.45740637
0.13965166 -0.043681562 0.76432145 0.34823775 -0.845332 0.028387023 0.4996013 0.3948724
-0.2356025 0.104354486 -0.11908023 0.014635714 0.073936775 -0.42867106 0.22640446 -0.4049624
-0.41961092 -0.009790324 0.12945789 0.2930464 0.7360654 -0.7316341 -0.19689146 0.11319941
0.25758913 -0.15257993 0.32902005 -0.15128145 0.020592611 0.01488532 -0.22025481 -0.11906709
0.02223645 0.5504171 0.3551932 0.13119155 -0.19863424 -0.61995924 -0.31937045 0.1039767
-0.45439154 0.3031134 -0.16758186 -0.3666095 0.4314072 -0.18302459 0.3699814 -0.010201825
-0.236864 0.4242193 0.3756423 0.08403273 -0.4319991 0.082793534 -0.279376 -0.4868182
-0.049923968 0.67562234 -0.095054835 0.32002833 -0.14148691 -0.07111961 0.091131985 -0.1354841
0.19124189 -0.020571746 -0.12389022 0.19140372 -0.6087956 0.4932323 0.2941205 0.067193136
-0.6986408 0.042032342 0.5768978 0.0019748386 0.075927116 0.55777264 0.22462273 -0.10708257
0.33337194 0.26994717 -0.1550519 0.35695145 -0.043600947 0.019073632 0.3970912 0.30426115
0.47487527 -0.22790842 -0.2771138 0.0713052 0.19842003 -0.39882502 -0.23005626 0.17546336
0.4793067 -0.12895986 0.10469648 0.102747135 0.44871864 -0.2043019 -0.06852498 -0.43753195
0.030248022 0.06139506 0.38985106 0.09213553 -0.31965914 0.5950882 0.19339024 -0.0774965
0.28281176 0.40470856 0.16816239 0.07902601 -0.1004413 -0.23646262 0.8598635 -0.83225954
0.33515534 0.11863716 -0.06063567 -0.5579027 -0.43747264 0.18264548 -0.1549006 -0.076343685
-0.43078172 0.31373805 0.17806578 -0.18878457 0.7340874 0.04326939 -0.11719739 -0.07837543
-0.55878437 -0.76583475 -0.6047082 -0.48553538 -0.28635937 0.25884408 -0.066915005 0.2445501
0.33336592 -0.16108707 -0.089912966 -0.25300705 0.07722178 0.7860314 0.13517693 -0.5582764
0.24561712 -0.23926562 -0.29964876 -0.044564158 -0.19850484 -0.0082834475 -0.44837815 -0.618462
0.2927302 0.2535512 -0.14428546 -0.47374904 0.23157041 -0.056736834 -0.25150415 -0.0387398
-0.005169585 -0.00510721 -0.5424466 0.50845885 -0.018467406 0.57046646 -0.25253904 -0.35172018
-0.40064424 -0.32592025 -0.37066516 0.12865457 -0.02857693 -0.191066 0.603887 -0.078145996
-0.46355575 0.31329972 0.15205497 -0.119891465 0.033486113 0.026015906 0.25482184 -0.6784293
-0.2635283 -0.046669424 -0.049435325 -0.21461943 0.3386827 -0.23868619 -0.7536518 -0.2460485
-0.2880622 0.19897059 0.09738158 -0.029191544 -0.3548969 0.071910605 -0.388671 0.056589615
0.66704005 -0.033697203 0.17078339 -0.109210074 0.058381375 -0.03716982 -0.34777448 -0.10147588
-0.5983952 0.14741698 0.027645838 -0.6598892 0.51389897 0.5123006 -0.30449975 0.40131623

network_body.linear_encoder.seq_layers.2.bias f4 [128]
00000000: 0000 0000 0000 0000 0000 0000 0000 0000
00000010: 0000 0000 0000 0000 0000 0000 0000 0000
00000020: 0000 0000 0000 0000 0000 0000 0000 0000
00000030: 0000 0000 0000 0000 0000 0000 0000 0000
00000040: 0000 0000 0000 0000 0000 0000 0000 0000
00000050: 0000 0000 0000 0000 0000 0000 0000 0000
00000060: 0000 0000 0000 0000 0000 0000 0000 0000
00000070: 0000 0000 0000 0000 0000 0000 0000 0000
00000080: 0000 0000 0000 0000 0000 0000 0000 0000
00000090: 0000 0000 0000 0000 0000 0000 0000 0000
000000a0: 0000 0000 0000 0000 0000 0000 0000 0000
000000b0: 0000 0000 0000 0000 0000 0000 0000 0000
000000c0: 0000 0000 0000 0000 0000 0000 0000 0000
000000d0: 0000 0000 0000 0000 0000 0000 0000 0000
000000e0: 0000 0000 0000 0000 0000 0000 0000 0000
000000f0: 0000 0000 0000 0000 0000 0000 0000 0000
00000100: 0000 0000 0000 0000 0000 0000 0000 0000
00000110: 0000 0000 0000 0000 0000 0000 0000 0000
00000120: 0000 0000 0000 0000 0000 0000 0000 0000
00000130: 0000 0000 0000 0000 0000 0000 0000 0000
00000140: 0000 0000 0000 0000 0000 0000 0000 0000
00000150: 0000 0000 0000 0000 0000 0000 0000 0000
00000160: 0000 0000 0000 0000 0000 0000 0000 0000
00000170: 0000 0000 0000 0000 0000 0000 0000 0000
00000180: 0000 0000 0000 0000 0000 0000 0000 0000
00000190: 0000 0000 0000 0000 0000 0000 0000 0000
000001a0: 0000 0000 0000 0000 0000 0000 0000 0000
000001b0: 0000 0000 0000 0000 0000 0000 0000 0000
000001c0: 0000 0000 0000 0000 0000 0000 0000 0000
000001d0: 0000 0000 0000 0000 0000 0000 0000 0000
000001e0: 0000 0000 0000 0000 0000 0000 0000 0000
000001f0: 0000 0000 0000 0000 0000 0000 0000 0000
0.0 0.0 0.0 0.0 0.0 0.0 0.0 0.0
0.0 0.0 0.0 0.0 0.0 0.0 0.0 0.0
0.0 0.0 0.0 0.0 0.0 0.0 0.0 0.0
0.0 0.0 0.0 0.0 0.0 0.0 0.0 0.0
0.0 0.0 0.0 0.0 0.0 0.0 0.0 0.0
0.0 0.0 0.0 0.0 0.0 0.0 0.0 0.0
0.0 0.0 0.0 0.0 0.0 0.0 0.0 0.0
0.0 0.0 0.0 0.0 0.0 0.0 0.0 0.0
0.0 0.0 0.0 0.0 0.0 0.0 0.0 0.0
0.0 0.0 0.0 0.0 0.0 0.0 0.0 0.0
0.0 0.0 0.0 0.0 0.0 0.0 0.0 0.0
0.0 0.0 0.0 0.0 0.0 0.0 0.0 0.0
0.0 0.0 0.0 0.0 0.0 0.0 0.0 0.0
0.0 0.0 0.0 0.0 0.0 0.0 0.0 0.0
0.0 0.0 0.0 0.0 0.0 0.0 0.0 0.0
0.0 0.0 0.0 0.0 0.0 0.0 0.0 0.0

network_body.linear_encoder.seq_layers.2.weight f4 [128, 128]
00000000: 9104 40bd 8070 0bba 0e1a 30bd 4db0 76bd
00000010: 8567 3cbc b3b9 55bd 87c3 7bbd 847f 83bd
00000020: 5191 153c 4974 14bd 079d e2bd c19f e9bc
00000030: 37eb 4ebb 566c 183e ce95 a03d 1bd1 8dbd
00000040: f955 303e 9a0d 8f3d a163 243d 50d5 03bd
00000050: 2964 efbb ceec 653d 275c 3c3d 0ffd 143d
00000060: 901c d9bd 0c40 2dbe d16a 903d 21f6 76bc
00000070: 7a2c 613e d676 ebbd dd9e 74bd c892 c03d
00000080: 63b5 45be 0334 37bd f527 b13d 753f 9e3d
00000090: f22c 4e3c 87d3 c3bd e679 93bb 07fb 8e3d
000000a0: 3b21 563d 0d57 29bd b481 dc3d 9cfc b7bc
000000b0: 0d44 79bd 1c87 7cbc 107d 853c f79b a9bd
000000c0: 64bb cfbd adbd 18be b3e2 063e 8100 d5bc
000000d0: 5c58 37bd e2cc 38be c58c e3bc 28d9 91bd
000000e0: 2692 d73c b1a0 223d f57c 803d bfb2 a0bd
000000f0: 5e5b 33bd 392a ab3d 5289 c7bd 0c2a 02be
00000100: 1926 8e3b 4ce4 ddbb 0ed7 753b e936 e9bd
00000110: 20f9 5abe 388f 883d ac7d c7bd 2c76 acbd
00000120: 0420 333b e3da 98bd 6c40 c5bd b6ba 65bd
00000130: 2f53 42bd cf5a 4bbd 06e6 b6bc 8d3a 0f3d
00000140: 35e0 773c 01bf 92bd b1a5 7f3d 0829 78bc
00000150: 586c e73b 1314 593d a4ed c7bd 7f56 b33c
00000160: 4923 563d e7e5 453e 44b8 7abd 22ba 1abe
00000170: 7982 b3bc cba5 a43e 22f3 8fbd a43a 33be
00000180: 41b6 563d a017 1f3d ad35 d1bc 407f 023e
00000190: 8917 a63d 6309 0ebe 499c 703d 52ba 41bd
000001a0: 9858 1f3d da9b 96bc 8cc5 f03d c2c7 4c3d
000001b0: 31de 8f3c a2cd c7bd 1239 eb3d 847b c0bc
000001c0: e8ae 23bb a322 d03d dbe6 8fbd f75f 663d
000001d0: 0cda c0bd 7591 d2bd 1850 18be eb9a 73bd
000001e0: af97 4a3d 5b2f ae3b 2305 c53d 1121 d2bd
000001f0: 3783 3abd a34e 7f3d 7f58 fa3c a8f5 213d
00000200: f07f 363d 9717 c93d ee54 2e3b 22a2 98bd
00000210: 8a37 ac3d a9af 483d a79f 533b a648 a23b
00000220: 71d1 e0bd 68ed 2abd 738a 44bd 004d bbbc
00000230: 71b9 433d 622d fcba 02b2 72be c8ae 23bd
00000240: 69d6 e8bd eaf1 0d3d 5a5e 083e 8dce 07bb
00000250: 6d4b 44bc 6ab5 1fbe 8248 9b3d 724f 063b
00000260: 93b5 653d 0a07 a4bc fc77 303d 9755 2bbe
00000270: 3cd7 32bd 2341 243d e4ff 97bd afc8 d73d
00000280: a602 c33c d477 f23d 2011 8cbc 7a0c 803e
00000290: 1075 3f3d 4a2b 393d 45ff 243e 618d 58bd
000002a0: 3d8e 9f3d e65b e7bd d3d7 b2bd 5248 cc3d
000002b0: 8af8 8abc 230f babc bbb3 41bc 27d3 83bd
000002c0: d6a9 ee3d 0d4a 71bd 4a67 53bd b5c4 ca3c
000002d0: 734d 033e 1133 cbbd 5411 60bc 126c a7bd
000002e0: 63f3 55bd 6491 80bc 62e7 f6bd c334 da3c
000002f0: be03 19be b019 8abd bd4b dcbc 75c4 5b3d
00000300: 2e69 0c3c 7450 173d 4c14 28bb 5638 113d
00000310: d9f5 353e 76d6 ec3d 0d84 86bd f35e 6a3d
00000320: 872d 603d 6cb8 703d 68d1 c3bd 700f 1e3e
00000330: 641c b9bd f8ea 423c 7d47 983d a491 a53d
00000340: 095b 1b3d 359e 003e 511a 0d3d fcd6 7fbd
00000350: f5bd b0bd 9778 95bd 326a e13c ba37 673c
00000360: 8bed 87bc f3c1 ae3d ab71 7dbc f503 a3bc
00000370: 20b4 ef3c 1469 413d b6cd 2b3c f7c0 093e
00000380: de5e 1fba 6979 d93d a36b e73a bcc2 92bc
00000390: 30ec efbd d638 6abd 84f7 2b3d cae5 413e
000003a0: ad81 463d 2e9d fdbd 8a2c 11bd 10cd acbc
000003b0: 35f5 0c3e 12a7 2c3d 90c1 9fbc 3b99 c83d
000003c0: fec3 c5bd 57d6 243e 86f2 a5bd a558 113d
000003d0: 55c9 073d 37b5 403c c307 c73d c606 f4bd
000003e0: a984 1f3e 5ca8 d6bd e5a1 eebd a395 f23c
000003f0: 89c1 923c c15e 04be aabc 213d 996a c9bc
-0.046879355 -0.0005319193 -0.042993598 -0.060226727 -0.01149929 -0.05217905 -0.061465766 -0.06420806
0.009128884 -0.03624371 -0.11065107 -0.02851856 -0.0031573304 0.14885077 0.07841073 -0.06924649
0.17220296 0.06985016 0.040134076 -0.032185853 -0.007305641 0.056134038 0.04598632 0.036374148
-0.10601151 -0.16918963 0.070516236 -0.01507333 0.21989623 -0.114972755 -0.059721816 0.09402996
-0.19307475 -0.044727337 0.08650199 0.07726947 0.012583958 -0.0956183 -0.0045006154 0.069814734
0.052277785 -0.041342784 0.107669264 -0.02245932 -0.060855914 -0.015413072 0.016294986 -0.08281701
-0.10143164 -0.14916106 0.13172416 -0.026001217 -0.044762 -0.18046907 -0.027777085 -0.071214974
0.026314806 0.03970403 0.06273834 -0.07846593 -0.043788306 0.08357663 -0.09742989 -0.12711352
0.0043380377 -0.0067716 0.0037512216 -0.113874264 -0.21384096 0.06667942 -0.09740767 -0.08420977
0.0027332315 -0.07463624 -0.09631428 -0.056086265 -0.04744261 -0.04964715 -0.02232648 0.034967948
0.015129139 -0.07165337 0.062413875 -0.015146501 0.007062476 0.05299766 -0.09762123 0.02189183
0.052279744 0.19325982 -0.061210886 -0.15110067 -0.0219128 0.3215774 -0.07028796 -0.17502838
0.052419905 0.03884089 -0.02553829 0.12743855 0.08109958 -0.13870768 0.058742795 -0.04729683
0.03890285 -0.018384863 0.11756429 0.04999519 0.017562004 -0.09756018 0.11485495 -0.023496397
-0.0024976078 0.101628564 -0.07026454 0.056243863 -0.09416589 -0.1028165 -0.14874303 -0.059473913
0.049461063 0.005315704 0.096201204 -0.10260213 -0.045535292 0.062330853 0.030559776 0.039540917
0.044555604 0.098189525 0.0026600915 -0.074527994 0.08409031 0.048995648 0.0032291205 0.004952508
-0.10977448 -0.041730314 -0.047983598 -0.022863865 0.047784273 -0.0019239599 -0.23700717 -0.039961606
-0.113690205 0.034654535 0.13317242 -0.002072248 -0.0119808735 -0.15596548 0.07582189 0.002049413
0.056081366 -0.020022888 0.043083176 -0.16731869 -0.043662295 0.04010118 -0.07421854 0.10536324
0.023804974 0.11839262 -0.01709801 0.2500952 0.0467425 0.0452073 0.16113003 -0.052869204
0.07790802 -0.11296825 -0.087325715 0.099747315 -0.016964216 -0.022712296 -0.011822636 -0.064367585
0.116534874 -0.05890851 -0.051612176 0.024752 0.12822513 -0.099218495 -0.013676006 -0.0817491
-0.052234065 -0.015694328 -0.120558515 0.026636487 -0.14942834 -0.06743181 -0.026891584 0.053654153
0.008569999 0.03694196 -0.0025646864 0.035454117 0.17769565 0.11564343 -0.065681554 0.057219457
0.05473092 0.05876963 -0.095614254 0.15435576 -0.09038618 0.011896841 0.0743551 0.08084419
0.037928615 0.12560351 0.034448925 -0.062460884 -0.086299814 -0.07298391 0.027516458 0.014112407
-0.016592762 0.08533087 -0.015468995 -0.019899348 0.029260695 0.04721935 0.010486057 0.13452516
-0.0006079505 0.1061886 0.001765598 -0.017915122 -0.11714971 -0.05718311 0.041984096 0.18935314
0.048463512 -0.12383495 -0.035442866 -0.021093875 0.13765414 0.04215152 -0.019501477 0.097948514
-0.09656523 0.16097389 -0.08102898 0.03548493 0.03315099 0.011761955 0.09718277 -0.119153544
0.1557795 -0.10481331 -0.11651973 0.029612368 0.01791455 -0.12926771 0.039486565 -0.024586963
