UnityController/results/alex/MoveToGoal/MoveToGoal-8.pt (torch, 154695 bytes, 11 tensors)

network_body.linear_encoder.seq_layers.0.weight f4 [128, 9]
0	0x3e0b9d50	0.13634229
1	0x3eff8d5b	0.49912533
2	0xbd84764e	-0.06467877
3	0xbe3cc648	-0.18435013
4	0x3f0b5a2d	0.5443447
5	0x3af8b6c3	0.0018975366
6	0xbe00ef5c	-0.12591308
7	0x3d2e2bcc	0.042522237
8	0xbf17bce8	-0.59272623
9	0xbe2c6957	-0.16837059
10	0x3f2d5a24	0.6771567
11	0xbe1ec8e2	-0.15506318
12	0xbea3fbab	-0.32027945
13	0x3ec221d4	0.37916434
14	0xbed19192	-0.40931374
15	0x3d5c4bc2	0.053783186
16	0x3c121ab2	0.0089174975
17	0x3e001d7f	0.12511252
18	0xbdaed578	-0.0853681
19	0xbdfdc4f8	-0.123910844
20	0x3dc432d4	0.09580007
21	0xbd113f2a	-0.03546063
22	0x3ef8953e	0.48551363
23	0xbe2a3c54	-0.16624576
24	0xbc9dcfee	-0.019264188
25	0xbe83be60	-0.25731182
26	0xbdef75fe	-0.11692427
27	0x3e94e61c	0.2908181
28	0xbdb0feba	-0.08642335
29	0x3db287e3	0.087173246
30	0xbe88ef70	-0.26745176
31	0x3ea294b7	0.31754085
32	0xbe86b61f	-0.26310822
33	0xbf0bb91e	-0.5457934
34	0x3e87e858	0.26544452
35	0xbee3ae16	-0.44468755
36	0xbecce712	-0.40020043
37	0x3e49f8de	0.19723842
38	0xbe6e0a84	-0.23246199
39	0x3ea2c00f	0.31787154
40	0xbd8547b2	-0.065078154
41	0x3dfe49d2	0.12416424
42	0xbd03997a	-0.03212879
43	0x3ebe3a5f	0.3715391
44	0xbd234c94	-0.039867952
45	0x3e9b0426	0.30276603
46	0xbdb71957	-0.0894038
47	0xbee133a2	-0.43984705
48	0xbf2dc2c0	-0.6787529
49	0xbe03ffb2	-0.12890509
50	0x3e64e8c2	0.22354415
51	0xbe80beee	-0.25145668
52	0x3e83d0c4	0.25745213
53	0x3f0f8de6	0.56075895
54	0xbf49ea03	-0.788727
55	0xbe651254	-0.22370273
56	0xbec32ed7	-0.38121673
57	0xbf03ecc6	-0.5153316
58	0x3f1848eb	0.59486264
59	0xbe8332d0	-0.25624704
60	0x3eaa6ed0	0.33287668
61	0x3e232270	0.15931106
62	0x3ec2f090	0.3807416
63	0x3e4fccb7	0.20292936
64	0x3d3997cc	0.04531078
65	0x3ebbfe6f	0.36717555
66	0xbf20309c	-0.6257417
67	0xbcafaada	-0.021443773
68	0x3e832616	0.25614995
69	0x3ebb9587	0.36637518
70	0x3dded638	0.10880703
71	0x3ed26b98	0.41097713
72	0x3e8627d1	0.26202253
73	0x3e3544bf	0.17702006
74	0xbd0c8ee4	-0.03431596
75	0x3e0b2574	0.13588506
76	0x3e2fbe04	0.17162329
77	0xbee2ad50	-0.44272852
78	0x3e8f770f	0.28020522
79	0xbf22cf36	-0.6359743
80	0xbd3a18de	-0.04543387
81	0xbe4708bb	-0.19436924
82	0x3cefce04	0.02927304
83	0x3e7dbbfe	0.24778745
84	0x3dd447c3	0.1036525
85	0xbeb4a2fe	-0.35280603
86	0xbd152c2e	-0.036419086
87	0xbd5c48df	-0.053780433
88	0x3e3e5e42	0.18590644
89	0x3d61cb10	0.055125296
90	0x3c4fcdd8	0.012683354
91	0xbd0b2a38	-0.03397581
92	0xbc0c2784	-0.008554343
93	0x3e8ca745	0.27471367
94	0x3f183f6f	0.5947179
95	0xbeb16eef	-0.34654948
96	0xbc9aa6d2	-0.018878374
97	0xbea4964d	-0.3214592
98	0x3d9ba028	0.07598907
99	0xbdc4d7ff	-0.096115105
100	0x3dbead5f	0.09310412
101	0x3eda6e7a	0.42662412
102	0xbf4e1dd0	-0.8051424
103	0xbe99019a	-0.29884034
104	0x3e7596a0	0.2398324
105	0xbe196444	-0.14979655
106	0xbdefc0c4	-0.11706689
107	0xbd2d111b	-0.04225264
108	0xbf0da5e3	-0.5533125
109	0x3e137301	0.1439934
110	0xbde6c7b8	-0.11268562
111	0x3e8430ba	0.25818425
112	0x3e9bc536	0.30423898
113	0xbe398d8c	-0.18120402
114	0xbde1432a	-0.10999139
115	0x3dab75a8	0.083720505
116	0xbe0f319c	-0.13983768
117	0xbec1347b	-0.37735352
118	0xbef2ef5b	-0.4744824
119	0x3e0570d4	0.13031322
120	0xbd470c00	-0.04859543
121	0xbd36b292	-0.04460389
122	0x3de35200	0.11099625
123	0xbe116087	-0.14196979
124	0x3e1dff77	0.15429483
125	0xbe932bac	-0.28744256
126	0xbebc58f0	-0.36786604
127	0xbebc640c	-0.3679508
128	0xbd8bc13c	-0.06823966
129	0x3e18aa1c	0.14908642
130	0x3e1a9b3b	0.15098278
131	0xbf4f6724	-0.81016755
132	0x3f01acd4	0.5065434
133	0x3dd47b6a	0.10375102
134	0xbe4fc506	-0.20290002
135	0x3dfa9a16	0.12236421
136	0x3e764dca	0.24053112
137	0xbe98935e	-0.29799932
138	0x3da25b56	0.07927577
139	0x3e668c4e	0.2251446
140	0x3ec0e70f	0.37676284
141	0x3dff5110	0.12466633
142	0x3e9cba68	0.30610967
143	0xbe073f58	-0.13207757
144	0x3e429270	0.19001174
145	0xbe7c301e	-0.2462773
146	0x3dc0b10a	0.094087675
147	0x3f320560	0.6953945
148	0xbe1f4ba5	-0.155562
149	0xbedb3722	-0.428155
150	0x3f1f486f	0.622199
151	0x3d893082	0.06698705
152	0xbe0d181c	-0.13778728
153	0xbdc11c93	-0.09429278
154	0x3f0116c3	0.50425357
155	0xbea02b0f	-0.3128285
156	0x3d6d1622	0.057882436
157	0x3e4c8910	0.1997416
158	0x3d924a2a	0.07143052
159	0xbe8dac07	-0.2767031
160	0x3e153502	0.14571002
161	0xbeb07d33	-0.3447052
162	0xbe8a1bec	-0.26974428
163	0xbe8c81ec	-0.27442873
164	0xbef4bbf4	-0.47799647
165	0xbe28f492	-0.16499546
166	0x3e968b4d	0.29403153
167	0xbe89b189	-0.2689326
168	0x3e7e0616	0.24807009
169	0xbe90304a	-0.28161842
170	0xbf15615c	-0.58351684
171	0x3d007f4a	0.031371392
172	0x3de66e83	0.11251547
173	0xbd9b3ba3	-0.07579734
174	0xbd59acff	-0.053143498
175	0x3ed34be3	0.41268834
176	0x3e9d82ad	0.3076376
177	0x3b184f86	0.002324076
178	0x3c7c4f6a	0.015399793
179	0x3dcbd8ea	0.099534824
180	0xbe651348	-0.22370636
181	0xbe5db54b	-0.21651189
182	0xbf206b29	-0.62663513
183	0xbed9fb00	-0.4257431
184	0x3d36a07b	0.04458664
185	0x3e3041c8	0.17212594
186	0xbec4b9d7	-0.38423035
187	0x3e1a672c	0.1507842
188	0xbed7b26e	-0.4212832
189	0x3d86d48c	0.06583509
190	0x3ec9e973	0.3943592
191	0x3ede1ac3	0.43379793
192	0x3f04c3c8	0.5186124
193	0x3eb11320	0.34584904
194	0xbd9646c7	-0.073377185
195	0x3f10548e	0.5637902
196	0xbf0ff8ee	-0.5623921
197	0x3daf6e30	0.085659385
198	0xbe86d770	-0.2633624
199	0xbe4899c0	-0.19589901
200	0x3ce27eae	0.027648296
201	0x3ea3b898	0.3197677
202	0x3eeabcee	0.45847267
203	0x3d744eca	0.05964545
204	0xbc9ba07b	-0.018997421
205	0xbeada18e	-0.3391232
206	0x3f092028	0.5356469
207	0xbdd2c90c	-0.10292253
208	0x3e7fa8e7	0.24966775
209	0x3e4a0ed0	0.19732213
210	0xbed93ea0	-0.42430592
211	0x3b57ddae	0.0032938528
212	0x3c261c3a	0.010138566
213	0xbdfe6bd0	-0.12422907
214	0xbecd6c37	-0.40121624
215	0xbc6279b3	-0.013822961
216	0xbe28da3e	-0.16489503
217	0x3e4ae4b2	0.19813803
218	0xbd291398	-0.04127845
219	0xbdd17287	-0.102269225
220	0xbf4898c7	-0.7835812
221	0xbe7cf6b6	-0.24703488
222	0xbf036f83	-0.5134203
223	0xbcae512a	-0.021278936
224	0x3f1f7b34	0.6229737
225	0x3df149d8	0.11781663
226	0xbe4738f0	-0.19455314
227	0xbecabf67	-0.39599153
228	0xbefc029c	-0.4922074
229	0x3d283a82	0.041071422
230	0xbd810fec	-0.06301865
231	0xbe784b68	-0.24247515
232	0x3e65d3d8	0.22444093
233	0xbeea87ca	-0.45806724
234	0x3e4c529e	0.19953391
235	0xbec472aa	-0.38368732
236	0xbd6adcf7	-0.057339635
237	0x3da0c405	0.07849888
238	0xbee9f4cc	-0.45694578
239	0x3ef2784c	0.47357404
240	0x3e88906d	0.26672688
241	0xbee6c90a	-0.45075256
242	0x3eb1fc6a	0.3476289
243	0x3e296f5a	0.16546384
244	0xbef355c8	-0.47526383
245	0xbdce8698	-0.100842655
246	0xbf16a898	-0.58851004
247	0x3c65e91a	0.0140326265
248	0x3ea65f56	0.3249461
249	0x3eaf3f7b	0.3422812
250	0x3de7ab46	0.11311965
251	0xbe5ae81a	-0.21377602
252	0xbe846eb3	-0.25865707
253	0xbdcc880b	-0.09986886
254	0x3cf3e9ec	0.029774629
255	0x3ea71a81	0.32637408

network_body.linear_encoder.seq_layers.0.bias f4 [128]
0	0x00000000	0.0
1	0x00000000	0.0
2	0x00000000	0.0
3	0x00000000	0.0
4	0x00000000	0.0
5	0x00000000	0.0
6	0x00000000	0.0
7	0x00000000	0.0
8	0x00000000	0.0
9	0x00000000	0.0
10	0x00000000	0.0
11	0x00000000	0.0
12	0x00000000	0.0
13	0x00000000	0.0
14	0x00000000	0.0
15	0x00000000	0.0
16	0x00000000	0.0
17	0x00000000	0.0
18	0x00000000	0.0
19	0x00000000	0.0
20	0x00000000	0.0
21	0x00000000	0.0
22	0x00000000	0.0
23	0x00000000	0.0
24	0x00000000	0.0
25	0x00000000	0.0
26	0x00000000	0.0
27	0x00000000	0.0
28	0x00000000	0.0
29	0x00000000	0.0
30	0x00000000	0.0
31	0x00000000	0.0
32	0x00000000	0.0
33	0x00000000	0.0
34	0x00000000	0.0
35	0x00000000	0.0
36	0x00000000	0.0
37	0x00000000	0.0
38	0x00000000	0.0
39	0x00000000	0.0
40	0x00000000	0.0
41	0x00000000	0.0
42	0x00000000	0.0
43	0x00000000	0.0
44	0x00000000	0.0
45	0x00000000	0.0
46	0x00000000	0.0
47	0x00000000	0.0
48	0x00000000	0.0
49	0x00000000	0.0
50	0x00000000	0.0
51	0x00000000	0.0
52	0x00000000	0.0
53	0x00000000	0.0
54	0x00000000	0.0
55	0x00000000	0.0
56	0x00000000	0.0
57	0x00000000	0.0
58	0x00000000	0.0
59	0x00000000	0.0
60	0x00000000	0.0
61	0x00000000	0.0
62	0x00000000	0.0
63	0x00000000	0.0
64	0x00000000	0.0
65	0x00000000	0.0
66	0x00000000	0.0
67	0x00000000	0.0
68	0x00000000	0.0
69	0x00000000	0.0
70	0x00000000	0.0
71	0x00000000	0.0
72	0x00000000	0.0
73	0x00000000	0.0
74	0x00000000	0.0
75	0x00000000	0.0
76	0x00000000	0.0
77	0x00000000	0.0
78	0x00000000	0.0
79	0x00000000	0.0
80	0x00000000	0.0
81	0x00000000	0.0
82	0x00000000	0.0
83	0x00000000	0.0
84	0x00000000	0.0
85	0x00000000	0.0
86	0x00000000	0.0
87	0x00000000	0.0
88	0x00000000	0.0
89	0x00000000	0.0
90	0x00000000	0.0
91	0x00000000	0.0
92	0x00000000	0.0
93	0x00000000	0.0
94	0x00000000	0.0
95	0x00000000	0.0
96	0x00000000	0.0
97	0x00000000	0.0
98	0x00000000	0.0
99	0x00000000	0.0
100	0x00000000	0.0
101	0x00000000	0.0
102	0x00000000	0.0
103	0x00000000	0.0
104	0x00000000	0.0
105	0x00000000	0.0
106	0x00000000	0.0
107	0x00000000	0.0
108	0x00000000	0.0
109	0x00000000	0.0
110	0x00000000	0.0
111	0x00000000	0.0
112	0x00000000	0.0
113	0x00000000	0.0
114	0x00000000	0.0
115	0x00000000	0.0
116	0x00000000	0.0
117	0x00000000	0.0
118	0x00000000	0.0
119	0x00000000	0.0
120	0x00000000	0.0
121	0x00000000	0.0
122	0x00000000	0.0
123	0x00000000	0.0
124	0x00000000	0.0
125	0x00000000	0.0
126	0x00000000	0.0
127	0x00000000	0.0

network_body.linear_encoder.seq_layers.2.weight f4 [128, 128]
0	0xbd8dc7d8	-0.06922883
1	0xbcda41f8	-0.026642784
2	0x3c645746	0.013936823
3	0x3d8bd84d	0.068283655
4	0x3d8c34c2	0.06846
5	0xbe0b81e7	-0.13623773
6	0xbb9bd3f2	-0.0047554905
7	0xbd118d9b	-0.035535436
8	0xbd08eb16	-0.03342732
9	0x3def3e9b	0.11681863
10	0xbdc4e35e	-0.09613679
11	0xbe1ee5f2	-0.15517405
12	0xbd9fcc71	-0.07802666
13	0xbd3b090a	-0.045662917
14	0xbd965236	-0.07339899
15	0xbdf9a02c	-0.121887535
16	0x3dc9b054	0.09848085
17	0x3d04bd20	0.032406926
18	0xbd97c2d0	-0.074102044
19	0x3d2d4b07	0.04230788
20	0xbd130a49	-0.03589848
21	0xbde68a50	-0.1125685
22	0xbe504084	-0.20337111
23	0xbd3f635d	-0.04672562
24	0xbd9a7296	-0.07541387
25	0xbd1f79a5	-0.03893437
26	0xbcb1eeca	-0.021720309
27	0xbe13702a	-0.14398256
28	0x3dd811cd	0.1055027
29	0xbdf7e42a	-0.12104066
30	0x3de5b99d	0.112170435
31	0x3d5e4c38	0.054271907
32	0x3dc448d6	0.09584205
33	0xbe2cb562	-0.16866067
34	0xbd3044ec	-0.04303448
35	0x3d791d87	0.060819175
36	0x3d3d1053	0.046158146
37	0xbd92b689	-0.07163722
38	0xbcd4a9f2	-0.025959942
39	0xbc934dea	-0.017981488
40	0x3d88a540	0.06672144
41	0xbd9dfaa8	-0.077138245
42	0x3d43def9	0.047820065
43	0x3d2d7ab7	0.042353358
44	0x3e1b3599	0.15157165
45	0xbd20b2cb	-0.03923301
46	0x3e14b733	0.1452301
47	0xbdc8bc18	-0.09801501
48	0x3db9a4cd	0.090646364
49	0x3d916778	0.07099813
50	0xbd26b0dd	-0.040696014
51	0xbb38573d	-0.002812817
52	0x3d7fddd9	0.06246743
53	0xbde32e33	-0.11092796
54	0xbcb3a69a	-0.021930028
55	0xbcaf2537	-0.02138005
56	0xbdd3cb57	-0.10341518
57	0xbc8539bf	-0.016262887
58	0x3e523941	0.20529653
59	0x3dfc3158	0.12314099
60	0x3e2b364e	0.16719934
61	0x3bc06f7e	0.005872666
62	0x3c9cfa8a	0.019162435
63	0x3ced99d2	0.029004011
64	0x3d4231d5	0.047410805
65	0x3df70b72	0.1206273
66	0xbd82f03f	-0.063934796
67	0xbe001a44	-0.1251002
68	0xbde89c5a	-0.11357947
69	0x3dbcfbf4	0.09227744
70	0xbe1cdb03	-0.15317921
71	0xbc10ec5b	-0.008845414
72	0xbe0a978f	-0.13534378
73	0xbdcc2353	-0.09967675
74	0xbbeb5fc0	-0.007183045
75	0x3da551fe	0.080722794
76	0xbd87ece0	-0.06636977
77	0xbd901091	-0.0703441
78	0x3d940d95	0.07229153
79	0x3c01e567	0.007928229
80	0xbc41ec60	-0.011836141
81	0x3c994fee	0.018714871
82	0xbd6d2d78	-0.05790469
83	0xbd310db8	-0.043225974
84	0xbc7b36b3	-0.0153328655
85	0x3e3e06a0	0.18557215
86	0xbe1552f2	-0.14582422
87	0xbd989bc2	-0.074515834
88	0xba3bfe10	-0.0007171342
89	0xbcae90bc	-0.02130925
90	0x3e16b85e	0.14718768
91	0xba23b215	-0.0006244493
92	0x3c71e9f5	0.014765252
93	0x3db3eadf	0.087850325
94	0xbd6cbf49	-0.05779961
95	0x3cb06c51	0.021536024
96	0x3d14d86a	0.0363392
97	0x3ddf3a52	0.108997956
98	0x3d85ae35	0.06527368
99	0xbd01df46	-0.03170707
100	0xbdeca4a3	-0.115548395
101	0xbd9486b9	-0.07252259
102	0x3e3114f3	0.17293148
103	0x392963f9	0.00016154339
104	0x3d786f8f	0.060653266
105	0xbc7dbe33	-0.015487242
106	0xbe23a31a	-0.15980187
107	0xbdd376dd	-0.10325406
108	0x3e18cf5a	0.14922848
109	0x3d888bd9	0.06667299
110	0x3da17311	0.07883275
111	0xbd96f621	-0.07371164
112	0xbd05be87	-0.032652404
113	0xbe37149a	-0.17878953
114	0x3c31d841	0.010854782
115	0xbe0b0ae5	-0.13578375
116	0x3d5cea81	0.053934578
117	0x3e17f84a	0.14840809
118	0xbe18a7b5	-0.14907725
119	0xbb12714c	-0.0022345362
120	0xbda42086	-0.08014016
121	0x3ca52345	0.02015842
122	0xbc2d1e6a	-0.010566333
123	0xbdc378e3	-0.09544542
124	0xbda1c0d9	-0.07898111
125	0x3d6be52d	0.057591606
126	0x3d84a14e	0.06476079
127	0x3de57f4b	0.1120592
128	0xbd2f66a8	-0.04282251
129	0xbda8e608	-0.08247
130	0xbc5e71e9	-0.013576963
131	0x3d59a143	0.053132307
132	0xbe03f200	-0.12885284
133	0xbcd2a2a6	-0.025712322
134	0xbc76bb08	-0.01505924
135	0x3d15a2de	0.036532275
136	0x392df125	0.00016588399
137	0xbd83bd51	-0.064325936
138	0x3d3b4222	0.045717366
139	0x3dac627d	0.08417223
140	0x3d52c68b	0.051458877
141	0x3c278e09	0.010226735
142	0x3d52ed16	0.051495634
143	0x3e025c9c	0.1273064
144	0xbd000a3b	-0.031259757
145	0xbd82c2e8	-0.06384832
146	0x3d474e2c	0.048658535
147	0xbbe7a33c	-0.0070690196
148	0x3d282cde	0.041058414
149	0x3c60635c	0.013695564
150	0x3df72c38	0.12068981
151	0xbd17c04c	-0.037048623
152	0xbcf52f54	-0.029929794
153	0x3e1fe997	0.15616451
154	0xbdd6c705	-0.10487179
155	0xbca4fc4e	-0.02013984
156	0xbd8e3332	-0.069433585
157	0xbe0b49c3	-0.13602357
158	0x3c9eb10f	0.019371537
159	0x3d422e63	0.04740752
160	0x3dd6c7f3	0.10487356
161	0xbd467fa2	-0.048461564
162	0xbd822646	-0.06354956
163	0xbd02edcc	-0.031965062
164	0x3dedf961	0.11619831
165	0x3dd42b48	0.10359818
166	0x3dfc9ca5	0.12334565
167	0x3dcba216	0.09943025
168	0x3d0a47b4	0.033759788
169	0x3d890290	0.06689942
170	0x3d0b056a	0.03394071
171	0x3c52c8e4	0.012865279
172	0x3d3dcf52	0.046340294
173	0xbd6b52c6	-0.057451986
174	0x3c9016f6	0.017589074
175	0xbd2004d1	-0.039067093
176	0xbd89f219	-0.067356296
177	0x3e6c18ef	0.23056386
178	0x3d9c4854	0.07630983
179	0xbde28439	-0.11060376
180	0xbe372b9c	-0.1788773
181	0xbe159e94	-0.14611274
182	0xbd155bca	-0.03646449
183	0x3cdf6418	0.027269408
184	0xbd0d0a16	-0.034433447
185	0x3ce7cae6	0.028294992
186	0x3e22fbfc	0.15916437
187	0x3d82450b	0.06360825
188	0xbd5f38f2	-0.054497667
189	0xbcb985ea	-0.022646863
190	0xbdc75a75	-0.0973405
191	0x3bc57a03	0.006026508
192	0xbe29cd22	-0.16582158
193	0xbdcd8409	-0.10034949
194	0xba1c79d0	-0.0005969079
195	0xbda51153	-0.08059945
196	0xbd921be7	-0.07134228
197	0xbc8e8c13	-0.017400777
198	0x3d59d245	0.053179044
199	0xbc738f39	-0.01486569
200	0xbd8690cd	-0.06570587
201	0x3dab35b5	0.08359853
202	0xbd4e2efb	-0.050337773
203	0x3de68818	0.112564266
204	0xbc8ae81b	-0.01695638
205	0xbe14bd4a	-0.14525333
206	0xbd334fea	-0.043777384
207	0x3d91a5a8	0.071116745
208	0x3cef46d8	0.029208586
209	0xbe043dca	-0.12914196
210	0x3b7aa2ea	0.0038244077
211	0xbe15fca7	-0.1464716
212	0xbe27d200	-0.16388702
213	0x3c86590c	0.016399883
214	0xbd17a887	-0.037025955
215	0xbd69aa36	-0.05704709
216	0x3e808654	0.25102484
217	0x3d15800a	0.03649906
218	0xbd8399f4	-0.064258486
219	0xbc1f4099	-0.009719991
220	0xbcdf7dea	-0.02728172
221	0x3e28b03b	0.16473477
222	0xbdccb97c	-0.09996316
223	0xbd446779	-0.04795024
224	0x3dbc2f8f	0.091887586
225	0xbc9dead2	-0.01927701
226	0x3e3ef441	0.18647863
227	0xbd82d019	-0.06387348
228	0xbd9bbda8	-0.076045334
229	0x3e3f6397	0.18690334
230	0xbdd9a502	-0.10627176
231	0xbcc45d2e	-0.023970213
232	0x3da54b1a	0.08070965
233	0xbe1dba60	-0.15403128
234	0x3c222393	0.009896177
235	0xbd7f87d4	-0.062385395
236	0x3e13c715	0.14431413
237	0x3b5a0b25	0.0033270803
238	0xbd043b29	-0.032282982
239	0x3dfe84c9	0.124276705
240	0x3da329e0	0.079669714
241	0x3dd34d5d	0.1031749
242	0xbe0e6290	-0.13904786
243	0x3e2902bc	0.1650495
244	0xbd9d93c0	-0.07694197
245	0x3db3e9ef	0.08784854
246	0xbcf53df0	-0.02993676
247	0xbe09fb07	-0.13474666
248	0x3df1db08	0.11809355
249	0x3dc7c996	0.09755246
250	0x3d723b78	0.059138745
251	0xbe6897b3	-0.22714119
252	0x3d6b8ee8	0.057509333
253	0xbca1da7b	-0.0197575
254	0xbd5ea7a6	-0.0543591
255	0xbd1ae479	-0.037815545

network_body.linear_encoder.seq_layers.2.bias f4 [128]
0	0x00000000	0.0
1	0x00000000	0.0
2	0x00000000	0.0
3	0x00000000	0.0
4	0x00000000	0.0
5	0x00000000	0.0
6	0x00000000	0.0
7	0x00000000	0.0
8	0x00000000	0.0
9	0x00000000	0.0
10	0x00000000	0.0
11	0x00000000	0.0
12	0x00000000	0.0
13	0x00000000	0.0
14	0x00000000	0.0
15	0x00000000	0.0
16	0x00000000	0.0
17	0x00000000	0.0
18	0x00000000	0.0
19	0x00000000	0.0
20	0x00000000	0.0
21	0x00000000	0.0
22	0x00000000	0.0
23	0x00000000	0.0
24	0x00000000	0.0
25	0x00000000	0.0
26	0x00000000	0.0
27	0x00000000	0.0
28	0x00000000	0.0
29	0x00000000	0.0
30	0x00000000	0.0
31	0x00000000	0.0
32	0x00000000	0.0
33	0x00000000	0.0
34	0x00000000	0.0
35	0x00000000	0.0
36	0x00000000	0.0
37	0x00000000	0.0
38	0x00000000	0.0
39	0x00000000	0.0
40	0x00000000	0.0
41	0x00000000	0.0
42	0x00000000	0.0
43	0x00000000	0.0
44	0x00000000	0.0
45	0x00000000	0.0
46	0x00000000	0.0
47	0x00000000	0.0
48	0x00000000	0.0
49	0x00000000	0.0
50	0x00000000	0.0
51	0x00000000	0.0
52	0x00000000	0.0
53	0x00000000	0.0
54	0x00000000	0.0
55	0x00000000	0.0
56	0x00000000	0.0
57	0x00000000	0.0
58	0x00000000	0.0
59	0x00000000	0.0
60	0x00000000	0.0
61	0x00000000	0.0
62	0x00000000	0.0
63	0x00000000	0.0
64	0x00000000	0.0
65	0x00000000	0.0
66	0x00000000	0.0
67	0x00000000	0.0
68	0x00000000	0.0
69	0x00000000	0.0
70	0x00000000	0.0
71	0x00000000	0.0
72	0x00000000	0.0
73	0x00000000	0.0
74	0x00000000	0.0
75	0x00000000	0.0
76	0x00000000	0.0
77	0x00000000	0.0
78	0x00000000	0.0
79	0x00000000	0.0
80	0x00000000	0.0
81	0x00000000	0.0
82	0x00000000	0.0
83	0x00000000	0.0
84	0x00000000	0.0
85	0x00000000	0.0
86	0x00000000	0.0
87	0x00000000	0.0
88	0x00000000	0.0
89	0x00000000	0.0
90	0x00000000	0.0
91	0x00000000	0.0
92	0x00000000	0.0
93	0x00000000	0.0
94	0x00000000	0.0
95	0x00000000	0.0
96	0x00000000	0.0
97	0x00000000	0.0
98	0x00000000	0.0
99	0x00000000	0.0
100	0x00000000	0.0
101	0x00000000	0.0
102	0x00000000	0.0
103	0x00000000	0.0
104	0x00000000	0.0
105	0x00000000	0.0
106	0x00000000	0.0
107	0x00000000	0.0
108	0x00000000	0.0
109	0x00000000	0.0
110	0x00000000	0.0
111	0x00000000	0.0
112	0x00000000	0.0
113	0x00000000	0.0
114	0x00000000	0.0
115	0x00000000	0.0
116	0x00000000	0.0
117	0x00000000	0.0
118	0x00000000	0.0
119	0x00000000	0.0
120	0x00000000	0.0
121	0x00000000	0.0
122	0x00000000	0.0
123	0x00000000	0.0
124	0x00000000	0.0
125	0x00000000	0.0
126	0x00000000	0.0
127	0x00000000	0.0

action_model._discrete_distribution.branches.0.weight f4 [7, 128]
0	0x3c720b5f	0.014773219
1	0x3b805440	0.0039162934
2	0x3bbf8237	0.0058443802
3	0x3c065093	0.008197921
4	0xbbaa22d3	-0.0051921397
5	0x3ca61c7e	0.020277258
6	0x3ad96907	0.0016587087
7	0xbbd0988a	-0.0063658403
8	0x3c5ea4b5	0.013589074
9	0x3b097b5f	0.0020978076
10	0xbb0f4272	-0.0021859673
11	0x3ac92f6b	0.0015349215
12	0xbbd84d0a	-0.0066009806
13	0xbc913808	-0.017726913
14	0xbb2478d0	-0.0025096424
15	0xbb7a514a	-0.0038195425
16	0xbbc69cd0	-0.006061174
17	0xbbb25e23	-0.005443351
18	0xbb9c8da9	-0.0047776294
19	0xba8eeaaf	-0.0010903681
20	0xbbc719a3	-0.006076054
21	0x3c39054a	0.011292765
22	0x3b92b2de	0.004476889
23	0x3c149e3d	0.00907093
24	0xbb96db97	-0.004603814
25	0x3c359145	0.011081998
26	0xbcc8a81d	-0.024494225
27	0x3b6f6f72	0.0036534932
28	0xb89f830e	-7.606122e-05
29	0x3c89f661	0.016841115
30	0xbb8148f3	-0.003945464
31	0xbbf0147d	-0.007326661
32	0x3b2c5fad	0.0026302144
33	0x3a7983cb	0.0009518235
34	0xbb5595ef	-0.0032590588
35	0xba98669e	-0.0011627262
36	0x3c0a027b	0.008423443
37	0x3c4ac1d3	0.012375313
38	0xbc09709a	-0.008388663
39	0x3b950507	0.0045477184
40	0xbbff1998	-0.0077850334
41	0x3b85b3a0	0.004080251
42	0x3ab402ed	0.0013733782
43	0xbbe7df3d	-0.0070761726
44	0xb9f8a5d3	-0.00047425795
45	0x3c142cd6	0.009043893
46	0x3c48a098	0.01224532
47	0x3b74c985	0.003735156
48	0xbc1b362f	-0.009473368
49	0x3b82c50b	0.0039907745
50	0x3bcc80cb	0.0062409393
51	0xbc0a02a7	-0.008423484
52	0x3baf07cb	0.005341505
53	0x3b93f3a5	0.0045151287
54	0xbb3b77c1	-0.0028605314
55	0xbb019d43	-0.0019777573
56	0x3ba7c537	0.0051199454
57	0x3c447b10	0.011992231
58	0x3b5fea4b	0.003416675
59	0xbca52250	-0.020157963
60	0xbc26e795	-0.010187049
61	0xbb110a0f	-0.002213124
62	0xbc41eabb	-0.011835749
63	0xbb57e260	-0.0032941326
64	0x3bace202	0.0052759657
65	0x3b552bf3	0.0032527416
66	0x3c1bb93f	0.009504615
67	0x3c2c14e6	0.010503029
68	0xbc29d6f3	-0.010366189
69	0x3a8b9ba3	0.0010651242
70	0xbb24b773	-0.0025133758
71	0xbc190007	-0.009338385
72	0xbbc90a95	-0.0061352947
73	0xbbcc09b7	-0.006226744
74	0xba4d8cc0	-0.0007841103
75	0xbb0aebef	-0.0021197756
76	0x3b9be163	0.004757093
77	0x3be64b92	0.0070280517
78	0xbc8c1cb4	-0.01710353
79	0xbb85d5ab	-0.004084309
80	0x3a13c8fa	0.0005637553
81	0xbb83b370	-0.0040191934
82	0x3bb2a242	0.0054514715
83	0x3b31bd63	0.002712094
84	0xbb2b4189	-0.0026131591
85	0x3c1b4a53	0.0094781695
86	0x3c485be8	0.012228943
87	0x3c7bce6a	0.015369037
88	0xbc216327	-0.0098503
89	0x3c9548eb	0.018223247
90	0x3c283f8b	0.010269056
91	0x3c3c4c38	0.011492781
92	0x3c37ad42	0.0112107415
93	0x3c35cd47	0.011096305
94	0xbb1e7faf	-0.0024184992
95	0x3c203046	0.009777134
96	0x3c8d0893	0.017216003
97	0xbb736c3f	-0.0037143377
98	0xbb924caa	-0.0044647055
99	0x3b44cd0f	0.003002945
100	0x3be6252b	0.0070234737
101	0x3be1dc77	0.0068927365
102	0x3c228bb9	0.009921008
103	0x3c770d0a	0.015078792
104	0xb95ac7aa	-0.00020864481
105	0x3c4ebe2d	0.012618584
106	0x3ad41788	0.0016181329
107	0xbbb7fe3c	-0.005615024
108	0x3c5bd7dd	0.013418165
109	0xbb3be302	-0.0028669243
110	0x3b8b663e	0.0042541316
111	0x3bfa4d0d	0.0076385797
112	0x3b0abc41	0.0021169337
113	0xbc47ba5a	-0.012190426
114	0xbb33c5bf	-0.0027431098
115	0xbccd53a7	-0.025064303
116	0x3bbc09af	0.005738459
117	0x3b4a1289	0.0030833802
118	0xbaadcc07	-0.0013259657
119	0x3bc69317	0.006060015
120	0xb9593533	-0.00020714551
121	0xbb8c4598	-0.004280757
122	0xbb5a48f5	-0.0033307646
123	0xbc3951e1	-0.011311025
124	0xbcd892df	-0.026437221
125	0x3b1a9515	0.0023587395
126	0x3cc3ab0a	0.023885269
127	0x38512842	4.9866976e-05
128	0xbb1505d2	-0.0022739065
129	0xbc8520c7	-0.016250981
130	0xbc1f38d8	-0.009718142
131	0x3b75aa28	0.0037485454
132	0x3b63949d	0.0034726032
133	0xbc7f9a67	-0.015600777
134	0x3c0c3123	0.008556637
135	0xbbce9d6d	-0.0063053877
136	0x3c01f336	0.007931521
137	0xbbca0aa9	-0.0061658216
138	0xbbbc1426	-0.0057397066
139	0x3c71fa2f	0.014769121
140	0x3b493c3e	0.0030706073
141	0xbbaa2c1a	-0.0051932456
142	0xbc1be2cd	-0.009514523
143	0xbb1a8a41	-0.002358094
144	0x3c412b17	0.011790059
145	0x3c56e003	0.013114932
146	0xbc6b8300	-0.014374495
147	0x3a74e3f7	0.0009341831
148	0x3cb2f389	0.021844642
149	0x3c4e4d5f	0.012591689
150	0x3ac8f096	0.0015330489
151	0x3c23d1a3	0.009998712
152	0xbc3fd646	-0.011708802
153	0x3c3ebb9f	0.011641412
154	0xbc228173	-0.009918558
155	0x3b832f8e	0.0040034717
156	0xbca23ca9	-0.019804316
157	0x39f18152	0.00046063453
158	0x3b581773	0.0032972961
159	0x3b10c0aa	0.0022087493
160	0xbb71c508	-0.0036891121
161	0xbc93def0	-0.01805064
162	0xbc1164d2	-0.008874135
163	0x3c1db47e	0.009625552
164	0x3c3230fb	0.010875936
165	0xbca9a828	-0.020710066
166	0xbc2668eb	-0.01015685
167	0x3c2fc5da	0.010728324
168	0x3992dac5	0.00028010286
169	0x3bc3ba9d	0.005973174
170	0x3c31971e	0.010839252
171	0x3af86d7f	0.0018953531
172	0x3c077703	0.008268121
173	0x3bf9c79a	0.0076226713
174	0x38c3ec9b	9.342396e-05
175	0x3b1b9a73	0.0023743182
176	0xbc783dcf	-0.015151455
177	0x3c578c5b	0.013156022
178	0xb92aadab	-0.0001627716
179	0x3b8f7961	0.004378483
180	0x3c5b40db	0.013382162
181	0x3b2f85e1	0.002678268
182	0x3a721fc5	0.00092363014
183	0x3af7ab92	0.0018895736
184	0x3c693293	0.014233249
185	0x3bfa618a	0.007641022
186	0x3ac468ec	0.0014984882
187	0xbca4629f	-0.020066557
188	0xbc099693	-0.008397716
189	0xbc7e000f	-0.015502944
190	0x3bceadd3	0.0063073426
191	0x3b116e87	0.0022191124
192	0x39944820	0.00028282497
193	0x3bc4ef59	0.006009978
194	0xbc228fa6	-0.009921944
195	0x3b8207f5	0.0039682337
196	0xbc374cea	-0.011187771
197	0x3baab507	0.0052095684
198	0xbc6a7298	-0.014309548
199	0xbc051f9a	-0.00812521
200	0xbc055471	-0.008137808
201	0x3bdd5532	0.006754541
202	0x3b8bcc2a	0.0042662816
203	0xbc1a9740	-0.009435475
204	0x3b6e1e62	0.0036334028
205	0x3b2bb17a	0.0026198314
206	0x3c6d48b7	0.014482669
207	0xbc87e900	-0.016590595
208	0x3b03ba4b	0.0020100053
209	0xbc26874e	-0.010164095
210	0xbb48a60e	-0.0030616554
211	0xbb9a6b47	-0.0047124955
212	0x3accb837	0.0015618865
213	0x3bd46ed5	0.006482939
214	0xbca8dd30	-0.020613283
215	0x3c075f9c	0.008262541
216	0xbc1c62ba	-0.009545023
217	0x3c4b431b	0.012406136
218	0x3c43693b	0.011926944
219	0xbc0c48e4	-0.0085623
220	0xbc55d927	-0.013052261
221	0x3b08bb6f	0.0020863672
222	0xbbfbf360	-0.0076889247
223	0xbbeccd68	-0.007226635
224	0xb9a91acc	-0.00032254157
225	0x3b7dc3da	0.0038721473
226	0xbb8bdab8	-0.0042680167
227	0xbbe43c75	-0.006965215
228	0x3c762d90	0.015025511
229	0x3bd26bef	0.006421558
230	0x3afbacbf	0.0019201263
231	0x3c574faf	0.013141557
232	0xbba4a331	-0.0050243367
233	0x3c26d1d9	0.0101818675
234	0xbbff2983	-0.007786931
235	0x3b0a78b5	0.0021129076
236	0x3b3a70fd	0.0028448694
237	0x3b9fcb35	0.004876519
238	0x3c08dde3	0.008353683
239	0xbb2598ed	-0.0025268153
240	0x3aef23d0	0.0018244926
241	0xbc3e572b	-0.011617462
242	0x3b93148c	0.0044885334
243	0x3bc1c262	0.005913065
244	0xbbc16354	-0.0059017334
245	0x3b90ccb7	0.004418935
246	0xbc9f7730	-0.019466013
247	0xbbafde66	-0.005367088
248	0x3c321b55	0.010870774
249	0x3bf8a000	0.007587433
250	0xbca49b97	-0.020093722
251	0xbcb49d28	-0.022047594
252	0x3be3b2dd	0.0069488124
253	0x3c34840e	0.011017812
254	0xbc1c88b1	-0.009554074
255	0xba26dd7f	-0.0006365403

action_model._discrete_distribution.branches.0.bias f4 [7]
0	0x00000000	0.0
1	0x00000000	0.0
2	0x00000000	0.0
3	0x00000000	0.0
4	0x00000000	0.0
5	0x00000000	0.0
6	0x00000000	0.0

network_body.linear_encoder.seq_layers.0.weight f4 [128, 9]
0	0x3ea0bd4e	0.31394428
1	0x3e5296fb	0.20565407
2	0xbf544018	-0.829103
3	0x3dfbe788	0.123000205
4	0x3e190c42	0.14946082
5	0x3e41cdf3	0.1892622
6	0x3f24c4bd	0.643627
7	0xbeeee62a	-0.46659976
8	0xbdfccf33	-0.123442076
9	0x3f1c80c8	0.61134005
10	0x3ea9d659	0.33171347
11	0xbd6309f8	-0.05542943
12	0xbd9f37da	-0.07774325
13	0x3f373174	0.71559834
14	0xbd1a00a1	-0.037598256
15	0xbe4c46d3	-0.19948892
16	0xbd41e214	-0.047334746
17	0xbbc3d177	-0.005975898
18	0x3e4c9550	0.19978833
19	0xbf053c36	-0.52045
20	0xbdfc6aee	-0.12325083
21	0x3e1212cc	0.14264983
22	0x3bf8d7ea	0.0075940983
23	0xbcac4efa	-0.021033753
24	0x3e6a4faf	0.2288196
25	0xbe9c7a64	-0.30562127
26	0x3f4c9384	0.7991259
27	0x3f08338f	0.5320367
28	0x3e1210f2	0.14264277
29	0xbe14d4b2	-0.14534262
30	0x3ec84757	0.39116928
31	0xbebe38e6	-0.37152785
32	0xbe9c02ee	-0.30470985
33	0xbf4a322b	-0.789828
34	0x3e062fd8	0.13104188
35	0x3ef12576	0.47098893
36	0x3dc601d2	0.09668316
37	0xbebd85ce	-0.37016147
38	0xbe10294c	-0.14078254
39	0x3e8cd242	0.27504164
40	0xbe2001f6	-0.15625748
41	0x3d71aee6	0.059004687
42	0xbf065b16	-0.52482736
43	0xbaa70399	-0.0012742161
44	0xbf24e27c	-0.6440809
45	0xbd837a08	-0.0641976
46	0xbe83fdb7	-0.25779507
47	0x3e3ffc28	0.18748534
48	0xbd3b8a7e	-0.045786373
49	0xbe08b53e	-0.13350388
50	0xbea44316	-0.32082433
51	0x3e1219d2	0.14267662
52	0x3e529fe6	0.20568809
53	0x3db53047	0.08847099
54	0x3e9e6a7f	0.30940625
55	0xbda9abf8	-0.082847536
56	0x3e03c92f	0.12869714
57	0x3dddf2d7	0.10837334
58	0xbf20a6d1	-0.6275454
59	0x3bc8151b	0.0061060316
60	0x3ef4f783	0.47845086
61	0xbf2bbc12	-0.6708385
62	0x3d8539f2	0.06505193
63	0x3ed54b2a	0.41658908
64	0xbb855588	-0.004069034
65	0xbe3a8be6	-0.1821743
66	0x3ee6f5cf	0.45109412
67	0x3ede5184	0.43421566
68	0xbecb5422	-0.39712626
69	0x3e402e06	0.18767557
70	0xbd88f5a1	-0.06687475
71	0xbe7ccacf	-0.2468674
72	0xbd8549b4	-0.065081984
73	0x3cf843a0	0.030305684
74	0xbed255e3	-0.4108115
75	0xbce8724f	-0.02837482
76	0x3df145b3	0.11780872
77	0x3d869e04	0.06573108
78	0xbee1f87b	-0.44134888
79	0xbeb0b302	-0.34511572
80	0x3d05da1c	0.03267871
81	0x3e27ec1d	0.16398664
82	0xbe2c6adf	-0.16837643
83	0x3e842366	0.25808257
84	0xbeb9deab	-0.36302695
85	0xbe4064ec	-0.18788499
86	0xbe1ac40b	-0.15113847
87	0x3df3690c	0.118852705
88	0x3d463ee7	0.048399832
89	0xbef43ad0	-0.4770112
90	0xbe4da8f3	-0.2008398
91	0x3eda7aaf	0.42671725
92	0xbea968fc	-0.3308791
93	0x3ebf34fb	0.37345108
94	0xbe0faead	-0.14031477
95	0xbed7649a	-0.4206894
96	0x3f5549e6	0.83315885
97	0x3f0448b8	0.5167346
98	0xbd20af04	-0.039229408
99	0xbe23019d	-0.15918584
100	0xbc856c24	-0.016286917
101	0x3efd97d4	0.49529898
102	0xbd8561a2	-0.065127626
103	0xbdc6d78e	-0.097090825
104	0x3dcea466	0.1008995
105	0xbcdd611a	-0.02702384
106	0x3e5effff	0.21777342
107	0xbf05b8bb	-0.52235
108	0x3f095679	0.5364757
109	0xbe9b8d18	-0.30381083
110	0x3ed5616f	0.41675898
111	0x3ebd3258	0.36952472
112	0x3f18902a	0.59594977
113	0xbcefda7c	-0.029278986
114	0x3f07a49d	0.52985555
115	0x3d2dafeb	0.042404097
116	0xbd47f888	-0.048821002
117	0xbd8fdf46	-0.07025008
118	0xbdf0cccc	-0.11757812
119	0x3e9227be	0.28545946
120	0xbf103511	-0.5633097
121	0xbef9a8bc	-0.48761547
122	0x3e2c01ae	0.16797516
123	0xbc4aad74	-0.012370456
124	0xbdfae3a7	-0.122504525
125	0xbe83bf38	-0.25731826
126	0x3ee6297e	0.4495353
127	0x3e808f36	0.2510926
128	0xbeaa12ee	-0.33217567
129	0xbe9731c4	-0.29530156
130	0x3ec72b87	0.38900396
131	0x3ef1d3c8	0.4723189
132	0x3e08851c	0.13332027
133	0x3e886140	0.26636696
134	0xbe58e42a	-0.21180788
135	0xbf2d1293	-0.67606467
136	0x3cc77bf7	0.024351103
137	0x3f261b63	0.6488554
138	0x3ec1ad0c	0.37827337
139	0xbece6d4f	-0.4031777
140	0x3d8dd45d	0.06925271
141	0xbf174018	-0.59082174
142	0x3ecfb740	0.40569496
143	0xbbff658c	-0.0077940878
144	0xbe281b2a	-0.16416612
145	0x3cf09c90	0.02937153
146	0x3e78a864	0.24282986
147	0x3ee44fcf	0.4459214
148	0x3d7b06d2	0.0612858
149	0x3dd49d7b	0.103815995
150	0xbbd557b4	-0.006510699
151	0xbd2934e3	-0.041310202
152	0x3d8db829	0.069198914
153	0x3e3f1b2a	0.18662706
154	0x3e9d56c4	0.3073026
155	0xbe142f0a	-0.14471069
156	0xbc80bda2	-0.015715424
157	0xbe550eab	-0.20806377
158	0xbe9ab1e2	-0.3021384
159	0x3ee4203e	0.4455585
160	0x3eb34df6	0.35020417
161	0x3e962cc8	0.2933104
162	0xbe17ed60	-0.14836645
163	0x3eab0e84	0.33409512
164	0x3dae444f	0.085091226
165	0x3e018840	0.12649632
166	0xbe4e6c33	-0.20158462
167	0xbe9895a7	-0.29801676
168	0x3e0a3de5	0.13500173
169	0xbed18d57	-0.40928146
170	0x3e6a7510	0.22896218
171	0xbe81bd6d	-0.25339833
172	0xbb47bd84	-0.003047795
173	0x3f907862	1.1286738
174	0xbeabc91a	-0.33551866
175	0x3da86ecd	0.082242586
176	0x3e7493b4	0.2388447
177	0x3e91317d	0.2835807
178	0xbe408dcf	-0.18804096
179	0x3e1cb538	0.15303504
180	0x3e20823a	0.15674677
181	0xbc46d1a7	-0.012134946
182	0x3e98c60e	0.29838604
183	0x3de3296a	0.110918835
184	0xbea7d24d	-0.32777634
185	0x3e16b148	0.14716065
186	0x3e10be72	0.14135149
187	0x3e6e8427	0.232926
188	0x3e3d3ef0	0.1848104
189	0x3e09b846	0.13449201
190	0xbcf40c22	-0.029790942
191	0x3e68a96f	0.22720884
192	0xbd675a5a	-0.05648265
193	0x3da26c9d	0.079308726
194	0xbcaad7af	-0.0208548
195	0xbe77867a	-0.24172392
196	0x3f41144a	0.75421584
197	0xbe88eabc	-0.26741588
198	0xbe62a860	-0.22134542
199	0x3eeaef62	0.4588576
200	0x3dd2235f	0.10260653
201	0x3e27aa5d	0.16373582
202	0xbe1fb9f0	-0.15598273
203	0x3e2fa500	0.17152786
204	0x3e28be8a	0.16478935
205	0x3f467d26	0.7753471
206	0xbf1d7a86	-0.6151508
207	0x3e9755e4	0.29557717
208	0xbf3306b7	-0.6993212
209	0xbeaaa37b	-0.3332785
210	0x3e66d45a	0.22541943
211	0xbe29e7e0	-0.1659236
212	0xbde665d3	-0.1124989
213	0xbe04c38c	-0.1296522
214	0xbe05676e	-0.13027737
215	0x3e8a8097	0.2705123
216	0x3e75e67b	0.24013703
217	0x3f22ba2e	0.6356534
218	0x3e255190	0.16144395
219	0x3de9941f	0.11405205
220	0xbee8ced2	-0.4547029
221	0xbebd4bbe	-0.3697185
222	0x3e04ed4c	0.12981147
223	0x3dcae41f	0.09906792
224	0x3d5f583f	0.054527517
225	0x3ef5b6f4	0.47991145
226	0x3f6492b3	0.89286345
227	0xbf10aece	-0.5651673
228	0x3f0b86b2	0.54502404
229	0xbe6feb72	-0.23429659
230	0xbc09abfe	-0.008402823
231	0xbe41654a	-0.18886295
232	0x3f091db6	0.5356096
233	0xbdfc1162	-0.12308003
234	0x3c7a72d7	0.015286169
235	0xbeb93b92	-0.3617826
236	0xbf63eff6	-0.89038026
237	0x3edfcd64	0.43711388
238	0x3aaa22fa	0.0012980395
239	0x3e031364	0.12800366
240	0x3f1c433c	0.6104009
241	0x3e341e06	0.17589578
242	0x3db51a90	0.08842957
243	0xbe016945	-0.12637813
244	0x3edba862	0.42901903
245	0xbeae092c	-0.33991373
246	0xbe818046	-0.25293177
247	0x3ee86ed2	0.4539705
248	0xbf1b232e	-0.60600555
249	0x3e962248	0.2932303
250	0x3ddd4bba	0.10805459
251	0x3e399314	0.18122512
252	0x3e6d7440	0.23188877
253	0x3e5fcfdb	0.21856634
254	0xbd96bcd7	-0.07360237
255	0x3d9c9b5a	0.076468185

network_body.linear_encoder.seq_layers.0.bias f4 [128]
0	0x00000000	0.0
1	0x00000000	0.0
2	0x00000000	0.0
3	0x00000000	0.0
4	0x00000000	0.0
5	0x00000000	0.0
6	0x00000000	0.0
7	0x00000000	0.0
8	0x00000000	0.0
9	0x00000000	0.0
10	0x00000000	0.0
11	0x00000000	0.0
12	0x00000000	0.0
13	0x00000000	0.0
14	0x00000000	0.0
15	0x00000000	0.0
16	0x00000000	0.0
17	0x00000000	0.0
18	0x00000000	0.0
19	0x00000000	0.0
20	0x00000000	0.0
21	0x00000000	0.0
22	0x00000000	0.0
23	0x00000000	0.0
24	0x00000000	0.0
25	0x00000000	0.0
26	0x00000000	0.0
27	0x00000000	0.0
28	0x00000000	0.0
29	0x00000000	0.0
30	0x00000000	0.0
31	0x00000000	0.0
32	0x00000000	0.0
33	0x00000000	0.0
34	0x00000000	0.0
35	0x00000000	0.0
36	0x00000000	0.0
37	0x00000000	0.0
38	0x00000000	0.0
39	0x00000000	0.0
40	0x00000000	0.0
41	0x00000000	0.0
42	0x00000000	0.0
43	0x00000000	0.0
44	0x00000000	0.0
45	0x00000000	0.0
46	0x00000000	0.0
47	0x00000000	0.0
48	0x00000000	0.0
49	0x00000000	0.0
50	0x00000000	0.0
51	0x00000000	0.0
52	0x00000000	0.0
53	0x00000000	0.0
54	0x00000000	0.0
55	0x00000000	0.0
56	0x00000000	0.0
57	0x00000000	0.0
58	0x00000000	0.0
59	0x00000000	0.0
60	0x00000000	0.0
61	0x00000000	0.0
62	0x00000000	0.0
63	0x00000000	0.0
64	0x00000000	0.0
65	0x00000000	0.0
66	0x00000000	0.0
67	0x00000000	0.0
68	0x00000000	0.0
69	0x00000000	0.0
70	0x00000000	0.0
71	0x00000000	0.0
72	0x00000000	0.0
73	0x00000000	0.0
74	0x00000000	0.0
75	0x00000000	0.0
76	0x00000000	0.0
77	0x00000000	0.0
78	0x00000000	0.0
79	0x00000000	0.0
80	0x00000000	0.0
81	0x00000000	0.0
82	0x00000000	0.0
83	0x00000000	0.0
84	0x00000000	0.0
85	0x00000000	0.0
86	0x00000000	0.0
87	0x00000000	0.0
88	0x00000000	0.0
89	0x00000000	0.0
90	0x00000000	0.0
91	0x00000000	0.0
92	0x00000000	0.0
93	0x00000000	0.0
94	0x00000000	0.0
95	0x00000000	0.0
96	0x00000000	0.0
97	0x00000000	0.0
98	0x00000000	0.0
99	0x00000000	0.0
100	0x00000000	0.0
101	0x00000000	0.0
102	0x00000000	0.0
103	0x00000000	0.0
104	0x00000000	0.0
105	0x00000000	0.0
106	0x00000000	0.0
107	0x00000000	0.0
108	0x00000000	0.0
109	0x00000000	0.0
110	0x00000000	0.0
111	0x00000000	0.0
112	0x00000000	0.0
113	0x00000000	0.0
114	0x00000000	0.0
115	0x00000000	0.0
116	0x00000000	0.0
117	0x00000000	0.0
118	0x00000000	0.0
119	0x00000000	0.0
120	0x00000000	0.0
121	0x00000000	0.0
122	0x00000000	0.0
123	0x00000000	0.0
124	0x00000000	0.0
125	0x00000000	0.0
126	0x00000000	0.0
127	0x00000000	0.0

network_body.linear_encoder.seq_layers.2.weight f4 [128, 128]
0	0x3e3e5f09	0.1859094
1	0x3c95ff72	0.018310282
2	0x3d1e239d	0.038608182
3	0x3d658e04	0.05604364
4	0xbd47878b	-0.04871325
5	0xbdf45076	-0.11929409
6	0xbdb5a9d1	-0.088702805
7	0x3ccbdd4d	0.024885798
8	0x3c2dbd89	0.010604271
9	0x3cb37079	0.021904217
10	0xbe0a5984	-0.1351071
11	0x3def3363	0.11679723
12	0xbe53347c	-0.2062549
13	0x3ced7a18	0.028988883
14	0x3d5351a9	0.05159155
15	0xbca0eeb2	-0.019645069
16	0xbd493d50	-0.049130738
17	0x3db9cd7b	0.090723954
18	0x3e03beba	0.12865725
19	0xbdbd319f	-0.0923798
20	0x3ccd10f4	0.025032498
21	0xbe0a0c98	-0.13481367
22	0xbc5a2b6a	-0.013316015
23	0xbe54b18b	-0.20770852
24	0x3c380b46	0.011233157
25	0x3cfc3ea0	0.03079158
26	0x3c458e7c	0.012057897
27	0xbe2c0b2d	-0.16801138
28	0x3d4a603a	0.049408175
29	0x3ca911f4	0.020638444
30	0xbb4e8da9	-0.0031517542
31	0xbd60e526	-0.054906033
32	0x3d671560	0.05641687
33	0x3bff1a89	0.0077851457
34	0xbd75b56f	-0.05998748
35	0xbdf03036	-0.117279455
36	0xbd999d95	-0.075007595
37	0xbd20ecf0	-0.03928846
38	0xbd61fa2f	-0.055170234
39	0xbc27ca80	-0.010241151
40	0xbd5c0b8d	-0.053721953
41	0x3d93a9b5	0.072101034
42	0xbeb34251	-0.35011533
43	0x3cc6ec1b	0.024282506
44	0x3dd50ac5	0.10402445
45	0xbd5b3434	-0.05351658
46	0xbd80914d	-0.06277714
47	0x3cac6953	0.021046316
48	0xbd36ad3b	-0.0445988
49	0xbe28295a	-0.16422024
50	0x3d52e6ae	0.051489525
51	0x3cac59f8	0.021038994
52	0xbcb83d25	-0.022490093
53	0xbbeeaeb3	-0.0072840094
54	0x3d32e1a0	0.043672204
55	0xbe03c956	-0.12869772
56	0x3cd0bba8	0.025480106
57	0xbd81a1d4	-0.063296944
58	0xbba56452	-0.0050473595
59	0xbdb0ac4c	-0.08626613
60	0x3ca0bbc6	0.019620787
61	0xbd3c061c	-0.045904264
62	0xbe2ff224	-0.17182213
63	0x3db46cea	0.08809836
64	0xbd51a6e9	-0.05118457
65	0xbd6a095c	-0.057137832
66	0xbda7c958	-0.081927
67	0x3dfaf678	0.122540414
68	0x3d763bfd	0.060115803
69	0xbd8228f1	-0.06355465
70	0x3d05d3e0	0.032672763
71	0xbd355ede	-0.044279926
72	0xbcb1b7af	-0.021694032
73	0xbe096b91	-0.1341994
74	0xbb28ab5a	-0.00257369
75	0x3debd84d	0.115158655
76	0x3d90bb5a	0.070669845
77	0xbdb6f2a7	-0.08933001
78	0xbe476d4f	-0.19475292
79	0x3db90ba1	0.09035421
80	0xbd8a4283	-0.06750967
81	0xbd408304	-0.046999946
82	0xbd78e6c7	-0.06076696
83	0x3e4cd0a3	0.20001464
84	0xbb9d258f	-0.004795737
85	0x3b89e1d9	0.0042078313
86	0x3ca2a556	0.019854229
87	0xbc1ac205	-0.009445672
88	0x3d1f81f5	0.038942296
89	0x3e170ee7	0.14751779
90	0x3df4bde8	0.11950284
91	0x3cebf750	0.028804451
92	0xbd5d14f7	-0.05397507
93	0x3baeb386	0.0053314595
94	0xbdf51e9c	-0.11968729
95	0x3db822f9	0.089910455
96	0xbdb9eb27	-0.09078055
97	0xbdc37933	-0.09544601
98	0xbd9f7863	-0.07786634
99	0x3dc4a5b6	0.09601919
100	0xbd770129	-0.06030384
101	0x3cb84a1a	0.022496272
102	0xbd724f2a	-0.059157528
103	0x3dffad26	0.12484197
104	0xbdd91f63	-0.1060169
105	0x3d231052	0.039810486
106	0xbdf0e772	-0.11762895
107	0xbdd621c3	-0.10455658
108	0x3da0883e	0.07838486
109	0x3d99b4ad	0.07505164
110	0xbb66b107	-0.0035200731
111	0x3d6876db	0.056753974
112	0xbe4bc3ba	-0.19898883
113	0x3df8bfa2	0.12145926
114	0x3e6cca9a	0.23124161
115	0x3d6a72cd	0.05723839
116	0x3d1fde12	0.039030142
117	0x3b983ca8	0.0046459027
118	0x3e3c4953	0.18387346
119	0xbcbe8650	-0.023257405
120	0xbe21f34b	-0.15815465
121	0x3c8786b5	0.016543726
122	0x3dbbedf6	0.09176247
123	0xbd3a03a0	-0.045413613
124	0xbe0078f5	-0.12546141
125	0x3d936eb5	0.0719885
126	0x3d7709ee	0.060312204
127	0xbd4cf99a	-0.050042726
128	0x3debf4bf	0.11521291
129	0x3d3728aa	0.044716515
130	0x3d8f7e1b	0.070064746
131	0x3de1d29d	0.110264994
132	0x3b9978fc	0.004683612
133	0x3da31fb4	0.07965031
134	0xbe570b68	-0.21000445
135	0x3d0b5777	0.03401896
136	0xbe30efc8	-0.1727897
137	0xbd73d645	-0.059530515
138	0x3c148b89	0.009066471
139	0x3c6bf182	0.014400842
140	0x3db7b37a	0.08969779
141	0xbd943e78	-0.072384775
142	0x3db5919c	0.088656634
143	0xbcbe7ce8	-0.02325292
144	0x3cbebf63	0.02328462
145	0xbd3e78db	-0.046501976
146	0xbdc080f6	-0.09399597
147	0x3dc7a209	0.09747703
148	0x3d64300f	0.055709895
149	0xbdbda3d7	-0.092597656
150	0xbd72670d	-0.059180308
151	0x3b3b9a2c	0.002862583
152	0x3bf0c808	0.0073480643
153	0xbd2316f1	-0.0398168
154	0x3cceae53	0.025229609
155	0xbe23ca4d	-0.1599514
156	0xbd71656e	-0.05893462
157	0x3c49d33d	0.01231843
158	0xbd251c75	-0.040310342
159	0x3d96c899	0.0736248
160	0xbe729ce1	-0.23692657
161	0x3ddaf1f5	0.10690681
162	0x3dc7221f	0.09723305
163	0x3c8cb4ae	0.017175999
164	0x3db47afe	0.088125214
165	0x3d8f5b6a	0.06999858
166	0x3cfaebf3	0.030630087
167	0x3d161534	0.036641315
168	0xbda5b03f	-0.08090257
169	0x3d0c44be	0.034245245
170	0x3d1be515	0.038060267
171	0x3e0bae36	0.13640675
172	0xbe0ba4d8	-0.13637102
173	0xbdcae512	-0.09906973
174	0x3e027226	0.12738857
175	0x3c9685cb	0.018374344
176	0xbdd94ee5	-0.10610751
177	0xbd9a4aca	-0.07533796
178	0xbd08fe07	-0.033445384
179	0x3d95e2e4	0.073186666
180	0x3d158e67	0.03651276
181	0xbd859add	-0.065236785
182	0xbd04027e	-0.03222894
183	0xbce4a19f	-0.027909098
184	0xbd5afa0d	-0.053461123
185	0x3dc62bce	0.09676324
186	0x3d3979b2	0.045282073
187	0x3dc8cb17	0.09804361
188	0x3cc274da	0.02373736
189	0x3c131283	0.0089765815
190	0x3d65462d	0.055975128
191	0x3c665e62	0.014060589
192	0x3d3e95f1	0.046529714
193	0x3d69dfd9	0.057098243
194	0xbd80c3a4	-0.062873155
195	0xbc97442f	-0.01846513
196	0xbd726bae	-0.059184723
197	0x3ceea079	0.029129254
198	0x3df3fa29	0.11912949
199	0x3cc9f9fd	0.024655337
200	0x3a439a27	0.000746163
201	0xbd10fa30	-0.035394847
202	0x3c600bdc	0.0136747025
203	0xbdaea30a	-0.08527191
204	0xbd3a74f2	-0.045521684
205	0x3df2ca31	0.11854971
206	0xbde3acfe	-0.1111698
207	0x3d697d97	0.057004537
208	0xbdce7982	-0.100817695
209	0xbddc17b7	-0.10746711
210	0xbcc7588f	-0.02433422
211	0x3cace31c	0.021104388
212	0x3e384f49	0.17998995
213	0xbe875fac	-0.2644018
214	0xbd9e65b7	-0.07734244
215	0x3d0ccfe6	0.034377955
216	0xbdb37092	-0.087617055
217	0xbd6b7ee7	-0.05749407
218	0x3cfa96e3	0.030589527
219	0xbe13f70e	-0.14449713
220	0x3db82525	0.0899146
221	0x3d93400d	0.07189951
222	0xbd0da181	-0.03457785
223	0xbd1c603f	-0.038177725
224	0x3d55d261	0.052202586
225	0xbbe20d0e	-0.006898529
226	0x3d804dbf	0.06264829
227	0x3b8b90d1	0.004259207
228	0xbe0fbb4c	-0.14036292
229	0xbd03a355	-0.032138187
230	0xbe16e4c4	-0.14735705
231	0xbde14a60	-0.11000514
232	0x3d35ab94	0.044353083
233	0xbdbba01f	-0.091614
234	0x3c6a5ae2	0.014303895
235	0xbe07c6a9	-0.13259377
236	0xbd218e02	-0.03944207
237	0xbbccd45d	-0.0062509016
238	0x3dda20e1	0.106508024
239	0xbcd32d75	-0.025778512
240	0xbd6c9f47	-0.057769086
241	0x3cc4ad1a	0.024008323
242	0x3dd58711	0.104261525
243	0x3c999717	0.018748803
244	0x3d0756c6	0.033041738
245	0xbdb91257	-0.09036701
246	0xbd1bda25	-0.038049836
247	0xbd2c588c	-0.042076632
248	0x3d1b35da	0.037893154
249	0x3e10dfd9	0.14147891
250	0x3ba6d073	0.005090767
251	0x3d7c49af	0.061593708
252	0x3e843030	0.25818014
253	0xbcc6dd7c	-0.024275534
254	0xbc0cbdd0	-0.008590177
255	0x3d27f02d	0.041000534

network_body.linear_encoder.seq_layers.2.bias f4 [128]
0	0x00000000	0.0
1	0x00000000	0.0
2	0x00000000	0.0
3	0x00000000	0.0
4	0x00000000	0.0
5	0x00000000	0.0
6	0x00000000	0.0
7	0x00000000	0.0
8	0x00000000	0.0
9	0x00000000	0.0
10	0x00000000	0.0
11	0x00000000	0.0
12	0x00000000	0.0
13	0x00000000	0.0
14	0x00000000	0.0
15	0x00000000	0.0
16	0x00000000	0.0
17	0x00000000	0.0
18	0x00000000	0.0
19	0x00000000	0.0
20	0x00000000	0.0
21	0x00000000	0.0
22	0x00000000	0.0
23	0x00000000	0.0
24	0x00000000	0.0
25	0x00000000	0.0
26	0x00000000	0.0
27	0x00000000	0.0
28	0x00000000	0.0
29	0x00000000	0.0
30	0x00000000	0.0
31	0x00000000	0.0
32	0x00000000	0.0
33	0x00000000	0.0
34	0x00000000	0.0
35	0x00000000	0.0
36	0x00000000	0.0
37	0x00000000	0.0
38	0x00000000	0.0
39	0x00000000	0.0
40	0x00000000	0.0
41	0x00000000	0.0
42	0x00000000	0.0
43	0x00000000	0.0
44	0x00000000	0.0
45	0x00000000	0.0
46	0x00000000	0.0
47	0x00000000	0.0
48	0x00000000	0.0
49	0x00000000	0.0
50	0x00000000	0.0
51	0x00000000	0.0
52	0x00000000	0.0
53	0x00000000	0.0
54	0x00000000	0.0
55	0x00000000	0.0
56	0x00000000	0.0
57	0x00000000	0.0
58	0x00000000	0.0
59	0x00000000	0.0
60	0x00000000	0.0
61	0x00000000	0.0
62	0x00000000	0.0
63	0x00000000	0.0
64	0x00000000	0.0
65	0x00000000	0.0
66	0x00000000	0.0
67	0x00000000	0.0
68	0x00000000	0.0
69	0x00000000	0.0
70	0x00000000	0.0
71	0x00000000	0.0
72	0x00000000	0.0
73	0x00000000	0.0
74	0x00000000	0.0
75	0x00000000	0.0
76	0x00000000	0.0
77	0x00000000	0.0
78	0x00000000	0.0
79	0x00000000	0.0
80	0x00000000	0.0
81	0x00000000	0.0
82	0x00000000	0.0
83	0x00000000	0.0
84	0x00000000	0.0
85	0x00000000	0.0
86	0x00000000	0.0
87	0x00000000	0.0
88	0x00000000	0.0
89	0x00000000	0.0
90	0x00000000	0.0
91	0x00000000	0.0
92	0x00000000	0.0
93	0x00000000	0.0
94	0x00000000	0.0
95	0x00000000	0.0
96	0x00000000	0.0
97	0x00000000	0.0
98	0x00000000	0.0
99	0x00000000	0.0
100	0x00000000	0.0
101	0x00000000	0.0
102	0x00000000	0.0
103	0x00000000	0.0
104	0x00000000	0.0
105	0x00000000	0.0
106	0x00000000	0.0
107	0x00000000	0.0
108	0x00000000	0.0
109	0x00000000	0.0
110	0x00000000	0.0
111	0x00000000	0.0
112	0x00000000	0.0
113	0x00000000	0.0
114	0x00000000	0.0
115	0x00000000	0.0
116	0x00000000	0.0
117	0x00000000	0.0
118	0x00000000	0.0
119	0x00000000	0.0
120	0x00000000	0.0
121	0x00000000	0.0
122	0x00000000	0.0
123	0x00000000	0.0
124	0x00000000	0.0
125	0x00000000	0.0
126	0x00000000	0.0
127	0x00000000	0.0

value_heads.value_heads.extrinsic.weight f4 [1, 128]
0	0x3e35ffc2	0.17773345
1	0xbe35746b	-0.17720191
2	0x3e1c974c	0.1529209
3	0xbdf98765	-0.121840276
4	0xbe0060f8	-0.1253699
5	0x3d1844f8	0.03717515
6	0x3e294bfe	0.16532895
7	0x3e4aa676	0.19790062
8	0x3c499660	0.012303919
9	0xbd34c0f4	-0.044129327
10	0xbd53fa34	-0.051752284
11	0xbdc22b80	-0.09480953
12	0xbdfa6046	-0.12225394
13	0x397fd000	0.00024396181
14	0x3dbe6e38	0.09298366
15	0x3c4af3b0	0.012387201
16	0xbda44134	-0.08020249
17	0xbe120539	-0.14259805
18	0x3e242e94	0.16033393
19	0xbe50d309	-0.20393004
20	0xbc7d15f0	-0.015447125
21	0xbe067d3a	-0.13133708
22	0xbdd1f100	-0.10251045
23	0xbe4b5f94	-0.19860679
24	0xbdfb9876	-0.12284939
25	0xbde7c5fd	-0.1131706
26	0x3dc9fb38	0.09862369
27	0xbdce247f	-0.10065555
28	0xbd7f5e9c	-0.062346086
29	0xbd4068fc	-0.04697512
30	0xbb3f4140	-0.002918318
31	0x3db873c4	0.090064555
32	0x3e4eb5ee	0.20186588
33	0xbe00fccc	-0.12596434
34	0x3e25ee76	0.16204247
35	0x3e272cb0	0.1632564
36	0xbe49ba9d	-0.19700094
37	0x3d48f0a8	0.049057633
38	0x3dfe9924	0.12431553
39	0xbd2c6cc0	-0.0420959
40	0xbd873e3c	-0.06603667
41	0x3e54fac2	0.20798782
42	0xbd6ada14	-0.05733688
43	0x3e47d508	0.19514859
44	0xbd9be96a	-0.076128796
45	0xbd6ec8a4	-0.058296815
46	0x3dc26100	0.094911575
47	0x3d462a58	0.048380226
48	0x3e37b60c	0.17940539
49	0xbe1ec844	-0.15506083
50	0xbe38e64f	-0.18056606
51	0xbd6cf9fc	-0.05785559
52	0xbe0bcf52	-0.13653305
53	0xbe32c537	-0.17458044
54	0x3d4a2130	0.049348056
55	0x3d609f88	0.05483964
56	0xbd1b8a68	-0.03797379
57	0xbe51995e	-0.20468661
58	0xbe2e5048	-0.17022812
59	0x3de7482c	0.112930626
60	0x3cc32ed8	0.023826048
61	0x3e429d5e	0.19005343
62	0x3baeb9a0	0.005332187
63	0x3d374158	0.04474005
64	0x3d083580	0.033254147
65	0x3e3a6198	0.18201292
66	0x3ddae7fc	0.10688779
67	0xbc8c2918	-0.017109439
68	0xba27d400	-0.0006402135
69	0x3e391050	0.18072629
70	0xbe5451e6	-0.20734367
71	0x3e3b0994	0.18265373
72	0x3e38ac6e	0.18034527
73	0x3e20d632	0.15706709
74	0xbe286e8e	-0.16448423
75	0xbdfcc04a	-0.12341364
76	0x3e541992	0.2071288
77	0xbbee3f80	-0.0072707534
78	0x3e2bde74	0.16784078
79	0xbe326984	-0.17423064
80	0xbd70a6e4	-0.05875291
81	0x3e4925ae	0.1964328
82	0xbb3a4480	-0.0028422177
83	0x3db12b60	0.08650851
84	0xbdfdae3c	-0.12386748
85	0xbd96b352	-0.073584214
86	0x3e3dc502	0.18532184
87	0x3d651600	0.055929184
88	0x3da40788	0.08009249
89	0xbd074da4	-0.03303303
90	0xbe1b79a8	-0.15183127
91	0xbd8e49de	-0.06947683
92	0xbe5c9c55	-0.21544011
93	0xbd81e934	-0.06343308
94	0x3d8b3ddc	0.06798908
95	0xbde6efb9	-0.11276192
96	0x3d656858	0.056007713
97	0xbd9c442a	-0.07630189
98	0xbdabc306	-0.08386807
99	0x3ce2e7f0	0.027698487
100	0x3e3b3da8	0.18285239
101	0xbe47c29f	-0.19507836
102	0x3db18344	0.08667615
103	0x3d274578	0.040837735
104	0xbe1c5ea6	-0.1527048
105	0xbe5535d8	-0.20821321
106	0xbd5e1e68	-0.054228216
107	0x3e4f8aa6	0.20267734
108	0x3e3ef00e	0.18646261
109	0x3db5d710	0.088789105
110	0x3e2e41dc	0.17017311
111	0x3e58bfd6	0.2116693
112	0x3e12593c	0.14291853
113	0x3e046850	0.12930417
114	0xbd766508	-0.060154945
115	0xbd879b0a	-0.06621368
116	0x3d71d738	0.05904314
117	0x3debb5b8	0.115092695
118	0xbddc8a01	-0.1076851
119	0xbdf8d689	-0.12150294
120	0x3d4801e8	0.048829943
121	0xbdf3fd53	-0.11913552
122	0x3e591eb6	0.21203122
123	0x3df94650	0.12171614
124	0xbdd2cfd6	-0.10293548
125	0x3dc4c3ac	0.09607634
126	0xbdd39e79	-0.10332961
127	0xbdaf4cd8	-0.08559579
