UnityController/results/alex/MoveToGoal/MoveToGoal-2115.pt (torch, 153671 bytes, 11 tensors)

network_body.linear_encoder.seq_layers.0.weight f4 [128, 9]
00000000: 0ab0 dbbe 7a6a 893e f787 0e3e 7016 4b3e
00000010: d607 633c feae 9fbe f4a8 f43e c035 09be
00000020: c4de 443e ace3 473d 1ab4 6abe 6046 4ebc
00000030: 96dc 763e 9f9d e83d 0b5d c3be 9994 a8bd
00000040: 203f 903d 58f8 5c3e 2647 29bf 56e4 7dbe
00000050: 72b1 e3bd 52a6 63bd 6cad ea3c 56ea dfbe
00000060: 045a 8fbe da19 17be 785e 08bf 8cd8 d03e
00000070: de41 3dbe 506f 7f3e db07 47be 2b31 ea3e
00000080: d800 0f3e 70eb 32bd 92aa 433f 384c b23e
00000090: ae67 58bf e78b e83c becb ff3e b72c ca3e
000000a0: c841 71be ceb7 d53d 56e0 f3bd a2ca 6f3c
000000b0: 2a6c 973d c67a dbbe 92d6 673e 3b57 cfbe
000000c0: 3ed7 d6be 9867 20bc 9c90 043e 2e0a 963e
000000d0: c86e 3c3f 5f4c 3bbf ea9d 49be 18d5 e73d
000000e0: b9e2 833e ea3d 1cbe 5175 a83e 86e9 1abe
000000f0: d6b1 a83c 8fe1 733c 7a8a 61be 72d9 f3bd
00000100: 3729 b63c 23e8 0c3f e2db b53e 1457 063e
00000110: c666 4bbe a6b5 1ebf 8684 a3be bcf1 d43d
00000120: 02a6 e8be ae31 9b3e 949a 2bbe 3eb4 bbbe
00000130: 68e1 dc3e cc6a 3bbe 346e bd3e 8e25 27bc
00000140: 7a8c 72be 4633 d93e 3054 c03e 5a19 ac3d
00000150: fc2e ddbe a88f a93d 5f0a 8fbe 3c40 f9be
00000160: 137d 4cbd 96f5 2c3f 1cac c2bd c1da a33e
00000170: f2e1 10be 28a7 91bd 68a3 ba3d 58bc 0abe
00000180: ead4 433e 1486 a8bc 28ba fdbd 56ff 433e
00000190: 07da 1bbf f288 fc3e f696 963e 8e9c 893d
000001a0: 20da 32bf 1b2a 2c3d 93af 133f 4b6c 013b
000001b0: ad7f 9b3d 30ca 0e3f 8003 663e 1b4e dbbd
000001c0: baaf aa3e 8436 8a3e edc5 1ebe 57c2 b63e
000001d0: e896 32bd 4e40 9c3c 8a4f cb3e 1ec8 9b3e
000001e0: da22 f33e d360 69be dce1 8dbe 7608 923d
000001f0: 9f2e 4b3e cb32 ccbe de93 6bbe abac 333e
00000200: b067 f53e 0e0e 04be 1c6b d63d 176d d23d
00000210: 73be e53e 8434 51be d356 8cbd 3004 e0be
00000220: b3ca f73c 6379 7b3d 8f9a c73e 8eb1 bc3d
00000230: 5daa a3be b357 183f 1708 463e 7cb6 9ebd
00000240: b4cc 903e f635 cf3e c332 2c3e 64d8 a13d
00000250: 2bb4 cdbd 4223 72be 0420 5c3f f60e 55bf
00000260: 7b99 ab3e 0af8 f23d 1c5d 78bd b6d2 0ebf
00000270: 6afc dfbe 6b07 3b3e 439e 1ebe 145a 9cbd
00000280: 6c8f dcbe 46a2 a03e e056 363e be50 41be
00000290: 27ed 3b3f 3e3b 313d 2f05 f0bd 4c83 a0bd
000002a0: 7e0c 0fbf bf0d 44bf 28ce 1abf 1898 f8be
000002b0: b29d 92be 3687 843e bc0a 89bd 576b 7a3e
000002c0: f0ae aa3e 02f4 24be 4a24 b8bd 248a 81be
000002d0: 7426 9e3d 5b39 493f d26b 0a3e 34eb 0ebf
000002e0: 0e83 7b3e 0c02 75be 906b 99be e888 36bd
000002f0: da44 4bbe 4cb7 07bc d291 e5be 8753 1ebf
00000300: bce0 953e 76d1 813e 91bf 13be 3c8f f2be
00000310: cb20 6d3e e264 68bd 27c5 80be a0ad 1ebd
00000320: 9f65 a9bb 625a a7bb c8dd 0abf 5c2a 023f
00000330: f548 97bc 170a 123f cc4c 81be ab14 b4be
00000340: 3e21 cdbe 05df a6be d3c7 bdbe 06be 033e
00000350: 2a1a eabc cea6 43be 5798 1a3f 020b a0bd
00000360: 2e57 edbe d268 a03e 4cb4 1b3e a889 f5bd
00000370: bc28 093d 4f1f d53c 0278 823e 8bad 2dbf
00000380: 2eed 86be 7028 3fbd b27c 4abd 32c5 5bbe
00000390: d267 ad3e 276a 74be 53ef 40bf 23f4 7bbe
000003a0: e47c 93be f2be 4b3e fe6f c73d 1b23 efbc
000003b0: 0cb5 b5be de45 933d e3ff c6be 83ca 673d
000003c0: 23c3 2a3f 1406 0abd d7e1 2e3e 88a9 dfbd
000003d0: 4f21 6f3d 623f 18bd 7f0f b2be 96d2 cfbd
000003e0: 6e30 19bf 7af4 163e 8679 e23c 80ee 28bf
000003f0: e28e 033f 2226 033f 64e7 9bbe 5279 cd3e
-0.42907745 0.26839048 0.13919054 0.19832778 0.013856849 -0.31188196 0.4778515 -0.1339941
0.19225603 0.04880111 -0.22920266 -0.012590021 0.24107584 0.11358189 -0.38156924 -0.08231468
0.0704329 0.2157911 -0.6612419 -0.24794134 -0.111178294 -0.055578537 0.028647147 -0.43733472
-0.27998364 -0.14755955 -0.5326915 0.40790212 -0.18482158 0.24944806 -0.1943659 0.45740637
0.13965166 -0.043681562 0.76432145 0.34823775 -0.845332 0.028387023 0.4996013 0.3948724
-0.2356025 0.104354486 -0.11908023 0.014635714 0.073936775 -0.42867106 0.22640446 -0.4049624
-0.41961092 -0.009790324 0.12945789 0.2930464 0.7360654 -0.7316341 -0.19689146 0.11319941
0.25758913 -0.15257993 0.32902005 -0.15128145 0.020592611 0.01488532 -0.22025481 -0.11906709
0.02223645 0.5504171 0.3551932 0.13119155 -0.19863424 -0.61995924 -0.31937045 0.1039767
-0.45439154 0.3031134 -0.16758186 -0.3666095 0.4314072 -0.18302459 0.3699814 -0.010201825
-0.236864 0.4242193 0.3756423 0.08403273 -0.4319991 0.082793534 -0.279376 -0.4868182
-0.049923968 0.67562234 -0.095054835 0.32002833 -0.14148691 -0.07111961 0.091131985 -0.1354841
0.19124189 -0.020571746 -0.12389022 0.19140372 -0.6087956 0.4932323 0.2941205 0.067193136
-0.6986408 0.042032342 0.5768978 0.0019748386 0.075927116 0.55777264 0.22462273 -0.10708257
0.33337194 0.26994717 -0.1550519 0.35695145 -0.043600947 0.019073632 0.3970912 0.30426115
0.47487527 -0.22790842 -0.2771138 0.0713052 0.19842003 -0.39882502 -0.23005626 0.17546336
0.4793067 -0.12895986 0.10469648 0.102747135 0.44871864 -0.2043019 -0.06852498 -0.43753195
0.030248022 0.06139506 0.38985106 0.09213553 -0.31965914 0.5950882 0.19339024 -0.0774965
0.28281176 0.40470856 0.16816239 0.07902601 -0.1004413 -0.23646262 0.8598635 -0.83225954
0.33515534 0.11863716 -0.06063567 -0.5579027 -0.43747264 0.18264548 -0.1549006 -0.076343685
-0.43078172 0.31373805 0.17806578 -0.18878457 0.7340874 0.04326939 -0.11719739 -0.07837543
-0.55878437 -0.76583475 -0.6047082 -0.48553538 -0.28635937 0.25884408 -0.066915005 0.2445501
0.33336592 -0.16108707 -0.089912966 -0.25300705 0.07722178 0.7860314 0.13517693 -0.5582764
0.24561712 -0.23926562 -0.29964876 -0.044564158 -0.19850484 -0.0082834475 -0.44837815 -0.618462
0.2927302 0.2535512 -0.14428546 -0.47374904 0.23157041 -0.056736834 -0.25150415 -0.0387398
-0.005169585 -0.00510721 -0.5424466 0.50845885 -0.018467406 0.57046646 -0.25253904 -0.35172018
-0.40064424 -0.32592025 -0.37066516 0.12865457 -0.02857693 -0.191066 0.603887 -0.078145996
-0.46355575 0.31329972 0.15205497 -0.119891465 0.033486113 0.026015906 0.25482184 -0.6784293
-0.2635283 -0.046669424 -0.049435325 -0.21461943 0.3386827 -0.23868619 -0.7536518 -0.2460485
-0.2880622 0.19897059 0.09738158 -0.029191544 -0.3548969 0.071910605 -0.388671 0.056589615
0.66704005 -0.033697203 0.17078339 -0.109210074 0.058381375 -0.03716982 -0.34777448 -0.10147588
-0.5983952 0.14741698 0.027645838 -0.6598892 0.51389897 0.5123006 -0.30449975 0.40131623

network_body.linear_encoder.seq_layers.0.bias f4 [128]
00000000: 0000 0000 0000 0000 0000 0000 0000 0000
00000010: 0000 0000 0000 0000 0000 0000 0000 0000
00000020: 0000 0000 0000 0000 0000 0000 0000 0000
00000030: 0000 0000 0000 0000 0000 0000 0000 0000
00000040: 0000 0000 0000 0000 0000 0000 0000 0000
00000050: 0000 0000 0000 0000 0000 0000 0000 0000
00000060: 0000 0000 0000 0000 0000 0000 0000 0000
00000070: 0000 0000 0000 0000 0000 0000 0000 0000
00000080: 0000 0000 0000 0000 0000 0000 0000 0000
00000090: 0000 0000 0000 0000 0000 0000 0000 0000
000000a0: 0000 0000 0000 0000 0000 0000 0000 0000
000000b0: 0000 0000 0000 0000 0000 0000 0000 0000
000000c0: 0000 0000 0000 0000 0000 0000 0000 0000
000000d0: 0000 0000 0000 0000 0000 0000 0000 0000
000000e0: 0000 0000 0000 0000 0000 0000 0000 0000
000000f0: 0000 0000 0000 0000 0000 0000 0000 0000
00000100: 0000 0000 0000 0000 0000 0000 0000 0000
00000110: 0000 0000 0000 0000 0000 0000 0000 0000
00000120: 0000 0000 0000 0000 0000 0000 0000 0000
00000130: 0000 0000 0000 0000 0000 0000 0000 0000
00000140: 0000 0000 0000 0000 0000 0000 0000 0000
00000150: 0000 0000 0000 0000 0000 0000 0000 0000
00000160: 0000 0000 0000 0000 0000 0000 0000 0000
00000170: 0000 0000 0000 0000 0000 0000 0000 0000
00000180: 0000 0000 0000 0000 0000 0000 0000 0000
00000190: 0000 0000 0000 0000 0000 0000 0000 0000
000001a0: 0000 0000 0000 0000 0000 0000 0000 0000
000001b0: 0000 0000 0000 0000 0000 0000 0000 0000
000001c0: 0000 0000 0000 0000 0000 0000 0000 0000
000001d0: 0000 0000 0000 0000 0000 0000 0000 0000
000001e0: 0000 0000 0000 0000 0000 0000 0000 0000
000001f0: 0000 0000 0000 0000 0000 0000 0000 0000
0.0 0.0 0.0 0.0 0.0 0.0 0.0 0.0
0.0 0.0 0.0 0.0 0.0 0.0 0.0 0.0
0.0 0.0 0.0 0.0 0.0 0.0 0.0 0.0
0.0 0.0 0.0 0.0 0.0 0.0 0.0 0.0
0.0 0.0 0.0 0.0 0.0 0.0 0.0 0.0
0.0 0.0 0.0 0.0 0.0 0.0 0.0 0.0
0.0 0.0 0.0 0.0 0.0 0.0 0.0 0.0
0.0 0.0 0.0 0.0 0.0 0.0 0.0 0.0
0.0 0.0 0.0 0.0 0.0 0.0 0.0 0.0
0.0 0.0 0.0 0.0 0.0 0.0 0.0 0.0
0.0 0.0 0.0 0.0 0.0 0.0 0.0 0.0
0.0 0.0 0.0 0.0 0.0 0.0 0.0 0.0
0.0 0.0 0.0 0.0 0.0 0.0 0.0 0.0
0.0 0.0 0.0 0.0 0.0 0.0 0.0 0.0
0.0 0.0 0.0 0.0 0.0 0.0 0.0 0.0
0.0 0.0 0.0 0.0 0.0 0.0 0.0 0.0

network_body.linear_encoder.seq_layers.2.weight f4 [128, 128]
00000000: 9104 40bd 8070 0bba 0e1a 30bd 4db0 76bd
00000010: 8567 3cbc b3b9 55bd 87c3 7bbd 847f 83bd
00000020: 5191 153c 4974 14bd 079d e2bd c19f e9bc
00000030: 37eb 4ebb 566c 183e ce95 a03d 1bd1 8dbd
00000040: f955 303e 9a0d 8f3d a163 243d 50d5 03bd
00000050: 2964 efbb ceec 653d 275c 3c3d 0ffd 143d
00000060: 901c d9bd 0c40 2dbe d16a 903d 21f6 76bc
00000070: 7a2c 613e d676 ebbd dd9e 74bd c892 c03d
00000080: 63b5 45be 0334 37bd f527 b13d 753f 9e3d
00000090: f22c 4e3c 87d3 c3bd e679 93bb 07fb 8e3d
000000a0: 3b21 563d 0d57 29bd b481 dc3d 9cfc b7bc
000000b0: 0d44 79bd 1c87 7cbc 107d 853c f79b a9bd
000000c0: 64bb cfbd adbd 18be b3e2 063e 8100 d5bc
000000d0: 5c58 37bd e2cc 38be c58c e3bc 28d9 91bd
000000e0: 2692 d73c b1a0 223d f57c 803d bfb2 a0bd
000000f0: 5e5b 33bd 392a ab3d 5289 c7bd 0c2a 02be
00000100: 1926 8e3b 4ce4 ddbb 0ed7 753b e936 e9bd
00000110: 20f9 5abe 388f 883d ac7d c7bd 2c76 acbd
00000120: 0420 333b e3da 98bd 6c40 c5bd b6ba 65bd
00000130: 2f53 42bd cf5a 4bbd 06e6 b6bc 8d3a 0f3d
00000140: 35e0 773c 01bf 92bd b1a5 7f3d 0829 78bc
00000150: 586c e73b 1314 593d a4ed c7bd 7f56 b33c
00000160: 4923 563d e7e5 453e 44b8 7abd 22ba 1abe
00000170: 7982 b3bc cba5 a43e 22f3 8fbd a43a 33be
00000180: 41b6 563d a017 1f3d ad35 d1bc 407f 023e
00000190: 8917 a63d 6309 0ebe 499c 703d 52ba 41bd
000001a0: 9858 1f3d da9b 96bc 8cc5 f03d c2c7 4c3d
000001b0: 31de 8f3c a2cd c7bd 1239 eb3d 847b c0bc
000001c0: e8ae 23bb a322 d03d dbe6 8fbd f75f 663d
000001d0: 0cda c0bd 7591 d2bd 1850 18be eb9a 73bd
000001e0: af97 4a3d 5b2f ae3b 2305 c53d 1121 d2bd
000001f0: 3783 3abd a34e 7f3d 7f58 fa3c a8f5 213d
00000200: f07f 363d 9717 c93d ee54 2e3b 22a2 98bd
00000210: 8a37 ac3d a9af 483d a79f 533b a648 a23b
00000220: 71d1 e0bd 68ed 2abd 738a 44bd 004d bbbc
00000230: 71b9 433d 622d fcba 02b2 72be c8ae 23bd
00000240: 69d6 e8bd eaf1 0d3d 5a5e 083e 8dce 07bb
00000250: 6d4b 44bc 6ab5 1fbe 8248 9b3d 724f 063b
00000260: 93b5 653d 0a07 a4bc fc77 303d 9755 2bbe
00000270: 3cd7 32bd 2341 243d e4ff 97bd afc8 d73d
00000280: a602 c33c d477 f23d 2011 8cbc 7a0c 803e
00000290: 1075 3f3d 4a2b 393d 45ff 243e 618d 58bd
000002a0: 3d8e 9f3d e65b e7bd d3d7 b2bd 5248 cc3d
000002b0: 8af8 8abc 230f babc bbb3 41bc 27d3 83bd
000002c0: d6a9 ee3d 0d4a 71bd 4a67 53bd b5c4 ca3c
000002d0: 734d 033e 1133 cbbd 5411 60bc 126c a7bd
000002e0: 63f3 55bd 6491 80bc 62e7 f6bd c334 da3c
000002f0: be03 19be b019 8abd bd4b dcbc 75c4 5b3d
00000300: 2e69 0c3c 7450 173d 4c14 28bb 5638 113d
00000310: d9f5 353e 76d6 ec3d 0d84 86bd f35e 6a3d
00000320: 872d 603d 6cb8 703d 68d1 c3bd 700f 1e3e
00000330: 641c b9bd f8ea 423c 7d47 983d a491 a53d
00000340: 095b 1b3d 359e 003e 511a 0d3d fcd6 7fbd
00000350: f5bd b0bd 9778 95bd 326a e13c ba37 673c
00000360: 8bed 87bc f3c1 ae3d ab71 7dbc f503 a3bc
00000370: 20b4 ef3c 1469 413d b6cd 2b3c f7c0 093e
00000380: de5e 1fba 6979 d93d a36b e73a bcc2 92bc
00000390: 30ec efbd d638 6abd 84f7 2b3d cae5 413e
000003a0: ad81 463d 2e9d fdbd 8a2c 11bd 10cd acbc
000003b0: 35f5 0c3e 12a7 2c3d 90c1 9fbc 3b99 c83d
000003c0: fec3 c5bd 57d6 243e 86f2 a5bd a558 113d
000003d0: 55c9 073d 37b5 403c c307 c73d c606 f4bd
000003e0: a984 1f3e 5ca8 d6bd e5a1 eebd a395 f23c
000003f0: 89c1 923c c15e 04be aabc 213d 996a c9bc
-0.046879355 -0.0005319193 -0.042993598 -0.060226727 -0.01149929 -0.05217905 -0.061465766 -0.06420806
0.009128884 -0.03624371 -0.11065107 -0.02851856 -0.0031573304 0.14885077 0.07841073 -0.06924649
0.17220296 0.06985016 0.040134076 -0.032185853 -0.007305641 0.056134038 0.04598632 0.036374148
-0.10601151 -0.16918963 0.070516236 -0.01507333 0.21989623 -0.114972755 -0.059721816 0.09402996
-0.19307475 -0.044727337 0.08650199 0.07726947 0.012583958 -0.0956183 -0.0045006154 0.069814734
0.052277785 -0.041342784 0.107669264 -0.02245932 -0.060855914 -0.015413072 0.016294986 -0.08281701
-0.10143164 -0.14916106 0.13172416 -0.026001217 -0.044762 -0.18046907 -0.027777085 -0.071214974
0.026314806 0.03970403 0.06273834 -0.07846593 -0.043788306 0.08357663 -0.09742989 -0.12711352
0.0043380377 -0.0067716 0.0037512216 -0.113874264 -0.21384096 0.06667942 -0.09740767 -0.08420977
0.0027332315 -0.07463624 -0.09631428 -0.056086265 -0.04744261 -0.04964715 -0.02232648 0.034967948
0.015129139 -0.07165337 0.062413875 -0.015146501 0.007062476 0.05299766 -0.09762123 0.02189183
0.052279744 0.19325982 -0.061210886 -0.15110067 -0.0219128 0.3215774 -0.07028796 -0.17502838
0.052419905 0.03884089 -0.02553829 0.12743855 0.08109958 -0.13870768 0.058742795 -0.04729683
0.03890285 -0.018384863 0.11756429 0.04999519 0.017562004 -0.09756018 0.11485495 -0.023496397
-0.0024976078 0.101628564 -0.07026454 0.056243863 -0.09416589 -0.1028165 -0.14874303 -0.059473913
0.049461063 0.005315704 0.096201204 -0.10260213 -0.045535292 0.062330853 0.030559776 0.039540917
0.044555604 0.098189525 0.0026600915 -0.074527994 0.08409031 0.048995648 0.0032291205 0.004952508
-0.10977448 -0.041730314 -0.047983598 -0.022863865 0.047784273 -0.0019239599 -0.23700717 -0.039961606
-0.113690205 0.034654535 0.13317242 -0.002072248 -0.0119808735 -0.15596548 0.07582189 0.002049413
0.056081366 -0.020022888 0.043083176 -0.16731869 -0.043662295 0.04010118 -0.07421854 0.10536324
0.023804974 0.11839262 -0.01709801 0.2500952 0.0467425 0.0452073 0.16113003 -0.052869204
0.07790802 -0.11296825 -0.087325715 0.099747315 -0.016964216 -0.022712296 -0.011822636 -0.064367585
0.116534874 -0.05890851 -0.051612176 0.024752 0.12822513 -0.099218495 -0.013676006 -0.0817491
-0.052234065 -0.015694328 -0.120558515 0.026636487 -0.14942834 -0.06743181 -0.026891584 0.053654153
0.008569999 0.03694196 -0.0025646864 0.035454117 0.17769565 0.11564343 -0.065681554 0.057219457
0.05473092 0.05876963 -0.095614254 0.15435576 -0.09038618 0.011896841 0.0743551 0.08084419
0.037928615 0.12560351 0.034448925 -0.062460884 -0.086299814 -0.07298391 0.027516458 0.014112407
-0.016592762 0.08533087 -0.015468995 -0.019899348 0.029260695 0.04721935 0.010486057 0.13452516
-0.0006079505 0.1061886 0.001765598 -0.017915122 -0.11714971 -0.05718311 0.041984096 0.18935314
0.048463512 -0.12383495 -0.035442866 -0.021093875 0.13765414 0.04215152 -0.019501477 0.097948514
-0.09656523 0.16097389 -0.08102898 0.03548493 0.03315099 0.011761955 0.09718277 -0.119153544
0.1557795 -0.10481331 -0.11651973 0.029612368 0.01791455 -0.12926771 0.039486565 -0.024586963

network_body.linear_encoder.seq_layers.2.bias f4 [128]
00000000: 0000 0000 0000 0000 0000 0000 0000 0000
00000010: 0000 0000 0000 0000 0000 0000 0000 0000
00000020: 0000 0000 0000 0000 0000 0000 0000 0000
00000030: 0000 0000 0000 0000 0000 0000 0000 0000
00000040: 0000 0000 0000 0000 0000 0000 0000 0000
00000050: 0000 0000 0000 0000 0000 0000 0000 0000
00000060: 0000 0000 0000 0000 0000 0000 0000 0000
00000070: 0000 0000 0000 0000 0000 0000 0000 0000
00000080: 0000 0000 0000 0000 0000 0000 0000 0000
00000090: 0000 0000 0000 0000 0000 0000 0000 0000
000000a0: 0000 0000 0000 0000 0000 0000 0000 0000
000000b0: 0000 0000 0000 0000 0000 0000 0000 0000
000000c0: 0000 0000 0000 0000 0000 0000 0000 0000
000000d0: 0000 0000 0000 0000 0000 0000 0000 0000
000000e0: 0000 0000 0000 0000 0000 0000 0000 0000
000000f0: 0000 0000 0000 0000 0000 0000 0000 0000
00000100: 0000 0000 0000 0000 0000 0000 0000 0000
00000110: 0000 0000 0000 0000 0000 0000 0000 0000
00000120: 0000 0000 0000 0000 0000 0000 0000 0000
00000130: 0000 0000 0000 0000 0000 0000 0000 0000
00000140: 0000 0000 0000 0000 0000 0000 0000 0000
00000150: 0000 0000 0000 0000 0000 0000 0000 0000
00000160: 0000 0000 0000 0000 0000 0000 0000 0000
00000170: 0000 0000 0000 0000 0000 0000 0000 0000
00000180: 0000 0000 0000 0000 0000 0000 0000 0000
00000190: 0000 0000 0000 0000 0000 0000 0000 0000
000001a0: 0000 0000 0000 0000 0000 0000 0000 0000
000001b0: 0000 0000 0000 0000 0000 0000 0000 0000
000001c0: 0000 0000 0000 0000 0000 0000 0000 0000
000001d0: 0000 0000 0000 0000 0000 0000 0000 0000
000001e0: 0000 0000 0000 0000 0000 0000 0000 0000
000001f0: 0000 0000 0000 0000 0000 0000 0000 0000
0.0 0.0 0.0 0.0 0.0 0.0 0.0 0.0
0.0 0.0 0.0 0.0 0.0 0.0 0.0 0.0
0.0 0.0 0.0 0.0 0.0 0.0 0.0 0.0
0.0 0.0 0.0 0.0 0.0 0.0 0.0 0.0
0.0 0.0 0.0 0.0 0.0 0.0 0.0 0.0
0.0 0.0 0.0 0.0 0.0 0.0 0.0 0.0
0.0 0.0 0.0 0.0 0.0 0.0 0.0 0.0
0.0 0.0 0.0 0.0 0.0 0.0 0.0 0.0
0.0 0.0 0.0 0.0 0.0 0.0 0.0 0.0
0.0 0.0 0.0 0.0 0.0 0.0 0.0 0.0
0.0 0.0 0.0 0.0 0.0 0.0 0.0 0.0
0.0 0.0 0.0 0.0 0.0 0.0 0.0 0.0
0.0 0.0 0.0 0.0 0.0 0.0 0.0 0.0
0.0 0.0 0.0 0.0 0.0 0.0 0.0 0.0
0.0 0.0 0.0 0.0 0.0 0.0 0.0 0.0
0.0 0.0 0.0 0.0 0.0 0.0 0.0 0.0

action_model._discrete_distribution.branches.0.weight f4 [5, 128]
00000000: e079 383c aab2 cf3a 89f7 11ba 9ac1 85bb
00000010: 0ba4 5f3b 7b9b b73a bec6 99bc 474b c13b
00000020: 7b2a 09bb 87cb 33bc eceb 98bc 0a02 94bc
00000030: 5c0d 89bb 7db2 a2bc 0f6e 1c3c a067 cf3b
00000040: d27b a5bb 0bf5 5bbc 4f24 0bbc 2d6f 3ebb
00000050: 3ea3 83ba b795 ecbb 468b c2bb efe7 873b
00000060: 669d 8ebb f1cf 163c 463f 94bb 4237 193c
00000070: 2ee3 81bc 341b 9dbb 8f48 b4bb efcb 00bb
00000080: 4f72 de3b d15f 223c 2c54 9b3b 496f 0a3b
00000090: 95a6 8bbc bffa c93a b844 69bc 3178 813b
000000a0: 9001 7f3b 4a23 753c d2d4 fd3b 4d92 4bbc
000000b0: 038c bdba 3176 29bc dd54 993b 50f5 febb
000000c0: 13ca 08bc 87ae ffbb c095 cc3b adbd e9b9
000000d0: d2c5 5abc f40c 013c 04d3 273c 9020 b33a
000000e0: 98cf 703b ff37 9a3c 0c02 15bc 9f6b 2b3b
000000f0: 7bdb b73b 9e5b b23b 0c61 22bc 3d03 7c3b
00000100: 475f 653c 9d9d a53b 6f96 bd3b c001 28bb
00000110: cdd8 7a3c 130a a5ba c737 c7bb 65ca 383c
00000120: 0fbf 933c 07aa 28bc b747 6c3a f9e6 04bc
00000130: 9fa0 a03b 3b1f aaba 2bee 31bc 80d6 a93b
00000140: 8825 75bc 3c16 1dbb 7875 343c 5bed b63a
00000150: c9ab 383b ac6c 21bc ede3 48bc e4f4 093a
00000160: b317 debb 3009 3b3c 20c4 9bbc 320d f63b
00000170: d7eb 15bc f687 aabb cf13 903c 5d0a 58bc
00000180: 0b73 f0bb f80a 1ebc 47c0 243c ad03 803b
00000190: eb88 093c 036a ac3c 2b62 8a3b 224a eebb
000001a0: 495d 1f3c d7ad 363c 13a6 dc3b 7dc2 18bb
000001b0: 3014 d7bb ef0b 783a e35b 06bb a094 0dbc
000001c0: 562f 963c 51b9 98ba aec2 983a 175d 973b
000001d0: 05ae 0e3c 2280 403a 9d7c d6bb 6108 c1bb
000001e0: 7f7a 603c b36a ab39 b226 8c39 a7fb 8b3c
000001f0: 78e3 243c 6b40 ff3b d223 dfbb 2d05 5e3c
00000200: cf18 983b e022 48bc 418c c2ba f29c ebbb
00000210: 4273 363c efeb 793c 7bb4 293b bc8c a3bb
00000220: bfdb 9e3c 639a 0d3c 3147 1c3c dd68 f2bb
00000230: 0f03 b43a c73d 243c 7b91 5fbc b2f3 cbbb
00000240: bbef de3b 9afa 643b 75db 9abb 477c 80bc
00000250: 2f4b 513b e3bf 0fbc 542c 18bc d985 a33b
00000260: c7b9 60bc 12ea 573c 986d 0d3c a704 c239
00000270: 8f74 55bc 7759 13bc 7247 eabb 8333 053c
00000280: f01c 673b ec3e 0b3b 12bd fd38 874e c63b
00000290: d762 c73b 1340 c7ba 8589 edbb 77ca 783b
000002a0: fde4 693c 03c1 08bc ab60 48ba 1f70 4c3b
000002b0: eae3 783b 78ba dbba 0f87 b6bb e091 723c
000002c0: 9ed6 aebb 67db f83b 833b fcbb 00fe 9b3a
000002d0: 237f 58bc d845 84bb ef4d 983c bbcd 9d3b
000002e0: 7fe0 41bb aa4e b13b 5bac c53b 1b96 a2bb
000002f0: 028c 66bc f7cd 503c f31d e3bb ae5a 13bc
00000300: 5f6e 7ebb b2f3 22bb 4594 d1bb 8884 0abc
00000310: d83f 543c e83f c93c e563 23bc ebae 4dbc
00000320: 29d2 17bc e345 5cba 09c4 40bc 4ce9 253b
00000330: 43a1 a23c 2736 583c f944 c23b ff87 9fbb
00000340: ff0a 1dbb 456e 2aba e08f d5bb 2b01 3c3a
00000350: 9fa4 a63b cced 94bb 38a4 3dbc a24e 80bb
00000360: a132 ccbb dc6b 923b 65aa e33b d46b 353b
00000370: 8a2b 0bbb cb17 fb38 c3ac bdbb beb0 ccbc
00000380: b6a6 45bc f00b 753c 1fbe 81bb 9b33 7c3b
00000390: 0f31 b7bb 2749 593b f8d8 36bc b7dd f8bb
000003a0: 9792 a53b 1012 f73b dfe1 273b 28b7 323b
000003b0: 2fe3 a53b 1fba 40bc 9e3a 0cbc 9a88 a93c
000003c0: 3ed7 063a 9992 ad3c 703d df39 9333 6c3a
000003d0: 1cb5 093b ea7e 363b 1f2c 10bb 1379 f6bb
000003e0: 583e d3ba a75e c13b ebd3 80bb 523e a23b
000003f0: d0a3 f9bb 00aa 2b3c 4a26 53bc c701 38bc
0.011259526 0.0015846093 -0.00055681966 -0.004081917 0.0034124877 0.0014008129 -0.018771525 0.0058988663
-0.0020929861 -0.010973818 -0.018667184 -0.018067379 -0.0041825008 -0.0198605 0.009547724 0.0063294917
-0.005050161 -0.013425122 -0.008492543 -0.0029057965 -0.0010043157 -0.007219996 -0.005937013 0.0041475217
-0.0043522594 0.0092048505 -0.0045241443 0.009351553 -0.015855398 -0.0047945026 -0.0055018137 -0.0019652804
0.006788529 0.00991054 0.0047402587 0.002112346 -0.017047206 0.0015409811 -0.014237575 0.0039510955
0.0038910843 0.014962027 0.0077463174 -0.012425018 -0.0014461282 -0.01034312 0.004679306 -0.0077807084
-0.0083489595 -0.0078027877 0.0062434375 -0.00044582543 -0.013352828 0.007876623 0.010243181 0.0013666321
0.003674483 0.01882553 -0.009094726 0.0026156676 0.005610881 0.0054430505 -0.009910833 0.0038454079
0.013999767 0.0050541894 0.0057857553 -0.0025635809 0.015310478 -0.0012591503 -0.006079647 0.011278723
0.01803544 -0.010294444 0.0009013372 -0.008111709 0.00490196 -0.0012979278 -0.010860006 0.005183041
-0.014962561 -0.0023969552 0.011014335 0.0013956235 0.0028178564 -0.00985257 -0.012261373 0.0005262627
-0.0067777275 0.011415765 -0.019014418 0.007508897 -0.009150467 -0.005204196 0.01758757 -0.013186065
-0.007337933 -0.00964617 0.010055608 0.003906688 0.00839446 0.021046644 0.0042231283 -0.007272021
0.009726831 0.011149845 0.006733665 -0.0023309283 -0.006563686 0.00094622275 -0.0020501546 -0.008641392
0.018333118 -0.0011651908 0.0011654699 0.0046192515 0.008708482 0.0007343312 -0.006545617 -0.0058908914
0.01370108 0.0003269516 0.0002673171 0.01708777 0.010063998 0.0077896616 -0.00680969 0.013551039
0.0046416293 -0.012215346 -0.0014842824 -0.00719034 0.011135878 0.015254005 0.0025894928 -0.004991142
0.019391892 0.008642766 0.009538458 -0.0073977546 0.0013733822 0.0100244945 -0.013645525 -0.006224119
0.0068034804 0.003493941 -0.0047258683 -0.01568426 0.0031935682 -0.008773777 -0.009287912 0.004990321
-0.013716168 0.013178365 0.008632086 0.0003700603 -0.013028278 -0.008993498 -0.00714963 0.008129957
0.003526505 0.002124722 0.00012099197 0.0060518417 0.0060847807 -0.0015201591 -0.0072490596 0.0037962475
0.0142757865 -0.008346799 -0.0007643799 0.003119476 0.0037977644 -0.0016763946 -0.0055702995 0.014805287
-0.005335643 0.007594514 -0.007697524 0.001190126 -0.0132139055 -0.0040366463 0.01859185 0.0048157847
-0.0029583273 0.005410989 0.0060325093 -0.0049617416 -0.014071466 0.012744418 -0.0069310605 -0.008993788
-0.003882311 -0.0024864492 -0.006395849 -0.0084544495 0.012954675 0.024566606 -0.009972547 -0.012553911
-0.009266415 -0.0008402748 -0.011765488 0.0025316058 0.019852286 0.013196505 0.0059286323 -0.004868507
-0.0023962853 -0.0006501417 -0.0065173954 0.0007171805 0.0050855423 -0.004544949 -0.011574797 -0.0039156238
-0.0062316214 0.0044684242 0.006947803 0.0027682679 -0.0021235668 0.000119730445 -0.005788417 -0.024986621
-0.012063673 0.014956459 -0.003959432 0.0038482908 -0.005590565 0.0033155174 -0.011160128 -0.00759479
0.0050528753 0.007539995 0.0025616807 0.0027269814 0.005062483 -0.011763125 -0.008558897 0.02069502
0.0005143768 0.021188067 0.0004257965 0.00090103707 0.002101249 0.0027846643 -0.0021998954 -0.0075217574
-0.0016116602 0.005901176 -0.0039315126 0.004951277 -0.007618405 0.010477543 -0.012887547 -0.0112308925

action_model._discrete_distribution.branches.0.bias f4 [5]
00000000: 0000 0000 0000 0000 0000 0000 0000 0000
00000010: 0000 0000
0.0 0.0 0.0 0.0 0.0

network_body.linear_encoder.seq_layers.0.weight f4 [128, 9]
00000000: ce88 523e b0bb 0dbe 627b 1dbb 3c2d 0a3e
00000010: 3428 ef3e 9847 9b3e a448 3dbe 9e0a 873e
00000020: 269e a6be 888f 283f 9615 173f fa3d a43b
00000030: e43e 48bc 97bb e5be 14ef 31bc 4278 673e
00000040: 685a 4dbd 4483 1b3d 5588 05bf f442 babe
00000050: 4082 a73d 2631 773e 0b8e ecbe 5601 523e
00000060: d61e ffbd b449 243e 0e6e b7be 0f00 07b9
00000070: 8b78 b13d 3175 1c3e a3b9 123f fce4 ebbe
00000080: d211 adbe 47b9 56be 6eb6 863e 6afc b63d
00000090: 9a7d 273e d62d cbbd e676 d23e 9429 283e
000000a0: 373d 2c3e b1f0 17bc 227d ca3e 1bd6 f8bd
000000b0: 9add 68be cad9 993e 441b dc3e d47f 0f3e
000000c0: 9288 cdbe 0c55 8fbe fe0e 7dbe 19a5 143f
000000d0: f6df c0be dfeb 8b3d 8cff bebd 9564 0d3d
000000e0: f4b0 06bf 82c5 03be 6a58 92bd ee94 a4be
000000f0: afed 30be 3a14 403e 1605 243f 0e96 2f3e
00000100: da38 463d 5127 0d3f d48d 103f fe8e eabe
00000110: 541d d9bd afb7 0bbe 8ae5 503e b827 72be
00000120: 44e0 423e 6fd0 823e 70b8 043f d7ef 63bf
00000130: 6a18 25bf 1ec7 913f dbeb a53e af9d edbd
00000140: 1c99 dc3d 6ecb 52be 52ef 2c3f 2ab9 6abe
00000150: a480 0ebf 900a d13e f043 293e 6c09 8fbe
00000160: a305 81be baef 613d d0e9 073f b6dd acbe
00000170: 883d 15be fd02 09be 6823 cebe 3f18 923d
00000180: efb8 b5be caa1 f33c b422 883e 72c9 cf3e
00000190: b43a 1abf f20e 693c 0f8e c2bd 2c22 693e
000001a0: bcb8 4c3f 2804 ed3e e735 383e 3f30 a7be
000001b0: 0ca8 063f a498 ffbe 9f72 aabe 3c75 043d
000001c0: 7c6d 6a3e 3301 6ebe d3cf e339 94ab 2bbe
000001d0: 275c 6cbe 643f 50bf 35bb 0ebe 460e 023e
000001e0: c84e 28bd 4a1b 8dbe 804f 263d 2078 5ebe
000001f0: 3331 eabd 7612 8c3d e773 dbbe 1323 24bf
00000200: dbb2 02bf 762e 11bf c04e f43d 94d3 863e
00000210: 4410 09bf d3ed e23e 28d9 2d3e 40a5 313f
00000220: d727 743f f023 233f 490b a13e b475 1b3e
00000230: 1083 203e 244d 463e b696 b73e 449e 20be
00000240: 241b 70be 0050 d6be ae32 0e3d 0447 51be
00000250: 2078 8abc fac9 efbd ba19 f03e 68a5 9a3d
00000260: dae2 c0bd 5959 16bf 435f d53e 3394 35be
00000270: a6d4 30be 56a2 b1be 0652 5cbe 8e08 ed3e
00000280: deca 053e 0ebc 1a3d 1763 b03e 77d4 4dbf
00000290: 7798 913b fc3b 623d 1eb8 a6be 3540 8f3e
000002a0: aecd 36bd 43f0 4bbf 5a22 643e 0657 d5be
000002b0: 5b36 a2bd ead8 303d f776 b1be e043 a53d
000002c0: 1140 1ebd 76e6 21be 4682 65be c87c 0c3e
000002d0: 2b1b 5ebe 3820 3f3d 3209 fe3d 2cf2 b8be
000002e0: e508 9dbe 5731 293e 1b50 abbe 67d1 a6bc
000002f0: e8c1 1f3e d853 373d c2f6 1d3f a39f e33d
00000300: 10aa ae3e 4024 80bf e875 22bc 47bf cd3d
00000310: dfb6 bcbd fef2 dc3e d2e3 01bf 1a70 993d
00000320: d2c3 143f 527d 983e 3cbe f13d 0027 813e
00000330: d4b9 713d 16b6 fc3d ae63 a8be ebbe 2abf
00000340: efcb babd 86f0 fcbd fb40 21be 7673 ff3e
00000350: 586d 37be b795 ecbb 4cc3 44be 5c23 8abd
00000360: efbd 15bf bab5 3bbd ac0a debe 0a52 b03e
00000370: 069f 84be 878a 873e 98a6 20bf f202 1f3f
00000380: 9c53 1dbe f39d 2e3e ad98 1f3e f035 95be
00000390: dc85 22bf ee4d 11be 9a94 c63c dd7a 95be
000003a0: 32ba dc3d ccf1 a7bd cfc6 63be e412 1d3e
000003b0: 7e88 503e 5ad2 ad3d 744c fabe 2a3e 73be
000003c0: 2050 fa3d bc6f 95bd a24e 8ebe ce4f 28bf
000003d0: 6af3 903e 606d b33e f09b 69be 966c 453e
000003e0: 8232 843d 6484 203f 8b8e 393f 56c8 793e
000003f0: 3fca 733d 00f2 36bd 40af 3bbd e418 1ebd
0.2056 -0.13841128 -0.002402984 0.13493818 0.4671036 0.3032806 -0.18484741 0.26375288
-0.32542533 0.6584401 0.5901731 0.005012271 -0.012222026 -0.44869682 -0.010860223 0.22604468
-0.050135046 0.03796698 -0.5216115 -0.36379206 0.0817914 0.24139842 -0.4620212 0.20508322
-0.12457053 0.1604374 -0.35826153 -0.00012874625 0.0866557 0.1527908 0.5731451 -0.4607314
-0.33802658 -0.20969115 0.26311058 0.08934863 0.16356507 -0.09920852 0.41106337 0.16422111
0.16820227 -0.009273694 0.39548594 -0.121502124 -0.22740784 0.30048972 0.42989552 0.14013606
-0.40143257 -0.27994573 -0.2471275 0.5806442 -0.3767087 0.06832098 -0.093260854 0.03451975
-0.5261376 -0.12868312 -0.0714577 -0.32144874 -0.17278169 0.18757716 0.6407026 0.17147085
0.04839406 0.5513812 0.5646641 -0.4581222 -0.10601297 -0.13644288 0.20400062 -0.23647964
0.19030863 0.25549647 0.5184393 -0.8903784 -0.6449038 1.1388891 0.32406506 -0.116023414
0.10771391 -0.20585415 0.67552674 -0.22922197 -0.5566504 0.4082837 0.16529822 -0.27936876
-0.25199613 0.05516026 0.53091145 -0.33762902 -0.14574254 -0.13380046 -0.40261388 0.07133531
-0.35492656 0.029740233 0.26588976 0.40583378 -0.60245824 0.014224755 -0.09499752 0.22766942
0.7996938 0.46292233 0.17989312 -0.32653996 0.5260017 -0.49921143 -0.33290574 0.032338366
0.22893327 -0.23242645 0.00043451655 -0.1676467 -0.23082028 -0.81346726 -0.13938601 0.12700757
-0.041090757 -0.27559882 0.04060316 -0.21725512 -0.11435165 0.06839459 -0.42861864 -0.6411602
-0.5105416 -0.5671152 0.11929083 0.26333296 -0.53540444 0.4432207 0.1697737 0.69392776
0.9537329 0.6372671 0.31453922 0.15181619 0.15674996 0.19365364 0.3585717 -0.15685374
-0.23447853 -0.4185791 0.0347163 -0.20437247 -0.016902983 -0.11708446 0.46894628 0.0755108
-0.094182685 -0.58730084 0.4167424 -0.17732315 -0.17268619 -0.34694165 -0.21515664 0.4629559
0.13065669 0.037777 0.344506 -0.8040232 0.004443224 0.055232987 -0.32562345 0.27978674
-0.044629745 -0.79663485 0.22278729 -0.41667956 -0.07920524 0.043175615 -0.34661075 0.08069587
-0.038635317 -0.1581057 -0.22412977 0.13719475 -0.21690051 0.046661586 0.124040976 -0.36122262
-0.30670848 0.16522728 -0.33459553 -0.020363523 0.15601313 0.044757694 0.6170465 0.11114433
0.34114122 -1.0011063 -0.009915806 0.10046249 -0.092145674 0.43154138 -0.5073825 0.07492085
0.581113 0.29783112 0.118038625 0.25225067 0.05901511 0.12339418 -0.3288855 -0.6669757
-0.091209285 -0.12350564 -0.15747444 0.49892777 -0.17912805 -0.007219996 -0.19215125 -0.067450255
-0.5849294 -0.045827605 -0.43367517 0.3443759 -0.25902575 0.26472875 -0.627542 0.6211387
-0.15363926 0.1705244 0.15585585 -0.29142714 -0.63485503 -0.14189884 0.02424078 -0.291953
0.107777014 -0.08200416 -0.22243808 0.15339237 0.20364568 0.08487387 -0.48886454 -0.23754182
0.12222314 -0.07296702 -0.27794367 -0.6574677 0.2831071 0.35044384 -0.22813392 0.19279703
0.06454946 0.6270201 0.7248313 0.24392828 0.05951905 -0.044664383 -0.04582143 -0.038597956

network_body.linear_encoder.seq_layers.0.bias f4 [128]
00000000: 0000 0000 0000 0000 0000 0000 0000 0000
00000010: 0000 0000 0000 0000 0000 0000 0000 0000
00000020: 0000 0000 0000 0000 0000 0000 0000 0000
00000030: 0000 0000 0000 0000 0000 0000 0000 0000
00000040: 0000 0000 0000 0000 0000 0000 0000 0000
00000050: 0000 0000 0000 0000 0000 0000 0000 0000
00000060: 0000 0000 0000 0000 0000 0000 0000 0000
00000070: 0000 0000 0000 0000 0000 0000 0000 0000
00000080: 0000 0000 0000 0000 0000 0000 0000 0000
00000090: 0000 0000 0000 0000 0000 0000 0000 0000
000000a0: 0000 0000 0000 0000 0000 0000 0000 0000
000000b0: 0000 0000 0000 0000 0000 0000 0000 0000
000000c0: 0000 0000 0000 0000 0000 0000 0000 0000
000000d0: 0000 0000 0000 0000 0000 0000 0000 0000
000000e0: 0000 0000 0000 0000 0000 0000 0000 0000
000000f0: 0000 0000 0000 0000 0000 0000 0000 0000
00000100: 0000 0000 0000 0000 0000 0000 0000 0000
00000110: 0000 0000 0000 0000 0000 0000 0000 0000
00000120: 0000 0000 0000 0000 0000 0000 0000 0000
00000130: 0000 0000 0000 0000 0000 0000 0000 0000
00000140: 0000 0000 0000 0000 0000 0000 0000 0000
00000150: 0000 0000 0000 0000 0000 0000 0000 0000
00000160: 0000 0000 0000 0000 0000 0000 0000 0000
00000170: 0000 0000 0000 0000 0000 0000 0000 0000
00000180: 0000 0000 0000 0000 0000 0000 0000 0000
00000190: 0000 0000 0000 0000 0000 0000 0000 0000
000001a0: 0000 0000 0000 0000 0000 0000 0000 0000
000001b0: 0000 0000 0000 0000 0000 0000 0000 0000
000001c0: 0000 0000 0000 0000 0000 0000 0000 0000
000001d0: 0000 0000 0000 0000 0000 0000 0000 0000
000001e0: 0000 0000 0000 0000 0000 0000 0000 0000
000001f0: 0000 0000 0000 0000 0000 0000 0000 0000
0.0 0.0 0.0 0.0 0.0 0.0 0.0 0.0
0.0 0.0 0.0 0.0 0.0 0.0 0.0 0.0
0.0 0.0 0.0 0.0 0.0 0.0 0.0 0.0
0.0 0.0 0.0 0.0 0.0 0.0 0.0 0.0
0.0 0.0 0.0 0.0 0.0 0.0 0.0 0.0
0.0 0.0 0.0 0.0 0.0 0.0 0.0 0.0
0.0 0.0 0.0 0.0 0.0 0.0 0.0 0.0
0.0 0.0 0.0 0.0 0.0 0.0 0.0 0.0
0.0 0.0 0.0 0.0 0.0 0.0 0.0 0.0
0.0 0.0 0.0 0.0 0.0 0.0 0.0 0.0
0.0 0.0 0.0 0.0 0.0 0.0 0.0 0.0
0.0 0.0 0.0 0.0 0.0 0.0 0.0 0.0
0.0 0.0 0.0 0.0 0.0 0.0 0.0 0.0
0.0 0.0 0.0 0.0 0.0 0.0 0.0 0.0
0.0 0.0 0.0 0.0 0.0 0.0 0.0 0.0
0.0 0.0 0.0 0.0 0.0 0.0 0.0 0.0

network_body.linear_encoder.seq_layers.2.weight f4 [128, 128]
00000000: 1520 4fbd c82b 75bd 12f6 a6bd b4be bb3d
00000010: 8a55 103d 4ab5 28bc ec7c f83d 74b1 c73c
00000020: 88df 0a3c ccf2 1bbd 108b dbbc ebdf bfbd
00000030: c0bd e63b bee3 b7bd 5f08 bfbc 60b8 7f3d
00000040: 43ec 1d3d 059e 8c3c 108d 813d 4785 373d
00000050: e6c7 c23d d960 423d a384 56bc 49b7 b33d
00000060: eb2f a5bb 0f74 aebd b6a0 05bd 13e1 863d
00000070: 3828 303e fd91 ca3d a55d f8bd 28fa b8bd
00000080: b4d5 8ebc 941a e2bd 629a cabd 19b5 d03c
00000090: c76e 84bd 0ca6 c03c 770d 543d 54f9 cfbd
000000a0: fb71 d73d 5ac8 c0b8 cd46 3a3d bade 2f3d
000000b0: bb4d d83d dff7 143d cf4b 22be ace8 e4bd
000000c0: d084 08be fb06 aabd 617c 073e 5244 bcbc
000000d0: c150 b5bd 450f 2e3e 060b 28bd 362b 13be
000000e0: 7d6b 033e a1c4 6e3c d7b1 9abd 4210 77bd
000000f0: da28 6dbd b52f 60bc 461e 82bd c673 d6bb
00000100: b317 203d 0f32 d63d f781 3a3d 237d e13d
00000110: cb98 a53d 1f18 00be e9f9 b3bd c766 c4bd
00000120: 140e fbbd ea38 043d 2adb bc3c 9a1d 93bd
00000130: 1542 0abe abbb 1f3a a683 1c3e 80e2 c83c
00000140: b91c 78bb 680f 9abd c195 113d 10fd d1bd
00000150: 433c 673d 16e2 323d 37ca 1a3d 91ce ecbd
00000160: df78 d0bc 04f5 9a3c eced efbb 63fe 873d
00000170: 798a f53d d14c 863c 8c49 9b3d 55a4 8b3c
00000180: a479 86bc 9897 a6bd 4110 7bbe 80f0 a6bd
00000190: 778a a7be e926 9b3d 8731 eb3d b038 45bd
000001a0: c774 443c 2be5 8b3c afba 53bd 54f1 153e
000001b0: 3f08 05be b4a3 313e d3e6 0bbe 0b95 fd3c
000001c0: cdf9 21be 7606 0b3d aef3 833d 16cd b03c
000001d0: 44b0 3bbd f72c abbd 92d2 2c3c 3d10 b93b
000001e0: dd8f 1ebd 0dc8 313d 4574 da3d 8300 b3bd
000001f0: d7a6 e2bd c0ec 833c 3ff1 42bd 871f b03d
00000200: 638a 9fbd a37d 833d 6a88 79bc e565 1bbd
00000210: 5931 da3d e657 e03c c890 b53b 04c0 ff3c
00000220: 1acb a13d e892 a03d 8c6e c0bd 7ee7 eebc
00000230: 4e94 903d 50d7 233d b895 133e 8a98 25bd
00000240: e65c 853a ed63 633e 7bf6 aebc 7e0d 8c3d
00000250: 25a4 d5bd 1c3e 893c 9235 acbd 2a9e 04bd
00000260: b913 61bd e50d d2bc 4c12 a6bd d87a 06be
00000270: 8321 24bb 3b15 05be d5e0 8c3d e298 913a
00000280: 5e9c 08be e4a2 d43d 582f 17bd 0289 4a3d
00000290: 9364 983d f9d3 e9bc 04dd 19be aa38 853c
000002a0: 277a 473d 97d8 c43d cc0c 573c 708a 603c
000002b0: 53b1 8abd 15f8 05be 0a55 8f3d 22db ae3c
000002c0: 9642 7a3d 3d6c b2bd 4a49 853d b89c b83d
000002d0: c831 d63c 995d a8bd 81a3 1a3c 26ce 713c
000002e0: 938a e6bc eb38 fb3d c1ac 05be bfde 81bd
000002f0: c596 c2bc 0c1a b2bd 7a15 223e eda0 03be
00000300: f158 1e3d 2e1f cd3c 8395 293c 4f4c 82bc
00000310: 0355 8c3d 5ed2 ddbd 1383 f33d 7239 933d
00000320: eb02 99bd b86a e43c 5e2a fc3d a603 323d
00000330: fa1f 6c3d 0bb0 f8bc 19f2 f8bc a9f4 833d
00000340: 268e d93d 96cc e3bd 9d54 a3bd 5cc3 10be
00000350: 78d4 363d dc3f 833d 7892 483e 9883 e1bb
00000360: 97e8 b7bd 1f2e 993c d68f cc3d 26b6 403d
00000370: 91f2 093e b48b dabc b258 f93c 81aa 8cbd
00000380: e228 ebbb a9c2 1abd 6434 0e3d 5db5 12bd
00000390: b2dd 38be 2205 0abe 5d6e ebbd cfaa 533d
000003a0: ceea 333e 4aad 063d 5cca 4fbd 184a 173d
000003b0: 4b05 123d 7f5b 8abc d434 44bd f63f bfbd
000003c0: 7719 8f3d aaea 7f3d ab09 34be b158 d63d
000003d0: ad04 89bd d4aa 80bd 5b9e c2bc 641c 263d
000003e0: 0d68 f6bc 43ac ac3d a3be 9c3d d6f2 493d
000003f0: a555 603d 8000 c23b f414 a83b ca06 1ebd
-0.050567705 -0.059856206 -0.08152403 0.09167233 0.035237826 -0.010297129 0.12133202 0.024376608
0.008476146 -0.038073346 -0.026799709 -0.09368881 0.007041663 -0.08978985 -0.023319421 0.062431693
0.038555395 0.017165193 0.06325734 0.044804838 0.09510784 0.047455642 -0.0130931465 0.08775193
-0.0050411127 -0.0851823 -0.03262397 0.06585898 0.17202842 0.09891126 -0.12127236 -0.090320885
-0.017435886 -0.110402256 -0.098927274 0.02547698 -0.064664416 0.023516677 0.051770654 -0.101549774
0.10519787 -9.192592e-05 0.045477677 0.042937018 0.10561701 0.0363692 -0.15849231 -0.11177191
-0.13331914 -0.08302113 0.1323104 -0.022981796 -0.08853293 0.16998012 -0.041026138 -0.14371952
0.12833972 0.014573247 -0.075534515 -0.06031824 -0.057900287 -0.013683249 -0.063534304 -0.006544563
0.0390851 0.10458767 0.0455341 0.11010196 0.080857836 -0.12509201 -0.08787901 -0.09589916
-0.122585446 0.03228084 0.023053724 -0.071833804 -0.13501771 0.00060933334 0.15284595 0.024522066
-0.0037858917 -0.0752247 0.035543207 -0.10253346 0.056453954 0.043672644 0.037790503 -0.11562837
-0.02544826 0.01891566 -0.0073220637 0.06640317 0.11989302 0.01639405 0.07582387 0.017046133
-0.016415425 -0.08134383 -0.24517919 -0.081513405 -0.32722828 0.07575781 0.11484056 -0.048149765
0.0119907325 0.01707705 -0.051691707 0.1464284 -0.12991427 0.17347604 -0.13662271 0.030954858
-0.15817948 0.03394171 0.064429626 0.021582168 -0.045822397 -0.08358186 0.010548251 0.0056476877
-0.038711417 0.043403674 0.10666708 -0.08740332 -0.110669784 0.016104102 -0.04759335 0.08599763
-0.07790067 0.06420448 -0.015230278 -0.03793897 0.106539436 0.027385663 0.005540941 0.03121949
0.07900067 0.0784052 -0.09396085 -0.029163118 0.07059537 0.04000026 0.14412582 -0.040428676
0.0010174781 0.22206087 -0.021357765 0.06838511 -0.10431699 0.016753249 -0.08408655 -0.0323774
-0.05495045 -0.025641391 -0.081089586 -0.13132799 -0.0025044389 -0.1299638 0.06878821 0.0011108185
-0.133409 0.103826314 -0.036910385 0.049447067 0.07441058 -0.02854346 -0.15025717 0.016262371
0.048700478 0.09611624 0.01312561 0.013704881 -0.06772103 -0.13082917 0.06998642 0.021344725
0.061098658 -0.08712051 0.065081194 0.09014267 0.026146784 -0.08220977 0.009438396 0.014758622
-0.02814225 0.122667156 -0.13054182 -0.063413136 -0.023753533 -0.08696374 0.15828505 -0.12854357
0.03865904 0.025039282 0.010350588 -0.015905527 0.06852152 -0.1083114 0.11890235 0.07188691
-0.0747126 0.027882919 0.123127684 0.04346051 0.057647683 -0.030357381 -0.030388879 0.064431496
0.10622816 -0.11123006 -0.07975123 -0.14137024 0.04463622 0.064086646 0.19587123 -0.0068821423
-0.0897991 0.01869875 0.09988372 0.04704871 0.13471438 -0.026677944 0.030437801 -0.068684585
-0.0071765045 -0.0377833 0.034717932 -0.035817493 -0.1805332 -0.1347852 -0.114956595 0.051676568
0.1757004 0.032880105 -0.050730094 0.036935896 0.03564958 -0.016889332 -0.047901943 -0.093383715
0.06987279 0.062479652 -0.17581813 0.10466135 -0.06690345 -0.06282583 -0.02375715 0.04055442
-0.030078912 0.08431294 0.076535486 0.049303852 0.054769177 0.0059204698 0.005129451 -0.038580693

network_body.linear_encoder.seq_layers.2.bias f4 [128]
00000000: 0000 0000 0000 0000 0000 0000 0000 0000
00000010: 0000 0000 0000 0000 0000 0000 0000 0000
00000020: 0000 0000 0000 0000 0000 0000 0000 0000
00000030: 0000 0000 0000 0000 0000 0000 0000 0000
00000040: 0000 0000 0000 0000 0000 0000 0000 0000
00000050: 0000 0000 0000 0000 0000 0000 0000 0000
00000060: 0000 0000 0000 0000 0000 0000 0000 0000
00000070: 0000 0000 0000 0000 0000 0000 0000 0000
00000080: 0000 0000 0000 0000 0000 0000 0000 0000
00000090: 0000 0000 0000 0000 0000 0000 0000 0000
000000a0: 0000 0000 0000 0000 0000 0000 0000 0000
000000b0: 0000 0000 0000 0000 0000 0000 0000 0000
000000c0: 0000 0000 0000 0000 0000 0000 0000 0000
000000d0: 0000 0000 0000 0000 0000 0000 0000 0000
000000e0: 0000 0000 0000 0000 0000 0000 0000 0000
000000f0: 0000 0000 0000 0000 0000 0000 0000 0000
00000100: 0000 0000 0000 0000 0000 0000 0000 0000
00000110: 0000 0000 0000 0000 0000 0000 0000 0000
00000120: 0000 0000 0000 0000 0000 0000 0000 0000
00000130: 0000 0000 0000 0000 0000 0000 0000 0000
00000140: 0000 0000 0000 0000 0000 0000 0000 0000
00000150: 0000 0000 0000 0000 0000 0000 0000 0000
00000160: 0000 0000 0000 0000 0000 0000 0000 0000
00000170: 0000 0000 0000 0000 0000 0000 0000 0000
00000180: 0000 0000 0000 0000 0000 0000 0000 0000
00000190: 0000 0000 0000 0000 0000 0000 0000 0000
000001a0: 0000 0000 0000 0000 0000 0000 0000 0000
000001b0: 0000 0000 0000 0000 0000 0000 0000 0000
000001c0: 0000 0000 0000 0000 0000 0000 0000 0000
000001d0: 0000 0000 0000 0000 0000 0000 0000 0000
000001e0: 0000 0000 0000 0000 0000 0000 0000 0000
000001f0: 0000 0000 0000 0000 0000 0000 0000 0000
0.0 0.0 0.0 0.0 0.0 0.0 0.0 0.0
0.0 0.0 0.0 0.0 0.0 0.0 0.0 0.0
0.0 0.0 0.0 0.0 0.0 0.0 0.0 0.0
0.0 0.0 0.0 0.0 0.0 0.0 0.0 0.0
0.0 0.0 0.0 0.0 0.0 0.0 0.0 0.0
0.0 0.0 0.0 0.0 0.0 0.0 0.0 0.0
0.0 0.0 0.0 0.0 0.0 0.0 0.0 0.0
0.0 0.0 0.0 0.0 0.0 0.0 0.0 0.0
0.0 0.0 0.0 0.0 0.0 0.0 0.0 0.0
0.0 0.0 0.0 0.0 0.0 0.0 0.0 0.0
0.0 0.0 0.0 0.0 0.0 0.0 0.0 0.0
0.0 0.0 0.0 0.0 0.0 0.0 0.0 0.0
0.0 0.0 0.0 0.0 0.0 0.0 0.0 0.0
0.0 0.0 0.0 0.0 0.0 0.0 0.0 0.0
0.0 0.0 0.0 0.0 0.0 0.0 0.0 0.0
0.0 0.0 0.0 0.0 0.0 0.0 0.0 0.0

value_heads.value_heads.extrinsic.weight f4 [1, 128]
00000000: b87e bc3d 4da8 4dbe f6d6 40be 3eca 2d3e
00000010: 8a7a 503e 3e72 54be e03d 103d 488e 69bd
00000020: e44b 253e 7a67 ebbd 7bd9 04be ce8d 163e
00000030: dda2 e1bd 68eb 743d d055 e83d b802 d23d
00000040: c0b4 f1bc 309b 533e 3af0 1a3e 1c85 263e
00000050: dee5 55be 9241 233e 0067 03bc 2af7 16be
00000060: 6050 b13d 7324 bdbd 007d a4ba 32a4 34be
00000070: 28ff 3b3d ecb1 483e c03a db3d a48b 893d
00000080: d71e f3bd ea52 aabd c458 0abe 148a e73d
00000090: 3858 3bbd e96f d1bd 4848 3dbe 8097 be3a
000000a0: 98e6 3c3d a556 c5bd 9868 4a3e ca54 223e
000000b0: e1fa 2dbe 3cb9 093e e924 3fbe 2ead d8bd
000000c0: 0e17 463e d8b1 59bd 4063 f9bb e849 6bbd
000000d0: b2e1 8fbd c219 4a3e 587c 323d 6213 1c3e
000000e0: 0cbc 283e ca55 bbbd 67f1 dabd 1e3f 11be
000000f0: 7cc4 02be 3015 3c3c 98c6 d33d 98b5 463d
00000100: 4d67 01be 0223 b1bd 7494 9e3d 34ae 39bd
00000110: a052 e33d d8bb e5bc c8c1 c2bc f613 5a3e
00000120: 745b 1ebe 83ba 14be 85b6 38be af8e 0bbe
00000130: e8fd b5bd 50e6 bf3d 0460 9d3d fa3f 2cbe
00000140: b377 53be 9026 4f3e 8a44 023e 8773 2cbe
00000150: 027b 223e f057 603c 80eb a9bd 6c29 c13d
00000160: 2cad b53d a4f4 03bd b4c7 be3d b855 233d
00000170: 0cf7 ab3d 3a32 86bd c8aa 703d 0b4e cdbd
00000180: 883b ef3d e2a0 56be b566 42be f033 1bbc
00000190: e0cf 9fbd f00e f93c 2063 7c3c ae88 08be
000001a0: 3c69 d7bd 2aeb 363e a25c 3a3e 680b 363e
000001b0: 568a 8fbd d845 853c a4ac a63d 92a9 56be
000001c0: d824 dfbd a81b d93c e2e9 093e d81c 22be
000001d0: f421 bc3d a6e8 2abe c6f6 593e d04a fbbc
000001e0: bad9 8dbd a909 f9bd e7f1 d4bd 625b 513e
000001f0: 00ac 16bc 4a38 453e 3820 933d e431 ccbd
0.09203857 -0.20083733 -0.18832001 0.1697168 0.20359245 -0.20746705 0.03521526 -0.057020456
0.16142231 -0.11494346 -0.12973587 0.14702532 -0.11017392 0.059794813 0.113444924 0.10254425
-0.029505134 0.20664668 0.15130702 0.16261715 -0.20888469 0.15942982 -0.008020163 -0.14742723
0.086579084 -0.09235468 -0.001254946 -0.1764076 0.045897633 0.19599122 0.10704565 0.067160875
-0.118711166 -0.08316596 -0.13510424 0.11305633 -0.04573843 -0.10226423 -0.18484604 0.0014541
0.04611835 -0.09635667 0.19766462 0.15852657 -0.16990234 0.13449568 -0.18666424 -0.105799064
0.19344732 -0.05314812 -0.0076107085 -0.05744353 -0.0702547 0.19736388 0.043575615 0.15241769
0.16477984 -0.09147222 -0.10690575 -0.14184234 -0.12770265 0.011479661 0.10340613 0.048513025
-0.12637062 -0.08649255 0.07743159 -0.04533215 0.11099744 -0.028043672 -0.023774043 0.21296677
-0.15464574 -0.14524274 -0.18038376 -0.13628648 -0.088863194 0.093701005 0.07684329 -0.1682128
-0.2065113 0.20229554 0.12721458 -0.16840945 0.15867236 0.013692841 -0.08296871 0.09431729
0.088709205 -0.03221573 0.09315434 0.03987667 0.0839673 -0.06552549 0.05875662 -0.10024651
0.116812766 -0.2095981 -0.18984492 -0.009472832 -0.07803321 0.03040263 0.015404493 -0.13333389
-0.10518119 0.17863145 0.18199399 0.17777789 -0.07008807 0.016268656 0.08138397 -0.20963123
-0.10895699 0.026502445 0.13468125 -0.15831316 0.091861635 -0.16690311 0.21285543 -0.030675322
-0.06926294 -0.12160046 -0.10397702 0.20445016 -0.009196281 0.19259754 0.071838796 -0.099704534
