UnityController/results/alex/MoveToGoal/MoveToGoal-896.pt (torch, 154183 bytes, 11 tensors)

network_body.linear_encoder.seq_layers.0.weight f4 [128, 9]
00000000: fc0c 103f 84de 043f 4eaf 71be 6386 62bd
00000010: dc60 f83e b1d1 0dbe caca b3be 2806 a83d
00000020: 5418 fb3e 2f01 ebbd e2dc 83bc d555 1b3e
00000030: 3c26 703e c0cb c1be 4a57 123f c088 3e3e
00000040: bc3d ae3e a39b 77bc ba63 943d bba4 08be
00000050: 43e1 ab3e 88f2 a53d e31c fdbd 2ca0 9d3e
00000060: 975b 933e 0a5b 0a3e e098 cd3d 651f 11be
00000070: c3b2 0bbe 1fa8 2b3f dfa0 40be b2b6 25bf
00000080: bc01 e53d 6e75 8a3e 1b72 32be c448 86be
00000090: d090 aabe 3218 bb3e ca18 7bbe 7634 c4be
000000a0: 7a51 b53e eff8 e6bd 49a3 9f3d da89 b2bd
000000b0: ee8f 433f 33f4 cb3e 6836 40be 6a04 cfbd
000000c0: cc57 6b3e db5c 663e 63e2 3dbf 111f 0bbf
000000d0: 5081 563e 26af 20bf f0ad b13e 444a a13e
000000e0: 9c62 07be fbff 71be 17f8 0abe 50d9 96be
000000f0: 82f4 1a3d 17b3 bfbe 20c5 893d 573d 8bbd
00000100: 661a 7c3e e698 153e 4aa4 593f 96c0 edbd
00000110: 2a20 27bc 25e4 18bf 0258 3cbf fdd1 083f
00000120: dc6e 58be 7a04 b43e 4e7d 8e3e 6afd b43e
00000130: 80ba 9f3e 4602 3c3d 185a 903e 160f adbe
00000140: 6096 c5be da5b a63d 5e72 503e 57d8 d2be
00000150: 2c06 1f3d be54 71be 62c6 5bbe bbc3 afbe
00000160: 0516 96bc 3806 bc3e 3e7f ebbe 04ba 2cbe
00000170: 1f5d eb3e 67bd 74bd 24b6 273e 7ec1 abbc
00000180: 2e66 28bf eeed 763e e0e1 e9be 93cf bb3e
00000190: eaa7 5dbe d8c8 a23e 3b57 aa3d 5f50 8abe
000001a0: 8067 b73e 4849 b2bd f3b6 e63c 3c4e a8be
000001b0: e386 413f 4ae6 d7be efec 97be b1d4 133f
000001c0: 9480 8e3e 5ead 40be 864a bdbd e000 12bf
000001d0: 3a40 2b3e 9af4 273f b8c8 ba3e 14c0 d6be
000001e0: d81d 4d3e 17ac ea3e d66a e53e b692 eb3d
000001f0: b269 04bf b7aa d0be ce6e 11be badb 833e
00000200: 7749 6d3e 38bd ae3d 3e8c 3e3f 3a95 5dbf
00000210: a610 4c3f f0ab 543d 236f e7be a427 57be
00000220: 193a a2bc 9231 da3e 40ce 92be fb22 d33e
00000230: 4879 ba3e e078 f9be 5a6f a63d 4624 58be
00000240: 9235 5c3e 1acb 7a3d 2f46 b3be 6780 2e3f
00000250: 4763 333e 434b 91be b885 373f fa9c 093f
00000260: 4806 e2be bcd5 92be 43d7 b0bb 40e5 0c3e
00000270: 97b9 5a3e fecc febe 2e0e 953e c47d 34be
00000280: 4005 a33e 66c7 f1be ccce 593e 3c08 3d3e
00000290: 9e84 383f 62e3 c6be c42b e93e 3a5b 4fbe
000002a0: a210 d33d 07a9 bc3d ee2c ddbd 680a 24bf
000002b0: 930e 71bc 1f2f 31bf f74e 5cbe b6f8 30bd
000002c0: efd2 0e3d b805 98bd 8817 73bd 726e 34bf
000002d0: e06b cd3e 6776 18bf 2aac 10bf da09 fbbd
000002e0: 3ee2 0d3f 9c72 c23e ca32 933e 3717 af3d
000002f0: 27cc 9c3e ea4d 403d c477 2dbf a4b9 703e
00000300: 86f7 333d 4ca3 c33d b33e fa3d f325 66be
00000310: 30d6 0d3f 2473 333e aa32 d53e 9832 b4bc
00000320: 5aaa 8bbe 0236 22bf c3de 043e b26d a9be
00000330: fc8c 103f c76f 103f 3ef8 123e f01e a0be
00000340: d8c9 7abf 0697 41bf 475b bcbe e7b1 e43e
00000350: f1d8 243f ab5f dcbd d37b dcbe 5029 d7bd
00000360: ee36 da3e cc94 fbbd b68b 8ebc e83e 6ebd
00000370: fbe8 e4be 9ea4 843d 5a23 153c ca8a 203d
00000380: efef edbd 6f07 a1bd 1ca4 0cbd ab87 ac3c
00000390: 6fd7 d2bd 761a 443e b3d2 343f c3bb 86bd
000003a0: b475 b33e c59d 193f 9ba0 323e 72ad 963e
000003b0: 5a8b de3d e498 c53d 636d 5a3c aaa8 1cbe
000003c0: 8f04 713e 878d ce3e 6e87 b63e aaf8 e6bd
000003d0: b4c5 9abe 7430 1e3c de64 eebd 7e2f 1f3e
000003e0: 6ed3 c4be 84d9 7fbe 3d12 0e3d 30f1 273e
000003f0: 3a58 9dbd a6a9 24bd 6481 67bd 8475 3f3c
0.5626981 0.5190203 -0.2360203 -0.055303942 0.48511398 -0.13849522 -0.35115653 0.08204299
0.49041998 -0.11474835 -0.016096536 0.15169461 0.23452085 -0.3785076 0.5716444 0.18606853
0.34031475 -0.01511279 0.07245584 -0.1334409 0.335703 0.081029 -0.12359025 0.30786264
0.28780815 0.13511291 0.10038924 -0.14172132 -0.13642411 0.6705341 -0.18811367 -0.64731896
0.111819714 0.27042717 -0.1742634 -0.2622739 -0.33313608 0.36541897 -0.24521175 -0.38321275
0.35413724 -0.11277949 0.07794816 -0.08717699 0.76391494 0.39834747 -0.18770754 -0.10108264
0.2298271 0.22496359 -0.74173564 -0.5434428 0.20947766 -0.62767255 0.34703016 0.31501973
-0.1322121 -0.23632805 -0.13571201 -0.2946267 0.037830837 -0.37441322 0.06727052 -0.06798809
0.24619445 0.14609107 0.8501631 -0.116089985 -0.01020054 -0.5972312 -0.7357179 0.53445417
-0.2113604 0.35159665 0.27829975 0.3534959 0.31196976 0.045900606 0.28193736 -0.33800572
-0.3859129 0.08122988 0.20356128 -0.4118068 0.038824245 -0.23567483 -0.21462396 -0.34329018
-0.018321047 0.36723495 -0.45995516 -0.16867834 0.45969483 -0.05975094 0.16378075 -0.020966288
-0.65780914 0.241142 -0.4568014 0.36681804 -0.21646085 0.31793857 0.08317419 -0.27014443
0.35821152 -0.087053835 0.028163409 -0.32872188 0.75596446 -0.42167884 -0.29672953 0.57746416
0.27832472 -0.18816134 -0.0924273 -0.57032585 0.16723719 0.6560761 0.3648126 -0.4194342
0.20030916 0.4583442 0.44808072 0.11502592 -0.5172378 -0.40755245 -0.14202425 0.25753576
0.23172556 0.08532184 0.7443274 -0.86555827 0.79712903 0.051921785 -0.45201978 -0.21011215
-0.019803094 0.42615944 -0.2867298 0.41237625 0.36420655 -0.48725033 0.081267074 -0.21107587
0.2150481 0.06122885 -0.35014483 0.68164676 0.1751834 -0.28377733 0.71688414 0.5375515
-0.44145417 -0.2867869 -0.005396755 0.13759327 0.2135986 -0.49765772 0.2911238 -0.17626101
0.31839943 -0.4722244 0.21270293 0.18460172 0.7207736 -0.38845354 0.45541203 -0.20249644
0.10305907 0.09211927 -0.10799585 -0.6407838 -0.014712947 -0.69212526 -0.21514498 -0.04320594
0.03486913 -0.07422966 -0.059348613 -0.70481026 0.40121365 -0.5955567 -0.565127 -0.122577384
0.55423343 0.37978065 0.28749686 0.0854935 0.30624506 0.046949305 -0.6776087 0.23508316
0.04393723 0.09552631 0.1221899 -0.22475414 0.5540495 0.17524391 0.41640216 -0.021996781
-0.27278405 -0.6336366 0.12975602 -0.33091503 0.56465125 0.5642056 0.1435251 -0.31273603
-0.9796424 -0.7562107 -0.3678839 0.4466698 0.64393526 -0.10760435 -0.4306322 -0.105059266
0.42620033 -0.1228424 -0.017400604 -0.05816546 -0.44709 0.06476711 0.009102667 0.03919486
-0.11618029 -0.07862746 -0.034336194 0.021060785 -0.10294997 0.19150719 0.70634 -0.065787815
0.35050738 0.6000636 0.17444079 0.29429203 0.10866423 0.09648302 0.013331744 -0.15298715
0.23536895 0.40342352 0.356502 -0.11277898 -0.3022896 0.009655107 -0.11640333 0.1554546
-0.38442558 -0.2498532 0.034685362 0.164006 -0.076828435 -0.04020085 -0.05651988 0.011685733

network_body.linear_encoder.seq_layers.0.bias f4 [128]
00000000: 0000 0000 0000 0000 0000 0000 0000 0000
00000010: 0000 0000 0000 0000 0000 0000 0000 0000
00000020: 0000 0000 0000 0000 0000 0000 0000 0000
00000030: 0000 0000 0000 0000 0000 0000 0000 0000
00000040: 0000 0000 0000 0000 0000 0000 0000 0000
00000050: 0000 0000 0000 0000 0000 0000 0000 0000
00000060: 0000 0000 0000 0000 0000 0000 0000 0000
00000070: 0000 0000 0000 0000 0000 0000 0000 0000
00000080: 0000 0000 0000 0000 0000 0000 0000 0000
00000090: 0000 0000 0000 0000 0000 0000 0000 0000
000000a0: 0000 0000 0000 0000 0000 0000 0000 0000
000000b0: 0000 0000 0000 0000 0000 0000 0000 0000
000000c0: 0000 0000 0000 0000 0000 0000 0000 0000
000000d0: 0000 0000 0000 0000 0000 0000 0000 0000
000000e0: 0000 0000 0000 0000 0000 0000 0000 0000
000000f0: 0000 0000 0000 0000 0000 0000 0000 0000
00000100: 0000 0000 0000 0000 0000 0000 0000 0000
00000110: 0000 0000 0000 0000 0000 0000 0000 0000
00000120: 0000 0000 0000 0000 0000 0000 0000 0000
00000130: 0000 0000 0000 0000 0000 0000 0000 0000
00000140: 0000 0000 0000 0000 0000 0000 0000 0000
00000150: 0000 0000 0000 0000 0000 0000 0000 0000
00000160: 0000 0000 0000 0000 0000 0000 0000 0000
00000170: 0000 0000 0000 0000 0000 0000 0000 0000
00000180: 0000 0000 0000 0000 0000 0000 0000 0000
00000190: 0000 0000 0000 0000 0000 0000 0000 0000
000001a0: 0000 0000 0000 0000 0000 0000 0000 0000
000001b0: 0000 0000 0000 0000 0000 0000 0000 0000
000001c0: 0000 0000 0000 0000 0000 0000 0000 0000
000001d0: 0000 0000 0000 0000 0000 0000 0000 0000
000001e0: 0000 0000 0000 0000 0000 0000 0000 0000
000001f0: 0000 0000 0000 0000 0000 0000 0000 0000
0.0 0.0 0.0 0.0 0.0 0.0 0.0 0.0
0.0 0.0 0.0 0.0 0.0 0.0 0.0 0.0
0.0 0.0 0.0 0.0 0.0 0.0 0.0 0.0
0.0 0.0 0.0 0.0 0.0 0.0 0.0 0.0
0.0 0.0 0.0 0.0 0.0 0.0 0.0 0.0
0.0 0.0 0.0 0.0 0.0 0.0 0.0 0.0
0.0 0.0 0.0 0.0 0.0 0.0 0.0 0.0
0.0 0.0 0.0 0.0 0.0 0.0 0.0 0.0
0.0 0.0 0.0 0.0 0.0 0.0 0.0 0.0
0.0 0.0 0.0 0.0 0.0 0.0 0.0 0.0
0.0 0.0 0.0 0.0 0.0 0.0 0.0 0.0
0.0 0.0 0.0 0.0 0.0 0.0 0.0 0.0
0.0 0.0 0.0 0.0 0.0 0.0 0.0 0.0
0.0 0.0 0.0 0.0 0.0 0.0 0.0 0.0
0.0 0.0 0.0 0.0 0.0 0.0 0.0 0.0
0.0 0.0 0.0 0.0 0.0 0.0 0.0 0.0

network_body.linear_encoder.seq_layers.2.weight f4 [128, 128]
00000000: b845 94b9 da31 ca3b 58ec db3b 8ef0 0c3d
00000010: 5439 69bc 9c4d 8dbd 4307 cfbc b2a9 2cbd
00000020: ee8b cf3b 6e84 0ebc 6ed3 dcbd 0644 15be
00000030: 4c3f aeba cb9c aa3d d670 083c a592 42bd
00000040: aa6c fa3b 2037 83bd bb2f 173c d6f1 99bd
00000050: 9c17 0f3e 964a 693d c83e 00be 865c 783c
00000060: 97dc 78bd 00eb 983d dc09 733d 3464 563e
00000070: f233 ce3d b438 d8bd 021e d2bd 3a2b 9d3d
00000080: c531 cbbb d442 66bb cba4 483d 660c 30bd
00000090: 5dcd e83d 3575 23bd 8fdc 54be e640 f63c
000000a0: d767 aabd 7178 e03d 0264 0cbe be9d 84bd
000000b0: 80ec 1f3e 4e85 9fbd 6add 12be 27d7 543c
000000c0: 7406 0ebd 98b7 1cba e970 79be 76a9 aabc
000000d0: 86d9 3a3d b014 923d c42d f83b b188 58bd
000000e0: 31fa 15bc b956 a23d 3462 49bd 2383 2cbd
000000f0: 051b 3ebe 821e c0bd 716a 223d bb3c 97bd
00000100: 519d d73b cf4c a5bd fc71 4c3d 626e 1ebd
00000110: 728f 57bc cba0 2cbd 3242 883d ae07 8c3d
00000120: 94ec adbb b7fd ec3d 338b 213e 9947 c3bd
00000130: 14dc f83c 5dbd 58bd 76cb 923d f76b 893d
00000140: b7b7 12be 923e 983d aa95 60bd 4aab 003d
00000150: 71f3 2f3e 2701 463d 2750 f63d 04e0 86bd
00000160: 2def ed3c eddf f33d ce5b e43d 453b 85bd
00000170: 1028 ddbc a5ef 8fbc 637e f8bc c208 c13d
00000180: f278 843c 2a22 c4bc 1028 14be c3b8 683d
00000190: 9102 d33d 4640 033d b025 363d b570 903c
000001a0: 6d58 f1bd b0c7 be3c 2535 e53d 0358 a5bc
000001b0: c852 4d3d 572f 11bd 36f3 c43a d743 74bd
000001c0: 6fc0 7d3d 9598 e0bd 2b54 273d 7140 823c
000001d0: 22a5 66bc 9279 503d e174 4e3e 1488 d9bd
000001e0: 07ca 96bd 4898 5bbd b64b 18bd 2f5a 92bc
000001f0: a8d1 39be d3bd 713e a318 143e c02e 0f3e
00000200: e0aa 543b 1d6c dd3c 8276 13bd a188 4ebe
00000210: 1e4a 6a3b 16c2 6dbc 13a8 273d 3cdd d93d
00000220: 987b d9bd 4251 793e 2da9 00bd 23e5 e2bb
00000230: daa2 d2bd 71e7 763c 8f32 153e b0fe 67bd
00000240: 4cb9 7abb cc0c ecbd fc28 353e f15b ab3d
00000250: 3a21 dabd b4cd 793c d136 173e b264 d6bd
00000260: 2f38 c3bb 5a55 3fbd 884c 183d c354 13be
00000270: 3995 8a3d eca1 f93d 13d1 96bd 2857 12be
00000280: 1da8 0abd ca29 16be 1b62 a13d 8222 073c
00000290: d84f 2b3e 2d01 8e3d 5c44 583a ceb3 2fbd
000002a0: b0c9 b73d 80a1 e83d ac07 40bd a24e 793c
000002b0: ce66 20bc db6a 13be 0959 103e eb24 9bbd
000002c0: a1d0 5f3d ac58 94bc ce51 203d 8469 cd3d
000002d0: c0d8 083e 947a b4bc d891 e93d 6e55 9abd
000002e0: 2214 27bc 0554 07be 184a 403e 1e9a 74bd
000002f0: 6c5d 10be 7533 c43c eede 033d 414e e23d
00000300: 03f1 aabd 51b3 a1bd 5e93 44ba 11dd bb3c
00000310: 6c72 a9bd 2781 4d3e b157 033e a9d4 7cbd
00000320: 8bb9 30bc ec2e f4bd b096 e8bd 46d4 5c3c
00000330: afa7 4bbd 10b0 4abd ccd5 a33d 444a 273d
00000340: 5322 3fbc c6a2 323e e45a 36bc d8f8 13bd
00000350: f35b eabd 5771 1a3d 82a5 23bd 8c91 ac3d
00000360: 6ae6 89bd b73a 98bd 1510 60be d146 1bbd
00000370: 100b 063d 750a 113e baa5 bf3d cfcf c3bc
00000380: 83f6 ed3c eea0 fe3d 30e3 123d c69c f03d
00000390: d585 18be a899 39bd 1d7b 92bd 8060 d63d
000003a0: cbf2 823c f0c7 5b3e 9b03 dfbd 3dcb 3dbd
000003b0: 4a69 2d3e be95 963d ecca 23bd bbf0 293d
000003c0: b19a e53c b256 da3a 0027 723d 5042 b0bd
000003d0: 051a 36bd a258 923d 0421 083d a90e d4bd
000003e0: a44c 88bd ed45 b1bb a677 f33d 6bc8 bcbd
000003f0: d12c efbd 5dd5 dc3d a14a ae3c cb24 e13d
-0.00028280704 0.0061704936 0.006711524 0.0344091 -0.0142348595 -0.068995684 -0.025272017 -0.04215402
0.0063338196 -0.008698566 -0.107825145 -0.1457673 -0.001329401 0.08330687 0.008327683 -0.047503132
0.0076423483 -0.06406999 0.009227688 -0.0751683 0.1397385 0.056955896 -0.12523949 0.015158778
-0.060757246 0.07466698 0.059335575 0.20936662 0.100685015 -0.1055769 -0.1025963 0.076742604
-0.0062010013 -0.0035135048 0.048985284 -0.042980574 0.11367295 -0.0399067 -0.20787261 0.030060243
-0.08320587 0.109604724 -0.13710025 -0.064753994 0.15617561 -0.07789098 -0.14342275 0.012990749
-0.034674123 -0.00059782853 -0.24359478 -0.020832758 0.045617603 0.07132852 0.007573815 -0.052864734
-0.009153889 0.07926697 -0.04916592 -0.04211725 -0.18564995 -0.09380819 0.03965229 -0.0738463
0.006580033 -0.08071291 0.04991339 -0.038679488 -0.013156759 -0.04214553 0.06653251 0.06837402
-0.0053077433 0.1157183 0.15775757 -0.095351405 0.030378379 -0.052914966 0.07167713 0.06710046
-0.14327894 0.07433809 -0.05483023 0.031413354 0.1718271 0.048340943 0.120270066 -0.06585696
0.029044712 0.11907945 0.11150323 -0.065054454 -0.026996642 -0.017570326 -0.030333703 0.094254985
0.016170952 -0.023942072 -0.14468408 0.056816828 0.10303224 0.032043718 0.044469535 0.017631868
-0.11784444 0.023288578 0.11191777 -0.020183569 0.050127774 -0.035445537 0.0015026096 -0.05963501
0.061951097 -0.10966603 0.040851753 0.015899869 -0.014077457 0.05089719 0.20161773 -0.10621658
-0.073627524 -0.053612024 -0.03718158 -0.017865269 -0.18146384 0.23607568 0.14462523 0.13982677
0.0032450482 0.027029091 -0.03600169 -0.20169307 0.0035749744 -0.014511606 0.040931772 0.106379
-0.10619277 0.24347404 -0.03141134 -0.006924288 -0.10284968 0.015069828 0.14570068 -0.056639373
-0.0038257418 -0.11525878 0.17691416 0.08367146 -0.10650869 0.015246797 0.14767005 -0.10468425
-0.0059576253 -0.046712257 0.03718236 -0.14387803 0.06766743 0.12189087 -0.073640965 -0.1429106
-0.03385173 -0.14664379 0.0788004 0.008247973 0.16729677 0.06933818 0.00082499324 -0.042896084
0.08974016 0.11358929 -0.046882316 0.015216501 -0.009790136 -0.14396231 0.14096464 -0.07575401
0.054642323 -0.018108688 0.039140515 0.10029891 0.13363934 -0.022031106 0.114047706 -0.07535826
-0.010197671 -0.13215645 0.18778265 -0.05971729 -0.14098138 0.023950318 0.032195024 0.11050082
-0.083467506 -0.0789553 -0.0007498766 0.022932561 -0.08273777 0.20068799 0.1282642 -0.061726246
-0.010786424 -0.11923012 -0.11356866 0.013478344 -0.049720462 -0.049484313 0.07999763 0.04084231
-0.011665898 0.17444906 -0.011130068 -0.036125988 -0.11443319 0.037705746 -0.039952762 0.08426198
-0.06733401 -0.07433074 -0.21881135 -0.037909333 0.032725394 0.14164145 0.09357782 -0.023902802
0.02904821 0.12433039 0.035861194 0.11748652 -0.14894803 -0.045312554 -0.07152388 0.10467625
0.015984913 0.21462989 -0.108893596 -0.0463364 0.16934696 0.0735278 -0.039988443 0.041489344
0.028027864 0.0016657917 0.059119225 -0.08606398 -0.044458408 0.071458116 0.03323461 -0.10354359
-0.06655243 -0.005409947 0.118880555 -0.09217914 -0.1167847 0.10782883 0.02127582 0.10993346

network_body.linear_encoder.seq_layers.2.bias f4 [128]
00000000: 0000 0000 0000 0000 0000 0000 0000 0000
00000010: 0000 0000 0000 0000 0000 0000 0000 0000
00000020: 0000 0000 0000 0000 0000 0000 0000 0000
00000030: 0000 0000 0000 0000 0000 0000 0000 0000
00000040: 0000 0000 0000 0000 0000 0000 0000 0000
00000050: 0000 0000 0000 0000 0000 0000 0000 0000
00000060: 0000 0000 0000 0000 0000 0000 0000 0000
00000070: 0000 0000 0000 0000 0000 0000 0000 0000
00000080: 0000 0000 0000 0000 0000 0000 0000 0000
00000090: 0000 0000 0000 0000 0000 0000 0000 0000
000000a0: 0000 0000 0000 0000 0000 0000 0000 0000
000000b0: 0000 0000 0000 0000 0000 0000 0000 0000
000000c0: 0000 0000 0000 0000 0000 0000 0000 0000
000000d0: 0000 0000 0000 0000 0000 0000 0000 0000
000000e0: 0000 0000 0000 0000 0000 0000 0000 0000
000000f0: 0000 0000 0000 0000 0000 0000 0000 0000
00000100: 0000 0000 0000 0000 0000 0000 0000 0000
00000110: 0000 0000 0000 0000 0000 0000 0000 0000
00000120: 0000 0000 0000 0000 0000 0000 0000 0000
00000130: 0000 0000 0000 0000 0000 0000 0000 0000
00000140: 0000 0000 0000 0000 0000 0000 0000 0000
00000150: 0000 0000 0000 0000 0000 0000 0000 0000
00000160: 0000 0000 0000 0000 0000 0000 0000 0000
00000170: 0000 0000 0000 0000 0000 0000 0000 0000
00000180: 0000 0000 0000 0000 0000 0000 0000 0000
00000190: 0000 0000 0000 0000 0000 0000 0000 0000
000001a0: 0000 0000 0000 0000 0000 0000 0000 0000
000001b0: 0000 0000 0000 0000 0000 0000 0000 0000
000001c0: 0000 0000 0000 0000 0000 0000 0000 0000
000001d0: 0000 0000 0000 0000 0000 0000 0000 0000
000001e0: 0000 0000 0000 0000 0000 0000 0000 0000
000001f0: 0000 0000 0000 0000 0000 0000 0000 0000
0.0 0.0 0.0 0.0 0.0 0.0 0.0 0.0
0.0 0.0 0.0 0.0 0.0 0.0 0.0 0.0
0.0 0.0 0.0 0.0 0.0 0.0 0.0 0.0
0.0 0.0 0.0 0.0 0.0 0.0 0.0 0.0
0.0 0.0 0.0 0.0 0.0 0.0 0.0 0.0
0.0 0.0 0.0 0.0 0.0 0.0 0.0 0.0
0.0 0.0 0.0 0.0 0.0 0.0 0.0 0.0
0.0 0.0 0.0 0.0 0.0 0.0 0.0 0.0
0.0 0.0 0.0 0.0 0.0 0.0 0.0 0.0
0.0 0.0 0.0 0.0 0.0 0.0 0.0 0.0
0.0 0.0 0.0 0.0 0.0 0.0 0.0 0.0
0.0 0.0 0.0 0.0 0.0 0.0 0.0 0.0
0.0 0.0 0.0 0.0 0.0 0.0 0.0 0.0
0.0 0.0 0.0 0.0 0.0 0.0 0.0 0.0
0.0 0.0 0.0 0.0 0.0 0.0 0.0 0.0
0.0 0.0 0.0 0.0 0.0 0.0 0.0 0.0

action_model._discrete_distribution.branches.0.weight f4 [6, 128]
00000000: ac4d 803c e77e d1bb e199 ac3c f3fc 08bb
00000010: 7c70 13bc 6238 0c3c 33b6 b33b d2e6 febb
00000020: 3471 ab3a 78a8 75bb 0a79 4d3c 75e2 793b
00000030: d9f7 093c 6175 0bbc a04d 91bc e0c7 7e3b
00000040: 08a4 4d3c 72eb dcbb b3cd 393c 4745 aabb
00000050: 2249 7ebb 3f1e 003c 80ab 70bc 53e3 de3b
00000060: 667b 47bc 6d2b 0b3c 9014 263c 44ae 8a3c
00000070: 6cf3 4a3c d710 c83b 1b42 00bb c87a 5bbc
00000080: 8b2b 72ba ddbe 08bc 674d 2dbc 4e48 8dba
00000090: f864 bc3a ba33 7b3b 0558 393b c307 063c
000000a0: 2a2f 383b aa08 58bb 7545 cf3a c0c7 3abb
000000b0: c07f 46bc aac1 543b 20d4 e2bb 2596 cbbb
000000c0: dce4 313c e839 98bb 29a1 823c 8f4b 8d3b
000000d0: b3f8 25bc 908b f4b9 5d3c 27bb f928 143b
000000e0: 465d 83bc f622 c73a f6d6 8cbc 89b4 08bc
000000f0: abc7 d23b af83 c939 f205 67bc e5d5 8fbc
00000100: fbbc ec3b db44 00bb dab5 29ba b39a f33b
00000110: bb6e 33b8 67aa 603c 3f56 2c3b 138b a93b
00000120: bb74 2f3c 9c1a ab3a 652f 1abc 5746 cc3b
00000130: 8535 523c 0d4f 8bbc f02a 8cbc 9b9e df3b
00000140: 90f7 963b 422b 7fbc 2f8d 05bc 1877 af3a
00000150: a022 67bb 5f44 0c3c 2d1a 803b 4820 f039
00000160: 17cd ab3b 8923 383c b1f1 99bc 776a 47bc
00000170: fe1b 91ba 3aaf 943c 836d a33b 75e6 d03b
00000180: 6b93 a83b 5b8c 6fbc ac6c 043c 5f83 5dbc
00000190: 33f9 063c 6cc6 053c 1220 5d3c c375 063c
000001a0: 37b4 383c 97bf cc3a fb2b 95bb d737 37bb
000001b0: 3330 153c 37df cc38 df13 3b3b 901a 683b
000001c0: 0215 06bb 8792 b03b bde7 bcba 72da 34ba
000001d0: d8c6 b43a 9811 d83a 48af 543c 5e5d 4cba
000001e0: e78a a8ba b8da 143c b334 a8b9 60a3 833a
000001f0: 2bce a13c e703 b2bb d5ea b3ba 0f1c 75bc
00000200: 1dde a73b a2db ccbb 20ad 513b 8074 fcba
00000210: 4b93 54bb bd4e 083c da44 68bc 120f f9bb
00000220: 322e 58bb 077e 333c 05de 88bb 3be8 a4bb
00000230: 32bd 4abc 97ea 8abc 05eb 753b d013 c03b
00000240: 5412 39bc 9565 08bb 03db ddbb 320f 943b
00000250: 573a 9ebc 5fe4 3b3c 6bb6 bd3a 7dc9 62bc
00000260: 2cae 863b 1eb4 0abc cebb 18ba 7a28 ce3c
00000270: 3f09 033c 9fe5 b6ba f771 db3b df41 a8bb
00000280: eba8 eebb 3adb 79bc ad6d c63b b8e9 6e3b
00000290: d741 8e3c 7530 94bb 3829 26bb d3ca a9bc
000002a0: b95e 19ba cde2 20bc 9a86 89bb 7b3f 0ebc
000002b0: 1a77 543b ad04 2c3c 2b20 8b3c e0ec e33b
000002c0: 0a2e eaba 4b60 cbbb 87f2 973b 9770 89ba
000002d0: d2c5 3c3c 3fdb 943b 0e86 b7bb 360e 94bb
000002e0: 572e f239 d37c e43b e6f6 083b 6245 a9ba
000002f0: d4f5 3bbc 1fa4 0ebc 4e39 253c 3d02 1a3b
00000300: 4b5d 64bc e144 05bc 05ef 40bc c475 0abc
00000310: 461d 0b3b 0b47 89bb 407f 1239 3db9 66bb
00000320: 8fdc 363b 8114 a839 26e2 89bb ab68 46bc
00000330: 05a9 f7ba db12 44bc 902e 4b3b 3020 f53b
00000340: 8a15 e9bb 75a0 a93c 054a 473a d8e4 87bb
00000350: 5f0f 703c 8365 1b3c 8aa4 913b f764 06bc
00000360: 8dc0 edba 6fac 8d3b 73ce 8bbb 6f91 b4bb
00000370: 97bf 3cbc b065 763b f286 733b b59b e9bb
00000380: 0b61 503b 1374 1e3c 8b0b 9a3c 2281 abbb
00000390: dfdc 6139 9f46 a8bc bf26 dc3b c2fc 0abb
000003a0: 075d 603c cf20 13bc d336 df3b 0490 063c
000003b0: 3aa0 88b9 ce48 3c3c 27da b33b 525f 0cbc
000003c0: a99c 36bb b156 b0bb b6c4 c4bb 542a a6bb
000003d0: 3aa6 dfbc 4d1f a93b 237e 213b 2d81 aebb
000003e0: 4f67 7f3b d3c5 16bc 75a2 52bb 6ac5 903b
000003f0: 4319 123c a777 81bb 575f db3c 5aa4 45bc
0.015662037 -0.0063933018 0.021069469 -0.0020902723 -0.008998986 0.008558365 0.0054843663 -0.007778981
0.0013080002 -0.0037484448 0.012541065 0.0038129364 0.008420908 -0.008511872 -0.01773721 0.003887646
0.012551315 -0.0067419345 0.011340546 -0.005196247 -0.0038800915 0.007819711 -0.014689326 0.0068020015
-0.012175417 0.00849424 0.010136738 0.0169288 0.012387138 0.006105523 -0.0019570652 -0.013395973
-0.0009238056 -0.008346287 -0.010577536 -0.0010778995 0.0014373353 0.0038330392 0.0028281223 0.0081805615
0.0028104284 -0.0032964149 0.0015813546 -0.0028500408 -0.012115419 0.0032464066 -0.00692226 -0.006212967
0.010857787 -0.004645575 0.015945988 0.004311986 -0.010130095 -0.0004664329 -0.0025518157 0.002260743
-0.016035687 0.0015192914 -0.017192345 -0.008343824 0.0064324937 0.0003843582 -0.014100539 -0.017558048
0.0072246767 -0.001957229 -0.00064739364 0.007434213 -4.278005e-05 0.013712502 0.0026296524 0.0051740496
0.010708983 0.0013054195 -0.009410714 0.006233971 0.012830143 -0.017005468 -0.017110318 0.006824327
0.0046071485 -0.015574278 -0.008151337 0.0013386933 -0.003526844 0.008561223 0.0039093704 0.0004580042
0.0052429545 0.011238941 -0.018792005 -0.012171379 -0.0011070964 0.01814996 0.00498742 0.006375129
0.0051445267 -0.014620866 0.00808255 -0.013520091 0.008238125 0.008164983 0.013496416 0.0082067875
0.011273435 0.0015621063 -0.004552362 -0.0027956867 0.00910573 9.769055e-05 0.002854578 0.0035416223
-0.00204593 0.005388561 -0.0014412325 -0.0006899006 0.001379217 0.0016484736 0.012981243 -0.0007795895
-0.0012858779 0.00908535 -0.0003208272 0.0010043196 0.019751629 -0.005432594 -0.0013726602 -0.014960303
0.0051229135 -0.006251768 0.003199406 -0.0019260794 -0.0032436426 0.008319554 -0.014176572 -0.0076006735
-0.003298652 0.01095534 -0.0041768574 -0.005032567 -0.012374209 -0.016957564 0.0037524116 0.005861737
-0.011295874 -0.00208125 -0.006770493 0.004518413 -0.019314928 0.011468022 0.001447392 -0.013841984
0.0041101184 -0.008465795 -0.0005826325 0.025165785 0.00799781 -0.001395393 0.0066969353 -0.0051348056
-0.00728332 -0.015250022 0.006055555 0.0036455225 0.01736538 -0.004522378 -0.0025354158 -0.020726597
-0.00058506016 -0.0098196985 -0.004196954 -0.008682127 0.0032419623 0.010499162 0.016983112 0.006955728
-0.0017866504 -0.0062065474 0.004637066 -0.0010485825 0.011521773 0.0045427377 -0.0056006974 -0.0045182956
0.00046192363 0.006972888 0.0020899116 -0.0012914354 -0.011472184 -0.008706122 0.010084463 0.002349987
-0.013938258 -0.008134098 -0.011775737 -0.008450929 0.0021227165 -0.004189377 0.0001397105 -0.0035205625
0.002790246 0.00032058734 -0.004207867 -0.012109916 -0.0018894976 -0.011967386 0.0031003095 0.0074806437
-0.0071131634 0.020706395 0.00076022773 -0.0041471533 0.014652102 0.0094846515 0.0044446634 -0.008202783
-0.001813905 0.004323534 -0.004266554 -0.005510501 -0.011520288 0.0037597232 0.003715929 -0.0071291574
0.0031796123 0.009671229 0.018804332 -0.0052338997 0.00021539953 -0.020541487 0.006718486 -0.0021207784
0.013694054 -0.00897999 0.0068119555 0.008213047 -0.0002605932 0.011491967 0.0054886523 -0.008567648
-0.0027864373 -0.005381428 -0.006004895 -0.005070964 -0.027300943 0.005161202 0.0024641834 -0.0053254575
0.0038971489 -0.009202438 -0.003214029 0.004418065 0.008917156 -0.0039510312 0.02677886 -0.01206311

action_model._discrete_distribution.branches.0.bias f4 [6]
00000000: 0000 0000 0000 0000 0000 0000 0000 0000
00000010: 0000 0000 0000 0000
0.0 0.0 0.0 0.0 0.0 0.0

network_body.linear_encoder.seq_layers.0.weight f4 [128, 9]
00000000: b35e 76bc a3b2 e1bd 9b02 8f3b efdc a3be
00000010: e793 c83e e692 303e 7e71 9f3d 04b8 883e
00000020: 07a8 e83e dcc8 163f 765a e1be ab84 2dbe
00000030: ea9d 5f3e b084 c3be 6ffa 363e 2f95 e1be
00000040: d46f 203e 2cb8 6ebe d497 56bd f7f7 c03e
00000050: 5f36 82be b4ff 82be 249d c53e 4dc9 053f
00000060: 78c5 cf3e 6c28 54be 54e6 0c3f b56b 843d
00000070: 81b2 8f3e f831 e7bd d6a8 343f cd3f 043e
00000080: 8368 f13e 46c0 a1bc e7ac 2abe 0bfa dd3d
00000090: 33a4 383f feef 9f3e f242 123f 72b5 cb3e
000000a0: 4fa2 c83d b819 22be 83b0 653d 7566 1abd
000000b0: 6a31 793e 3024 9d3e 58f0 b6bd 9ec8 023f
000000c0: db16 b33e 1c70 0c3f fc5f bfbe 8c4c dabc
000000d0: 9aa8 9dbd be2f c8be aa62 97be 9202 6fbd
000000e0: b46d 043f b311 623e 7c81 103e 32ac 66bd
000000f0: 420f 633e e470 2cbf a8c6 c13e 36b7 8f3e
00000100: 563e 7d3c a61b 11be 8978 87be 6b0d 753d
00000110: 9d9e 11be 2f3e b03e 877e 843e 3609 72bc
00000120: b073 41be 8b98 d9be 743f 84be 4bdb 5a3e
00000130: 60c8 c7be 8c60 313e eeff 8a3e 1f44 c83e
00000140: 8bfe 9d3e aa7f 983e 9052 15bf 78e3 7bbd
00000150: 5449 41be 2590 29be 449e 28bd cab6 813e
00000160: f6ef 4dbf 370b 49be af5b 78be 2574 96be
00000170: 5bfa 1f3d ae82 8dbe 66f9 28bd a328 3c3e
00000180: 61a1 803e 14c9 863e 264a f6bd 91cb 25be
00000190: 8637 a6be cf3a 29be ce98 083f 4cce 2fbe
000001a0: 4c22 cabe e099 85be 44a1 ffbd 12a4 c9be
000001b0: ff93 b3be 7844 24be 6016 9d3e 948d 0a3e
000001c0: b67c e63e 1372 d6be a4a9 94be a615 0fbf
000001d0: 040d 753e d2c0 25bf b215 c0bb 04ff 37be
000001e0: f73e f2bb 8989 1c3f 67fe 3f3e a0c7 87be
000001f0: 6201 043d 3c77 bcbe d082 e5be 4ff0 373e
00000200: e383 c2bd a6d8 9bbe b6b2 4b3e 2f3a cd3c
00000210: a4e9 823e b0ea a5bd cbc7 c8be 36fd 763e
00000220: d88c c9be d2de d73e affe 12bf 2ed4 b6be
00000230: 13fd 613e 5a81 963d 77e0 fa3e 8cee ccbd
00000240: e3cf 9b3d 042a a8be 56e2 5fbe 03c0 5e3e
00000250: 2031 36be 1344 abbe 725c 18bd 4bde e3bd
00000260: c63a b63e a479 cdbe c042 3fbf 3c93 6bbe
00000270: fef3 be3d bb4e ba3e 27e4 babe bf68 c33e
00000280: 7aab 9c3e 2291 ea3e 14aa 9f3e aefa f93e
00000290: c6f9 0dbf 96d1 1cbd ab1e efbe ad79 213e
000002a0: f81b 213d 6eae 55bc 4d47 2abf 967e ce3b
000002b0: 6e66 6dbe fcef 553e 5c55 d5bd 57e9 7cbe
000002c0: 9f84 58bd 729a 44bf 6da4 aabe 4e48 fc3e
000002d0: 443c 1d3e 58fe afbe f64f a2be ab42 efbe
000002e0: 6855 04bf 9f99 d83e a858 1d3e 4b0c b43e
000002f0: 9911 293f 7c12 a63d 79f3 09bf 96b3 3bbe
00000300: aca5 b03e 04f5 c4bd 120e 68bd f6c5 bf3e
00000310: 6657 a33d 3452 b23e a09a 2c3e b3f7 ea3d
00000320: bc62 72be 661a 523e 9735 d03e b180 11bf
00000330: 98d4 a8be 3b66 943c 7680 07be 06ed bb3e
00000340: bc25 053d 3808 ed3d 2ae1 d9bd b6fd 01bd
00000350: b2b3 41be 2c76 9fbd 28e5 a03b 0c1e 083e
00000360: 9e93 e3be bb1a 2bbf c66a bb3c 823a 18bf
00000370: 1a4d 49be 1aea f0bd 981d 28bf b3bb 30bf
00000380: e300 62ba 9e6d ce3e 4670 06be 2234 b0be
00000390: 9805 d1be 65c8 823d 99d6 133c f2ed 643e
000003a0: 9ebc 59be 9cba b93d fff3 b93d d7be cabd
000003b0: 628f ea3d 2802 dc3e 9a02 e1be 1a9f 29be
000003c0: cf54 81be 0152 00be 3b8c dd3d 868f 6f3e
000003d0: be91 5bbe cf13 abbe 6ac0 853b f86f 4e3d
000003e0: fe45 febb 6490 96be 7af8 d83e 5988 a43d
000003f0: 7e4c c3be fbd8 3f3e 987a 983d f20c e43d
-0.0150372265 -0.110204004 0.0043643243 -0.32004496 0.3917534 0.17243537 0.07785319 0.26702893
0.45440695 0.5890024 -0.4401433 -0.1694514 0.21837583 -0.3818717 0.1786897 -0.4405913
0.15667659 -0.23312443 -0.05239089 0.37689182 -0.25432107 -0.2558571 0.3859645 0.52260286
0.40580344 -0.20718545 0.5503895 0.06465856 0.28065875 -0.11288828 0.70570123 0.12914963
0.4715005 -0.019745003 -0.1666752 0.108387075 0.7212555 0.31237787 0.571334 0.3978687
0.09796583 -0.15830123 0.056076538 -0.037695367 0.24335256 0.3069167 -0.08932561 0.5108737
0.34978375 0.54858565 -0.37377918 -0.026647829 -0.07698174 -0.39098924 -0.29567462 -0.05835206
0.51729894 0.22077064 0.14111894 -0.056316562 0.22173789 -0.6735976 0.37846875 0.28069466
0.015456757 -0.14170703 -0.2645915 0.05982725 -0.14220662 0.34422442 0.25877783 -0.014772704
-0.18891788 -0.42499194 -0.2582966 0.21372716 -0.39020061 0.17321986 0.27148384 0.39114472
0.30858263 0.297849 -0.58329105 -0.061496228 -0.18875629 -0.16558893 -0.04116656 0.2533477
-0.80444276 -0.19633184 -0.24253725 -0.29385486 0.039057117 -0.27638763 -0.04125347 0.18374877
0.25123122 0.26325285 -0.120258614 -0.16190936 -0.32464236 -0.1652634 0.5335816 -0.1716854
-0.3947929 -0.2609396 -0.12481931 -0.39382988 -0.3507385 -0.16041744 0.30681133 0.1353057
0.45017022 -0.41883907 -0.29035676 -0.5589241 0.23930746 -0.64747345 -0.0058619613 -0.17968374
-0.00739276 0.6114736 0.1874939 -0.2651949 0.03222788 -0.3680972 -0.44826365 0.17962764
-0.09497812 -0.30438727 0.19892392 0.025052158 0.2556888 -0.08101404 -0.3921493 0.2412003
-0.39365268 0.42162186 -0.57419866 -0.35708755 0.22069196 0.073488906 0.48999378 -0.10006437
0.076080106 -0.32844555 -0.21863684 0.21752934 -0.17792177 -0.33450374 -0.037197538 -0.111263834
0.35591716 -0.40131867 -0.7471123 -0.23005384 0.093238816 0.36388192 -0.3650219 0.38165852
0.30599576 0.45813853 0.31184447 0.48824066 -0.5545925 -0.038285814 -0.46703085 0.15769072
0.039333314 -0.013042076 -0.66515046 0.0063017113 -0.23183605 0.20892328 -0.10416672 -0.24698387
-0.052860852 -0.76798165 -0.33328572 0.49273914 0.15355021 -0.34373736 -0.3170163 -0.4673055
-0.5169282 0.42304704 0.15365851 0.3516563 0.66042477 0.08108994 -0.53887135 -0.18330225
0.34501398 -0.096170455 -0.056654043 0.3745572 0.07975654 0.3482834 0.1685586 0.11473026
-0.23670477 0.20517883 0.40665886 -0.5683699 -0.32974696 0.018115154 -0.13232598 0.36704272
0.03250669 0.11573833 -0.1063865 -0.0317361 -0.18916205 -0.07786211 0.00491013 0.13292712
-0.4444856 -0.6683766 0.022878062 -0.59464276 -0.19658318 -0.11763401 -0.65670156 -0.69036406
-0.0008621348 0.40318006 -0.13128766 -0.34414774 -0.4082458 0.063858785 0.009023332 0.22356394
-0.21263358 0.09068796 0.09079742 -0.09899681 0.11453129 0.42970395 -0.43947297 -0.16564599
-0.25260016 -0.12531282 0.108177625 0.23394594 -0.21442315 -0.3341355 0.0040817754 0.05039975
-0.0077598086 -0.29407036 0.42377073 0.08033819 -0.38144296 0.18735115 0.07445258 0.111352816

network_body.linear_encoder.seq_layers.0.bias f4 [128]
00000000: 0000 0000 0000 0000 0000 0000 0000 0000
00000010: 0000 0000 0000 0000 0000 0000 0000 0000
00000020: 0000 0000 0000 0000 0000 0000 0000 0000
00000030: 0000 0000 0000 0000 0000 0000 0000 0000
00000040: 0000 0000 0000 0000 0000 0000 0000 0000
00000050: 0000 0000 0000 0000 0000 0000 0000 0000
00000060: 0000 0000 0000 0000 0000 0000 0000 0000
00000070: 0000 0000 0000 0000 0000 0000 0000 0000
00000080: 0000 0000 0000 0000 0000 0000 0000 0000
00000090: 0000 0000 0000 0000 0000 0000 0000 0000
000000a0: 0000 0000 0000 0000 0000 0000 0000 0000
000000b0: 0000 0000 0000 0000 0000 0000 0000 0000
000000c0: 0000 0000 0000 0000 0000 0000 0000 0000
000000d0: 0000 0000 0000 0000 0000 0000 0000 0000
000000e0: 0000 0000 0000 0000 0000 0000 0000 0000
000000f0: 0000 0000 0000 0000 0000 0000 0000 0000
00000100: 0000 0000 0000 0000 0000 0000 0000 0000
00000110: 0000 0000 0000 0000 0000 0000 0000 0000
00000120: 0000 0000 0000 0000 0000 0000 0000 0000
00000130: 0000 0000 0000 0000 0000 0000 0000 0000
00000140: 0000 0000 0000 0000 0000 0000 0000 0000
00000150: 0000 0000 0000 0000 0000 0000 0000 0000
00000160: 0000 0000 0000 0000 0000 0000 0000 0000
00000170: 0000 0000 0000 0000 0000 0000 0000 0000
00000180: 0000 0000 0000 0000 0000 0000 0000 0000
00000190: 0000 0000 0000 0000 0000 0000 0000 0000
000001a0: 0000 0000 0000 0000 0000 0000 0000 0000
000001b0: 0000 0000 0000 0000 0000 0000 0000 0000
000001c0: 0000 0000 0000 0000 0000 0000 0000 0000
000001d0: 0000 0000 0000 0000 0000 0000 0000 0000
000001e0: 0000 0000 0000 0000 0000 0000 0000 0000
000001f0: 0000 0000 0000 0000 0000 0000 0000 0000
0.0 0.0 0.0 0.0 0.0 0.0 0.0 0.0
0.0 0.0 0.0 0.0 0.0 0.0 0.0 0.0
0.0 0.0 0.0 0.0 0.0 0.0 0.0 0.0
0.0 0.0 0.0 0.0 0.0 0.0 0.0 0.0
0.0 0.0 0.0 0.0 0.0 0.0 0.0 0.0
0.0 0.0 0.0 0.0 0.0 0.0 0.0 0.0
0.0 0.0 0.0 0.0 0.0 0.0 0.0 0.0
0.0 0.0 0.0 0.0 0.0 0.0 0.0 0.0
0.0 0.0 0.0 0.0 0.0 0.0 0.0 0.0
0.0 0.0 0.0 0.0 0.0 0.0 0.0 0.0
0.0 0.0 0.0 0.0 0.0 0.0 0.0 0.0
0.0 0.0 0.0 0.0 0.0 0.0 0.0 0.0
0.0 0.0 0.0 0.0 0.0 0.0 0.0 0.0
0.0 0.0 0.0 0.0 0.0 0.0 0.0 0.0
0.0 0.0 0.0 0.0 0.0 0.0 0.0 0.0
0.0 0.0 0.0 0.0 0.0 0.0 0.0 0.0

network_body.linear_encoder.seq_layers.2.weight f4 [128, 128]
00000000: 4554 193e 8e01 bebc c536 fabb 6047 e9ba
00000010: 8b30 3a3e 8614 0cbd ca3a 1e3d a21c d1bd
00000020: 0961 af3d d0ec ed3d f599 8bbd 1e74 13be
00000030: 4683 35bd 40eb 023d 019b cbbd cf26 9e3d
00000040: a1cc 103e a7a7 34be 3c2c 653c 5ebf f43d
00000050: 4a9e d7b8 b6fa 403a e8cc 76bd 0c9e 973c
00000060: 8dc2 6d3d 905e 4bbe 32b0 af3d 8319 5cbc
00000070: 52c3 33bd 36e3 57bd d201 eabc b5e7 323e
00000080: eae5 f83d 0880 63bd 65b7 343d f6e2 26bd
00000090: 9484 c23d 3674 7dbd 6e52 30be ec44 84bd
000000a0: 0615 08bc 5bfa 0f3e 5d6a d9bc e83b 043d
000000b0: fca6 da3c 5242 0e3e 874e f6bd 3bf2 f63d
000000c0: c049 5cbc a10b f63c f638 3a3c 8ae9 743e
000000d0: e774 a2bc 1c5b c6bd 287c 04bd b649 283d
000000e0: 619c 66bd 2318 8fbd 2887 32bb 1ca5 8bbd
000000f0: ecf3 8b3d b536 fa3d 5c59 dbbd 0030 5b3e
00000100: a813 2d3e 40d1 8dbd b651 053e c4c2 013d
00000110: fcca cdbc c39f 75bd 6c1c 1a3c d295 d6bc
00000120: 9515 2d3e 8972 4b3c ca23 d6bd d31d 5c3d
00000130: 7bf2 8b3d d2c6 4e3e c9fc 923d ce04 0d3d
00000140: b475 82bd b3fe dc3d 9902 8e3d 0098 ddbc
00000150: cd08 aa3d ff06 11be 3730 e1bd 570a eb3d
00000160: 7fc7 f1bb d1b4 033d 476b 973c f35d 94bd
00000170: 1bc8 4f3d 74c9 cabd 4408 d53b 3c9d db3d
00000180: fdbc ecbd 2325 a53d 4954 fb3d 8663 a63d
00000190: 693c f9bc 81f0 f13c 2619 003d 075c e83c
000001a0: 5053 aebd 5caa 8fbd 5fce b4bd 10d7 093e
000001b0: b63f 8dbd dfb1 393b 5806 e7bd 9d41 52bd
000001c0: d9c8 8dbd 724e 61bb 1292 a0bd a0b7 7bbd
000001d0: 435e a5bd 5aa3 c6bd 3896 2e3e 0355 043e
000001e0: 953b edbc 0745 87bd d444 cdbd a147 ffbc
000001f0: 2886 0c3d 71a4 c6bd 4f7a de3d c0a0 f2bc
00000200: 9d59 103b de74 743d 834f a13c c4e8 793c
00000210: 35c3 773d e9ac 843a 4748 0b3d f19d a6bd
00000220: 73ce 52bd 1ccf 9abd 9593 f1bd 8596 12be
00000230: dc1c 033e fb4a bc3c 4aac ae3d 0235 c3bd
00000240: 62d0 11be 6ed8 2f3e a7d2 25be ff76 52bd
00000250: 73de 003d 6c12 44bb 44a6 adbc ed91 edbc
00000260: 82a7 0bbe 4816 053d 30b0 59bd c738 18bc
00000270: e3b7 9d3c 0794 773c 9641 0f3d 7666 fd3c
00000280: e0cf 95bd 2192 0b3b 88eb fdbd e5c5 c6bd
00000290: 5628 dd3a 77f9 cf3d e354 3ebd 09c9 f83c
000002a0: f57e 23bd 0504 163d 8406 db3d 7917 93ba
000002b0: 7cd7 25be 9773 623e 6304 65bd 7771 55be
000002c0: e57f 33be 300a 71bd 5980 d5bc 978a 1ebe
000002d0: bfbb 1c3d 33ce e13d 1c68 dbbd 0cac 2fbd
000002e0: 924b 11bd a6cb e0bd 15b5 8cbc 18a0 d0bd
000002f0: e7b8 aebd f913 393d 2094 83bd c906 10bd
00000300: 46ee cfbc abfb 56bd 7b68 633d 72bf 41be
00000310: c9e5 a8bd fc91 813d 99c8 4b3d 8cbb d7bd
00000320: a334 e23c 6cf0 9ebd 945d 65bc f43d c03b
00000330: 88cd a0bc 0397 7b3c a293 e33b 846c c53c
00000340: db0b 11bd 553a e4bd 85ed d33c 68a1 843d
00000350: 1d59 b63c f4fc 0f3d a646 463e 4084 39bd
00000360: a49a 903b 3e31 48bd bf99 90bd b5dd 7b3d
00000370: 81b4 f2bd 83af 293e 1f0f 05be 57b7 6fbd
00000380: 218e 3d38 5f0d d03c 1f4c e83c 6169 8c3c
00000390: 69fc 8a3c 97e7 18be 0197 953d 2dc0 2b3d
000003a0: 22ef 06bd 6b30 49bc 8d65 90bc bf36 b8bd
000003b0: d822 bebd 042a dc3d ee3c f9bd ef29 dbbd
000003c0: 1a3c 203d c0eb 403e 1370 163e d7b5 bbbd
000003d0: ec27 963d 32ee d0bd b8ce 1dbe c3fe 9fbb
000003e0: 1f05 b7bd 89a8 2bbb 5a6a 87bc 646f f83c
000003f0: ba90 36bd 9caa 463d 119c c9bb df0d a03d
0.14973553 -0.0231941 -0.0076359236 -0.0017797761 0.1818258 -0.03419926 0.038630284 -0.102105394
0.0856343 0.11617434 -0.06816474 -0.14399764 -0.044314645 0.031962633 -0.09941674 0.07722246
0.1414056 -0.1764208 0.013987597 0.11950563 -0.000102814825 0.00073615776 -0.060254008 0.01850798
0.058046866 -0.19860291 0.085785285 -0.013433817 -0.043887444 -0.05270692 -0.028565321 0.17471202
0.121532276 -0.055542022 0.04412021 -0.04074379 0.094979435 -0.061878406 -0.17218944 -0.06458458
-0.008305794 0.14060347 -0.026539976 0.032283694 0.026690952 0.13892487 -0.12026697 0.120579205
-0.013445318 0.030034842 0.01136612 0.23917213 -0.019831134 -0.096853465 -0.032344967 0.04108592
-0.05630148 -0.069870256 -0.0027241204 -0.068186015 0.06833634 0.12217466 -0.10710403 0.2140503
0.1690203 -0.06924677 0.13019451 0.031679884 -0.025121205 -0.059966814 0.00940619 -0.026194487
0.16902764 0.012417444 -0.10456045 0.05373938 0.06833359 0.20193031 0.07177121 0.03442841
-0.06370106 0.107907675 0.06934089 -0.027050018 0.0830246 -0.14162825 -0.109955244 0.114765815
-0.007378518 0.03215486 0.018483771 -0.07244482 0.050727945 -0.099017054 0.0065012295 0.107233495
-0.11559484 0.08063724 0.122719355 0.08124451 -0.030424314 0.029533627 0.031273983 0.028364195
-0.08511984 -0.07014915 -0.08828425 0.13460946 -0.068969175 0.002833478 -0.11280507 -0.051332105
-0.06923074 -0.0034379032 -0.07840361 -0.061454415 -0.080746196 -0.096991256 0.17049491 0.12923054
-0.028959075 -0.06604963 -0.100228935 -0.031162085 0.03430763 -0.096993335 0.10863172 -0.029617667
0.002202607 0.059681766 0.019691234 0.01525325 0.0604889 0.0010122332 0.034004476 -0.08135594
-0.051466417 -0.07559034 -0.11795727 -0.14315231 0.12803978 0.022984972 0.08528955 -0.09531595
-0.14239648 0.17172405 -0.16193639 -0.051383015 0.031462144 -0.0029918207 -0.021197446 -0.029000247
-0.13638118 0.032491952 -0.05314654 -0.0092908805 0.019252723 0.015110976 0.034974657 0.030932646
-0.0731504 0.0021296816 -0.1239844 -0.09705714 0.0016872983 0.101550035 -0.046467673 0.030369299
-0.039915998 0.036624927 0.10694602 -0.0011222205 -0.16195482 0.22114407 -0.055912387 -0.20844065
-0.17529257 -0.058847606 -0.026062177 -0.15482555 0.038264986 0.110256575 -0.10713217 -0.042888686
-0.03547246 -0.10976343 -0.01717619 -0.101867855 -0.08531361 0.045185063 -0.06424737 -0.03516272
-0.025382172 -0.052486103 0.055519562 -0.18920687 -0.08246953 0.063266724 0.04975185 -0.105338186
0.02761299 -0.077607006 -0.013999362 0.0058667604 -0.019629255 0.015355828 0.0069450894 0.024099596
-0.035411697 -0.111439385 0.025870094 0.06476098 0.02225929 0.035153344 0.19362888 -0.04529214
0.004412966 -0.048875086 -0.07060575 0.061490733 -0.11850835 0.16570859 -0.1299405 -0.058524456
4.519348e-05 0.025397 0.02835661 0.017140092 0.016966062 -0.14932095 0.07304192 0.04193132
-0.0329429 -0.01227961 -0.017626548 -0.08994817 -0.0928399 0.10750201 -0.121698245 -0.107013576
0.039119817 0.18839931 0.1469119 -0.091655426 0.07331833 -0.10201682 -0.15410888 -0.004882665
-0.08936524 -0.0026192984 -0.016530205 0.030326553 -0.044571616 0.04850255 -0.006152638 0.07815146

network_body.linear_encoder.seq_layers.2.bias f4 [128]
00000000: 0000 0000 0000 0000 0000 0000 0000 0000
00000010: 0000 0000 0000 0000 0000 0000 0000 0000
00000020: 0000 0000 0000 0000 0000 0000 0000 0000
00000030: 0000 0000 0000 0000 0000 0000 0000 0000
00000040: 0000 0000 0000 0000 0000 0000 0000 0000
00000050: 0000 0000 0000 0000 0000 0000 0000 0000
00000060: 0000 0000 0000 0000 0000 0000 0000 0000
00000070: 0000 0000 0000 0000 0000 0000 0000 0000
00000080: 0000 0000 0000 0000 0000 0000 0000 0000
00000090: 0000 0000 0000 0000 0000 0000 0000 0000
000000a0: 0000 0000 0000 0000 0000 0000 0000 0000
000000b0: 0000 0000 0000 0000 0000 0000 0000 0000
000000c0: 0000 0000 0000 0000 0000 0000 0000 0000
000000d0: 0000 0000 0000 0000 0000 0000 0000 0000
000000e0: 0000 0000 0000 0000 0000 0000 0000 0000
000000f0: 0000 0000 0000 0000 0000 0000 0000 0000
00000100: 0000 0000 0000 0000 0000 0000 0000 0000
00000110: 0000 0000 0000 0000 0000 0000 0000 0000
00000120: 0000 0000 0000 0000 0000 0000 0000 0000
00000130: 0000 0000 0000 0000 0000 0000 0000 0000
00000140: 0000 0000 0000 0000 0000 0000 0000 0000
00000150: 0000 0000 0000 0000 0000 0000 0000 0000
00000160: 0000 0000 0000 0000 0000 0000 0000 0000
00000170: 0000 0000 0000 0000 0000 0000 0000 0000
00000180: 0000 0000 0000 0000 0000 0000 0000 0000
00000190: 0000 0000 0000 0000 0000 0000 0000 0000
000001a0: 0000 0000 0000 0000 0000 0000 0000 0000
000001b0: 0000 0000 0000 0000 0000 0000 0000 0000
000001c0: 0000 0000 0000 0000 0000 0000 0000 0000
000001d0: 0000 0000 0000 0000 0000 0000 0000 0000
000001e0: 0000 0000 0000 0000 0000 0000 0000 0000
000001f0: 0000 0000 0000 0000 0000 0000 0000 0000
0.0 0.0 0.0 0.0 0.0 0.0 0.0 0.0
0.0 0.0 0.0 0.0 0.0 0.0 0.0 0.0
0.0 0.0 0.0 0.0 0.0 0.0 0.0 0.0
0.0 0.0 0.0 0.0 0.0 0.0 0.0 0.0
0.0 0.0 0.0 0.0 0.0 0.0 0.0 0.0
0.0 0.0 0.0 0.0 0.0 0.0 0.0 0.0
0.0 0.0 0.0 0.0 0.0 0.0 0.0 0.0
0.0 0.0 0.0 0.0 0.0 0.0 0.0 0.0
0.0 0.0 0.0 0.0 0.0 0.0 0.0 0.0
0.0 0.0 0.0 0.0 0.0 0.0 0.0 0.0
0.0 0.0 0.0 0.0 0.0 0.0 0.0 0.0
0.0 0.0 0.0 0.0 0.0 0.0 0.0 0.0
0.0 0.0 0.0 0.0 0.0 0.0 0.0 0.0
0.0 0.0 0.0 0.0 0.0 0.0 0.0 0.0
0.0 0.0 0.0 0.0 0.0 0.0 0.0 0.0
0.0 0.0 0.0 0.0 0.0 0.0 0.0 0.0

value_heads.value_heads.extrinsic.weight f4 [1, 128]
00000000: e196 51be 5a54 0fbe 5d6a e3bd 2073 72bc
00000010: 5796 32be d06f 50bd cc91 4b3e f62e 50be
00000020: 3c78 043e a001 94bb 2059 a1bc 10a3 56bc
00000030: 8077 c9bd 60e5 b83d f870 1cbe e2e2 96bd
00000040: 8cdf d9bd 38ce 0cbe 187b aabc fcd4 cb3d
00000050: 4af9 dcbd 0c1e 00be 3b76 cfbd 3a65 a5bd
00000060: a097 913d a6a5 5bbe 712e 2ebe 50db 3abe
00000070: 3ee1 00be 3243 47be 904c 373d 9c00 553e
00000080: 90a0 553d 7cfa 3abd c441 00bd 6292 36be
00000090: 80a9 063e ae09 353e 08a3 ddbd 304c 5abe
000000a0: b8a8 e13d de05 4cbe f861 463e a2d3 253e
000000b0: 4632 563e 2390 34be f210 4a3e e229 393e
000000c0: cc8a 163e 80b5 2f3d 586f b53d ce67 b4bd
000000d0: 9ccf a83d 5057 b03d 4c5b 3cbe 1021 613d
000000e0: 305c 6bbc b695 243e 7847 023d c893 913d
000000f0: d084 c33d a02a d13d e2a8 2d3e e0df 9d3d
00000100: 0a39 0a3e dc1c 803d 9ca9 4ebe c044 eb3b
00000110: 7c65 0abd 9c2a cd3d ac7a 4a3e b1a0 54be
00000120: 2c9f debd e5e0 2cbe 245c 343e 7c12 443e
00000130: a00b 68bd 380a be3d 46ff 4f3e f864 d03c
00000140: 4873 0c3d 2a1f 4c3e e665 d3bd e496 00be
00000150: 92c3 483e 58ce 633d 8ac8 053e 9071 1b3e
00000160: b07d 0f3d e468 ac3d f215 0ebe 7633 9fbd
00000170: 90d5 32bd 4c44 0c3e 8832 75bd 1416 febd
00000180: 9a40 23be c027 70bd 742f b93d 92ec 3e3e
00000190: c82e 3ebe 8286 1bbe acd2 b93d 701d 0c3d
000001a0: d2fe dbbd 305a 143e 4ee9 233e dcb0 40be
000001b0: 80fa 433e 7969 35be ecd2 223e 1ca4 20bd
000001c0: d8bc 093e e491 043d a333 58be 70b0 b6bc
000001d0: ba05 1abe 104b c13d 049a c4bd d4ce d63d
000001e0: d84b 763d 9aad 423e 86d0 4b3e 3cf2 123e
000001f0: 8a32 373e 4018 523e 54a9 b7bd 34d7 f73d
-0.20467712 -0.13997021 -0.111042716 -0.014797956 -0.17440163 -0.050887883 0.19879836 -0.20330414
0.12936491 -0.0045167953 -0.019695818 -0.013100401 -0.09837246 0.09028125 -0.15277469 -0.07367493
-0.10638341 -0.13750541 -0.020810649 0.09952733 -0.107897356 -0.12511462 -0.101299725 -0.08075948
0.07108998 -0.21449909 -0.17009903 -0.18247724 -0.12585923 -0.19459227 0.04475075 0.20801014
0.052155077 -0.045649037 -0.03131272 -0.17829278 0.13150597 0.17679474 -0.10822111 -0.21318126
0.11018509 -0.19924113 0.1937331 0.16194013 0.20917615 -0.17633109 0.19733027 0.18082383
0.14701384 0.0428977 0.08859128 -0.08808862 0.08242723 0.086104035 -0.18394202 0.05496317
-0.014365241 0.16072735 0.03180644 0.07108265 0.09546816 0.10213208 0.16958955 0.077087164
0.13498321 0.062555045 -0.20181888 0.0071798265 -0.03378819 0.10017893 0.19773358 -0.20764424
-0.108702034 -0.16882665 0.17613274 0.19147676 -0.05665171 0.09279293 0.20312223 0.02543877
0.03428963 0.19933763 -0.1032217 -0.1255756 0.19605854 0.055616707 0.13064781 0.1518004
0.035031974 0.08418444 -0.13875559 -0.07773487 -0.0436607 0.13697928 -0.059862643 -0.12406555
-0.15942612 -0.05863166 0.09042254 0.18644932 -0.18572533 -0.1518803 0.090733856 0.03420776
-0.107419625 0.14487529 0.16006967 -0.18817466 0.19138527 -0.17716016 0.15900773 -0.039219007
0.13450944 0.032365695 -0.21113448 -0.022300929 -0.15041247 0.09438145 -0.09599689 0.10488668
0.060130924 0.19011536 0.19903764 0.14350218 0.17890373 0.20517063 -0.08967844 0.121015936
