UnityController/results/alex/MoveToGoal/MoveToGoal-2.pt (torch, 149327 bytes, 12 tensors)

network_body.linear_encoder.seq_layers.0.weight f4 [128, 6]
000000 ff 39 eb bd 60 4a 70 3e ea 27 4c be f1 4b 04 3f
       -0.11485671 0.23465872 -0.19937101 0.5167838
000010 ce 69 32 bf bb e7 40 be f8 85 15 bf da 86 d1 3e
       -0.69692695 -0.18838398 -0.58407545 0.40923196
000020 66 ed 78 3d 28 1a 01 be 4f ee d6 3e 4b eb 8b 3e
       0.060773276 -0.12607634 0.4197869 0.27327952
000030 c3 7c 1e be da 44 14 bd 4e 46 c8 be b1 d1 03 bf
       -0.1547728 -0.036198474 -0.39116138 -0.5149184
000040 d2 82 87 bd 91 23 8d be 54 8f cc be 5a ce 1f be
       -0.06616749 -0.27566198 -0.399531 -0.1560606
000050 7b 15 d6 be f7 c6 7a be 34 57 89 3e 0f f8 75 3e
       -0.41813263 -0.24489962 0.26824343 0.24020408
000060 44 2b 6c 3e ad 5c 38 bf 6d 71 d1 3e 52 ad ba be
       0.2306338 -0.7201641 0.4090685 -0.36460358
000070 be fc 47 3d 1a 00 c3 be 9b d4 63 3d db 54 84 3e
       0.048825018 -0.38086015 0.05562268 0.2584599
000080 e3 26 14 3f 33 49 0a 3e 09 e5 38 3f 15 84 b4 3e
       0.57871836 0.13504486 0.7222448 0.3525702
000090 c7 04 ad 3e 76 b5 bf be 94 85 9b 3e a6 43 bc be
       0.33792707 -0.3744313 0.3037535 -0.36770362
0000a0 fe a0 6d 3e 5b 11 83 3e 8e 72 83 be 87 d8 e5 bd
       0.23205945 0.2559918 -0.25673336 -0.1122294
0000b0 cd fa 0c bf ea 96 d1 bc 58 68 6e bd 84 1b cf be
       -0.5507019 -0.025584657 -0.05820498 -0.4045068
0000c0 34 78 7e bd 7f 0b 6f bf f9 34 02 3e f8 95 47 3e
       -0.062126353 -0.93376917 0.1271552 0.19490802
0000d0 64 2c 3c 3e 97 bc 3a be ca 3e 23 3e 32 d6 4b be
       0.18376309 -0.18236004 0.15941921 -0.19905928
0000e0 d4 38 ae 3e be 94 3d 3e cb 7c 2f 3e 2e 78 87 3d
       0.3402773 0.18513772 0.17137448 0.06614719
0000f0 3f 0d 87 bf 37 3a ae be 98 6a ca 3d 23 d6 7b 3d
       -1.0550917 -0.3402879 0.098836124 0.061483514
000100 80 fa 44 be 36 23 62 3e 49 c4 08 3e 7b d6 69 bd
       -0.19236183 0.22083744 0.13356127 -0.05708931
000110 74 e6 d8 3d 70 9d 0a bf 0b 0f 9e 3d e8 60 16 be
       0.105908304 -0.5414648 0.07717713 -0.14685404
000120 89 aa 3b bd ed 78 16 be cb 56 54 be 01 a9 24 bf
       -0.045816932 -0.14694567 -0.20736234 -0.6432038
000130 1c 7f 43 bf ab 04 8a 3c 3c 5b 85 3e 9d 09 ef 3e
       -0.7636583 0.016847929 0.2604617 0.46687022
000140 38 c0 e7 bd 66 3b 2e 3e ae 28 30 bf 7a e1 80 3e
       -0.1131596 0.17014846 -0.6881207 0.25172025
000150 ce b4 13 bf 80 ce cc 3c 15 11 c9 3c 92 14 d4 be
       -0.5769776 0.02500081 0.024544278 -0.41421944
000160 4f 99 05 3f 6e 53 9b 3d 55 a0 49 3f f8 e3 70 3c
       0.52187055 0.07584272 0.7876027 0.0147027895
000170 5e 05 76 bf 6d 02 65 be e7 5b e8 bd 97 15 c0 3e
       -0.9610194 -0.22364207 -0.11345654 0.37516472
000180 da 12 1c 3e 45 b9 b3 3d 0d 38 fd 3e a0 c6 00 bf
       0.15241566 0.08775572 0.49456826 -0.5030308
000190 58 6c ad be c8 ef e7 3d 5c da 1c be 51 02 8b be
       -0.33871722 0.113250315 -0.15317672 -0.27150205
0001a0 75 89 23 3f e6 d1 aa be 78 94 a2 be 9a a9 7d 3e
       0.6388162 -0.33363265 -0.31753898 0.24771729
0001b0 8a 52 20 3f dd fc 99 3e 21 23 c5 be b5 3d a0 3e
       0.62625945 0.30075732 -0.38503364 0.3129708
0001c0 07 7b 99 bc 3e 02 e8 3d 74 2e 9c be 3b ea ad 3d
       -0.018735422 0.11328553 -0.3050419 0.084919415
0001d0 03 4a 43 3e d7 68 36 be 71 44 8d be 71 0a 10 3e
       0.19071202 -0.1781343 -0.2759128 0.14066483
0001e0 33 6a 5e 3b 73 31 71 bf 7a 1e 3b 3f ab ea 76 be
       0.0033937811 -0.9421608 0.7309338 -0.24112956
0001f0 ce 94 55 bf d1 fa db 3c c3 b7 db bd de 3d 14 bf
       -0.8343018 0.026852997 -0.10728409 -0.579069
000200 4e d5 a1 bc 86 ff 32 3f 94 c7 4c 3d b9 cd 9d 3e
       -0.019755032 0.6992115 0.04999502 0.30821016
000210 92 39 1c 3f d1 61 1c 3f e8 da 2f 3d d3 4a 6b be
       0.61025345 0.61086756 0.042933375 -0.22977762
000220 01 59 52 bd 72 bc 91 3d 03 cc fa be a6 b1 ac bd
       -0.051354412 0.07116021 -0.48983774 -0.08432321
000230 d4 4b f5 bd 4e 0b 21 3f b9 a9 56 3e df f6 e3 bd
       -0.11977354 0.62907875 0.20963182 -0.11131071
000240 a6 92 83 bf 48 64 74 3e 2b 06 0e bd 57 5b a1 bc
       -1.0279129 0.2386638 -0.03467385 -0.019696875
000250 68 59 68 be 67 6d 3f 3f be 20 84 3e 2d 8c b0 be
       -0.22690356 0.7477631 0.2580623 -0.34481946
000260 92 62 0b bf 7c 0b 95 be 57 11 53 3e d3 d7 01 3f
       -0.5444728 -0.29110324 0.20612083 0.50719947
000270 58 39 3b bf 77 51 3b bf 9a 3b 26 3f 2d 38 0e bf
       -0.73134375 -0.7317118 0.64934695 -0.5555447
000280 ec c3 fa 3e 0c 7d 2a 3f 39 56 35 3c 83 97 62 3f
       0.48977602 0.66597056 0.01106792 0.8851244
000290 8b f4 0f 3c 5c bf d9 3e 73 77 82 3e ab d7 77 be
       0.008786331 0.42528808 0.25481758 -0.24203365
0002a0 bf 2c c9 3e 2e d0 5b bd 8b d0 52 be e4 c9 2f bf
       0.3929195 -0.053665332 -0.20587365 -0.68667436
0002b0 4d 36 b0 3d e0 38 cd bd 45 9f 9c bc e6 bf 31 bf
       0.08604107 -0.10020614 -0.019118914 -0.6943344
0002c0 c4 17 91 3e 36 7a 5a bc cd 9b f0 bd 37 2a 04 3e
       0.28338444 -0.013334801 -0.11748467 0.12906729
0002d0 5e 2b 11 bf 4f cb cf be 53 75 4c be 84 ec db 3c
       -0.567068 -0.405848 -0.1996663 0.026846178
0002e0 4c e8 ce bc 9e 8f 23 be 69 79 5b 3e a3 94 04 bf
       -0.025257252 -0.15972754 0.21433033 -0.517893
0002f0 69 dc 68 bd 3a 5e 69 be e7 d9 3f bf 92 5b a2 be
       -0.056850825 -0.22789851 -0.7494187 -0.31710488
000300 ba b5 33 3e 56 25 98 be 48 9a 5c 3f 17 cd 94 be
       0.17549792 -0.29715985 0.86172915 -0.2906272
000310 d1 49 d4 be 5f 3f 0e 3f a9 c9 63 3e 24 2b 4c 3e
       -0.41462567 0.55565447 0.22244896 0.19938332
000320 4a 38 bc 3e 3d 56 32 bd 36 6e 6c bd e5 f9 8f be
       0.36761695 -0.043539274 -0.057722293 -0.28120342
000330 ff 8b 4d be 58 75 ae bd be 82 25 bf 76 fa f2 be
       -0.20072936 -0.08518475 -0.6465262 -0.47456712
000340 49 a3 6b be 1a 68 34 bf 79 bd 4f 3e 11 25 d9 bd
       -0.23011507 -0.70471346 0.20287122 -0.10602773
000350 65 5e 5d 3f 74 ed 19 bd 93 c7 b8 3e ba 74 d9 be
       0.8647216 -0.03757997 0.36089763 -0.42471868
000360 d6 37 03 3d aa f6 bd 3c 13 f9 3a be 5d 2d 43 3e
       0.03203567 0.023188908 -0.18259077 0.19060273
000370 a7 2b bc 3e da 26 aa bd 06 ef 11 be 59 0c 98 bf
       0.36752054 -0.083081916 -0.14251336 -1.1878768
000380 ce 8f 05 3f 92 57 08 3e ca 67 5e be 01 56 07 3f
       0.52172554 0.13314655 -0.2171928 0.52865607
000390 9e dc 5c bc 63 12 d8 be 23 18 fb 3d 5e d3 63 3d
       -0.013480334 -0.42201528 0.12260463 0.055621497
0003a0 6b 4f e1 3e aa 1d 2a 3f ef e3 fa 3e 97 8c f2 be
       0.44005904 0.66451514 0.49002025 -0.47372887
0003b0 3d 65 e2 3e 8b dd d5 3e 13 37 9a 3d d9 32 a8 3c
       0.44217864 0.41770586 0.07530036 0.020532059
0003c0 1b 37 4b 3f b4 72 89 3d ae 86 9c be 18 f9 0f bd
       0.7938096 0.06711331 -0.30571502 -0.035149664
0003d0 f4 1e 11 3f 20 0d 16 3e b1 f5 16 bf d1 b4 a0 bd
       0.56687856 0.14653444 -0.58968645 -0.07846988
0003e0 fd 8d 0d bf 8f 17 9d be 69 e8 47 3f 84 24 56 3e
       -0.5529478 -0.30682036 0.78089005 0.20912367
0003f0 74 09 76 bc 4e c0 d0 3d 2d 5e af 3e 4a b3 19 3b
       -0.015016902 0.10192929 0.34251538 0.0023452812

network_body.linear_encoder.seq_layers.0.bias f4 [128]
000000 00 00 00 00 00 00 00 00 00 00 00 00 00 00 00 00
       0.0 0.0 0.0 0.0
000010 00 00 00 00 00 00 00 00 00 00 00 00 00 00 00 00
       0.0 0.0 0.0 0.0
000020 00 00 00 00 00 00 00 00 00 00 00 00 00 00 00 00
       0.0 0.0 0.0 0.0
000030 00 00 00 00 00 00 00 00 00 00 00 00 00 00 00 00
       0.0 0.0 0.0 0.0
000040 00 00 00 00 00 00 00 00 00 00 00 00 00 00 00 00
       0.0 0.0 0.0 0.0
000050 00 00 00 00 00 00 00 00 00 00 00 00 00 00 00 00
       0.0 0.0 0.0 0.0
000060 00 00 00 00 00 00 00 00 00 00 00 00 00 00 00 00
       0.0 0.0 0.0 0.0
000070 00 00 00 00 00 00 00 00 00 00 00 00 00 00 00 00
       0.0 0.0 0.0 0.0
000080 00 00 00 00 00 00 00 00 00 00 00 00 00 00 00 00
       0.0 0.0 0.0 0.0
000090 00 00 00 00 00 00 00 00 00 00 00 00 00 00 00 00
       0.0 0.0 0.0 0.0
0000a0 00 00 00 00 00 00 00 00 00 00 00 00 00 00 00 00
       0.0 0.0 0.0 0.0
0000b0 00 00 00 00 00 00 00 00 00 00 00 00 00 00 00 00
       0.0 0.0 0.0 0.0
0000c0 00 00 00 00 00 00 00 00 00 00 00 00 00 00 00 00
       0.0 0.0 0.0 0.0
0000d0 00 00 00 00 00 00 00 00 00 00 00 00 00 00 00 00
       0.0 0.0 0.0 0.0
0000e0 00 00 00 00 00 00 00 00 00 00 00 00 00 00 00 00
       0.0 0.0 0.0 0.0
0000f0 00 00 00 00 00 00 00 00 00 00 00 00 00 00 00 00
       0.0 0.0 0.0 0.0
000100 00 00 00 00 00 00 00 00 00 00 00 00 00 00 00 00
       0.0 0.0 0.0 0.0
000110 00 00 00 00 00 00 00 00 00 00 00 00 00 00 00 00
       0.0 0.0 0.0 0.0
000120 00 00 00 00 00 00 00 00 00 00 00 00 00 00 00 00
       0.0 0.0 0.0 0.0
000130 00 00 00 00 00 00 00 00 00 00 00 00 00 00 00 00
       0.0 0.0 0.0 0.0
000140 00 00 00 00 00 00 00 00 00 00 00 00 00 00 00 00
       0.0 0.0 0.0 0.0
000150 00 00 00 00 00 00 00 00 00 00 00 00 00 00 00 00
       0.0 0.0 0.0 0.0
000160 00 00 00 00 00 00 00 00 00 00 00 00 00 00 00 00
       0.0 0.0 0.0 0.0
000170 00 00 00 00 00 00 00 00 00 00 00 00 00 00 00 00
       0.0 0.0 0.0 0.0
000180 00 00 00 00 00 00 00 00 00 00 00 00 00 00 00 00
       0.0 0.0 0.0 0.0
000190 00 00 00 00 00 00 00 00 00 00 00 00 00 00 00 00
       0.0 0.0 0.0 0.0
0001a0 00 00 00 00 00 00 00 00 00 00 00 00 00 00 00 00
       0.0 0.0 0.0 0.0
0001b0 00 00 00 00 00 00 00 00 00 00 00 00 00 00 00 00
       0.0 0.0 0.0 0.0
0001c0 00 00 00 00 00 00 00 00 00 00 00 00 00 00 00 00
       0.0 0.0 0.0 0.0
0001d0 00 00 00 00 00 00 00 00 00 00 00 00 00 00 00 00
       0.0 0.0 0.0 0.0
0001e0 00 00 00 00 00 00 00 00 00 00 00 00 00 00 00 00
       0.0 0.0 0.0 0.0
0001f0 00 00 00 00 00 00 00 00 00 00 00 00 00 00 00 00
       0.0 0.0 0.0 0.0

network_body.linear_encoder.seq_layers.2.weight f4 [128, 128]
000000 24 12 e2 3d 78 25 01 3e e0 ee a7 3d 37 8c 8b bd
       0.11038616 0.1261195 0.08199859 -0.06813853
000010 08 d7 91 3d d1 7c 2b 3d 8d 34 cc 3c 8a 5b ea 3d
       0.07121092 0.04186708 0.024927402 0.11443241
000020 4b 66 e5 bd b4 5d df 3c b0 42 1a be 26 bc 82 3d
       -0.112011515 0.02726636 -0.15064502 0.06383543
000030 71 35 20 bb 22 d7 8d bd f6 ff 3b 3d 7a 8d bb bd
       -0.0024445916 -0.06925799 0.0458984 -0.09157844
000040 e1 d1 b2 3c a2 6f 42 be 28 18 97 bd 1f 49 9d 3d
       0.021828594 -0.18987897 -0.07377654 0.07679962
000050 6e 0c 36 3d 14 d8 b7 bd 49 06 23 3d de 2e 3a 3e
       0.044445448 -0.089767605 0.039800916 0.18181941
000060 4b 2b e0 3d 19 d7 c2 3c b3 60 27 bc 0a d6 0e 3a
       0.109457575 0.023784207 -0.010215926 0.00054487644
000070 1d 1e 75 bc e4 4d b4 3c 77 21 a3 3d 00 7a b2 bd
       -0.014960793 0.022009797 0.07965367 -0.08714676
000080 3a 5f 63 bc ba 74 f5 3d cd ac fd 3c 78 78 a4 bc
       -0.013877684 0.119851544 0.030966187 -0.020076975
000090 0e 47 7a bd da 07 20 bd e3 59 25 bd 04 e7 8c 3d
       -0.06110292 -0.039069988 -0.040368926 0.0688
0000a0 11 be 5f bc 83 7b 78 3d 8f 52 bf bc e4 44 57 3d
       -0.013656155 0.060664665 -0.023354797 0.052555934
0000b0 c4 dd 43 3e 75 13 b1 bc 16 13 02 3e ad f2 a0 bd
       0.19127566 -0.021615723 0.12702593 -0.07858787
0000c0 04 33 2e 3d c4 99 ec 3d 99 a0 e7 3d 41 a5 67 3d
       0.04252912 0.11552766 0.113099284 0.056554083
0000d0 07 5f 8e 3e 2b 7c 5f bd bd 64 bd 3d ad f1 5e 3c
       0.27806875 -0.054561775 0.0924773 0.013607425
0000e0 3c 06 d8 bb 70 75 50 3d 43 2c 09 bc 0c e4 11 bd
       -0.00659254 0.050893247 -0.008372369 -0.035617873
0000f0 f2 f6 df 3c 7e 64 4f 3e ff e6 5e 3d bd d4 e1 bd
       0.027339432 0.20253178 0.054419514 -0.11026905
000100 47 91 97 3b 9f cd fe 3d d1 55 78 3d 5f d1 4e bc
       0.0046254727 0.12441563 0.060628716 -0.01262316
000110 f2 1d 26 bd b3 bb 5f bd 2c ca aa 3d bf 11 6c bc
       -0.0405559 -0.054622363 0.083393425 -0.014408528
000120 6e a2 78 3d 4c a6 51 bd 63 be f3 3d 62 e1 6c bd
       0.06070178 -0.051183984 0.11901548 -0.05783213
000130 0f fe 1e 3d b5 83 f1 3c 58 76 bc bd 5a 84 a4 3d
       0.038816508 0.029481748 -0.0920226 0.080330566
000140 b4 6a 52 3c cb 78 07 3d 79 20 d4 bd 00 d1 fa 3d
       0.012842823 0.03307418 -0.10357756 0.12246895
000150 5c de 88 bd d7 74 6a bd d9 23 00 be 74 b3 46 be
       -0.06683037 -0.057240333 -0.12513675 -0.19404393
000160 8a 4d 03 3d a8 be 28 bb 14 13 8b bd 88 79 44 bd
       0.03205637 -0.0025748406 -0.06790748 -0.047967464
000170 45 89 06 bc 07 a2 94 3d 21 ff d5 bd 7c 34 05 bb
       -0.008211439 0.07257467 -0.104490526 -0.0020325473
000180 cf 6f 89 3d 50 36 81 3d 54 92 b9 bd 94 80 22 3c
       0.06710779 0.063091874 -0.09061113 0.009918351
000190 8b c2 89 bc b9 a4 65 3c dc 36 0c 3d 48 e7 1c bd
       -0.016816398 0.014016324 0.034232005 -0.038306504
0001a0 b4 d5 92 3d aa af fc bc bd 90 ed 3d f7 e1 14 3d
       0.07169667 -0.030845482 0.11599872 0.03634831
0001b0 d5 3b 30 bc 75 83 25 3c d0 59 57 bd d2 e6 36 3d
       -0.010756453 0.010102143 -0.052575886 0.04465372
0001c0 79 40 25 3d 58 50 2c bd 99 0f fb 3d c1 8c cd 3c
       0.04034469 -0.04206881 0.122588344 0.02509153
0001d0 b8 eb 98 3d cd 79 7f bb ee 40 69 3d 88 b8 1f be
       0.07466835 -0.003898251 0.056946687 -0.15597737
0001e0 12 d7 de 3d d7 ac 12 bd b9 64 b5 bd 78 75 8f 3b
       0.10880865 -0.035809364 -0.08857102 0.004378017
0001f0 1b bd c5 3d 6e ba 15 3e 97 55 ba bc a8 9d 42 be
       0.0965521 0.14621899 -0.02274589 -0.19005454
000200 92 48 dd 3c f4 a9 c8 bd 41 cb 12 bd 21 97 2b bd
       0.027012143 -0.09798041 -0.03583837 -0.041892175
000210 7f 2c 85 3d 32 6f 87 3d 3f 48 b4 3d 04 d9 48 3c
       0.065026276 0.06613006 0.08802842 0.012258772
000220 1c a3 ba 3d 00 41 ab bd 3f 25 fa bc 75 b0 d4 3b
       0.09113142 -0.08362007 -0.030535338 0.006490762
000230 e2 ad 1f be 32 76 de bc 56 9f de bd 09 97 0c be
       -0.15593675 -0.02715597 -0.10870235 -0.1372949
000240 a4 e2 e0 3c 07 45 bd 3c 77 dc 86 3c ce 39 25 bd
       0.02745182 0.023104204 0.016462548 -0.04033833
000250 3e 82 7b 3d c8 db dc bd 30 9c 86 bd 38 f5 66 3c
       0.061403506 -0.107841074 -0.06572759 0.014096551
000260 6f 6d 45 3c 23 ab bc 3d fd 83 08 3d 4c db 8f 3d
       0.012050017 0.09212329 0.033329 0.070242494
000270 2c 34 d0 bc ac e9 cd bb 5b 37 d7 bd cf 3e 01 3e
       -0.025415502 -0.0062839594 -0.10508605 0.12621616
000280 9e f7 7f be 64 c9 c5 3d d6 0f 46 b9 be b2 48 3c
       -0.24996802 0.09657553 -0.00018888651 0.012249647
000290 02 f8 d2 3d 4b c8 38 3e 78 1e b0 bd e1 54 cb 3c
       0.1030121 0.18045156 -0.085995615 0.024820747
0002a0 63 ec 27 be d9 42 11 3d 56 46 4a 3d 20 09 46 be
       -0.16398768 0.03546414 0.049383484 -0.19339418
0002b0 df 3d 20 bd db e3 2e 3d db 3d f8 bc 2f c7 76 bd
       -0.039121505 0.04269777 -0.030302932 -0.06024855
0002c0 4a 36 54 bd 8d c5 9c bd 1c 29 f9 bd b9 f7 03 3d
       -0.051809587 -0.07654867 -0.12166044 0.03221867
0002d0 a4 80 bb 3d f5 8e e5 3d 04 8b bc bd 51 1b 03 bd
       0.091553956 0.112089075 -0.092062026 -0.032008473
0002e0 9c 3d a5 bc 7e 2d bb 3d 74 94 1b 3d 0c a9 76 3d
       -0.02017098 0.09139536 0.037983373 0.06021981
0002f0 30 54 44 3d f3 bc b3 3d 24 6a 8b 3d c9 b7 46 3d
       0.04793185 0.087762736 0.06807354 0.048515115
000300 fa a6 23 3d 0c bd 12 3e e3 a5 bf 3d a0 54 23 bb
       0.039954163 0.14329928 0.09357812 -0.0024922267
000310 91 63 ad 3d 27 f9 b1 3d 7a fa 31 3d dd 78 0a 3d
       0.084662564 0.086901 0.043451764 0.03380667
000320 6e a6 1b 3e 46 dc 16 be 91 86 c0 3d bd ae 15 bd
       0.15200207 -0.14732465 0.094006665 -0.036543597
000330 09 6d 87 bd c9 65 3e bd 8e 05 cf 3d a4 30 ba bd
       -0.06612594 -0.04648379 0.10108481 -0.09091309
000340 e5 0d 49 bd d1 c4 9e 3d 9b 96 0d 3d 73 cd 54 3e
       -0.049085516 0.077523835 0.034567457 0.20781498
000350 65 3e a4 bc cd 5a 08 be f8 a3 01 3e 94 9f 5a 3d
       -0.020049283 -0.13315888 0.12660205 0.05337484
000360 ba d4 03 bd d3 52 59 bd 32 58 1e 3e 50 6c f4 bc
       -0.032185294 -0.053057503 0.15463331 -0.029836804
000370 ab a7 be bd 5a 83 03 3e 14 ca 00 bd 40 2d bf bd
       -0.09309324 0.12843075 -0.031442717 -0.09334803
000380 b3 4e ac bd 7c 61 8a 3d b8 69 dd bc c2 a5 cc bd
       -0.08413448 0.06756875 -0.02702795 -0.09992553
000390 01 25 87 bd 58 b2 91 b9 50 ac 61 ba 32 87 e5 bd
       -0.06598855 -0.00027789432 -0.00086087454 -0.11207427
0003a0 ef d9 0d 3e a2 db 1f be b1 3a 22 bd 25 95 b8 3d
       0.13852666 -0.15611127 -0.039606754 0.09012822
0003b0 6e 7c aa bd bf fe b3 bd 9a 7f 19 bd 82 90 c2 bd
       -0.08324514 -0.08788823 -0.037475206 -0.09500219
0003c0 e0 69 90 3b 39 12 d3 3a 83 ab b7 bd b9 d7 0d bc
       0.0044071525 0.0016103453 -0.0896826 -0.008657389
0003d0 a4 83 28 3e 8e 6d 9c bd 0f 39 42 bd b9 e3 b7 bc
       0.16456467 -0.076380834 -0.047417697 -0.022447454
0003e0 a3 e7 a2 3d b7 39 1c bd 47 a1 68 3b a8 8c ab 3d
       0.079543374 -0.03814098 0.003549652 0.083764374
0003f0 f2 a5 e6 3d 98 52 97 bd f6 2e 9b 3d b0 b2 1a 3d
       0.1126212 -0.073888004 0.075773165 0.037768066

network_body.linear_encoder.seq_layers.2.bias f4 [128]
000000 00 00 00 00 00 00 00 00 00 00 00 00 00 00 00 00
       0.0 0.0 0.0 0.0
000010 00 00 00 00 00 00 00 00 00 00 00 00 00 00 00 00
       0.0 0.0 0.0 0.0
000020 00 00 00 00 00 00 00 00 00 00 00 00 00 00 00 00
       0.0 0.0 0.0 0.0
000030 00 00 00 00 00 00 00 00 00 00 00 00 00 00 00 00
       0.0 0.0 0.0 0.0
000040 00 00 00 00 00 00 00 00 00 00 00 00 00 00 00 00
       0.0 0.0 0.0 0.0
000050 00 00 00 00 00 00 00 00 00 00 00 00 00 00 00 00
       0.0 0.0 0.0 0.0
000060 00 00 00 00 00 00 00 00 00 00 00 00 00 00 00 00
       0.0 0.0 0.0 0.0
000070 00 00 00 00 00 00 00 00 00 00 00 00 00 00 00 00
       0.0 0.0 0.0 0.0
000080 00 00 00 00 00 00 00 00 00 00 00 00 00 00 00 00
       0.0 0.0 0.0 0.0
000090 00 00 00 00 00 00 00 00 00 00 00 00 00 00 00 00
       0.0 0.0 0.0 0.0
0000a0 00 00 00 00 00 00 00 00 00 00 00 00 00 00 00 00
       0.0 0.0 0.0 0.0
0000b0 00 00 00 00 00 00 00 00 00 00 00 00 00 00 00 00
       0.0 0.0 0.0 0.0
0000c0 00 00 00 00 00 00 00 00 00 00 00 00 00 00 00 00
       0.0 0.0 0.0 0.0
0000d0 00 00 00 00 00 00 00 00 00 00 00 00 00 00 00 00
       0.0 0.0 0.0 0.0
0000e0 00 00 00 00 00 00 00 00 00 00 00 00 00 00 00 00
       0.0 0.0 0.0 0.0
0000f0 00 00 00 00 00 00 00 00 00 00 00 00 00 00 00 00
       0.0 0.0 0.0 0.0
000100 00 00 00 00 00 00 00 00 00 00 00 00 00 00 00 00
       0.0 0.0 0.0 0.0
000110 00 00 00 00 00 00 00 00 00 00 00 00 00 00 00 00
       0.0 0.0 0.0 0.0
000120 00 00 00 00 00 00 00 00 00 00 00 00 00 00 00 00
       0.0 0.0 0.0 0.0
000130 00 00 00 00 00 00 00 00 00 00 00 00 00 00 00 00
       0.0 0.0 0.0 0.0
000140 00 00 00 00 00 00 00 00 00 00 00 00 00 00 00 00
       0.0 0.0 0.0 0.0
000150 00 00 00 00 00 00 00 00 00 00 00 00 00 00 00 00
       0.0 0.0 0.0 0.0
000160 00 00 00 00 00 00 00 00 00 00 00 00 00 00 00 00
       0.0 0.0 0.0 0.0
000170 00 00 00 00 00 00 00 00 00 00 00 00 00 00 00 00
       0.0 0.0 0.0 0.0
000180 00 00 00 00 00 00 00 00 00 00 00 00 00 00 00 00
       0.0 0.0 0.0 0.0
000190 00 00 00 00 00 00 00 00 00 00 00 00 00 00 00 00
       0.0 0.0 0.0 0.0
0001a0 00 00 00 00 00 00 00 00 00 00 00 00 00 00 00 00
       0.0 0.0 0.0 0.0
0001b0 00 00 00 00 00 00 00 00 00 00 00 00 00 00 00 00
       0.0 0.0 0.0 0.0
0001c0 00 00 00 00 00 00 00 00 00 00 00 00 00 00 00 00
       0.0 0.0 0.0 0.0
0001d0 00 00 00 00 00 00 00 00 00 00 00 00 00 00 00 00
       0.0 0.0 0.0 0.0
0001e0 00 00 00 00 00 00 00 00 00 00 00 00 00 00 00 00
       0.0 0.0 0.0 0.0
0001f0 00 00 00 00 00 00 00 00 00 00 00 00 00 00 00 00
       0.0 0.0 0.0 0.0

action_model._continuous_distribution.log_sigma f4 [1, 2]
000000 00 00 00 00 00 00 00 00
       0.0 0.0

action_model._continuous_distribution.mu.weight f4 [2, 128]
000000 77 24 13 3b 57 bb ad bc 3a ba ee bc a8 57 7b bc
       0.0022452155 -0.021207495 -0.029141534 -0.015340723
000010 36 33 81 3c b7 3d 04 3b b8 8f 35 3c 9b 8c a0 bb
       0.01577149 0.0020178386 0.0110816285 -0.004899574
000020 42 b1 d5 bc bf 5c ef bc 81 60 1a bc 3b c5 81 bc
       -0.0260855 -0.02921903 -0.009422422 -0.015841117
000030 ff cb 4c 39 8f f3 be 3c 33 a1 98 bc cf 50 7f 3a
       0.0001953095 0.023309497 -0.018631553 0.00097395194
000040 13 ed 9d 3c 90 de f6 3c 4f f3 e2 bc 7d 9a 8d bc
       0.019278085 0.030135423 -0.02770391 -0.01728558
000050 f8 d5 bd bb 22 db 4c bc 85 08 a2 3c ce 3c 9e bb
       -0.0057933293 -0.012503417 0.019779453 -0.004829026
000060 b8 ed e9 3a e2 c7 b1 bb 6e 8a 3d bc 1c d6 a9 b9
       0.0017847335 -0.005425439 -0.011568649 -0.00032393716
000070 a0 4e 1a bd 2b 7d aa bc 4f 6b 18 3b 7d 77 bf bc
       -0.03767264 -0.020811638 0.002325732 -0.023372406
000080 59 09 a9 bc 16 ee be 3b 30 1c e5 bc 5f 1d 24 3c
       -0.02063434 0.005826722 -0.027967542 0.010016768
000090 78 2b d1 3c 93 86 7b bc 6a 92 72 3c cf 4d 9e bc
       0.025533423 -0.015351909 0.014805416 -0.019324211
0000a0 48 0f 87 3c 15 76 8b 3c 50 66 cb bc 0c 43 c8 3a
       0.016486779 0.01702408 -0.02482906 0.0015278771
0000b0 67 bb 86 bc b8 8d f6 bb d1 85 a0 3c ce 94 1a 3c
       -0.016446782 -0.0075242184 0.019595059 0.009434892
0000c0 6a a5 d0 bc 65 b3 90 bb 0e 7b 16 bb 65 71 f6 3c
       -0.0254695 -0.0044159167 -0.002296153 0.030083368
0000d0 19 4c 9f bc 6a f1 df 3c 87 b7 21 3b 21 10 9e 3b
       -0.019445466 0.027336795 0.0024676041 0.0048237
0000e0 7f 78 07 3c 8f 31 17 bb d7 d0 b9 3b 48 6b a1 bc
       0.008268475 -0.002307031 0.0056706476 -0.019704476
0000f0 6b e0 2d 3a 29 2b 16 bc 2d 57 91 bc f0 c8 d6 bb
       0.0006632867 -0.009165564 -0.017741764 -0.0065547153
000100 65 27 57 bc c0 fc 1b 3c 00 4f 9c 3b 82 ba 81 bc
       -0.013131951 0.0095207095 0.0047701597 -0.015836004
000110 36 2e 04 bd db d9 2b 39 92 77 55 3c 8c 05 25 bc
       -0.032270633 0.00016388988 0.013028996 -0.010072123
000120 87 00 0b bb 57 e3 85 3c 8f 28 2e bc ba c9 56 3c
       -0.002121003 0.016343756 -0.010629787 0.013109619
000130 2b a4 e5 bc ef e9 56 3b 88 21 e1 bc 5f 7b c5 3b
       -0.028032383 0.0032793244 -0.02748181 0.00602667
000140 19 49 c9 3b 5e 57 8d 3c 29 c2 aa 3c 02 87 74 bb
       0.006142747 0.017253574 0.020844536 -0.0037311916
000150 d7 6f 95 bb 91 05 23 3b 93 9b 26 bc 9b 27 90 3c
       -0.0045604515 0.0024875144 -0.010168928 0.01759701
000160 27 12 7d bc 4b ac 8b ba 06 07 26 bc 3b 8e b2 3b
       -0.015446222 -0.0010656206 -0.01013351 0.005449084
000170 c3 45 d6 3c 8e 84 a2 3c f7 45 58 3c ff 9f ea bb
       0.026156312 0.019838598 0.013200275 -0.0071601863
000180 63 0e 9d 3c 73 76 d6 bc bb c5 1c 3c c6 c2 1c bc
       0.0191719 -0.026179528 0.009568627 -0.009567922
000190 41 8a 83 bc fc de 22 bc ef 37 12 3d 70 0c 4f bc
       -0.016057136 -0.009940859 0.035697874 -0.012637243
0001a0 d3 67 4e bb 93 53 b1 3a 97 ab f3 3c a5 01 d7 bc
       -0.003149499 0.0013528935 0.029744906 -0.026245901
0001b0 65 13 a1 3c 4f 81 59 bc bb a6 e5 bb 6f 3e 2b bb
       0.019662568 -0.0132754585 -0.007008401 -0.0026129743
0001c0 8f 4b 09 3d 85 1b d4 3c 7b 10 da 3a bf 97 4d bc
       0.033519324 0.025892029 0.0016636992 -0.012548386
0001d0 de dd 91 3b 9b 32 c9 3c 8f cd 9b 3b 1d f7 eb 3c
       0.0044514975 0.024560263 0.004754729 0.028804356
0001e0 53 da cb 3b 83 e6 fc bc 36 fe b6 3c ba 9c 7b 3c
       0.0062210946 -0.030871635 0.022338014 0.015357191
0001f0 d2 7a 30 3c 8f 33 8f bc d8 a7 d5 3c 1a 08 80 39
       0.01077147 -0.01748064 0.02608101 0.000244201
000200 f4 50 16 3c 8f ce 88 bb 65 ba a3 3a 1c bc b9 3b
       0.009174574 -0.0041750143 0.0012491463 0.0056681763
000210 7b b4 50 bc 5f 49 10 3c 70 28 53 bc a8 2e 9f bb
       -0.012738342 0.0088065555 -0.012888059 -0.004857857
000220 b3 55 18 3d 8f 33 75 bc 6f 20 f4 bb 7f 55 46 bc
       0.037191104 -0.014965906 -0.0074501554 -0.012105345
000230 9b 0b 84 bc c3 fe 85 3c f3 f3 47 bd ef 89 0d 3c
       -0.016118815 0.016356831 -0.048816632 0.008638843
000240 ea 1e fe bb 20 21 24 b9 08 fd f5 bb 64 79 17 3d
       -0.00775515 -0.00015652599 -0.0075069703 0.036981
000250 79 3e 09 3d 23 3f e5 3c 05 f8 08 3c cf 96 1d 3b
       0.033506844 0.027984207 0.008359914 0.0024046188
000260 9b bc bb 3b eb 0f 81 bc cd 96 8a 3c b2 f0 16 bc
       0.0057292706 -0.01575466 0.01691761 -0.00921266
000270 af ac d0 bb a5 bf d0 ba 06 a2 06 bb c6 39 b8 bb
       -0.0063682417 -0.0015926255 -0.002054335 -0.0056221215
000280 21 c8 3b bc bd 39 ee 3b f6 21 a3 39 bf 2b cb bb
       -0.011461289 0.0072700665 0.00031115086 -0.0062002833
000290 c2 c0 3b bc bf e6 f7 3c 65 d1 3b 3d cb 55 86 3c
       -0.011459531 0.030261395 0.04585399 0.016398331
0002a0 13 88 1b 3d f8 c4 96 3c 70 d2 5e 3c 79 82 07 bc
       0.037971567 0.018404469 0.013599977 -0.008270853
0002b0 13 8f d5 bc ed 71 3f bc 5b 41 39 3c f5 e8 d8 3b
       -0.0260692 -0.011684877 0.011307086 0.0066195675
0002c0 af 6f 80 3c 77 94 2a 3c 37 fd 65 3c 37 4f 5d 3c
       0.015678255 0.010411373 0.014037422 0.013507656
0002d0 c3 0f 00 bc 22 56 85 3c ff e2 3c bd 6f 78 97 3c
       -0.007816258 0.016276423 -0.046114918 0.018490044
0002e0 11 d9 21 bc ec d6 86 bc ad 7e d3 ba 4a d0 30 3c
       -0.009878413 -0.016459905 -0.0016135775 0.0107918475
0002f0 63 8e 35 bd fd ea 78 3b 3f 60 86 bc c2 ca 20 bc
       -0.044325244 0.003798186 -0.016403316 -0.009813966
000300 2b 24 f0 3c 47 25 e3 3b c2 3c b6 bc f9 42 a4 bb
       0.029314121 0.006931934 -0.022245768 -0.0050128666
000310 0a 62 51 bc 3b a3 d2 bc 98 ca 61 3c 65 f8 d4 3b
       -0.012779722 -0.0257126 0.013781212 0.0064993375
000320 d2 4d 1f 3c e3 80 0a bd bb 00 d9 3c be d0 27 bc
       0.009723144 -0.033814322 0.026489606 -0.010242639
000330 4f 25 0b 3c ab eb 13 bd 93 47 c2 bc c7 79 7c 3b
       0.008492782 -0.036113422 -0.02371577 0.0038524733
000340 2d 09 9f 3c 6d 97 76 3b d2 0e 18 bd bd ae 8e 3b
       0.019413555 0.0037626878 -0.03712351 0.0043543265
000350 5a 79 43 bc 96 c5 49 3c a0 5c f3 3c b2 4d 70 bc
       -0.011930788 0.012315175 0.029707253 -0.0146669615
000360 b3 3d bb bc 0a d8 74 bc 26 89 96 3c 8f 9d 3d bb
       -0.022856569 -0.014944086 0.018375944 -0.0028933024
000370 ad 77 f1 3c 38 2c 10 bc ad c7 ea 3c a7 94 bb 3b
       0.029476011 -0.008799605 0.028659666 0.005724508
000380 30 4e 66 bc 92 5a d9 bb 21 26 13 bd c9 3f 04 bb
       -0.014056727 -0.0066331113 -0.035925034 -0.002017962
000390 0a 6c 5e 3b dd 0c 86 bc 33 1d a3 3c 4a 70 f3 3c
       0.0033938908 -0.016363556 0.019911384 0.02971663
0003a0 10 61 59 3c a2 db a4 bc 21 45 c4 3c b8 7f ce bc
       0.01326777 -0.02012426 0.023958744 -0.025207385
0003b0 7b 69 af 3b ae 18 24 bc eb 39 ef 3b 7a d6 b8 3c
       0.0053531504 -0.01001565 0.0073006055 0.022563208
0003c0 7e 4f 0c ba 9b 0a 80 bc 38 50 dd 3c 78 c8 6d bc
       -0.00053524214 -0.015630057 0.02701579 -0.0145131275
0003d0 e3 8b b8 3b 27 c2 15 3c 94 6d 1c bd 7d 64 a2 bb
       0.00563191 0.009140528 -0.03819044 -0.004955827
0003e0 3b c9 52 3b 12 8f 75 3b 43 29 55 bc 68 e6 dd 3b
       0.00321634 0.003746931 -0.013010326 0.0067718513
0003f0 7b 0c c3 bc 78 20 5f 3c f1 f1 4a bb 2f ec c7 bc
       -0.023809662 0.013618581 -0.0030966962 -0.024404613

action_model._continuous_distribution.mu.bias f4 [2]
000000 00 00 00 00 00 00 00 00
       0.0 0.0

network_body.linear_encoder.seq_layers.0.weight f4 [128, 6]
000000 bd bb ba 3d 4c b9 81 be aa 68 45 bd b8 5b a7 be
       0.091178395 -0.25336683 -0.04819552 -0.32687163
000010 9f 56 d1 be c6 57 cb 3e 2b fb e7 3d 5e 87 99 3e
       -0.408864 0.39715403 0.11327203 0.2998609
000020 ca 35 06 be 85 d9 a0 3e d0 ca 3c 3f 75 10 a4 be
       -0.13106456 0.31415954 0.7374697 -0.32043806
000030 01 19 ec 3e 52 4f bc be cc 68 48 be 06 b2 1d be
       0.46112826 -0.36779267 -0.19571227 -0.15399942
000040 24 1d 80 3e f7 99 ba be d6 bc f8 3b 00 14 20 bf
       0.25022233 -0.3644559 0.0075908704 -0.6253052
000050 4e cb 1c 3f 2b 47 7e be 6e fa 3c be 74 28 63 bf
       0.6124772 -0.24831836 -0.18454906 -0.887336
000060 b9 a5 85 be db b0 a8 be 80 19 2f bd 3d 56 ba 3d
       -0.26103 -0.3294743 -0.042748928 0.0909848
000070 17 ff 91 3e 70 a4 f8 bd a9 6e ad 3b ea 5e 05 bf
       0.2851493 -0.12140739 0.0052927327 -0.5209795
000080 ce 90 ba 3f 92 24 27 bf a3 ee b3 be 97 cb ed bd
       1.4575441 -0.65290177 -0.35143003 -0.11611097
000090 ab a7 af be b7 71 bc 3e 25 6b 48 3e 85 15 86 3c
       -0.34307608 0.36805508 0.19572122 0.016367683
0000a0 3f 55 14 bf da f9 8b 3f e2 98 74 bd dd 69 36 bf
       -0.57942575 1.0935624 -0.059716113 -0.71255285
0000b0 73 5b e3 be fc 95 44 3e 78 5a f9 be 7f 60 ef 3e
       -0.44405708 0.1919784 -0.48701835 0.46753308
0000c0 57 8e 1a 3e 69 b9 4a 3e 1b 68 56 bf c9 e8 71 3f
       0.15093361 0.19797291 -0.837526 0.94495827
0000d0 86 a0 57 bf c0 59 7e 3d 76 cf 94 3e 58 7d 27 3e
       -0.84229314 0.06209731 0.2906453 0.16356409
0000e0 08 d6 44 3d 04 d9 45 3e 4f 0d 15 3d 06 d7 9f 3e
       0.04805568 0.19321066 0.036389645 0.31218737
0000f0 05 1f 59 3e 59 2f 49 be e9 6d bd 3e 3f cc 72 3e
       0.2120324 -0.19646968 0.36997917 0.23710726
000100 de c4 f5 bc ff 2e a3 3c 1d 92 f7 bd cd 8c 40 bf
       -0.0300011 0.01991987 -0.12088416 -0.75214845
000110 d4 b8 3e be 06 a9 ef bd 65 be 14 3e 94 3f 9f 3c
       -0.18625194 -0.117021605 0.14525755 0.019439496
000120 79 9d 75 bd 34 85 60 bf 8b 96 28 3f 9a 53 cf bd
       -0.05996463 -0.8770325 0.6585471 -0.101233676
000130 7a 99 93 3e a5 cd e3 3e 8c 1b cb 3e a5 55 53 3f
       0.2882803 0.44492832 0.39669454 0.8255256
000140 f0 1d a8 3d 5f f9 ef 3e fa 09 2c bf 42 fe a0 3e
       0.08208835 0.46869943 -0.67202723 0.31443983
000150 a3 f9 ab 3e b1 32 1e 3f 5a b2 33 3f f6 6a b0 be
       0.33588895 0.617961 0.7019402 -0.34456605
000160 89 56 7d 3e ee fc aa 3d 06 84 a1 3e ca 8c 05 3f
       0.24740042 0.08349024 0.31546038 0.5216795
000170 16 c8 c9 3e fc 40 cd bd 4a 67 76 3e 1e b4 34 bc
       0.39410466 -0.100221604 0.24062839 -0.011029271
000180 57 21 de 3e 1a 42 9b be a3 50 03 38 16 71 b5 be
       0.4338481 -0.3032387 3.1307933e-05 -0.3543784
000190 22 55 02 3e b2 6c 66 3f 50 4d 0e be eb 2c 0b 3e
       0.12727788 0.90009606 -0.1389668 0.13591354
0001a0 0b f0 25 bf 6a e5 d9 3d ed c9 e8 3e 9e 6d 85 be
       -0.648194 0.106394604 0.45466557 -0.26060194
0001b0 c0 12 c6 be 0e be 8b 3e 37 98 86 be 34 a7 e9 3e
       -0.3868618 0.27293438 -0.26288006 0.45635378
0001c0 c2 00 3f 3d ff d6 05 3e 84 a9 d1 3e 02 17 d5 be
       0.046631582 0.13070296 0.40949643 -0.41619116
0001d0 e2 6e 8b 3e 49 3f 6d 3e e6 7f 7a be 76 4c 47 bd
       0.27233034 0.23168673 -0.24462852 -0.048656903
0001e0 ee b0 62 be ee 37 04 bf d2 b7 d4 3e ef 78 ec 3e
       -0.22137806 -0.5164784 0.41546494 0.46186015
0001f0 3c 55 e2 3e 43 d2 a5 3e 8f eb 01 bf 0a 0f 53 3e
       0.44205654 0.3238698 -0.5075006 0.20611206
000200 d2 91 cb 3d d2 07 f2 3c 6a fc 02 bf 72 c4 09 3f
       0.099399224 0.029544745 -0.51166403 0.53815377
000210 52 1c 11 bf b5 7a b5 be 34 c0 dd 3e 46 12 e9 3d
       -0.5668384 -0.3544518 0.43310702 0.113804385
000220 58 03 0b bd ca bb 2c bf 6f eb 1b bf 1e e0 54 3e
       -0.033938736 -0.67474043 -0.6090612 0.20788619
000230 92 96 87 3e 12 31 7a bf 62 5d a0 be ed c3 27 3e
       0.26482064 -0.97731125 -0.31321245 0.16383334
000240 a4 3e 80 bf 74 a1 a7 be 1c 47 14 bc e6 e0 cf be
       -1.0019116 -0.32740366 -0.009050157 -0.4060127
000250 e4 36 a8 be 50 d2 49 bd 1b 24 42 bd 28 2d 8f be
       -0.32854378 -0.049272835 -0.047397714 -0.2796414
000260 3b ce 07 3f e7 2c 37 be fe f8 fb bd 5e 52 06 3f
       0.5304906 -0.17888223 -0.12303351 0.5246943
000270 b6 24 5b 3e 1d 20 1c be 4d 71 17 be b7 92 20 bf
       0.21400723 -0.15246625 -0.14789315 -0.6272387
000280 4a e3 17 be 92 2b 51 bf 3e 6e 16 be 34 d0 19 bd
       -0.14832798 -0.8170711 -0.14690492 -0.037552074
000290 49 97 a7 be 12 1c 68 3d 80 48 8c be cd 2d a8 be
       -0.3273261 0.056667395 -0.27399063 -0.32847443
0002a0 d0 83 a7 be 10 82 05 bf cb 92 18 be 5d c0 18 3e
       -0.32717752 -0.52151585 -0.14899747 0.14917131
0002b0 d1 03 a4 be 5b d5 07 3e 4c 89 ec be 8a 56 06 bf
       -0.32034162 0.13264982 -0.461985 -0.524758
0002c0 d4 c7 c0 3d b3 30 9e be ee 9c 53 3f 33 62 85 3e
       0.09413114 -0.3089653 0.8266133 0.26051483
0002d0 59 fc 35 bf 40 a7 c5 be c4 a1 3f be ab 12 91 3e
       -0.71088177 -0.38604164 -0.18714052 0.28334555
0002e0 b6 1e 24 3f 2e a7 33 b7 eb 2f 57 be b8 74 16 bf
       0.6410936 -1.0708156e-05 -0.21014373 -0.5877185
0002f0 dc c2 28 bc 5e 49 fe 3e 81 d7 1a 3f 57 3a 4d 3e
       -0.010300364 0.4966535 0.6048508 0.20041786
000300 6f f8 13 3f 48 0f 53 3f e3 c6 1c 3e b0 9a 30 3e
       0.57800955 0.8244519 0.15310244 0.17246509
000310 e1 fb 85 be 9a 6c 80 bd 4e 26 2e bf 74 b5 f4 3e
       -0.2616873 -0.06270714 -0.680272 0.47794688
000320 76 7f 2c 3e ba 69 28 bf 0d 33 3d bc 2d ee 90 3e
       0.16845497 -0.65786326 -0.011547816 0.28306714
000330 35 17 05 bc 02 9a 63 be 48 26 ef be fb c5 5d 3e
       -0.008123209 -0.22226718 -0.46708894 0.21657555
000340 07 53 74 3e 2c d2 2e bd ae 0e a4 bd 66 8a 9d 3e
       0.23859797 -0.042680904 -0.080106124 0.30769652
000350 1a 6c 3b bf 34 b4 89 be 0e a6 db bd 56 ff 8c 3d
       -0.73211825 -0.26895297 -0.10725032 0.06884639
000360 4d bf cb 3e 50 7c b8 be 13 8f 6a be 43 1c da 3e
       0.39794388 -0.36032343 -0.22906141 0.42599687
000370 d1 3e 16 be 12 e6 a7 3e 4c 1e 07 3d 2c 3b 0f bf
       -0.146724 0.32792717 0.032987878 -0.55949664
000380 6e a8 5c 3f 07 ff 31 3f 76 84 c5 be 62 62 19 bd
       0.86194503 0.69529766 -0.38577622 -0.03744734
000390 43 92 52 3e 71 a7 53 be 5c 3d 02 3f 6d 94 b9 3e
       0.20563607 -0.20669343 0.50874877 0.36246052
0003a0 b2 34 30 3f b8 2b b9 be f4 35 97 3e 32 5d d8 3b
       0.68830407 -0.36166167 0.2953335 0.0066029066
0003b0 6c 11 31 bf cb 31 30 3f d2 d9 f6 be 1f 73 19 bf
       -0.6916721 0.6882598 -0.4821306 -0.59941286
0003c0 50 e9 21 3f c5 80 39 be 5c 42 4d 3f 00 7b b9 3e
       0.6324663 -0.18115528 0.8017938 0.36226654
0003d0 32 b8 50 3e 55 23 a6 3e ce b5 33 3f 64 63 82 be
       0.20382765 0.3244883 0.70199287 -0.25466454
0003e0 9b f6 9a 3e 86 14 da 3e 39 3e 03 bf 54 ec 0e bf
       0.3026627 0.42593783 -0.5126682 -0.5582936
0003f0 cc 70 ad 3e fd 3c 8d 3e 00 9d 16 3f 48 53 4e 3d
       0.3387512 0.27585593 0.58833313 0.050372392

network_body.linear_encoder.seq_layers.0.bias f4 [128]
000000 00 00 00 00 00 00 00 00 00 00 00 00 00 00 00 00
       0.0 0.0 0.0 0.0
000010 00 00 00 00 00 00 00 00 00 00 00 00 00 00 00 00
       0.0 0.0 0.0 0.0
000020 00 00 00 00 00 00 00 00 00 00 00 00 00 00 00 00
       0.0 0.0 0.0 0.0
000030 00 00 00 00 00 00 00 00 00 00 00 00 00 00 00 00
       0.0 0.0 0.0 0.0
000040 00 00 00 00 00 00 00 00 00 00 00 00 00 00 00 00
       0.0 0.0 0.0 0.0
000050 00 00 00 00 00 00 00 00 00 00 00 00 00 00 00 00
       0.0 0.0 0.0 0.0
000060 00 00 00 00 00 00 00 00 00 00 00 00 00 00 00 00
       0.0 0.0 0.0 0.0
000070 00 00 00 00 00 00 00 00 00 00 00 00 00 00 00 00
       0.0 0.0 0.0 0.0
000080 00 00 00 00 00 00 00 00 00 00 00 00 00 00 00 00
       0.0 0.0 0.0 0.0
000090 00 00 00 00 00 00 00 00 00 00 00 00 00 00 00 00
       0.0 0.0 0.0 0.0
0000a0 00 00 00 00 00 00 00 00 00 00 00 00 00 00 00 00
       0.0 0.0 0.0 0.0
0000b0 00 00 00 00 00 00 00 00 00 00 00 00 00 00 00 00
       0.0 0.0 0.0 0.0
0000c0 00 00 00 00 00 00 00 00 00 00 00 00 00 00 00 00
       0.0 0.0 0.0 0.0
0000d0 00 00 00 00 00 00 00 00 00 00 00 00 00 00 00 00
       0.0 0.0 0.0 0.0
0000e0 00 00 00 00 00 00 00 00 00 00 00 00 00 00 00 00
       0.0 0.0 0.0 0.0
0000f0 00 00 00 00 00 00 00 00 00 00 00 00 00 00 00 00
       0.0 0.0 0.0 0.0
000100 00 00 00 00 00 00 00 00 00 00 00 00 00 00 00 00
       0.0 0.0 0.0 0.0
000110 00 00 00 00 00 00 00 00 00 00 00 00 00 00 00 00
       0.0 0.0 0.0 0.0
000120 00 00 00 00 00 00 00 00 00 00 00 00 00 00 00 00
       0.0 0.0 0.0 0.0
000130 00 00 00 00 00 00 00 00 00 00 00 00 00 00 00 00
       0.0 0.0 0.0 0.0
000140 00 00 00 00 00 00 00 00 00 00 00 00 00 00 00 00
       0.0 0.0 0.0 0.0
000150 00 00 00 00 00 00 00 00 00 00 00 00 00 00 00 00
       0.0 0.0 0.0 0.0
000160 00 00 00 00 00 00 00 00 00 00 00 00 00 00 00 00
       0.0 0.0 0.0 0.0
000170 00 00 00 00 00 00 00 00 00 00 00 00 00 00 00 00
       0.0 0.0 0.0 0.0
000180 00 00 00 00 00 00 00 00 00 00 00 00 00 00 00 00
       0.0 0.0 0.0 0.0
000190 00 00 00 00 00 00 00 00 00 00 00 00 00 00 00 00
       0.0 0.0 0.0 0.0
0001a0 00 00 00 00 00 00 00 00 00 00 00 00 00 00 00 00
       0.0 0.0 0.0 0.0
0001b0 00 00 00 00 00 00 00 00 00 00 00 00 00 00 00 00
       0.0 0.0 0.0 0.0
0001c0 00 00 00 00 00 00 00 00 00 00 00 00 00 00 00 00
       0.0 0.0 0.0 0.0
0001d0 00 00 00 00 00 00 00 00 00 00 00 00 00 00 00 00
       0.0 0.0 0.0 0.0
0001e0 00 00 00 00 00 00 00 00 00 00 00 00 00 00 00 00
       0.0 0.0 0.0 0.0
0001f0 00 00 00 00 00 00 00 00 00 00 00 00 00 00 00 00
       0.0 0.0 0.0 0.0

network_body.linear_encoder.seq_layers.2.weight f4 [128, 128]
000000 58 41 f8 bd 0c c6 af bd 01 43 08 3e f9 4e 9b 3d
       -0.12121838 -0.08582696 0.1330681 0.07583422
000010 7d 05 d0 bc fc 2c 61 3d 99 85 02 bd 30 a6 69 bd
       -0.025393242 0.05497454 -0.03186569 -0.057043254
000020 0c 5b c1 bc d1 ef 8b 3c bd 44 ba bd 6b 00 15 be
       -0.023602985 0.017082127 -0.09095142 -0.1455094
000030 b6 3b 04 bd 04 46 fe 3d fa 14 0f be 5d 61 0d be
       -0.032283507 0.12415698 -0.13972846 -0.13806672
000040 7f 08 75 bd 6e f4 80 3c 0c 29 06 3d ab cf dc bd
       -0.059822556 0.015741553 0.03275399 -0.10781797
000050 42 6a 59 bc 0b fc 40 bd ba ed cc 3d b9 8c b0 3d
       -0.013269963 -0.047115367 0.1000628 0.08620591
000060 86 86 0c be cd 56 9a 3d 70 e6 07 bd 90 9b af bd
       -0.13723192 0.07536087 -0.033178747 -0.08574593
000070 bb 90 dd 3d 7e 10 26 3e d0 c9 b7 3d a8 e7 fd 3c
       0.10818621 0.16217229 0.089740396 0.030994251
000080 2f 4a 82 bd b8 79 00 be 01 55 41 bd b1 0c 0e bd
       -0.06361806 -0.12546432 -0.047200207 -0.034680072
000090 77 50 04 3c f3 b0 cc 3d 51 1f f5 bd 47 d9 1d bb
       0.008075825 0.09994688 -0.11968864 -0.0024085806
0000a0 82 5a 21 bd 0e 8d 0a bc 15 27 84 3d 7d a3 41 bd
       -0.039392956 -0.008456482 0.06452767 -0.047275055
0000b0 75 09 06 bd e1 8e ee bd 8b c0 33 bd 62 71 e5 3c
       -0.032723863 -0.11648346 -0.043884795 0.028008167
0000c0 51 07 43 3c 01 1f 7d ba 57 ad 6a 3a 75 d4 a4 bc
       0.0119036 -0.0009655804 0.0008952221 -0.020120839
0000d0 e6 98 ff 3d bf f2 21 bd 82 05 de 3d a0 c3 49 3d
       0.12480335 -0.03953814 0.10840894 0.04925883
0000e0 0f 30 70 3d 3f ec de bd 05 ce e5 bb cb f2 d5 bd
       0.058639582 -0.10884904 -0.007013085 -0.104467
0000f0 6f 37 ef 3c 75 8e d0 3d 6b 63 ea bd 83 0f 77 bd
       0.029201237 0.101834215 -0.11444744 -0.060317528
000100 1a 57 9a bd 20 fa 8d 3d 20 c5 0b bc d6 b0 d6 bd
       -0.075361446 0.06932473 -0.008530885 -0.104829475
000110 5f 26 af bd 04 69 8f bd 1f 06 c6 bd 63 cf 4f bd
       -0.085522406 -0.07002452 -0.09669136 -0.05073489
000120 e1 64 8a 3c ce 58 b4 bd 0e 5b 7d bb ee 2c b8 bd
       0.016893806 -0.08806001 -0.003865901 -0.08992945
000130 c7 c8 0d 3e c6 cf 5c 3d 36 cc cf 3c fb 6a 04 3e
       0.13846122 0.053909086 0.02536593 0.12931435
000140 dc 32 c0 bd 31 00 21 3d d5 e1 b7 bd 85 53 0b 3e
       -0.09384701 0.039306823 -0.08978621 0.13606079
000150 a1 6c b3 bd fe f6 7e bd f8 84 ba bd 85 2c 90 3d
       -0.08760954 -0.06224727 -0.09107393 0.070397414
000160 e9 25 c1 3c 10 e9 84 3d 98 73 f0 3b c7 ee 8f bd
       0.023577647 0.06489766 0.0073379986 -0.07027965
000170 1d e8 2a 3d e3 bd aa bd e0 d8 bf bb ac 40 c9 3d
       0.041725267 -0.08336999 -0.005854711 0.09826788
000180 4c 5b 65 3a d7 c9 dd bd 98 4e 28 3e 39 28 0c be
       0.0008749261 -0.108295135 0.16436231 -0.13687219
000190 05 29 82 3d 1d ae 5b 3c 2b 89 14 bd 44 0f 06 bd
       0.0635548 0.013408211 -0.036263626 -0.032729402
0001a0 9e e3 cb bd 40 24 9d 3d e3 15 87 bc bc ef 0b bc
       -0.09955524 0.0767293 -0.016489929 -0.008541044
0001b0 6b 7c 02 3d 3b f7 a5 3d 25 af ac bd 2d a3 b9 3c
       0.031856935 0.08103796 -0.08431844 0.022660816
0001c0 36 36 7a bd 62 a0 c3 3d 7f 62 dd 3c 99 f6 06 3e
       -0.061086856 0.09552075 0.027024506 0.13180007
0001d0 a5 5d c7 3c 33 da f8 3d b1 c3 48 bc 60 af bf 3d
       0.024336645 0.12150993 -0.012253688 0.09359622
0001e0 d5 bd af bd 1d bc f4 bd 4e 76 1e 3c 5b e4 9e bb
       -0.085811295 -0.11949942 0.009671761 -0.0048489994
0001f0 14 a1 60 3c 05 36 c9 bd e7 25 8e 3b 57 99 fb 3d
       0.013710279 -0.098247565 0.0043380144 0.12285107
000200 8a 2b 7a 3c ca fe 1b 3d 19 b2 f2 3d 71 5d 02 3d
       0.01526917 0.038084783 0.11850376 0.031827394
000210 89 95 82 3d f9 89 0e 3e 5f b9 39 3e f6 d6 a9 bd
       0.06376178 0.1391982 0.1813712 -0.08292954
000220 0b cc a0 bc d2 52 50 bd d6 65 1f 3e 8c 1c e6 3c
       -0.019628545 -0.050860234 0.15566191 0.028089784
000230 cf 1f 8f bd d1 89 a9 bd 2c 59 02 be 2e 36 1e be
       -0.06988489 -0.082782395 -0.12729329 -0.15450355
000240 0a 4b d9 3d 46 a6 4a 3d c2 34 55 3d ce dd 37 3d
       0.10610016 0.049474977 0.052052267 0.044889264
000250 d1 7a 35 bd 83 69 6c 3d eb 5a d9 3d 6c 9e ac 3d
       -0.04430658 0.05771781 0.10613044 0.08428654
000260 4b c4 76 bd dd 20 88 bd 65 ad 41 be 55 54 69 bd
       -0.060245793 -0.06646893 -0.18913801 -0.05696519
000270 ed 63 95 3d 75 ba 32 be da e6 0f be 09 7a 85 bc
       0.0729445 -0.1745394 -0.14052907 -0.016293542
000280 74 f2 d3 bd 64 49 23 3d 86 12 96 bd 5c 5b c5 bc
       -0.10348979 0.039864913 -0.07327752 -0.024091415
000290 91 af 91 3d 27 c4 1c 3d ec 38 a8 bc 63 e7 77 bc
       0.07113565 0.038273003 -0.020534955 -0.0151308505
0002a0 fb 9d 28 be ef 91 f0 bc d7 05 20 bd 57 0e 22 3e
       -0.16466515 -0.029366462 -0.03906807 0.15825783
0002b0 c2 98 ac bd 17 78 99 ba fc da 79 bc cd 36 50 bc
       -0.08427574 -0.0011708763 -0.015249964 -0.012708378
0002c0 4c 84 a7 3d db 57 69 3c a0 bc 15 bc 20 11 b7 3d
       0.081795305 0.014242138 -0.00913921 0.08938813
0002d0 4a a0 bb 3d ba 8e 84 bd 17 cd 37 3d 9d ce 4d be
       0.09161432 -0.064725354 0.044873323 -0.20098348
0002e0 05 d4 5a bc ff 7d 56 bc 5c 08 be 3d 98 d7 0b be
       -0.013356213 -0.013091563 0.09278938 -0.13656461
0002f0 9a 21 90 3c 96 60 93 bd 6c e4 61 bd a8 b3 af 3d
       0.017594147 -0.07196157 -0.05514948 0.085791886
000300 11 7f fd ba 95 3f bf 3d 07 b3 e6 3c 48 16 68 3d
       -0.0019340237 0.09338299 0.028161539 0.056661874
000310 17 7d ab 3d 8b 20 76 bd a7 43 4f 3c 21 13 9e bd
       0.08373468 -0.06008963 0.012650407 -0.07718492
000320 02 b7 80 3c 73 c1 21 be 9e 6d 11 3a f3 12 f4 bc
       0.015712265 -0.15796451 0.0005547645 -0.029794192
000330 08 da 12 bd 23 cd 0f 3d 5d 1d e6 3d 05 84 71 bd
       -0.035852462 0.035107743 0.11236069 -0.058963794
000340 86 1c 90 bd 9c e9 f4 bd 91 45 73 3d 6c 4a 05 3c
       -0.070366904 -0.1195862 0.059392516 0.008135419
000350 52 f5 f0 3d dc af 0b bc 13 7b 21 3d 69 a9 83 3c
       0.11765541 -0.008525815 0.039424013 0.016071992
000360 c0 eb e3 3c 1d e4 2e be 25 e2 96 bc 45 d7 05 be
       0.027822375 -0.17079206 -0.018418381 -0.130704
000370 3a 5e 9f 3c d0 0a 9e bc 58 e4 26 3c d9 f0 09 be
       0.01945411 -0.019292265 0.010186277 -0.13470782
000380 4b 7e ab 3d 64 28 1f bc 79 b3 89 3d d0 9e 06 3b
       0.08373698 -0.00971422 0.06723685 0.0020541437
000390 8f 14 13 3d 2a 56 00 be 19 81 e2 bd 6c 4b 85 bd
       0.035908278 -0.12532869 -0.1105978 -0.06508526
0003a0 f8 84 76 bd 46 cb 7c 3d a3 f5 29 bd 19 d8 ce 3d
       -0.060185403 0.061717294 -0.041494023 0.10099811
0003b0 18 11 cf bd e5 86 a6 3d 88 4a 83 3d 91 2d d3 bd
       -0.10110682 0.08131198 0.064107 -0.103114255
0003c0 99 6f 3f 3e e3 2b cf 3c b8 f1 27 3d a2 77 4b bd
       0.18694915 0.025289482 0.041002005 -0.049674638
0003d0 68 3b 7e bd 1c e5 35 3d 81 17 6e bb 4f 85 4d bc
       -0.062068373 0.04440795 -0.0036329927 -0.01254399
0003e0 80 25 aa 3c 2a 96 b5 bd 82 34 11 be 93 f6 56 bc
       0.020769835 -0.08866532 -0.14180186 -0.013120311
0003f0 48 d8 25 3d 86 d4 f4 3d 5f b5 04 3d fa 8f 1e 3e
       0.040489465 0.11954598 0.03239953 0.1548461

network_body.linear_encoder.seq_layers.2.bias f4 [128]
000000 00 00 00 00 00 00 00 00 00 00 00 00 00 00 00 00
       0.0 0.0 0.0 0.0
000010 00 00 00 00 00 00 00 00 00 00 00 00 00 00 00 00
       0.0 0.0 0.0 0.0
000020 00 00 00 00 00 00 00 00 00 00 00 00 00 00 00 00
       0.0 0.0 0.0 0.0
000030 00 00 00 00 00 00 00 00 00 00 00 00 00 00 00 00
       0.0 0.0 0.0 0.0
000040 00 00 00 00 00 00 00 00 00 00 00 00 00 00 00 00
       0.0 0.0 0.0 0.0
000050 00 00 00 00 00 00 00 00 00 00 00 00 00 00 00 00
       0.0 0.0 0.0 0.0
000060 00 00 00 00 00 00 00 00 00 00 00 00 00 00 00 00
       0.0 0.0 0.0 0.0
000070 00 00 00 00 00 00 00 00 00 00 00 00 00 00 00 00
       0.0 0.0 0.0 0.0
000080 00 00 00 00 00 00 00 00 00 00 00 00 00 00 00 00
       0.0 0.0 0.0 0.0
000090 00 00 00 00 00 00 00 00 00 00 00 00 00 00 00 00
       0.0 0.0 0.0 0.0
0000a0 00 00 00 00 00 00 00 00 00 00 00 00 00 00 00 00
       0.0 0.0 0.0 0.0
0000b0 00 00 00 00 00 00 00 00 00 00 00 00 00 00 00 00
       0.0 0.0 0.0 0.0
0000c0 00 00 00 00 00 00 00 00 00 00 00 00 00 00 00 00
       0.0 0.0 0.0 0.0
0000d0 00 00 00 00 00 00 00 00 00 00 00 00 00 00 00 00
       0.0 0.0 0.0 0.0
0000e0 00 00 00 00 00 00 00 00 00 00 00 00 00 00 00 00
       0.0 0.0 0.0 0.0
0000f0 00 00 00 00 00 00 00 00 00 00 00 00 00 00 00 00
       0.0 0.0 0.0 0.0
000100 00 00 00 00 00 00 00 00 00 00 00 00 00 00 00 00
       0.0 0.0 0.0 0.0
000110 00 00 00 00 00 00 00 00 00 00 00 00 00 00 00 00
       0.0 0.0 0.0 0.0
000120 00 00 00 00 00 00 00 00 00 00 00 00 00 00 00 00
       0.0 0.0 0.0 0.0
000130 00 00 00 00 00 00 00 00 00 00 00 00 00 00 00 00
       0.0 0.0 0.0 0.0
000140 00 00 00 00 00 00 00 00 00 00 00 00 00 00 00 00
       0.0 0.0 0.0 0.0
000150 00 00 00 00 00 00 00 00 00 00 00 00 00 00 00 00
       0.0 0.0 0.0 0.0
000160 00 00 00 00 00 00 00 00 00 00 00 00 00 00 00 00
       0.0 0.0 0.0 0.0
000170 00 00 00 00 00 00 00 00 00 00 00 00 00 00 00 00
       0.0 0.0 0.0 0.0
000180 00 00 00 00 00 00 00 00 00 00 00 00 00 00 00 00
       0.0 0.0 0.0 0.0
000190 00 00 00 00 00 00 00 00 00 00 00 00 00 00 00 00
       0.0 0.0 0.0 0.0
0001a0 00 00 00 00 00 00 00 00 00 00 00 00 00 00 00 00
       0.0 0.0 0.0 0.0
0001b0 00 00 00 00 00 00 00 00 00 00 00 00 00 00 00 00
       0.0 0.0 0.0 0.0
0001c0 00 00 00 00 00 00 00 00 00 00 00 00 00 00 00 00
       0.0 0.0 0.0 0.0
0001d0 00 00 00 00 00 00 00 00 00 00 00 00 00 00 00 00
       0.0 0.0 0.0 0.0
0001e0 00 00 00 00 00 00 00 00 00 00 00 00 00 00 00 00
       0.0 0.0 0.0 0.0
0001f0 00 00 00 00 00 00 00 00 00 00 00 00 00 00 00 00
       0.0 0.0 0.0 0.0

value_heads.value_heads.extrinsic.weight f4 [1, 128]
000000 40 ea ba 3c be ce 3b 3e 66 aa 12 3e 8c f1 57 bd
       0.022816777 0.18340585 0.14322814 -0.05272059
000010 cc a3 0b 3e 24 4d 0e bd a8 9a 10 3d 90 1f 27 3d
       0.13636702 -0.034741536 0.03530374 0.040801585
000020 00 ba 7f 3a 20 fa 3d be b4 9e e2 3d 4f a5 04 be
       0.0009755194 -0.18552446 0.110654265 -0.12953685
000030 52 8c 31 3e a0 50 14 be ba 76 0d be 4c f7 0b bd
       0.17338684 -0.14483881 -0.13814822 -0.034171388
000040 80 3a 6d 3d 60 15 9e 3b 18 72 d7 bd b0 e2 e4 3d
       0.057917118 0.0048243254 -0.105198085 0.1117605
000050 70 ef 4f bd 68 95 c4 3c 9c ce b6 3d c4 53 81 bd
       -0.050765455 0.023997024 0.08926126 -0.06314805
000060 6c 53 d7 3d 72 67 06 be d8 e9 b5 3d 78 c7 fb 3d
       0.10513958 -0.13125399 0.08882493 0.12293905
000070 9f 31 15 be 50 f4 31 3d 28 47 a4 3d a8 4f b9 bd
       -0.1456971 0.043445885 0.080213845 -0.09048396
000080 2d 88 42 be bc 44 37 3e e4 6a 4f 3e e6 11 3a 3e
       -0.1899726 0.17897314 0.2025562 0.1817089
000090 c0 be 3a bd b0 1a 0c bc b8 1a 15 3e 31 11 2d be
       -0.04559207 -0.008551285 0.14560974 -0.16901089
0000a0 bc 8c a1 3d 20 2b d3 3b fe 3d 48 3e 8c 4c 6c bd
       0.07888171 0.00644435 0.19554898 -0.05769019
0000b0 b4 c6 aa 3d 60 43 2d 3d e4 89 6d bd 2c 82 24 bd
       0.08338681 0.042300582 -0.05799283 -0.040163204
0000c0 35 2d 06 be 86 10 23 3e 5e 1a e8 bd d8 ee 82 3d
       -0.13103183 0.15924272 -0.11333154 0.06393212
0000d0 74 b6 0d 3e c8 aa 3c 3e a2 23 2b 3e 8c 9c ba 3d
       0.13839132 0.18424523 0.16712812 0.0911189
0000e0 b0 c0 1a be 98 03 d0 3c 3c 6e 22 bd 85 e1 bd bd
       -0.15112567 0.025392339 -0.03965591 -0.0927153
0000f0 00 66 36 ba db 4a 26 be 00 ed bc ba 9e d9 d6 bd
       -0.0006957948 -0.16239493 -0.0014413893 -0.10490726
000100 d0 99 36 3e 41 37 3b be 38 1a 3c 3e 28 30 6b 3d
       0.17832112 -0.18282796 0.18369377 0.057418972
000110 40 cc 9d bd 78 bc 96 bd ba 48 32 be 9c 6a 02 3e
       -0.07704973 -0.07360166 -0.17410555 0.12735981
000120 00 41 a0 bb 38 d7 d1 bc 04 42 d0 3d 80 89 5a 3c
       -0.004890561 -0.02561532 0.101688415 0.013338447
000130 e4 5e 55 3e f4 0c d4 3d 04 8f 43 3e 02 e6 0c be
       0.20836979 0.10354033 0.19097525 -0.13759616
000140 b2 00 c9 bd e0 c6 23 3e 80 a2 d7 3a f4 fe 5a be
       -0.09814586 0.15993834 0.0016451627 -0.2138632
000150 90 eb 55 be 2a 78 23 3e 40 87 64 bd e0 b3 10 3c
       -0.20890641 0.15963808 -0.055793047 0.008831948
000160 8a d8 36 3e 88 13 89 3c b0 a8 a2 3d 78 89 0d be
       0.1785604 0.016732946 0.07942331 -0.13821971
000170 00 15 56 3a 66 ac 34 3e 87 a8 4c be 48 a9 d0 bc
       0.00081665814 0.1764389 -0.19986163 -0.025471345
000180 4e b1 01 be 50 6f 3c 3d 88 7b 96 bd bc d5 22 3e
       -0.12665293 0.046004593 -0.073477805 0.15901846
000190 6a 36 50 be 44 a2 9d 3d 7e 8a 08 be 8e 6b 1d be
       -0.20333257 0.07696965 -0.1333408 -0.1537306
0001a0 b0 ec c4 3d 38 b4 40 3e 80 14 7e 3c 3a 7b 4e 3e
       0.09615457 0.18818748 0.015507817 0.20164195
0001b0 50 14 28 3d 78 7a b2 3d 52 ff 0c 3e c0 4e 22 bd
       0.041034997 0.08714765 0.13769272 -0.039625883
0001c0 f0 dc 17 bc c0 69 1e 3e d0 f2 e7 bc 7b 9b 49 be
       -0.009268984 0.15470028 -0.028314024 -0.19688217
0001d0 3e 5f fe bd 0e 88 08 be a0 18 c9 3b 7a e3 20 be
       -0.1242051 -0.1333315 0.0061369687 -0.15711775
0001e0 7a 02 50 3e 50 32 e3 3d 56 f0 04 be 4e c1 13 3e
       0.20313445 0.11093581 -0.12982306 0.14429209
0001f0 38 a3 ad bc b1 8a 35 be c2 2f 09 3e c0 a5 9f 3b
       -0.021195993 -0.17728688 0.13397124 0.004872054
