UnityController/results/alex/MoveToGoal/MoveToGoal-2.onnx (onnx, 72951 bytes, 7 tensors)

action_model._continuous_distribution.log_sigma f4 [1, 2]
0.0 0.0
00000000: 0000 0000 0000 0000

action_model._continuous_distribution.mu.bias f4 [2]
0.0 0.0
00000000: 0000 0000 0000 0000

action_model._continuous_distribution.mu.weight f4 [2, 128]
0.0022452155 -0.021207495 -0.029141534 -0.015340723 0.01577149 0.0020178386 0.0110816285 -0.004899574
-0.0260855 -0.02921903 -0.009422422 -0.015841117 0.0001953095 0.023309497 -0.018631553 0.00097395194
0.019278085 0.030135423 -0.02770391 -0.01728558 -0.0057933293 -0.012503417 0.019779453 -0.004829026
0.0017847335 -0.005425439 -0.011568649 -0.00032393716 -0.03767264 -0.020811638 0.002325732 -0.023372406
-0.02063434 0.005826722 -0.027967542 0.010016768 0.025533423 -0.015351909 0.014805416 -0.019324211
0.016486779 0.01702408 -0.02482906 0.0015278771 -0.016446782 -0.0075242184 0.019595059 0.009434892
-0.0254695 -0.0044159167 -0.002296153 0.030083368 -0.019445466 0.027336795 0.0024676041 0.0048237
0.008268475 -0.002307031 0.0056706476 -0.019704476 0.0006632867 -0.009165564 -0.017741764 -0.0065547153
-0.013131951 0.0095207095 0.0047701597 -0.015836004 -0.032270633 0.00016388988 0.013028996 -0.010072123
-0.002121003 0.016343756 -0.010629787 0.013109619 -0.028032383 0.0032793244 -0.02748181 0.00602667
0.006142747 0.017253574 0.020844536 -0.0037311916 -0.0045604515 0.0024875144 -0.010168928 0.01759701
-0.015446222 -0.0010656206 -0.01013351 0.005449084 0.026156312 0.019838598 0.013200275 -0.0071601863
0.0191719 -0.026179528 0.009568627 -0.009567922 -0.016057136 -0.009940859 0.035697874 -0.012637243
-0.003149499 0.0013528935 0.029744906 -0.026245901 0.019662568 -0.0132754585 -0.007008401 -0.0026129743
0.033519324 0.025892029 0.0016636992 -0.012548386 0.0044514975 0.024560263 0.004754729 0.028804356
0.0062210946 -0.030871635 0.022338014 0.015357191 0.01077147 -0.01748064 0.02608101 0.000244201
0.009174574 -0.0041750143 0.0012491463 0.0056681763 -0.012738342 0.0088065555 -0.012888059 -0.004857857
0.037191104 -0.014965906 -0.0074501554 -0.012105345 -0.016118815 0.016356831 -0.048816632 0.008638843
-0.00775515 -0.00015652599 -0.0075069703 0.036981 0.033506844 0.027984207 0.008359914 0.0024046188
0.0057292706 -0.01575466 0.01691761 -0.00921266 -0.0063682417 -0.0015926255 -0.002054335 -0.0056221215
-0.011461289 0.0072700665 0.00031115086 -0.0062002833 -0.011459531 0.030261395 0.04585399 0.016398331
0.037971567 0.018404469 0.013599977 -0.008270853 -0.0260692 -0.011684877 0.011307086 0.0066195675
0.015678255 0.010411373 0.014037422 0.013507656 -0.007816258 0.016276423 -0.046114918 0.018490044
-0.009878413 -0.016459905 -0.0016135775 0.0107918475 -0.044325244 0.003798186 -0.016403316 -0.009813966
0.029314121 0.006931934 -0.022245768 -0.0050128666 -0.012779722 -0.0257126 0.013781212 0.0064993375
0.009723144 -0.033814322 0.026489606 -0.010242639 0.008492782 -0.036113422 -0.02371577 0.0038524733
0.019413555 0.0037626878 -0.03712351 0.0043543265 -0.011930788 0.012315175 0.029707253 -0.0146669615
-0.022856569 -0.014944086 0.018375944 -0.0028933024 0.029476011 -0.008799605 0.028659666 0.005724508
-0.014056727 -0.0066331113 -0.035925034 -0.002017962 0.0033938908 -0.016363556 0.019911384 0.02971663
0.01326777 -0.02012426 0.023958744 -0.025207385 0.0053531504 -0.01001565 0.0073006055 0.022563208
-0.00053524214 -0.015630057 0.02701579 -0.0145131275 0.00563191 0.009140528 -0.03819044 -0.004955827
0.00321634 0.003746931 -0.013010326 0.0067718513 -0.023809662 0.013618581 -0.0030966962 -0.024404613
00000000: 7724 133b 57bb adbc 3aba eebc a857 7bbc
00000010: 3633 813c b73d 043b b88f 353c 9b8c a0bb
00000020: 42b1 d5bc bf5c efbc 8160 1abc 3bc5 81bc
00000030: ffcb 4c39 8ff3 be3c 33a1 98bc cf50 7f3a
00000040: 13ed 9d3c 90de f63c 4ff3 e2bc 7d9a 8dbc
00000050: f8d5 bdbb 22db 4cbc 8508 a23c ce3c 9ebb
00000060: b8ed e93a e2c7 b1bb 6e8a 3dbc 1cd6 a9b9
00000070: a04e 1abd 2b7d aabc 4f6b 183b 7d77 bfbc
00000080: 5909 a9bc 16ee be3b 301c e5bc 5f1d 243c
00000090: 782b d13c 9386 7bbc 6a92 723c cf4d 9ebc
000000a0: 480f 873c 1576 8b3c 5066 cbbc 0c43 c83a
000000b0: 67bb 86bc b88d f6bb d185 a03c ce94 1a3c
000000c0: 6aa5 d0bc 65b3 90bb 0e7b 16bb 6571 f63c
000000d0: 194c 9fbc 6af1 df3c 87b7 213b 2110 9e3b
000000e0: 7f78 073c 8f31 17bb d7d0 b93b 486b a1bc
000000f0: 6be0 2d3a 292b 16bc 2d57 91bc f0c8 d6bb
00000100: 6527 57bc c0fc 1b3c 004f 9c3b 82ba 81bc
00000110: 362e 04bd dbd9 2b39 9277 553c 8c05 25bc
00000120: 8700 0bbb 57e3 853c 8f28 2ebc bac9 563c
00000130: 2ba4 e5bc efe9 563b 8821 e1bc 5f7b c53b
00000140: 1949 c93b 5e57 8d3c 29c2 aa3c 0287 74bb
00000150: d76f 95bb 9105 233b 939b 26bc 9b27 903c
00000160: 2712 7dbc 4bac 8bba 0607 26bc 3b8e b23b
00000170: c345 d63c 8e84 a23c f745 583c ff9f eabb
00000180: 630e 9d3c 7376 d6bc bbc5 1c3c c6c2 1cbc
00000190: 418a 83bc fcde 22bc ef37 123d 700c 4fbc
000001a0: d367 4ebb 9353 b13a 97ab f33c a501 d7bc
000001b0: 6513 a13c 4f81 59bc bba6 e5bb 6f3e 2bbb
000001c0: 8f4b 093d 851b d43c 7b10 da3a bf97 4dbc
000001d0: dedd 913b 9b32 c93c 8fcd 9b3b 1df7 eb3c
000001e0: 53da cb3b 83e6 fcbc 36fe b63c ba9c 7b3c
000001f0: d27a 303c 8f33 8fbc d8a7 d53c 1a08 8039
00000200: f450 163c 8fce 88bb 65ba a33a 1cbc b93b
00000210: 7bb4 50bc 5f49 103c 7028 53bc a82e 9fbb
00000220: b355 183d 8f33 75bc 6f20 f4bb 7f55 46bc
00000230: 9b0b 84bc c3fe 853c f3f3 47bd ef89 0d3c
00000240: ea1e febb 2021 24b9 08fd f5bb 6479 173d
00000250: 793e 093d 233f e53c 05f8 083c cf96 1d3b
00000260: 9bbc bb3b eb0f 81bc cd96 8a3c b2f0 16bc
00000270: afac d0bb a5bf d0ba 06a2 06bb c639 b8bb
00000280: 21c8 3bbc bd39 ee3b f621 a339 bf2b cbbb
00000290: c2c0 3bbc bfe6 f73c 65d1 3b3d cb55 863c
000002a0: 1388 1b3d f8c4 963c 70d2 5e3c 7982 07bc
000002b0: 138f d5bc ed71 3fbc 5b41 393c f5e8 d83b
000002c0: af6f 803c 7794 2a3c 37fd 653c 374f 5d3c
000002d0: c30f 00bc 2256 853c ffe2 3cbd 6f78 973c
000002e0: 11d9 21bc ecd6 86bc ad7e d3ba 4ad0 303c
000002f0: 638e 35bd fdea 783b 3f60 86bc c2ca 20bc
00000300: 2b24 f03c 4725 e33b c23c b6bc f942 a4bb
00000310: 0a62 51bc 3ba3 d2bc 98ca 613c 65f8 d43b
00000320: d24d 1f3c e380 0abd bb00 d93c bed0 27bc
00000330: 4f25 0b3c abeb 13bd 9347 c2bc c779 7c3b
00000340: 2d09 9f3c 6d97 763b d20e 18bd bdae 8e3b
00000350: 5a79 43bc 96c5 493c a05c f33c b24d 70bc
00000360: b33d bbbc 0ad8 74bc 2689 963c 8f9d 3dbb
00000370: ad77 f13c 382c 10bc adc7 ea3c a794 bb3b
00000380: 304e 66bc 925a d9bb 2126 13bd c93f 04bb
00000390: 0a6c 5e3b dd0c 86bc 331d a33c 4a70 f33c
000003a0: 1061 593c a2db a4bc 2145 c43c b87f cebc
000003b0: 7b69 af3b ae18 24bc eb39 ef3b 7ad6 b83c
000003c0: 7e4f 0cba 9b0a 80bc 3850 dd3c 78c8 6dbc
000003d0: e38b b83b 27c2 153c 946d 1cbd 7d64 a2bb
000003e0: 3bc9 523b 128f 753b 4329 55bc 68e6 dd3b
000003f0: 7b0c c3bc 7820 5f3c f1f1 4abb 2fec c7bc

network_body.linear_encoder.seq_layers.0.bias f4 [128]
0.0 0.0 0.0 0.0 0.0 0.0 0.0 0.0
0.0 0.0 0.0 0.0 0.0 0.0 0.0 0.0
0.0 0.0 0.0 0.0 0.0 0.0 0.0 0.0
0.0 0.0 0.0 0.0 0.0 0.0 0.0 0.0
0.0 0.0 0.0 0.0 0.0 0.0 0.0 0.0
0.0 0.0 0.0 0.0 0.0 0.0 0.0 0.0
0.0 0.0 0.0 0.0 0.0 0.0 0.0 0.0
0.0 0.0 0.0 0.0 0.0 0.0 0.0 0.0
0.0 0.0 0.0 0.0 0.0 0.0 0.0 0.0
0.0 0.0 0.0 0.0 0.0 0.0 0.0 0.0
0.0 0.0 0.0 0.0 0.0 0.0 0.0 0.0
0.0 0.0 0.0 0.0 0.0 0.0 0.0 0.0
0.0 0.0 0.0 0.0 0.0 0.0 0.0 0.0
0.0 0.0 0.0 0.0 0.0 0.0 0.0 0.0
0.0 0.0 0.0 0.0 0.0 0.0 0.0 0.0
0.0 0.0 0.0 0.0 0.0 0.0 0.0 0.0
00000000: 0000 0000 0000 0000 0000 0000 0000 0000
00000010: 0000 0000 0000 0000 0000 0000 0000 0000
00000020: 0000 0000 0000 0000 0000 0000 0000 0000
00000030: 0000 0000 0000 0000 0000 0000 0000 0000
00000040: 0000 0000 0000 0000 0000 0000 0000 0000
00000050: 0000 0000 0000 0000 0000 0000 0000 0000
00000060: 0000 0000 0000 0000 0000 0000 0000 0000
00000070: 0000 0000 0000 0000 0000 0000 0000 0000
00000080: 0000 0000 0000 0000 0000 0000 0000 0000
00000090: 0000 0000 0000 0000 0000 0000 0000 0000
000000a0: 0000 0000 0000 0000 0000 0000 0000 0000
000000b0: 0000 0000 0000 0000 0000 0000 0000 0000
000000c0: 0000 0000 0000 0000 0000 0000 0000 0000
000000d0: 0000 0000 0000 0000 0000 0000 0000 0000
000000e0: 0000 0000 0000 0000 0000 0000 0000 0000
000000f0: 0000 0000 0000 0000 0000 0000 0000 0000
00000100: 0000 0000 0000 0000 0000 0000 0000 0000
00000110: 0000 0000 0000 0000 0000 0000 0000 0000
00000120: 0000 0000 0000 0000 0000 0000 0000 0000
00000130: 0000 0000 0000 0000 0000 0000 0000 0000
00000140: 0000 0000 0000 0000 0000 0000 0000 0000
00000150: 0000 0000 0000 0000 0000 0000 0000 0000
00000160: 0000 0000 0000 0000 0000 0000 0000 0000
00000170: 0000 0000 0000 0000 0000 0000 0000 0000
00000180: 0000 0000 0000 0000 0000 0000 0000 0000
00000190: 0000 0000 0000 0000 0000 0000 0000 0000
000001a0: 0000 0000 0000 0000 0000 0000 0000 0000
000001b0: 0000 0000 0000 0000 0000 0000 0000 0000
000001c0: 0000 0000 0000 0000 0000 0000 0000 0000
000001d0: 0000 0000 0000 0000 0000 0000 0000 0000
000001e0: 0000 0000 0000 0000 0000 0000 0000 0000
000001f0: 0000 0000 0000 0000 0000 0000 0000 0000

network_body.linear_encoder.seq_layers.0.weight f4 [128, 6]
-0.11485671 0.23465872 -0.19937101 0.5167838 -0.69692695 -0.18838398 -0.58407545 0.40923196
0.060773276 -0.12607634 0.4197869 0.27327952 -0.1547728 -0.036198474 -0.39116138 -0.5149184
-0.06616749 -0.27566198 -0.399531 -0.1560606 -0.41813263 -0.24489962 0.26824343 0.24020408
0.2306338 -0.7201641 0.4090685 -0.36460358 0.048825018 -0.38086015 0.05562268 0.2584599
0.57871836 0.13504486 0.7222448 0.3525702 0.33792707 -0.3744313 0.3037535 -0.36770362
0.23205945 0.2559918 -0.25673336 -0.1122294 -0.5507019 -0.025584657 -0.05820498 -0.4045068
-0.062126353 -0.93376917 0.1271552 0.19490802 0.18376309 -0.18236004 0.15941921 -0.19905928
0.3402773 0.18513772 0.17137448 0.06614719 -1.0550917 -0.3402879 0.098836124 0.061483514
-0.19236183 0.22083744 0.13356127 -0.05708931 0.105908304 -0.5414648 0.07717713 -0.14685404
-0.045816932 -0.14694567 -0.20736234 -0.6432038 -0.7636583 0.016847929 0.2604617 0.46687022
-0.1131596 0.17014846 -0.6881207 0.25172025 -0.5769776 0.02500081 0.024544278 -0.41421944
0.52187055 0.07584272 0.7876027 0.0147027895 -0.9610194 -0.22364207 -0.11345654 0.37516472
0.15241566 0.08775572 0.49456826 -0.5030308 -0.33871722 0.113250315 -0.15317672 -0.27150205
0.6388162 -0.33363265 -0.31753898 0.24771729 0.62625945 0.30075732 -0.38503364 0.3129708
-0.018735422 0.11328553 -0.3050419 0.084919415 0.19071202 -0.1781343 -0.2759128 0.14066483
0.0033937811 -0.9421608 0.7309338 -0.24112956 -0.8343018 0.026852997 -0.10728409 -0.579069
-0.019755032 0.6992115 0.04999502 0.30821016 0.61025345 0.61086756 0.042933375 -0.22977762
-0.051354412 0.07116021 -0.48983774 -0.08432321 -0.11977354 0.62907875 0.20963182 -0.11131071
-1.0279129 0.2386638 -0.03467385 -0.019696875 -0.22690356 0.7477631 0.2580623 -0.34481946
-0.5444728 -0.29110324 0.20612083 0.50719947 -0.73134375 -0.7317118 0.64934695 -0.5555447
0.48977602 0.66597056 0.01106792 0.8851244 0.008786331 0.42528808 0.25481758 -0.24203365
0.3929195 -0.053665332 -0.20587365 -0.68667436 0.08604107 -0.10020614 -0.019118914 -0.6943344
0.28338444 -0.013334801 -0.11748467 0.12906729 -0.567068 -0.405848 -0.1996663 0.026846178
-0.025257252 -0.15972754 0.21433033 -0.517893 -0.056850825 -0.22789851 -0.7494187 -0.31710488
0.17549792 -0.29715985 0.86172915 -0.2906272 -0.41462567 0.55565447 0.22244896 0.19938332
0.36761695 -0.043539274 -0.057722293 -0.28120342 -0.20072936 -0.08518475 -0.6465262 -0.47456712
-0.23011507 -0.70471346 0.20287122 -0.10602773 0.8647216 -0.03757997 0.36089763 -0.42471868
0.03203567 0.023188908 -0.18259077 0.19060273 0.36752054 -0.083081916 -0.14251336 -1.1878768
0.52172554 0.13314655 -0.2171928 0.52865607 -0.013480334 -0.42201528 0.12260463 0.055621497
0.44005904 0.66451514 0.49002025 -0.47372887 0.44217864 0.41770586 0.07530036 0.020532059
0.7938096 0.06711331 -0.30571502 -0.035149664 0.56687856 0.14653444 -0.58968645 -0.07846988
-0.5529478 -0.30682036 0.78089005 0.20912367 -0.015016902 0.10192929 0.34251538 0.0023452812
00000000: ff39 ebbd 604a 703e ea27 4cbe f14b 043f
00000010: ce69 32bf bbe7 40be f885 15bf da86 d13e
00000020: 66ed 783d 281a 01be 4fee d63e 4beb 8b3e
00000030: c37c 1ebe da44 14bd 4e46 c8be b1d1 03bf
00000040: d282 87bd 9123 8dbe 548f ccbe 5ace 1fbe
00000050: 7b15 d6be f7c6 7abe 3457 893e 0ff8 753e
00000060: 442b 6c3e ad5c 38bf 6d71 d13e 52ad babe
00000070: befc 473d 1a00 c3be 9bd4 633d db54 843e
00000080: e326 143f 3349 0a3e 09e5 383f 1584 b43e
00000090: c704 ad3e 76b5 bfbe 9485 9b3e a643 bcbe
000000a0: fea0 6d3e 5b11 833e 8e72 83be 87d8 e5bd
000000b0: cdfa 0cbf ea96 d1bc 5868 6ebd 841b cfbe
000000c0: 3478 7ebd 7f0b 6fbf f934 023e f895 473e
000000d0: 642c 3c3e 97bc 3abe ca3e 233e 32d6 4bbe
000000e0: d438 ae3e be94 3d3e cb7c 2f3e 2e78 873d
000000f0: 3f0d 87bf 373a aebe 986a ca3d 23d6 7b3d
00000100: 80fa 44be 3623 623e 49c4 083e 7bd6 69bd
00000110: 74e6 d83d 709d 0abf 0b0f 9e3d e860 16be
00000120: 89aa 3bbd ed78 16be cb56 54be 01a9 24bf
00000130: 1c7f 43bf ab04 8a3c 3c5b 853e 9d09 ef3e
00000140: 38c0 e7bd 663b 2e3e ae28 30bf 7ae1 803e
00000150: ceb4 13bf 80ce cc3c 1511 c93c 9214 d4be
00000160: 4f99 053f 6e53 9b3d 55a0 493f f8e3 703c
00000170: 5e05 76bf 6d02 65be e75b e8bd 9715 c03e
00000180: da12 1c3e 45b9 b33d 0d38 fd3e a0c6 00bf
00000190: 586c adbe c8ef e73d 5cda 1cbe 5102 8bbe
000001a0: 7589 233f e6d1 aabe 7894 a2be 9aa9 7d3e
000001b0: 8a52 203f ddfc 993e 2123 c5be b53d a03e
000001c0: 077b 99bc 3e02 e83d 742e 9cbe 3bea ad3d
000001d0: 034a 433e d768 36be 7144 8dbe 710a 103e
000001e0: 336a 5e3b 7331 71bf 7a1e 3b3f abea 76be
000001f0: ce94 55bf d1fa db3c c3b7 dbbd de3d 14bf
00000200: 4ed5 a1bc 86ff 323f 94c7 4c3d b9cd 9d3e
00000210: 9239 1c3f d161 1c3f e8da 2f3d d34a 6bbe
00000220: 0159 52bd 72bc 913d 03cc fabe a6b1 acbd
00000230: d44b f5bd 4e0b 213f b9a9 563e dff6 e3bd
00000240: a692 83bf 4864 743e 2b06 0ebd 575b a1bc
00000250: 6859 68be 676d 3f3f be20 843e 2d8c b0be
00000260: 9262 0bbf 7c0b 95be 5711 533e d3d7 013f
00000270: 5839 3bbf 7751 3bbf 9a3b 263f 2d38 0ebf
00000280: ecc3 fa3e 0c7d 2a3f 3956 353c 8397 623f
00000290: 8bf4 0f3c 5cbf d93e 7377 823e abd7 77be
000002a0: bf2c c93e 2ed0 5bbd 8bd0 52be e4c9 2fbf
000002b0: 4d36 b03d e038 cdbd 459f 9cbc e6bf 31bf
000002c0: c417 913e 367a 5abc cd9b f0bd 372a 043e
000002d0: 5e2b 11bf 4fcb cfbe 5375 4cbe 84ec db3c
000002e0: 4ce8 cebc 9e8f 23be 6979 5b3e a394 04bf
000002f0: 69dc 68bd 3a5e 69be e7d9 3fbf 925b a2be
00000300: bab5 333e 5625 98be 489a 5c3f 17cd 94be
00000310: d149 d4be 5f3f 0e3f a9c9 633e 242b 4c3e
00000320: 4a38 bc3e 3d56 32bd 366e 6cbd e5f9 8fbe
00000330: ff8b 4dbe 5875 aebd be82 25bf 76fa f2be
00000340: 49a3 6bbe 1a68 34bf 79bd 4f3e 1125 d9bd
00000350: 655e 5d3f 74ed 19bd 93c7 b83e ba74 d9be
00000360: d637 033d aaf6 bd3c 13f9 3abe 5d2d 433e
00000370: a72b bc3e da26 aabd 06ef 11be 590c 98bf
00000380: ce8f 053f 9257 083e ca67 5ebe 0156 073f
00000390: 9edc 5cbc 6312 d8be 2318 fb3d 5ed3 633d
000003a0: 6b4f e13e aa1d 2a3f efe3 fa3e 978c f2be
000003b0: 3d65 e23e 8bdd d53e 1337 9a3d d932 a83c
000003c0: 1b37 4b3f b472 893d ae86 9cbe 18f9 0fbd
000003d0: f41e 113f 200d 163e b1f5 16bf d1b4 a0bd
000003e0: fd8d 0dbf 8f17 9dbe 69e8 473f 8424 563e
000003f0: 7409 76bc 4ec0 d03d 2d5e af3e 4ab3 193b

network_body.linear_encoder.seq_layers.2.bias f4 [128]
0.0 0.0 0.0 0.0 0.0 0.0 0.0 0.0
0.0 0.0 0.0 0.0 0.0 0.0 0.0 0.0
0.0 0.0 0.0 0.0 0.0 0.0 0.0 0.0
0.0 0.0 0.0 0.0 0.0 0.0 0.0 0.0
0.0 0.0 0.0 0.0 0.0 0.0 0.0 0.0
0.0 0.0 0.0 0.0 0.0 0.0 0.0 0.0
0.0 0.0 0.0 0.0 0.0 0.0 0.0 0.0
0.0 0.0 0.0 0.0 0.0 0.0 0.0 0.0
0.0 0.0 0.0 0.0 0.0 0.0 0.0 0.0
0.0 0.0 0.0 0.0 0.0 0.0 0.0 0.0
0.0 0.0 0.0 0.0 0.0 0.0 0.0 0.0
0.0 0.0 0.0 0.0 0.0 0.0 0.0 0.0
0.0 0.0 0.0 0.0 0.0 0.0 0.0 0.0
0.0 0.0 0.0 0.0 0.0 0.0 0.0 0.0
0.0 0.0 0.0 0.0 0.0 0.0 0.0 0.0
0.0 0.0 0.0 0.0 0.0 0.0 0.0 0.0
00000000: 0000 0000 0000 0000 0000 0000 0000 0000
00000010: 0000 0000 0000 0000 0000 0000 0000 0000
00000020: 0000 0000 0000 0000 0000 0000 0000 0000
00000030: 0000 0000 0000 0000 0000 0000 0000 0000
00000040: 0000 0000 0000 0000 0000 0000 0000 0000
00000050: 0000 0000 0000 0000 0000 0000 0000 0000
00000060: 0000 0000 0000 0000 0000 0000 0000 0000
00000070: 0000 0000 0000 0000 0000 0000 0000 0000
00000080: 0000 0000 0000 0000 0000 0000 0000 0000
00000090: 0000 0000 0000 0000 0000 0000 0000 0000
000000a0: 0000 0000 0000 0000 0000 0000 0000 0000
000000b0: 0000 0000 0000 0000 0000 0000 0000 0000
000000c0: 0000 0000 0000 0000 0000 0000 0000 0000
000000d0: 0000 0000 0000 0000 0000 0000 0000 0000
000000e0: 0000 0000 0000 0000 0000 0000 0000 0000
000000f0: 0000 0000 0000 0000 0000 0000 0000 0000
00000100: 0000 0000 0000 0000 0000 0000 0000 0000
00000110: 0000 0000 0000 0000 0000 0000 0000 0000
00000120: 0000 0000 0000 0000 0000 0000 0000 0000
00000130: 0000 0000 0000 0000 0000 0000 0000 0000
00000140: 0000 0000 0000 0000 0000 0000 0000 0000
00000150: 0000 0000 0000 0000 0000 0000 0000 0000
00000160: 0000 0000 0000 0000 0000 0000 0000 0000
00000170: 0000 0000 0000 0000 0000 0000 0000 0000
00000180: 0000 0000 0000 0000 0000 0000 0000 0000
00000190: 0000 0000 0000 0000 0000 0000 0000 0000
000001a0: 0000 0000 0000 0000 0000 0000 0000 0000
000001b0: 0000 0000 0000 0000 0000 0000 0000 0000
000001c0: 0000 0000 0000 0000 0000 0000 0000 0000
000001d0: 0000 0000 0000 0000 0000 0000 0000 0000
000001e0: 0000 0000 0000 0000 0000 0000 0000 0000
000001f0: 0000 0000 0000 0000 0000 0000 0000 0000

network_body.linear_encoder.seq_layers.2.weight f4 [128, 128]
0.11038616 0.1261195 0.08199859 -0.06813853 0.07121092 0.04186708 0.024927402 0.11443241
-0.112011515 0.02726636 -0.15064502 0.06383543 -0.0024445916 -0.06925799 0.0458984 -0.09157844
0.021828594 -0.18987897 -0.07377654 0.07679962 0.044445448 -0.089767605 0.039800916 0.18181941
0.109457575 0.023784207 -0.010215926 0.00054487644 -0.014960793 0.022009797 0.07965367 -0.08714676
-0.013877684 0.119851544 0.030966187 -0.020076975 -0.06110292 -0.039069988 -0.040368926 0.0688
-0.013656155 0.060664665 -0.023354797 0.052555934 0.19127566 -0.021615723 0.12702593 -0.07858787
0.04252912 0.11552766 0.113099284 0.056554083 0.27806875 -0.054561775 0.0924773 0.013607425
-0.00659254 0.050893247 -0.008372369 -0.035617873 0.027339432 0.20253178 0.054419514 -0.11026905
0.0046254727 0.12441563 0.060628716 -0.01262316 -0.0405559 -0.054622363 0.083393425 -0.014408528
0.06070178 -0.051183984 0.11901548 -0.05783213 0.038816508 0.029481748 -0.0920226 0.080330566
0.012842823 0.03307418 -0.10357756 0.12246895 -0.06683037 -0.057240333 -0.12513675 -0.19404393
0.03205637 -0.0025748406 -0.06790748 -0.047967464 -0.008211439 0.07257467 -0.104490526 -0.0020325473
0.06710779 0.063091874 -0.09061113 0.009918351 -0.016816398 0.014016324 0.034232005 -0.038306504
0.07169667 -0.030845482 0.11599872 0.03634831 -0.010756453 0.010102143 -0.052575886 0.04465372
0.04034469 -0.04206881 0.122588344 0.02509153 0.07466835 -0.003898251 0.056946687 -0.15597737
0.10880865 -0.035809364 -0.08857102 0.004378017 0.0965521 0.14621899 -0.02274589 -0.19005454
0.027012143 -0.09798041 -0.03583837 -0.041892175 0.065026276 0.06613006 0.08802842 0.012258772
0.09113142 -0.08362007 -0.030535338 0.006490762 -0.15593675 -0.02715597 -0.10870235 -0.1372949
0.02745182 0.023104204 0.016462548 -0.04033833 0.061403506 -0.107841074 -0.06572759 0.014096551
0.012050017 0.09212329 0.033329 0.070242494 -0.025415502 -0.0062839594 -0.10508605 0.12621616
-0.24996802 0.09657553 -0.00018888651 0.012249647 0.1030121 0.18045156 -0.085995615 0.024820747
-0.16398768 0.03546414 0.049383484 -0.19339418 -0.039121505 0.04269777 -0.030302932 -0.06024855
-0.051809587 -0.07654867 -0.12166044 0.03221867 0.091553956 0.112089075 -0.092062026 -0.032008473
-0.02017098 0.09139536 0.037983373 0.06021981 0.04793185 0.087762736 0.06807354 0.048515115
0.039954163 0.14329928 0.09357812 -0.0024922267 0.084662564 0.086901 0.043451764 0.03380667
0.15200207 -0.14732465 0.094006665 -0.036543597 -0.06612594 -0.04648379 0.10108481 -0.09091309
-0.049085516 0.077523835 0.034567457 0.20781498 -0.020049283 -0.13315888 0.12660205 0.05337484
-0.032185294 -0.053057503 0.15463331 -0.029836804 -0.09309324 0.12843075 -0.031442717 -0.09334803
-0.08413448 0.06756875 -0.02702795 -0.09992553 -0.06598855 -0.00027789432 -0.00086087454 -0.11207427
0.13852666 -0.15611127 -0.039606754 0.09012822 -0.08324514 -0.08788823 -0.037475206 -0.09500219
0.0044071525 0.0016103453 -0.0896826 -0.008657389 0.16456467 -0.076380834 -0.047417697 -0.022447454
0.079543374 -0.03814098 0.003549652 0.083764374 0.1126212 -0.073888004 0.075773165 0.037768066
00000000: 2412 e23d 7825 013e e0ee a73d 378c 8bbd
00000010: 08d7 913d d17c 2b3d 8d34 cc3c 8a5b ea3d
00000020: 4b66 e5bd b45d df3c b042 1abe 26bc 823d
00000030: 7135 20bb 22d7 8dbd f6ff 3b3d 7a8d bbbd
00000040: e1d1 b23c a26f 42be 2818 97bd 1f49 9d3d
00000050: 6e0c 363d 14d8 b7bd 4906 233d de2e 3a3e
00000060: 4b2b e03d 19d7 c23c b360 27bc 0ad6 0e3a
00000070: 1d1e 75bc e44d b43c 7721 a33d 007a b2bd
00000080: 3a5f 63bc ba74 f53d cdac fd3c 7878 a4bc
00000090: 0e47 7abd da07 20bd e359 25bd 04e7 8c3d
000000a0: 11be 5fbc 837b 783d 8f52 bfbc e444 573d
000000b0: c4dd 433e 7513 b1bc 1613 023e adf2 a0bd
000000c0: 0433 2e3d c499 ec3d 99a0 e73d 41a5 673d
000000d0: 075f 8e3e 2b7c 5fbd bd64 bd3d adf1 5e3c
000000e0: 3c06 d8bb 7075 503d 432c 09bc 0ce4 11bd
000000f0: f2f6 df3c 7e64 4f3e ffe6 5e3d bdd4 e1bd
00000100: 4791 973b 9fcd fe3d d155 783d 5fd1 4ebc
00000110: f21d 26bd b3bb 5fbd 2cca aa3d bf11 6cbc
00000120: 6ea2 783d 4ca6 51bd 63be f33d 62e1 6cbd
00000130: 0ffe 1e3d b583 f13c 5876 bcbd 5a84 a43d
00000140: b46a 523c cb78 073d 7920 d4bd 00d1 fa3d
00000150: 5cde 88bd d774 6abd d923 00be 74b3 46be
00000160: 8a4d 033d a8be 28bb 1413 8bbd 8879 44bd
00000170: 4589 06bc 07a2 943d 21ff d5bd 7c34 05bb
00000180: cf6f 893d 5036 813d 5492 b9bd 9480 223c
00000190: 8bc2 89bc b9a4 653c dc36 0c3d 48e7 1cbd
000001a0: b4d5 923d aaaf fcbc bd90 ed3d f7e1 143d
000001b0: d53b 30bc 7583 253c d059 57bd d2e6 363d
000001c0: 7940 253d 5850 2cbd 990f fb3d c18c cd3c
000001d0: b8eb 983d cd79 7fbb ee40 693d 88b8 1fbe
000001e0: 12d7 de3d d7ac 12bd b964 b5bd 7875 8f3b
000001f0: 1bbd c53d 6eba 153e 9755 babc a89d 42be
00000200: 9248 dd3c f4a9 c8bd 41cb 12bd 2197 2bbd
00000210: 7f2c 853d 326f 873d 3f48 b43d 04d9 483c
00000220: 1ca3 ba3d 0041 abbd 3f25 fabc 75b0 d43b
00000230: e2ad 1fbe 3276 debc 569f debd 0997 0cbe
00000240: a4e2 e03c 0745 bd3c 77dc 863c ce39 25bd
00000250: 3e82 7b3d c8db dcbd 309c 86bd 38f5 663c
00000260: 6f6d 453c 23ab bc3d fd83 083d 4cdb 8f3d
00000270: 2c34 d0bc ace9 cdbb 5b37 d7bd cf3e 013e
00000280: 9ef7 7fbe 64c9 c53d d60f 46b9 beb2 483c
00000290: 02f8 d23d 4bc8 383e 781e b0bd e154 cb3c
000002a0: 63ec 27be d942 113d 5646 4a3d 2009 46be
000002b0: df3d 20bd dbe3 2e3d db3d f8bc 2fc7 76bd
000002c0: 4a36 54bd 8dc5 9cbd 1c29 f9bd b9f7 033d
000002d0: a480 bb3d f58e e53d 048b bcbd 511b 03bd
000002e0: 9c3d a5bc 7e2d bb3d 7494 1b3d 0ca9 763d
000002f0: 3054 443d f3bc b33d 246a 8b3d c9b7 463d
00000300: faa6 233d 0cbd 123e e3a5 bf3d a054 23bb
00000310: 9163 ad3d 27f9 b13d 7afa 313d dd78 0a3d
00000320: 6ea6 1b3e 46dc 16be 9186 c03d bdae 15bd
00000330: 096d 87bd c965 3ebd 8e05 cf3d a430 babd
00000340: e50d 49bd d1c4 9e3d 9b96 0d3d 73cd 543e
00000350: 653e a4bc cd5a 08be f8a3 013e 949f 5a3d
00000360: bad4 03bd d352 59bd 3258 1e3e 506c f4bc
00000370: aba7 bebd 5a83 033e 14ca 00bd 402d bfbd
00000380: b34e acbd 7c61 8a3d b869 ddbc c2a5 ccbd
00000390: 0125 87bd 58b2 91b9 50ac 61ba 3287 e5bd
000003a0: efd9 0d3e a2db 1fbe b13a 22bd 2595 b83d
000003b0: 6e7c aabd bffe b3bd 9a7f 19bd 8290 c2bd
000003c0: e069 903b 3912 d33a 83ab b7bd b9d7 0dbc
000003d0: a483 283e 8e6d 9cbd 0f39 42bd b9e3 b7bc
000003e0: a3e7 a23d b739 1cbd 47a1 683b a88c ab3d
000003f0: f2a5 e63d 9852 97bd f62e 9b3d b0b2 1a3d
