UnityController/results/alex/MoveToGoal/MoveToGoal-71.onnx (onnx, 76017 bytes, 6 tensors)

action_model._discrete_distribution.branches.0.bias f4 [5]
000000 00 00 00 00 00 00 00 00 00 00 00 00 00 00 00 00
       0.0 0.0 0.0 0.0
000010 00 00 00 00
       0.0

action_model._discrete_distribution.branches.0.weight f4 [5, 128]
000000 91 9d 93 bc c3 6c f2 3b 54 70 0c bb 1a 6d dd ba
       -0.01801947 0.0073982193 -0.0021429257 -0.0016893477
000010 3f 1b 71 39 a8 40 6b 3b 82 15 e3 3b 7c a8 02 3a
       0.00022993701 0.0035896692 0.006930054 0.00049842126
000020 d4 2d 42 3b 55 49 b0 3b a9 4c 18 3c af cb 9f bb
       0.0029629366 0.0053798356 0.009295621 -0.004876576
000030 ec 48 3c bb 77 8c 58 3a 69 e3 a1 3b 90 cb 8c 3b
       -0.0028729988 0.0008260677 0.0049404395 0.0042967275
000040 66 be 82 bb 22 ce 33 bc d2 73 6a bc 9b 97 0c 3c
       -0.0039899824 -0.010974439 -0.01430984 0.008581067
000050 f7 26 b6 bb 35 f8 15 3c ec 20 37 3c 57 1f 09 bc
       -0.005558844 0.009153415 0.011177283 -0.008369288
000060 35 4a 08 bb 5b 61 61 bc d0 00 61 bb 80 a0 dc ba
       -0.0020796184 -0.0137561215 -0.003433276 -0.0016832501
000070 0c c1 0f 3c 8f a9 12 bc b5 a5 6d 3c 0a 8d 73 bb
       0.008774053 -0.008951559 0.01450484 -0.0037162923
000080 00 2a 20 bc 09 37 01 bc eb 32 d6 bb a7 5e 1e 3b
       -0.009775639 -0.007886657 -0.0065368316 0.0024165304
000090 fa eb 96 bc 24 76 25 bb 8a f0 67 bc 50 cb 7e bb
       -0.01842307 -0.002524742 -0.01415647 -0.0038878508
0000a0 6b b0 b3 b9 6d ab 2b bc 5f 3f de bb e3 b0 81 3c
       -0.00034272982 -0.010477883 -0.0067824568 0.015831416
0000b0 12 ed 65 bc 24 81 92 3c 46 d9 10 3c e0 2d a1 bb
       -0.014033573 0.017883845 0.0088408645 -0.004918799
0000c0 0e 9a 9f bb a0 e3 4f bb 54 67 3c 3c 8a f3 60 3c
       -0.0048706597 -0.0031721368 0.011499245 0.013729939
0000d0 b7 57 bb ba 78 9b 78 bc e5 3f 91 bc c2 e5 5f bb
       -0.0014293109 -0.015173785 -0.017730663 -0.0034164046
0000e0 68 cd 8b bc 7f 08 53 bb 71 8b 9c 3c 37 fc 44 3a
       -0.017065719 -0.003220111 0.01910946 0.00075143896
0000f0 b2 44 8e bb 82 2f e4 bb a4 94 31 ba 41 51 36 3c
       -0.004341685 -0.006963671 -0.00067741633 0.011127771
000100 5c 0d 3b 3b 57 86 8d bb a7 f4 af ba 78 57 90 bc
       0.0028541898 -0.004318993 -0.0013424353 -0.017619833
000110 f0 aa 85 ba 5a d2 15 bc a1 98 35 bc f4 f8 bd bb
       -0.0010198038 -0.00914439 -0.011083753 -0.0057975
000120 b2 fd b7 3b e8 d0 95 bb aa d7 e0 bb b7 d6 f1 3b
       0.0056149596 -0.0045720227 -0.0068616467 0.0073803323
000130 e7 ce fc bb 15 61 04 3c 30 3a 3e bb 7b 48 7c 3c
       -0.0077150944 0.008079787 -0.0029026382 0.01539814
000140 74 d1 8f 3b dd ee 62 bc 07 aa 13 bc 6a f9 e6 3b
       0.0043889824 -0.013850895 -0.009012706 0.0070487754
000150 47 7a 30 3c fc 05 35 bc fe 01 04 3c 4e b6 a7 3b
       0.010771341 -0.01104879 0.008057116 0.005118168
000160 5f 18 69 bb 5f b9 fb 3b c7 b9 b5 3b 1d ef 5d 3b
       -0.0035567505 0.00768201 0.005545828 0.0033864446
000170 ca e9 ef b9 a4 50 24 bb 45 d4 0e 3c 37 1c 0f 3b
       -0.0004575982 -0.002507248 0.008717601 0.0021836886
000180 37 06 cb bb 62 35 ba b8 98 56 72 3c ca 18 af bb
       -0.006195809 -8.8791145e-05 0.014791153 -0.0053435313
000190 cb 4d bf 3b d5 e3 8a b9 4c 18 40 3b 2a a7 51 bb
       0.005838131 -0.0002649116 0.0029311357 -0.0031990507
0001a0 b5 54 d0 bb b9 47 1a 3c 2f 90 93 bc a2 1a 31 3c
       -0.006357754 0.009416514 -0.018013088 0.010809572
0001b0 da 3d f3 bb c1 cf 08 3b f3 7e 16 3c a6 4a 16 39
       -0.0074231448 0.0020875784 0.0091855405 0.00014332923
0001c0 d7 35 aa bb 67 cd 0e 3c 4c 80 05 bc 4a a3 2c 3c
       -0.0051944065 0.008715964 -0.008148264 0.010536978
0001d0 4a fa 16 3c 2a 30 7d bc 43 03 ca 3b fb ab e2 3a
       0.009214947 -0.015453378 0.0061649396 0.0017293686
0001e0 38 13 27 bc 53 aa 5b 3c b5 65 54 3a 0b d6 95 3c
       -0.010197453 0.013407308 0.0008102314 0.01829054
0001f0 f1 71 c1 39 1d 7b 8b 3b 0b a0 e9 bb 47 06 1c 3b
       0.00036896722 0.0042566196 -0.0071296743 0.0023807453
000200 d8 c6 d0 3b 64 f5 8c bc a3 93 75 3b 96 70 3e bc
       0.0063713603 -0.017206855 0.0037472032 -0.011623522
000210 09 85 8b bb 48 77 a3 3b d0 3e 0a bc fd 27 f5 bb
       -0.0042578024 0.0049885847 -0.008437827 -0.0074815736
000220 dd 16 ec bb c8 f6 c8 3b 87 94 38 3c 06 c8 96 ba
       -0.007204874 0.0061329342 0.01126588 -0.0011503703
000230 04 dd 06 3c 4d 53 5d 3a b6 9e 8b 3b f6 f2 b1 bb
       0.008231405 0.0008442894 0.004260863 -0.0054305745
000240 3b 0a 87 3c da 7b 33 bb ed 62 9f bb 5b 9e 7a 3b
       0.01648437 -0.0027387054 -0.004864088 0.003824136
000250 4a 9d 80 3b 34 ad a8 bb da 36 68 bc 8b 7f 54 bb
       0.0039250003 -0.0051476005 -0.014173234 -0.0032424654
000260 87 dd 1d bb 17 84 27 bc c5 6b 18 bc 23 33 65 bc
       -0.002408834 -0.010224364 -0.009303038 -0.013989243
000270 49 95 ae 3b 40 8c f2 bb e8 ea 98 3b c2 c9 1a 3c
       0.005327855 -0.007401973 0.004666675 0.009447517
000280 13 90 4f 3c 68 07 e9 3b b5 67 e4 bc 27 45 57 bc
       0.012668627 0.0071114786 -0.027881483 -0.013139046
000290 e3 cf 97 ba 23 73 36 3b f2 bb 7c 39 3b 60 26 3c
       -0.0011582341 0.0027839623 0.00024102608 0.010154779
0002a0 e5 9d df 39 bb bd 98 3a c8 41 26 ba d3 1f fb bb
       0.00042651515 0.0011653224 -0.00063421996 -0.007663706
0002b0 a0 7b f8 38 17 87 39 3b cd 19 94 3c 8a a8 8d ba
       0.000118485885 0.002830928 0.018078709 -0.0010807675
0002c0 7e 8f b4 3a 22 49 58 bc 72 80 b7 3a b3 b9 e4 3b
       0.0013775674 -0.01320103 0.0014000072 0.006980145
0002d0 2a 2c 0f bc 1b dd fa bb a2 1b fb 3b d2 a2 42 ba
       -0.008738557 -0.0076557524 0.007663206 -0.0007424775
0002e0 2b e5 03 3b c6 ac 07 3c 76 d0 80 3b e3 10 00 3c
       0.0020125608 0.0082809385 0.0039311005 0.007816526
0002f0 60 43 5c ba a6 e0 87 3c 8b b5 8c 3b f0 52 4e bc
       -0.00084023736 0.016586613 0.0042941025 -0.012593016
000300 8f 0c 29 3b 53 31 f1 3a ab d5 20 3c 9a 1d 44 bc
       0.002579484 0.0018401541 0.009816567 -0.011969948
000310 94 9c 16 3c 35 0f e7 3b eb f5 86 bb 16 2d 87 3a
       0.009192605 0.0070513734 -0.004118671 0.0010313119
000320 f8 05 d8 b9 8b 64 05 3c db 55 3a bb 8c 59 03 bc
       -0.00041203178 0.008141647 -0.0028432522 -0.008016955
000330 c9 ed 32 bc 30 94 5e bc 00 cb b5 3b 01 ac 10 bc
       -0.01092095 -0.013585135 0.005547881 -0.008830071
000340 f7 62 9d bb 28 a3 79 ba 59 b5 a9 bb 84 87 c6 3b
       -0.0048030573 -0.00095229084 -0.005179089 0.006058635
000350 c3 6a 76 bb 8d 23 1f 3c fa 94 db 3b aa 55 d3 3b
       -0.0037600256 0.009713066 0.006701109 0.006449421
000360 c3 2a 5b 3b 40 3e de bb a8 b8 10 3c 0a 2a c6 3b
       0.0033442236 -0.006782323 0.008833088 0.006047492
000370 e7 13 3a bc df e6 d4 bb 97 bc 37 3c db 3e a1 3b
       -0.011357284 -0.0064972485 0.011214397 0.004920823
000380 6a 82 86 bb 3d 0d e3 bb b8 08 c4 3b 2f 24 11 3c
       -0.004104902 -0.0069290684 0.0059824847 0.0088587245
000390 e4 d5 c3 3b 40 0b fe 3b db f8 78 bc b9 94 c0 bb
       0.0059764255 0.007752806 -0.0151960505 -0.005877104
0003a0 7f ae d0 3b bf 94 42 bb cd 24 f8 3a b5 7b 88 bb
       0.006368458 -0.002969071 0.0018931866 -0.0041651377
0003b0 40 86 73 bb b1 1b 00 3c 9b 3e 07 bb 48 5a 76 3c
       -0.0037158877 0.007819102 -0.002063668 0.015036173
0003c0 32 f7 da bb 3b 60 e4 3a 9e b7 86 3c 29 d3 c5 ba
       -0.0066823 0.0017423698 0.016444977 -0.0015092838
0003d0 07 0c 0c 3b 48 48 c6 3b 1f e8 c1 3b ed 53 d7 3b
       0.0021369474 0.006051097 0.0059175636 0.006571284
0003e0 cc 86 a5 3b 9b 80 4c 3b d2 8c d8 38 d3 22 0e bb
       0.0050514694 0.0031204585 0.000103259124 -0.0021688237
0003f0 0e c8 90 3c 9d e9 e5 3c 6b 06 0c 3c 10 38 f0 3a
       0.017673519 0.028065497 0.008546452 0.0018327255

network_body.linear_encoder.seq_layers.0.bias f4 [128]
000000 00 00 00 00 00 00 00 00 00 00 00 00 00 00 00 00
       0.0 0.0 0.0 0.0
000010 00 00 00 00 00 00 00 00 00 00 00 00 00 00 00 00
       0.0 0.0 0.0 0.0
000020 00 00 00 00 00 00 00 00 00 00 00 00 00 00 00 00
       0.0 0.0 0.0 0.0
000030 00 00 00 00 00 00 00 00 00 00 00 00 00 00 00 00
       0.0 0.0 0.0 0.0
000040 00 00 00 00 00 00 00 00 00 00 00 00 00 00 00 00
       0.0 0.0 0.0 0.0
000050 00 00 00 00 00 00 00 00 00 00 00 00 00 00 00 00
       0.0 0.0 0.0 0.0
000060 00 00 00 00 00 00 00 00 00 00 00 00 00 00 00 00
       0.0 0.0 0.0 0.0
000070 00 00 00 00 00 00 00 00 00 00 00 00 00 00 00 00
       0.0 0.0 0.0 0.0
000080 00 00 00 00 00 00 00 00 00 00 00 00 00 00 00 00
       0.0 0.0 0.0 0.0
000090 00 00 00 00 00 00 00 00 00 00 00 00 00 00 00 00
       0.0 0.0 0.0 0.0
0000a0 00 00 00 00 00 00 00 00 00 00 00 00 00 00 00 00
       0.0 0.0 0.0 0.0
0000b0 00 00 00 00 00 00 00 00 00 00 00 00 00 00 00 00
       0.0 0.0 0.0 0.0
0000c0 00 00 00 00 00 00 00 00 00 00 00 00 00 00 00 00
       0.0 0.0 0.0 0.0
0000d0 00 00 00 00 00 00 00 00 00 00 00 00 00 00 00 00
       0.0 0.0 0.0 0.0
0000e0 00 00 00 00 00 00 00 00 00 00 00 00 00 00 00 00
       0.0 0.0 0.0 0.0
0000f0 00 00 00 00 00 00 00 00 00 00 00 00 00 00 00 00
       0.0 0.0 0.0 0.0
000100 00 00 00 00 00 00 00 00 00 00 00 00 00 00 00 00
       0.0 0.0 0.0 0.0
000110 00 00 00 00 00 00 00 00 00 00 00 00 00 00 00 00
       0.0 0.0 0.0 0.0
000120 00 00 00 00 00 00 00 00 00 00 00 00 00 00 00 00
       0.0 0.0 0.0 0.0
000130 00 00 00 00 00 00 00 00 00 00 00 00 00 00 00 00
       0.0 0.0 0.0 0.0
000140 00 00 00 00 00 00 00 00 00 00 00 00 00 00 00 00
       0.0 0.0 0.0 0.0
000150 00 00 00 00 00 00 00 00 00 00 00 00 00 00 00 00
       0.0 0.0 0.0 0.0
000160 00 00 00 00 00 00 00 00 00 00 00 00 00 00 00 00
       0.0 0.0 0.0 0.0
000170 00 00 00 00 00 00 00 00 00 00 00 00 00 00 00 00
       0.0 0.0 0.0 0.0
000180 00 00 00 00 00 00 00 00 00 00 00 00 00 00 00 00
       0.0 0.0 0.0 0.0
000190 00 00 00 00 00 00 00 00 00 00 00 00 00 00 00 00
       0.0 0.0 0.0 0.0
0001a0 00 00 00 00 00 00 00 00 00 00 00 00 00 00 00 00
       0.0 0.0 0.0 0.0
0001b0 00 00 00 00 00 00 00 00 00 00 00 00 00 00 00 00
       0.0 0.0 0.0 0.0
0001c0 00 00 00 00 00 00 00 00 00 00 00 00 00 00 00 00
       0.0 0.0 0.0 0.0
0001d0 00 00 00 00 00 00 00 00 00 00 00 00 00 00 00 00
       0.0 0.0 0.0 0.0
0001e0 00 00 00 00 00 00 00 00 00 00 00 00 00 00 00 00
       0.0 0.0 0.0 0.0
0001f0 00 00 00 00 00 00 00 00 00 00 00 00 00 00 00 00
       0.0 0.0 0.0 0.0

network_body.linear_encoder.seq_layers.0.weight f4 [128, 9]
000000 bc 56 8a 3c 18 1a d5 be 6e 3e c7 3e 70 2c 24 3f
       0.016887061 -0.4162147 0.38914818 0.64130306
000010 4b 84 b6 3d b2 07 5d 3e e2 e3 10 be 00 de 0e 3f
       0.08911952 0.21584967 -0.1414943 0.55807495
000020 9c 58 5d 3e fa ff 0f bf 0b 0a 6b 3f db cf 9d 3e
       0.21615833 -0.56249964 0.918122 0.30822644
000030 ff b0 49 3d cc 40 b0 be 3a b4 dc 3e 56 f1 b1 be
       0.049241062 -0.34424436 0.43106252 -0.34754437
000040 b6 66 d9 3e eb ec 78 3c 5c 17 f3 bd d7 8f f6 bc
       0.42461175 0.015193204 -0.1186969 -0.030097885
000050 30 8b 44 bc c8 d3 60 3e 4b 82 64 be f6 3d 05 be
       -0.0119960755 0.21955788 -0.22315328 -0.13011917
000060 7b ef e3 3e e6 95 5e 3f f4 02 8e bc ea 26 d9 bd
       0.44518647 0.86947477 -0.017335393 -0.106031254
000070 e4 01 75 3e c6 9c 19 bf c7 38 b9 3e 4a f3 e6 3d
       0.23926502 -0.6000484 0.3617613 0.112768725
000080 16 30 ab bd 6c fb ee 3d 72 5a b4 3e 49 d7 0e 3f
       -0.08358781 0.11669049 0.35225254 0.5579725
000090 60 8f 1a bf 18 0c be 3e 73 ec 79 3d 82 9d 99 be
       -0.6037502 0.37118602 0.06101651 -0.3000298
0000a0 df 2a da 3e 32 3a fa be c0 51 83 3e b7 3b 5b 3e
       0.42610833 -0.48872524 0.25648308 0.21409498
0000b0 d3 6a 42 3d 19 9d 14 be 36 ea 12 bf 40 86 2d 3f
       0.047465157 -0.14513053 -0.5738863 0.67782974
0000c0 e3 a6 a3 3e 6c 8b 2c 3d af a8 2c bf 7b 0f b0 be
       0.31963262 0.04212515 -0.6744489 -0.3438681
0000d0 87 42 8a 3e 4e c3 b7 bd d6 c6 e2 be 30 cb b9 3d
       0.2700388 -0.08972798 -0.44292325 0.09071958
0000e0 ad ba 99 3b 65 c6 19 3e 25 1b 07 be b4 8f a2 3e
       0.004691443 0.15017088 -0.13193949 0.31750262
0000f0 a4 eb 78 3e b9 42 12 3e 1f 83 b4 bc 70 a9 02 be
       0.2430864 0.14283265 -0.02203518 -0.12759948
000100 60 f4 67 3e d7 2c 1c be 70 d4 e9 3e 85 8a 04 3e
       0.22651815 -0.1525148 0.4566989 0.12943466
000110 6e 9b fe be e0 58 95 be 47 a8 2a be dc d2 33 bf
       -0.49727958 -0.2916937 -0.16665755 -0.7024362
000120 06 60 4f 3e 92 e1 4c 3d d0 52 7b be 8f b9 67 3e
       0.20251474 0.050019808 -0.24543309 0.22629379
000130 c3 42 7d 3d 4e 72 9d be 1d c7 03 3f 0a 64 1e be
       0.061831247 -0.3075127 0.514757 -0.1546785
000140 dc 57 a1 3d 8c ef ca 3d 72 00 cb bd ab 00 23 bf
       0.07878086 0.09908971 -0.09912194 -0.63672894
000150 8b 9f 48 3e 3b 7b fb 3e d6 8f 02 be 65 9a 8a bd
       0.19592111 0.49117455 -0.12750182 -0.0676773
000160 ec 87 cb bc 52 84 16 3f 1f 5e 05 bf 94 b7 e1 3e
       -0.024845086 0.58795655 -0.5209674 0.44085371
000170 5b 7c b9 3e ca 90 84 3e 22 b8 30 be 90 34 24 be
       0.36227688 0.25891715 -0.17257741 -0.16035676
000180 3b 53 8d 3c ed c9 96 3e be 58 00 bc 33 f8 8d bd
       0.017251601 0.29450932 -0.007833658 -0.06932106
000190 b2 1f d7 bd 81 4b 26 be da 2e b8 bd fc 21 88 bd
       -0.10504092 -0.1623974 -0.08993311 -0.06647107
0001a0 03 27 60 3e e3 b4 d7 3c c5 76 0c bc 0f 6c b1 be
       0.21889882 0.02633137 -0.008573239 -0.34652755
0001b0 a6 50 44 bd 66 86 97 be 50 aa e9 bc 05 6f 02 3f
       -0.047928475 -0.29594725 -0.028523594 0.5095065
0001c0 17 ad 75 3e b7 3b 57 bb 92 ea d0 bc 2f c7 c4 3c
       0.2399181 -0.003284199 -0.025502477 0.02402076
0001d0 8c d6 87 be a8 32 b4 3e ec a0 ac bd 29 0c 95 bd
       -0.26530874 0.35194898 -0.08429131 -0.0727771
0001e0 16 0e 74 3d f2 56 25 3e 8a 5f bc be ec dd e1 3e
       0.059583746 0.16146448 -0.3679164 0.44114625
0001f0 9f ba 85 be 7b 20 58 be e4 c6 f4 be c3 b7 b5 3e
       -0.26118943 -0.2110614 -0.47807992 0.35491762
000200 af 6e 32 3f ec af b3 3e 9b 18 72 be 53 c6 e3 be
       0.6970014 0.35095155 -0.23642199 -0.44487247
000210 64 e2 61 3d 0a 13 8c bd 82 08 95 be c0 cc f4 be
       0.055147544 -0.06839569 -0.29108053 -0.47812462
000220 24 c7 bc 3d 95 b9 17 be d2 8e 15 3f 96 0b 6d 3f
       0.092176706 -0.14816888 0.5842105 0.92595804
000230 98 f6 98 be 8c ae c6 be b3 2a e4 be c6 a9 2a bf
       -0.29875636 -0.38805044 -0.44563827 -0.66665304
000240 c2 67 a5 bd c3 4c 13 bf 27 d3 41 3f 54 ae 8c be
       -0.08076431 -0.57539004 0.7571282 -0.27476752
000250 27 5c 47 3f c6 17 0f bf 08 f8 50 be 88 3a 83 3e
       0.7787499 -0.5589565 -0.20407116 0.25630593
000260 06 f3 d5 bc 3f f7 0f 3e 0c a2 c6 be 0b 07 d3 be
       -0.02611686 0.1405916 -0.38795507 -0.4121631
000270 72 71 6d be 48 69 08 bf 31 01 83 be af 94 c6 3d
       -0.23187807 -0.53285646 -0.25586846 0.09696328
000280 8c d2 5a 3e 10 6e b2 3e aa 3d 88 bd 53 6e 3d be
       0.2136938 0.34849596 -0.066523865 -0.18499117
000290 20 45 9e 3e 38 fc e1 3e 33 9c 2f be a4 cd 05 be
       0.30912113 0.4413774 -0.17149429 -0.13066727
0002a0 53 c6 c6 3c e8 05 04 be 54 b0 bb 3e a6 0a c5 3d
       0.02426449 -0.12892878 0.36657965 0.09621172
0002b0 7e 89 a9 bc da 98 ba be 66 86 64 be 64 74 94 3e
       -0.020695444 -0.3644474 -0.22316894 0.2899505
0002c0 58 62 d6 3e 70 e7 0d 3f b4 2f 04 bf 50 3b 06 be
       0.41871905 0.5543127 -0.5163529 -0.13108563
0002d0 a7 c7 be 3e a3 fa 9d be be 77 15 bf 80 e3 45 be
       0.37261698 -0.30855283 -0.5838584 -0.19325066
0002e0 bf e9 29 bf 67 78 4b be 4a dd 93 3e 45 19 80 be
       -0.66372293 -0.19870149 0.28879768 -0.2501928
0002f0 e7 3c 02 bf 7a a6 9b 3e d2 9b a6 3d 62 c3 35 be
       -0.5087418 0.3040045 0.08135189 -0.17750314
000300 e0 ed 9c be 60 b7 be 3d 6a 79 2b bd 07 12 f6 3a
       -0.30650234 0.0931232 -0.041863836 0.0018773683
000310 0a c1 28 bf 8a 90 1b 3d 66 5a 88 be 22 c3 49 3e
       -0.65919554 0.03797964 -0.2663147 0.19703344
000320 6c c3 30 ba 96 c4 54 bf ef 3a b3 3e 9e 58 b3 3e
       -0.00067429873 -0.83112466 0.350059 0.35028547
000330 7e dd f4 3e 8a 4a f8 3e 64 11 28 be 8a 45 96 3e
       0.47825235 0.4849437 -0.16412884 0.2934993
000340 37 53 ad bb fb 4a dc 3e 9e 54 7f bd 6a 33 07 3e
       -0.005289461 0.43025956 -0.062336557 0.13203207
000350 23 36 2a 3e 22 97 2f bd 32 ba 97 3d b3 39 e5 3e
       0.16622214 -0.04286874 0.07408561 0.44770584
000360 c8 55 77 3e 72 5a cf be ef c7 3f be 04 6f 87 be
       0.24153817 -0.40498692 -0.18728612 -0.26451886
000370 62 0c 4a 3d ee ec 77 be f4 6b bb bc 0e ac 03 3f
       0.049328215 -0.24211475 -0.022878624 0.5143441
000380 7c be be be 07 ab ac 3e e5 8b 85 3d 98 c3 97 3e
       -0.37254703 0.33724234 0.065208234 0.29641414
000390 93 18 b0 be a6 03 ff bd dc ba 12 3e a0 ff fe 3e
       -0.3439375 -0.12451868 0.14329094 0.498044
0003a0 2b 60 fc be 40 b0 16 be b7 ee e8 bd e0 31 2a 3f
       -0.4929212 -0.14715672 -0.11373656 0.66482353
0003b0 f8 59 98 be d7 43 47 3e 23 44 e2 3d d0 e7 55 3f
       -0.2975614 0.19459473 0.11048152 0.8355684
0003c0 02 63 75 3d 93 52 d3 be 5b 46 45 3d 9f 7c 4b 3e
       0.059908874 -0.41273937 0.0481628 0.19871758
0003d0 e8 44 c0 bc 23 9d 7d 3d d2 2e 13 bf 43 52 a4 be
       -0.023470357 0.061917435 -0.5749332 -0.3209401
0003e0 8a 4d 1f 3f 42 94 66 be 8c 77 a9 3e d8 10 1d bd
       0.6222769 -0.22517493 0.3309902 -0.03834614
0003f0 34 61 0c 3d cf 31 85 3e dc 93 c1 bd be 89 c0 bd
       0.034272388 0.26014563 -0.0945203 -0.09401272

network_body.linear_encoder.seq_layers.2.bias f4 [128]
000000 00 00 00 00 00 00 00 00 00 00 00 00 00 00 00 00
       0.0 0.0 0.0 0.0
000010 00 00 00 00 00 00 00 00 00 00 00 00 00 00 00 00
       0.0 0.0 0.0 0.0
000020 00 00 00 00 00 00 00 00 00 00 00 00 00 00 00 00
       0.0 0.0 0.0 0.0
000030 00 00 00 00 00 00 00 00 00 00 00 00 00 00 00 00
       0.0 0.0 0.0 0.0
000040 00 00 00 00 00 00 00 00 00 00 00 00 00 00 00 00
       0.0 0.0 0.0 0.0
000050 00 00 00 00 00 00 00 00 00 00 00 00 00 00 00 00
       0.0 0.0 0.0 0.0
000060 00 00 00 00 00 00 00 00 00 00 00 00 00 00 00 00
       0.0 0.0 0.0 0.0
000070 00 00 00 00 00 00 00 00 00 00 00 00 00 00 00 00
       0.0 0.0 0.0 0.0
000080 00 00 00 00 00 00 00 00 00 00 00 00 00 00 00 00
       0.0 0.0 0.0 0.0
000090 00 00 00 00 00 00 00 00 00 00 00 00 00 00 00 00
       0.0 0.0 0.0 0.0
0000a0 00 00 00 00 00 00 00 00 00 00 00 00 00 00 00 00
       0.0 0.0 0.0 0.0
0000b0 00 00 00 00 00 00 00 00 00 00 00 00 00 00 00 00
       0.0 0.0 0.0 0.0
0000c0 00 00 00 00 00 00 00 00 00 00 00 00 00 00 00 00
       0.0 0.0 0.0 0.0
0000d0 00 00 00 00 00 00 00 00 00 00 00 00 00 00 00 00
       0.0 0.0 0.0 0.0
0000e0 00 00 00 00 00 00 00 00 00 00 00 00 00 00 00 00
       0.0 0.0 0.0 0.0
0000f0 00 00 00 00 00 00 00 00 00 00 00 00 00 00 00 00
       0.0 0.0 0.0 0.0
000100 00 00 00 00 00 00 00 00 00 00 00 00 00 00 00 00
       0.0 0.0 0.0 0.0
000110 00 00 00 00 00 00 00 00 00 00 00 00 00 00 00 00
       0.0 0.0 0.0 0.0
000120 00 00 00 00 00 00 00 00 00 00 00 00 00 00 00 00
       0.0 0.0 0.0 0.0
000130 00 00 00 00 00 00 00 00 00 00 00 00 00 00 00 00
       0.0 0.0 0.0 0.0
000140 00 00 00 00 00 00 00 00 00 00 00 00 00 00 00 00
       0.0 0.0 0.0 0.0
000150 00 00 00 00 00 00 00 00 00 00 00 00 00 00 00 00
       0.0 0.0 0.0 0.0
000160 00 00 00 00 00 00 00 00 00 00 00 00 00 00 00 00
       0.0 0.0 0.0 0.0
000170 00 00 00 00 00 00 00 00 00 00 00 00 00 00 00 00
       0.0 0.0 0.0 0.0
000180 00 00 00 00 00 00 00 00 00 00 00 00 00 00 00 00
       0.0 0.0 0.0 0.0
000190 00 00 00 00 00 00 00 00 00 00 00 00 00 00 00 00
       0.0 0.0 0.0 0.0
0001a0 00 00 00 00 00 00 00 00 00 00 00 00 00 00 00 00
       0.0 0.0 0.0 0.0
0001b0 00 00 00 00 00 00 00 00 00 00 00 00 00 00 00 00
       0.0 0.0 0.0 0.0
0001c0 00 00 00 00 00 00 00 00 00 00 00 00 00 00 00 00
       0.0 0.0 0.0 0.0
0001d0 00 00 00 00 00 00 00 00 00 00 00 00 00 00 00 00
       0.0 0.0 0.0 0.0
0001e0 00 00 00 00 00 00 00 00 00 00 00 00 00 00 00 00
       0.0 0.0 0.0 0.0
0001f0 00 00 00 00 00 00 00 00 00 00 00 00 00 00 00 00
       0.0 0.0 0.0 0.0

network_body.linear_encoder.seq_layers.2.weight f4 [128, 128]
000000 e4 02 90 3c a0 ea 17 bd c9 8a b5 bd 15 7b 8a bd
       0.017579503 -0.03708899 -0.08864362 -0.06761757
000010 4c 98 19 3d 8c 0f e4 bd 25 d4 cb bc 6b 6a 71 3d
       0.037498757 -0.11135778 -0.024881432 0.05893938
000020 24 63 14 3e 25 7a 0b be 1a 21 9e 3d 7f 15 a1 3d
       0.14490944 -0.13620813 0.07721157 0.07865428
000030 a4 4d 8b bc 79 da 5b 3d 5e be 2b bd 81 bb 04 3e
       -0.017004795 0.05367515 -0.041929595 0.12962152
000040 4c 29 33 3e 3b eb bb bb 1d f5 a4 3b 0e 2a 72 bd
       0.17496222 -0.0057348288 0.0050341026 -0.059122138
000050 82 35 bc bb 5a ed 27 3c d7 63 a5 3c e6 6e 0d be
       -0.0057436833 0.01024946 0.020189209 -0.13811836
000060 ec 7e 06 3d 3f 68 c0 bc f0 72 24 3d c8 f1 35 bc
       0.032835886 -0.023487208 0.040148675 -0.011105008
000070 d9 dc 2a 3d 01 11 67 bc cd e8 94 bc d3 a5 27 be
       0.041714523 -0.014103175 -0.018177414 -0.1637185
000080 31 dc e3 bd 9d 19 b3 bd 91 f9 cf 3c 2f b6 de 3d
       -0.111259826 -0.0874512 0.025387557 0.108745925
000090 94 7b ae bb a3 16 b6 bd 31 92 69 bd d3 43 1e bd
       -0.0053247903 -0.08891036 -0.057024185 -0.0386389
0000a0 9e 58 62 bc cc 0a db bd f2 6d 73 be b7 fb a4 bd
       -0.013815073 -0.10695419 -0.2377241 -0.08055823
0000b0 49 6f 1a 3e dc 58 96 bd 68 58 43 be 23 f6 93 3c
       0.15081514 -0.07341167 -0.19076693 0.018061703
0000c0 f6 95 2c be 2a 84 b5 3d ff 57 db 3c c2 b8 8c bd
       -0.1685408 0.08863099 0.026775358 -0.06871177
0000d0 7a 98 2c be 23 28 7c bc a9 c9 22 3d 79 7d e6 bb
       -0.1685504 -0.015390429 0.0397431 -0.0070340005
0000e0 5b b4 15 be c7 79 01 be 94 92 ba bc f0 a9 92 3d
       -0.14619581 -0.1264411 -0.022774972 0.07161319
0000f0 0d 0c b0 3c 59 03 91 bd 67 2d 2e 3d fa c3 04 3e
       0.021490121 -0.07080717 0.042523768 0.12965384
000100 c5 b2 c1 3d 6d 99 34 bd 19 d2 7f bd cb 26 82 be
       0.09457926 -0.04409163 -0.062456224 -0.25420222
000110 aa 99 fc 3d 63 ec 2e 3c 35 ff 97 bd ac 29 fb 3d
       0.123339966 0.010676476 -0.07421724 0.12263808
000120 7f c9 a8 3c 62 5d 07 3d 34 f9 07 3c fc b9 a5 3d
       0.020603893 0.03304804 0.008299161 0.08092114
000130 21 4a cd 3d d6 66 14 3d a0 28 b1 bd 78 b0 4f bd
       0.100239046 0.036230884 -0.08650327 -0.050705403
000140 47 5b 11 3e 0b 1e 67 bc 54 6f 16 3d b1 50 1d 3d
       0.14194976 -0.014106284 0.036727265 0.03840703
000150 14 64 3f 3c 83 71 4a bd 49 d1 3e 3d 1c 24 45 bd
       0.011681575 -0.04942466 0.04658631 -0.04813014
000160 59 47 32 bd f1 9a 24 3e 71 33 e4 3c 0b 60 0b bd
       -0.043525074 0.1607473 0.02785656 -0.03402714
000170 52 bc db bd 13 5c ac bd b5 b5 91 bb 34 c8 68 bc
       -0.107292786 -0.08415999 -0.00444671 -0.014207888
000180 14 cf ab bd 34 5f 7b bd ae 60 86 3d ed bb 4f be
       -0.083891064 -0.06137009 0.06561409 -0.20286532
000190 93 fa ef 3c 26 6f 00 be 10 32 28 3e 20 e4 ba 3c
       0.029294288 -0.125424 0.16425347 0.022813857
0001a0 75 41 4c 3d 8b 86 96 bc b9 d5 11 3e a1 32 97 3d
       0.049867112 -0.018374702 0.14241685 0.073827036
0001b0 95 97 17 3c 4c 23 40 bd 33 5e 06 be ad 29 0a 3e
       0.009252449 -0.04690866 -0.13121872 0.1349246
0001c0 9a f9 1d 3d 21 01 7a bd 31 06 17 3e 8c 5d e1 3a
       0.038568117 -0.061036233 0.14748456 0.0017194017
0001d0 38 ec a3 3d 4d 48 cb bd 67 e8 26 3e 6c c5 9c 3d
       0.080040395 -0.099259 0.16299592 0.07654843
0001e0 e4 2d 7a 39 ef 09 3a bd 05 af 9c 3c 56 f3 20 bd
       0.00023858954 -0.04541963 0.019126425 -0.039294563
0001f0 72 6f 01 3e c1 48 2f bd e3 cd d5 bc 81 1e 4a 3d
       0.1264017 -0.042793993 -0.026099151 0.049345497
000200 63 0b a1 3c 40 99 34 3d 30 59 c1 3d 5b 09 0d be
       0.01965875 0.044091463 0.09440839 -0.137731
000210 19 af d1 bd bc a2 cf 3d d4 43 e6 3c 03 3b 50 bd
       -0.10238475 0.10138461 0.028108515 -0.050837528
000220 5d 11 9a bc 99 c0 a0 3c ff de 15 bc 76 28 50 3c
       -0.018807108 0.019623088 -0.009147405 0.012704959
000230 d6 1d dd 3b c1 8d c2 bd 8e 6b ba bd b2 96 cb 3d
       0.0067479415 -0.09499694 -0.09102546 0.09940852
000240 b8 4d 2a 3e a1 1f ec 3d cc 7e 5b 3d c5 09 15 be
       0.1663121 0.1152947 0.05358772 -0.14554508
000250 e4 52 2e 3d 89 8c e9 3d 20 d1 aa 3c 90 cf 20 3b
       0.04255952 0.11403758 0.020851672 0.002453778
000260 6d 03 df bd 22 4b e7 bc 6a 1b 53 3d ef 17 af 3d
       -0.10889325 -0.028234068 0.051539816 0.08549487
000270 cb 7d 1c bd 24 91 51 bc 01 ee 19 3d 31 4a 46 bd
       -0.038205903 -0.012790952 0.037580494 -0.0484106
000280 08 ea ea bd 4f eb 23 be 9d 64 61 3e c5 a8 ee 3d
       -0.11470419 -0.16007732 0.22011037 0.11653284
000290 3b 14 2d bd 0b c1 66 3d 16 9b 23 bd 61 71 27 bd
       -0.04225562 0.056336444 -0.039942823 -0.04087961
0002a0 d8 1e 30 bd d6 34 63 3d 3d d6 f7 bd cc 71 4e bc
       -0.042998165 0.05547031 -0.121014096 -0.0126003735
0002b0 2a 68 32 3d 02 63 cf bc d0 37 80 be 1d 77 45 3d
       0.04355637 -0.025315765 -0.25042582 0.0482093
0002c0 47 8a 0c be 8e 60 7d 3d ca 90 aa 3d c0 e7 84 be
       -0.13724624 0.06185966 0.083283976 -0.2595806
0002d0 6e e6 24 be 29 74 2d bd ff 47 4c 3c ef 1b 99 3d
       -0.16103527 -0.042347107 0.012468337 0.07476031
0002e0 d3 12 1e 3e 36 8c 60 bd be e5 4a be 16 3c c8 3d
       0.15436868 -0.054821216 -0.19814202 0.097770855
0002f0 0c ba 84 3d 05 ee 82 3d 5e 68 3c be 75 fe de 3d
       0.06480798 0.06393055 -0.18399188 0.108883776
000300 3c a5 8e 3d 04 5b 8b bc 42 3c 22 3d 15 f1 9e bd
       0.0696511 -0.017011173 0.039608248 -0.077608265
000310 a6 07 47 3d 5b 8b 1f be 6d 53 b7 bc db f9 ab bd
       0.04859128 -0.15580504 -0.022378648 -0.083972655
000320 4d 2b a5 3d f2 b6 20 be c5 98 99 3d fd 64 82 3c
       0.080648996 -0.15694788 0.074998416 0.015917296
000330 b7 1a 48 3d fe 48 9c 3e dc 45 48 bb c6 61 84 3e
       0.048853602 0.3052444 -0.0030559218 0.25855845
000340 43 49 47 3d 8b f0 cd 3c c4 84 4f 3d e5 e1 75 3d
       0.048653852 0.025139114 0.050663725 0.060029883
000350 07 b6 a7 3d 41 23 7e be 32 28 9b bd 06 7b 33 3d
       0.08189016 -0.24818136 -0.07576026 0.043818496
000360 34 16 ad 3d 3d 25 00 be ba ca 66 3d ff f2 60 3d
       0.084515005 -0.12514205 0.05634568 0.05491924
000370 45 76 27 3e 95 c0 2a bd 8a 73 dc 3c a3 23 d9 3c
       0.1635371 -0.041687567 0.026910562 0.02650625
000380 22 f7 0b 3e a4 63 26 be 2a c2 3e bd 42 ce 34 3d
       0.13668492 -0.16248947 -0.046571888 0.044142015
000390 d5 bc 97 3d d0 42 22 3e 74 ea 93 bc 65 41 8e 3c
       0.07409064 0.158458 -0.018056132 0.017365167
0003a0 a2 c4 ac bd 25 2b 5b 3e ec e2 d3 3c 2f 0c 33 bc
       -0.08435942 0.21403177 0.02586504 -0.010928198
0003b0 a8 3e f1 3c 6d 27 ce 3d 22 5f 35 be a7 ec 84 bd
       0.029448822 0.100661136 -0.17712072 -0.0649045
0003c0 ae f3 d4 3c 65 48 1c be 50 be 12 3e 79 49 e4 bb
       0.025995102 -0.15261991 0.14330411 -0.0069667664
0003d0 e5 c9 ca bc d4 e7 e1 3d af 98 54 bd bc f7 0c 3e
       -0.024754474 0.11030546 -0.051903423 0.13766378
0003e0 83 6c a7 bb 1c 95 47 3e 45 fb 20 3e c7 06 a4 bd
       -0.005109371 0.19490474 0.15720852 -0.08009105
0003f0 87 a0 03 3d e3 fb ea bd 57 8d f9 bc fb 3a fd bd
       0.032135513 -0.11473825 -0.030462904 -0.12364765
