UnityController/results/alex/MoveToGoal/MoveToGoal-747.pt (torch, 154695 bytes, 11 tensors)

network_body.linear_encoder.seq_layers.0.weight f4 [128, 9]
0.38043135 0.17218927 -0.06911132 -0.16136554 0.19742167 0.4220485 -0.26150197 0.10331433
0.52207565 -0.23386882 -0.2960786 0.61327267 0.64683425 -0.040511604 0.190123 -0.140954
0.29089177 0.7311966 -0.25702327 0.1057262 0.067305356 -0.20742308 0.26099998 0.101880625
0.026404401 0.1412403 -0.22593644 -0.33966178 0.25279188 0.111393295 -0.055960298 -0.603196
-0.11759314 0.17657366 0.1681789 0.019562203 -0.617823 0.18258238 -0.39009863 0.41106552
-0.6469028 0.17069313 0.17744611 -0.5508822 -0.11196707 0.14018932 -0.061101444 -0.46416754
0.23751107 -0.383599 0.14245318 -0.109531984 0.4948089 0.26566353 0.021609431 0.24170944
0.21519701 -0.39861852 -0.06340671 -0.43385458 0.026242327 0.116762936 -0.61232847 -0.019756366
-0.02801766 0.12548941 0.12431757 -0.20134078 0.39661485 0.18294786 -0.34478104 -0.81362164
0.6328899 0.14503857 -0.14427403 0.11478974 -0.58593744 -0.04951657 -0.22126085 0.11699091
0.5124823 -0.44889522 0.6087554 -0.7000295 0.5100843 -0.120203376 0.115424715 -0.12980485
-0.31772554 0.8039559 0.17138577 0.294074 0.27270687 0.034906153 -0.09834327 0.51084554
-0.27058753 -0.0037222113 -0.15599026 -0.00786126 0.026520973 0.47676224 0.36622858 -0.36499506
-0.34090993 0.4415992 -0.03995794 0.10171291 0.071099535 -0.47273642 -0.26055998 -0.25839907
-0.22119425 0.48359215 -0.39146647 -0.10298037 0.004474269 -0.24958286 0.07400867 0.1261577
0.5975369 0.017939067 -0.021796329 0.4391163 -0.14881247 0.37446055 0.07727854 0.116104186
-0.04759843 -0.10722181 -0.37464714 0.21476364 -0.38115364 0.35543853 0.019892534 0.2749798
0.12589283 -0.4750815 -0.32290944 1.1428514 -0.9088294 -0.29259163 0.44007882 0.015180606
0.04203592 0.48672232 -0.756767 0.58426917 0.41822392 0.094361894 0.06531453 0.71579945
-0.26473013 -0.6310944 0.087518595 0.4125654 -0.18674645 0.44519424 -0.07072987 0.0866821
-0.72936124 -0.18807358 -0.7569167 0.58059615 -0.21560845 0.19600618 -1.2083495 -1.4227909
0.3548704 0.5976378 -0.4141825 -0.3316243 0.75550485 0.37255654 0.37161893 0.5606673
-0.11307849 -0.118504494 -0.08077134 0.25549182 0.09945077 -0.309017 0.23514937 0.40173694
-0.36213416 0.15989837 -0.03927004 -0.33350003 0.658435 -0.19884555 -0.15435469 0.09456351
-0.38081598 0.44653648 0.55330694 -0.18386954 0.47135362 -0.051484086 -0.14204243 0.111123756
-0.13978809 -0.13458422 -0.060014393 0.57199395 0.16045232 0.16728938 0.24212115 -0.5440211
0.12898014 0.12870516 0.3015474 -0.33037987 -0.6814413 -0.2182863 0.50851417 0.039972637
-0.049125604 0.24288975 0.12832226 0.11237167 0.42001495 0.45850787 -0.27426228 -0.5923946
-0.28732148 0.0858386 0.41438484 0.0144677665 -0.3577051 0.059728637 0.25578207 -0.17584407
-0.179659 -0.32536697 -0.056460213 -0.82617533 -0.5063325 0.075208105 0.017757855 0.03361384
0.050494652 -0.8732361 0.54043746 0.21823709 0.086262755 0.9107212 -0.48229855 -0.31112358
0.5107844 -0.12333304 -0.38881156 -0.0622032 0.24985394 0.118493944 -0.1747229 -0.053781636
00000000: e6c7 c23e 6252 303e 3c8a 8dbd 023d 25be
00000010: e828 4a3e be16 d83e 96e3 85be 7796 d33d
00000020: c0a6 053f 4f7b 6fbe 9d97 97be 70ff 1c3f
00000030: ee96 253f 7fef 25bd 9baf 423e 3f56 10be
00000040: c4ef 943e b32f 3b3f 8e98 83be fa86 d83d
00000050: 64d7 893d b766 54be caa1 853e caa6 d03d
00000060: 0b4e d83c 4ca1 103e e25b 67be 26e8 adbe
00000070: f06d 813e 2b22 e43d a036 65bd 0e6b 1abf
00000080: acd4 f0bd bacf 343e 1737 2c3e ea40 a03c
00000090: a629 1ebf e0f6 3a3e 02bb c7be 2e77 d23e
000000a0: 6c9b 25bf 2eca 2e3e 6fb4 353e 9e06 0dbf
000000b0: fe4e e5bd ca8d 0f3e 8245 7abd 5ea7 edbe
000000c0: 1a36 733e 1767 c4be 3fdf 113e 4e52 e0bd
000000d0: 9857 fd3e 0d05 883e 4306 b13c ae82 773e
000000e0: 9b5c 5c3e ba17 ccbe 61db 81bd 3022 debe
000000f0: 26fa d63c 6821 ef3d 8fc1 1cbf 1ad8 a1bc
00000100: 4b85 e5bc 4c80 003e 369a fe3d 472c 4ebe
00000110: 1a11 cb3e af56 3b3e 2487 b0be 8249 50bf
00000120: 1305 223f fe84 143e 92bc 13be e216 eb3d
00000130: ffff 15bf e3d1 4abd 3492 62be ee98 ef3d
00000140: 0a32 033f 98d5 e5be 65d7 1b3f 2235 33bf
00000150: e294 023f 302d f6bd cb63 ec3d 90eb 04be
00000160: ecac a2be 0ed0 4d3f c07f 2f3e de90 963e
00000170: 3ca0 8b3e c1f9 0e3d 3268 c9bd c6c6 023f
00000180: 738a 8abe 58f0 73bb e9bb 1fbe 84cc 00bc
00000190: 8342 d93c 2e1a f43e 5082 bb3e a2e0 babe
000001a0: bf8b aebe 4a19 e23e f0aa 23bd dc4e d03d
000001b0: a29c 913d 820a f2be 1e68 85be e24c 84be
000001c0: bf80 62be 6499 f73e 4b6e c8be 5fe7 d2bd
000001d0: e49c 923b a692 7fbe dc91 973d 7c2f 013e
000001e0: 2ef8 183f f3f4 923c 378e b2bc dad3 e03e
000001f0: 4c62 18be 4bb9 bf3e 3644 9e3d 08c8 ed3d
00000200: 92f6 42bd 1c97 dbbd c0d1 bfbe 00eb 5b3e
00000210: 9226 c3be 0afc b53e abf5 a23c 27ca 8c3e
00000220: 0dea 003e e23d f3be 6354 a5be f448 923f
00000230: 0ba9 68bf 92ce 95be 0352 e13e 14b8 783c
00000240: db2d 2c3d ab33 f93e 7bbb 41bf aa92 153f
00000250: 7221 d63e cf40 c13d a0c3 853d a23e 373f
00000260: b58a 87be 678f 21bf f33c b33d c63b d33e
00000270: 763a 3fbe 80f0 e33e d2da 90bd 6386 b13d
00000280: 6bb7 3abf 5c96 40be 4bc5 41bf f3a1 143f
00000290: 76c8 5cbe d8b5 483e 32ab 9abf 031e b6bf
000002a0: 93b1 b53e cafe 183f bb0f d4be a9ca a9be
000002b0: c468 413f bbbf be3e d644 be3e e487 0f3f
000002c0: b295 e7bd 7cb2 f2bd 726b a5bd d3cf 823e
000002d0: d8ac cb3d 7a37 9ebe ffca 703e 77b0 cd3e
000002e0: a669 b9be 66bc 233e 9fd9 20bd 84c0 aabe
000002f0: 328f 283f 2b9e 4bbe 280f 1ebe 83aa c13d
00000300: 50fa c2be 6ea0 e43e 86a5 0d3f 4c48 3cbe
00000310: 4355 f13e fae0 52bd 9273 11be da94 e33d
00000320: 9c24 0fbe 72d0 09be a7d1 75bd 326e 123f
00000330: 9d4d 243e e84d 2b3e 9bee 773e f844 0bbf
00000340: 5f13 043e 49cb 033e 6c64 9a3e 8d27 a9be
00000350: f072 2ebf 7286 5fbe fc2d 023f 59ba 233d
00000360: ee37 49bd 17b8 783e e966 033e 1e23 e63d
00000370: 330c d73e 8bc1 ea3e 1b6c 8cbe 2ca7 17bf
00000380: cd1b 93be 26cc af3d 402a d43e 360a 6d3c
00000390: 1f25 b7be 04a6 743d def5 823e 7810 34be
000003a0: 87f8 37be 8096 a6be d342 67bd 3a80 53bf
000003b0: 029f 01bf b506 9a3d ec78 913c aaae 093d
000003c0: 7bd3 4e3d 678c 5fbf 1c5a 0a3f 8b79 5f3e
000003d0: 87aa b03d 0625 693f d6ef f6be 974b 9fbe
000003e0: c4c2 023f 0896 fcbd 4f12 c7be c8c8 7ebd
000003f0: b6d9 7f3e f4ac f23d 8fea 32be 224a 5cbd

network_body.linear_encoder.seq_layers.0.bias f4 [128]
0.0 0.0 0.0 0.0 0.0 0.0 0.0 0.0
0.0 0.0 0.0 0.0 0.0 0.0 0.0 0.0
0.0 0.0 0.0 0.0 0.0 0.0 0.0 0.0
0.0 0.0 0.0 0.0 0.0 0.0 0.0 0.0
0.0 0.0 0.0 0.0 0.0 0.0 0.0 0.0
0.0 0.0 0.0 0.0 0.0 0.0 0.0 0.0
0.0 0.0 0.0 0.0 0.0 0.0 0.0 0.0
0.0 0.0 0.0 0.0 0.0 0.0 0.0 0.0
0.0 0.0 0.0 0.0 0.0 0.0 0.0 0.0
0.0 0.0 0.0 0.0 0.0 0.0 0.0 0.0
0.0 0.0 0.0 0.0 0.0 0.0 0.0 0.0
0.0 0.0 0.0 0.0 0.0 0.0 0.0 0.0
0.0 0.0 0.0 0.0 0.0 0.0 0.0 0.0
0.0 0.0 0.0 0.0 0.0 0.0 0.0 0.0
0.0 0.0 0.0 0.0 0.0 0.0 0.0 0.0
0.0 0.0 0.0 0.0 0.0 0.0 0.0 0.0
00000000: 0000 0000 0000 0000 0000 0000 0000 0000
00000010: 0000 0000 0000 0000 0000 0000 0000 0000
00000020: 0000 0000 0000 0000 0000 0000 0000 0000
00000030: 0000 0000 0000 0000 0000 0000 0000 0000
00000040: 0000 0000 0000 0000 0000 0000 0000 0000
00000050: 0000 0000 0000 0000 0000 0000 0000 0000
00000060: 0000 0000 0000 0000 0000 0000 0000 0000
00000070: 0000 0000 0000 0000 0000 0000 0000 0000
00000080: 0000 0000 0000 0000 0000 0000 0000 0000
00000090: 0000 0000 0000 0000 0000 0000 0000 0000
000000a0: 0000 0000 0000 0000 0000 0000 0000 0000
000000b0: 0000 0000 0000 0000 0000 0000 0000 0000
000000c0: 0000 0000 0000 0000 0000 0000 0000 0000
000000d0: 0000 0000 0000 0000 0000 0000 0000 0000
000000e0: 0000 0000 0000 0000 0000 0000 0000 0000
000000f0: 0000 0000 0000 0000 0000 0000 0000 0000
00000100: 0000 0000 0000 0000 0000 0000 0000 0000
00000110: 0000 0000 0000 0000 0000 0000 0000 0000
00000120: 0000 0000 0000 0000 0000 0000 0000 0000
00000130: 0000 0000 0000 0000 0000 0000 0000 0000
00000140: 0000 0000 0000 0000 0000 0000 0000 0000
00000150: 0000 0000 0000 0000 0000 0000 0000 0000
00000160: 0000 0000 0000 0000 0000 0000 0000 0000
00000170: 0000 0000 0000 0000 0000 0000 0000 0000
00000180: 0000 0000 0000 0000 0000 0000 0000 0000
00000190: 0000 0000 0000 0000 0000 0000 0000 0000
000001a0: 0000 0000 0000 0000 0000 0000 0000 0000
000001b0: 0000 0000 0000 0000 0000 0000 0000 0000
000001c0: 0000 0000 0000 0000 0000 0000 0000 0000
000001d0: 0000 0000 0000 0000 0000 0000 0000 0000
000001e0: 0000 0000 0000 0000 0000 0000 0000 0000
000001f0: 0000 0000 0000 0000 0000 0000 0000 0000

network_body.linear_encoder.seq_layers.2.weight f4 [128, 128]
-0.023195006 -0.083695814 -0.0086398255 -0.05695162 0.0835479 0.13144806 0.01027953 -0.018642504
0.17054796 -0.12766989 -0.11616727 0.0964806 -0.06256909 -0.09682611 0.081403084 0.11501193
0.06380404 -0.03881844 -0.06773923 0.080514565 0.05554048 -0.028096745 -0.03935686 0.027046356
0.062240772 0.01749509 0.11994968 -0.10873442 0.08352092 -0.008814607 -0.008209389 -0.005016301
0.069807306 -0.020754639 -0.02552012 0.13280699 0.031756993 -0.09473517 -0.06121692 0.10279565
0.08808864 -0.019752694 -0.026477057 -0.104210146 -0.09612566 -0.017448416 -0.114525795 0.12226513
0.008689047 0.11761306 0.024602521 0.10693334 -0.030765956 -0.21850884 -0.032573096 -0.033854906
-0.04055783 -0.12586512 -0.22282043 0.03507686 0.21382287 0.10674249 -0.13046728 0.029674362
-0.05848786 0.055734143 -0.029880935 0.04592658 -0.117414825 -0.03715202 -0.13975106 0.07508188
-0.028140008 0.06079451 -0.017137587 -0.1177858 -0.06667079 -0.051749654 0.048672292 0.0597954
-0.23287626 0.039741363 -0.013169277 0.05912183 -0.03679488 -0.049122866 -0.01548931 -0.10719782
0.045863736 -0.0037908861 0.025558544 -0.105304755 0.05431168 0.0960704 0.011869433 -0.06517705
0.11725857 0.10140399 -0.06224105 0.17918195 -0.0036568346 0.037730515 -0.027297517 -0.00891367
0.05473213 -0.06486204 -0.0791916 0.030830685 0.036669135 0.16975221 -0.0697969 0.11789097
0.08979834 0.09722909 0.09598295 -0.10598649 0.07438952 0.1193313 -0.02693935 0.13716875
-0.07040104 0.012423222 0.1691239 0.052409288 -0.008033412 0.1255538 0.099765435 -0.051660124
0.029530002 -0.0051156585 0.012489733 -0.05132386 -0.003448358 0.104177706 -0.06691488 0.06977542
0.12407336 -0.09676735 0.1069077 -0.04918038 0.208815 0.054730278 -0.1056711 0.039516695
-0.15303591 -0.021082109 0.020815743 0.047305413 -0.037430312 0.2189749 -0.056591704 0.0849255
-0.011491138 -0.005120103 0.108768374 0.05334771 -0.090062365 0.081166565 -0.050484557 -0.016340198
0.13657697 0.15052383 -0.13667479 0.10938296 0.021191873 0.06089442 0.0054694302 -0.07483108
0.14592923 0.116820775 0.12826978 0.08162666 0.09746854 0.057775337 0.06271033 -0.020533647
-0.07116429 -0.014979904 0.08568333 0.08830992 -0.033659272 0.0862455 -0.033028286 0.067746356
-0.046496324 0.16636379 -0.05573568 -0.0037549974 -0.18224211 -0.18048097 0.002924442 -0.13160414
0.09820983 0.020529203 0.13946016 0.05453286 0.057169363 -0.019924069 0.1112891 -0.1475089
-0.022104671 0.11949925 -0.00993043 -0.05661666 0.0977036 -0.074121356 0.08399044 0.027507558
-0.09515176 -0.09434152 0.07004608 0.13193673 0.06252075 0.20032038 0.13240959 -0.03475548
0.035390664 0.010411981 -0.004390284 0.025001246 -0.10594239 0.10585457 0.058138404 -0.08035676
-0.106976785 -0.066393815 0.043376394 -0.15365516 0.024522914 -0.08995745 -0.06084388 0.05310715
-0.05363236 0.004757188 0.059089433 -0.07442677 -0.119977295 -0.09869031 -0.19849652 0.08798853
0.0037288906 0.028756114 -0.0762792 0.08491612 0.009416942 -0.090174064 0.13660985 -0.009638078
-0.030766312 -0.0054623727 -0.045636598 -0.0681245 -0.09189505 -0.11986799 0.038421877 0.021527698
00000000: 7403 bebc b668 abbd 0e8e 0dbc 1a46 69bd
00000010: 291b ab3d 529a 063e 796b 283c 2ab8 98bc
00000020: 20a4 2e3e e5bb 02be 1be9 edbd 9f97 c53d
00000030: 3924 80bd c44c c6bd a9b6 a63d 608b eb3d
00000040: b1ab 823d 1600 1fbd deba 8abd d2e4 a43d
00000050: 6a7e 633d 252b e6bc a934 21bd 5290 dd3c
00000060: 2ef0 7e3d dd51 8f3c 2ea8 f53d 27b0 debd
00000070: 040d ab3d 246b 10bc ac80 06bc c85f a4bb
00000080: 22f7 8e3d a205 aabc 920f d1bc 8efe 073e
00000090: 9f13 023d 8304 c2bd 98be 7abd 8786 d23d
000000a0: d167 b43d 67d0 a1bc 6ae6 d8bc 216c d5bd
000000b0: 88dd c4bd fbef 8ebc 808c eabd 2466 fa3d
000000c0: 815c 0e3c 1edf f03d 3a8b c93c deff da3d
000000d0: e308 fcbc c8c0 5fbe 5e6b 05bd 71ab 0abd
000000e0: f81f 26bd c9e2 00be 0a2b 64be c1ac 0f3d
000000f0: 62f4 5a3e ce9b da3d 3799 05be a617 f33c
00000100: f790 6fbd 7c49 643d ddc8 f4bc 821d 3c3d
00000110: 2f77 f0bd b72c 18bd e71a 0fbe 87c4 993d
00000120: e085 e6bc aa03 793d 2064 8cbc ae39 f1bd
00000130: b28a 88bd 72f7 53bd 995c 473d 05ec 743d
00000140: 1d77 6ebe d7c7 223d f4c3 57bc bb29 723d
00000150: 3ab6 16bd 0f35 49bd e0c6 7dbc 888a dbbd
00000160: 9ddb 3b3d 8470 78bb 2760 d13c 05aa d7bd
00000170: ed75 5e3d 8fc0 c43d 0378 423c 8c7b 85bd
00000180: 4325 f03d e5ac cf3d 79f0 7ebd 797b 373e
00000190: 81a7 6fbb 508b 1a3d 0b9f dfbc a40a 12bc
000001a0: cc2e 603d 64d6 84bd 352f a2bd a290 fc3c
000001b0: 6032 163d 86d3 2d3e adf1 8ebd d270 f13d
000001c0: 31e8 b73d 0c20 c73d b592 c43d 720f d9bd
000001d0: 8859 983d f863 f43d e9af dcbc f775 0c3e
000001e0: 6c2e 90bd c58a 4b3c d12e 2d3e 1fab 563d
000001f0: 929e 03bc 2d91 003e d251 cc3d 9199 53bd
00000200: e7e8 f13c 41a1 a7bb bda1 4c3c f838 52bd
00000210: d9fd 61bb 1f5b d53d ab0a 89bd 6ae6 8e3d
00000220: 2c1a fe3d f62d c6bd 6df2 da3d 5e71 49bd
00000230: 99d3 553e db2c 603d 176a d8bd 42dc 213d
00000240: 72b5 1cbe 63b4 acbc c785 aa3c 52c3 413d
00000250: 8750 19bd f53a 603e b4cc 67bd 6ced ad3d
00000260: 5345 3cbc 89c6 a7bb f4c1 de3d 2183 5a3d
00000270: 9e72 b8bd a83a a63d e5c8 4ebd e1db 85bc
00000280: d5da 0b3e eb22 1a3e 7af4 0bbe 2c04 e03d
00000290: 949a ad3c 6d6c 793d e838 b33b 0a41 99bd
000002a0: 796e 153e bb3f ef3d 2759 033e e12b a73d
000002b0: 969d c73d d5a5 6c3d 466e 803d 2e36 a8bc
000002c0: 95be 91bd 456e 75bc be7a af3d d5db b43d
000002d0: 4ede 09bd 7ba1 b03d ab48 07bd 9abe 8a3d
000002e0: ee72 3ebd 455b 2a3e 194b 64bd 6716 76bb
000002f0: ad9d 3abe 01d0 38be ffa7 3f3b 3cc3 06be
00000300: 3c22 c93d dc2c a83c a5ce 0e3e d95d 5f3d
00000310: 6c2a 6a3d cd37 a3bc 8aeb e33d 930c 17be
00000320: db14 b5bc 06bc f43d 3eb3 22bc dfe6 67bd
00000330: d318 c83d f0cc 97bd 2e03 ac3d 8857 e13c
00000340: edde c2bd 2036 c1bd 5274 8f3d 6c1a 073e
00000350: e10a 803d c920 4d3e 6196 073e c35b 0ebd
00000360: cdf5 103d 0397 2a3c 5fdc 8fbb 6acf cc3c
00000370: 53f8 d8bd 48ca d83d 8922 6e3d 1692 a4bd
00000380: a516 dbbd 7bf9 87bd 72ab 313d c757 1dbe
00000390: 47e4 c83c 9d3b b8bd 6f37 79bd e286 593d
000003a0: 9bad 5bbd 2fe2 9b3b c307 723d 106d 98bd
000003b0: a8b6 f5bd 251e cabd ac42 4bbe 5533 b43d
000003c0: 6760 743b f191 eb3c 4538 9cbd 81e8 ad3d
000003d0: 8449 1a3c 2ead b8bd 74e3 0b3e 07e9 1dbc
000003e0: a209 fcbc b4fd b2bb 71ed 3abd dc84 8bbd
000003f0: 7933 bcbd 597d f5bd 4260 1d3d db5a b03c

network_body.linear_encoder.seq_layers.2.bias f4 [128]
0.0 0.0 0.0 0.0 0.0 0.0 0.0 0.0
0.0 0.0 0.0 0.0 0.0 0.0 0.0 0.0
0.0 0.0 0.0 0.0 0.0 0.0 0.0 0.0
0.0 0.0 0.0 0.0 0.0 0.0 0.0 0.0
0.0 0.0 0.0 0.0 0.0 0.0 0.0 0.0
0.0 0.0 0.0 0.0 0.0 0.0 0.0 0.0
0.0 0.0 0.0 0.0 0.0 0.0 0.0 0.0
0.0 0.0 0.0 0.0 0.0 0.0 0.0 0.0
0.0 0.0 0.0 0.0 0.0 0.0 0.0 0.0
0.0 0.0 0.0 0.0 0.0 0.0 0.0 0.0
0.0 0.0 0.0 0.0 0.0 0.0 0.0 0.0
0.0 0.0 0.0 0.0 0.0 0.0 0.0 0.0
0.0 0.0 0.0 0.0 0.0 0.0 0.0 0.0
0.0 0.0 0.0 0.0 0.0 0.0 0.0 0.0
0.0 0.0 0.0 0.0 0.0 0.0 0.0 0.0
0.0 0.0 0.0 0.0 0.0 0.0 0.0 0.0
00000000: 0000 0000 0000 0000 0000 0000 0000 0000
00000010: 0000 0000 0000 0000 0000 0000 0000 0000
00000020: 0000 0000 0000 0000 0000 0000 0000 0000
00000030: 0000 0000 0000 0000 0000 0000 0000 0000
00000040: 0000 0000 0000 0000 0000 0000 0000 0000
00000050: 0000 0000 0000 0000 0000 0000 0000 0000
00000060: 0000 0000 0000 0000 0000 0000 0000 0000
00000070: 0000 0000 0000 0000 0000 0000 0000 0000
00000080: 0000 0000 0000 0000 0000 0000 0000 0000
00000090: 0000 0000 0000 0000 0000 0000 0000 0000
000000a0: 0000 0000 0000 0000 0000 0000 0000 0000
000000b0: 0000 0000 0000 0000 0000 0000 0000 0000
000000c0: 0000 0000 0000 0000 0000 0000 0000 0000
000000d0: 0000 0000 0000 0000 0000 0000 0000 0000
000000e0: 0000 0000 0000 0000 0000 0000 0000 0000
000000f0: 0000 0000 0000 0000 0000 0000 0000 0000
00000100: 0000 0000 0000 0000 0000 0000 0000 0000
00000110: 0000 0000 0000 0000 0000 0000 0000 0000
00000120: 0000 0000 0000 0000 0000 0000 0000 0000
00000130: 0000 0000 0000 0000 0000 0000 0000 0000
00000140: 0000 0000 0000 0000 0000 0000 0000 0000
00000150: 0000 0000 0000 0000 0000 0000 0000 0000
00000160: 0000 0000 0000 0000 0000 0000 0000 0000
00000170: 0000 0000 0000 0000 0000 0000 0000 0000
00000180: 0000 0000 0000 0000 0000 0000 0000 0000
00000190: 0000 0000 0000 0000 0000 0000 0000 0000
000001a0: 0000 0000 0000 0000 0000 0000 0000 0000
000001b0: 0000 0000 0000 0000 0000 0000 0000 0000
000001c0: 0000 0000 0000 0000 0000 0000 0000 0000
000001d0: 0000 0000 0000 0000 0000 0000 0000 0000
000001e0: 0000 0000 0000 0000 0000 0000 0000 0000
000001f0: 0000 0000 0000 0000 0000 0000 0000 0000

action_model._discrete_distribution.branches.0.weight f4 [7, 128]
-0.014711541 0.0029784127 0.008658624 -0.008593543 -0.0064934255 -0.009377143 0.008887075 -0.010924297
-0.022398125 -0.02008365 -0.006045747 0.017149815 0.0015979225 0.0018716961 0.0075978707 -0.00686813
0.012492931 0.0065549365 -0.0020719606 0.000277262 0.0011010893 0.009528616 0.0040450944 -0.012785548
-0.0074806637 -0.0102062635 0.011315094 2.4367577e-05 -0.008930909 0.007403714 -0.005981754 -0.0014092748
-0.008154634 -0.0039437483 0.0065260194 0.0054709036 0.0058424682 0.0003026721 0.008493501 -0.0058833426
-0.005358621 -0.0068972856 -0.0026370632 0.0013966932 0.0009085295 -0.002539242 0.0075118393 0.004677843
0.009520817 0.005422045 0.008638303 -0.0008290616 0.009034826 0.004853701 0.0052120606 -0.010659045
-0.00033937077 0.0075193825 -0.002991859 -0.00033644045 -0.009192727 0.0023050236 -0.0142005505 0.00073590723
0.011097423 0.016091742 -0.0058546425 -0.0047607175 0.008899189 -0.008301771 -4.246071e-05 -0.005561296
-0.007750874 0.00058014825 0.0041455333 -0.0076529696 0.0007754688 0.013642554 0.010500604 -0.0030532319
-0.005274601 -0.0026781587 -0.011750742 -0.0005726021 0.006852799 -0.0015990393 -0.0069791214 -0.018894337
-3.131289e-05 0.009633297 0.004178419 0.0053032944 -0.008732948 0.007739089 -0.013629645 0.005608626
0.00748112 -0.0023441422 0.0054528955 0.004791365 -0.0068137455 0.0069836723 0.007297239 -0.009894587
-0.0026075707 8.768477e-05 0.003163357 0.017181424 -0.0055764047 -0.004094667 0.003378958 -0.003116798
0.014533939 0.008343065 -0.0056012818 0.0129983025 0.009433422 0.009108904 0.008812679 0.006255436
0.001964489 -0.0012235999 0.0011423252 0.008058155 -0.003849182 -0.006163457 0.0070075444 -0.0019014077
-0.0019448067 -0.0043419036 -0.003850282 -0.0051513 0.00386591 -0.0062618414 -0.019802734 0.005156401
0.0028564844 0.012467207 0.007025659 0.00091104436 0.0001266998 0.0079294 0.005802882 -0.011303177
-0.0048697693 0.0035684172 0.007757142 0.0010592807 0.0015114543 0.012839921 0.001874969 0.0043936097
0.0062669017 0.010375251 0.0021719483 0.0051542018 -0.009203715 0.0010560555 0.006996398 0.01353735
-0.007466757 0.0022256416 0.0005036935 -0.009123871 0.0106080845 -0.00519549 -0.0052741566 1.1521564e-05
-0.010074545 0.0019963183 0.014005645 -0.009809667 -0.021297032 0.0026523455 0.0002234902 0.0033091628
-0.009865731 -0.00854521 -0.0074983747 0.0024310094 0.0113693 0.003269665 -0.0012475089 0.0071656704
-0.0045494935 -0.008934798 -0.018765312 -0.011010576 -0.007569834 0.003644424 0.009280167 0.014950511
-0.00964705 0.0019048859 0.007090896 -0.006751063 -0.003770969 -0.0023506337 -0.008836407 -0.0008729144
0.0043844683 0.022072837 -0.0058733313 -0.0027248103 -0.009916945 0.0022299374 -0.005645249 0.0046450715
-0.008258177 -0.00090241287 0.001060387 0.0009613647 0.0020148233 0.0102748405 0.0033865247 -0.006459152
0.017631926 -0.007864471 -0.010639546 -0.011415201 -0.00013860303 -0.026070109 0.0027832284 0.00018486928
-0.0030056753 -0.0026365132 -0.016188763 -0.0020622516 0.0051301857 -0.00037946893 -0.0057071806 -0.004577589
0.0034221683 0.0046754177 -0.0067939768 0.006553435 -0.0043563554 0.0073413323 -0.0022208795 0.0115723265
-0.0041466146 -0.0072938874 -0.0054374943 -0.0032032386 0.007696122 -0.0010694078 -0.012912601 0.007089174
0.0041989028 -0.010676353 0.008687261 0.0036919785 -0.003520863 -0.014814312 -0.011791153 0.013340651
00000000: ad08 71bc 7931 433b e7dc 0d3c efcb 0cbc
00000010: cdc6 d4bb 97a2 19bc 189b 113c d3fb 32bc
00000020: 467c b7bc 7786 a4bc 671b c6bb c57d 8c3c
00000030: 6271 d13a b353 f53a 8ff7 f83b 0d0e e1bb
00000040: 27af 4c3c cbca d63b bbc9 07bb 7a5d 9139
00000050: 6d52 903a ea1d 1c3c b68c 843b 7a7a 51bc
00000060: 5b20 f5bb 2c38 27bc f262 393c f968 cc37
00000070: f352 12bc db9a f23b 9702 c4bb 6ab7 b8ba
00000080: 049b 05bc 8f3a 81bb 38d8 d53b 4445 b33b
00000090: 2d72 bf3b f6af 9e39 5328 0b3c 0ec9 c0bb
000000a0: 5f97 afbb a002 e2bb 94d2 2cbb 3f11 b73a
000000b0: 622a 6e3a 6969 26bb e025 f63b 9748 993b
000000c0: 33fd 1b3c 69ab b13b ab87 0d3c 6255 59ba
000000d0: cf06 143c cc0b 9f3b efc9 aa3b 46a3 2ebc
000000e0: 93ed b1b9 2765 f63b 1113 44bb 4664 b0b9
000000f0: 179d 16bc e10f 173b 6da9 68bc e6e9 403a
00000100: f7d1 353c d4d2 833c 4dd8 bfbb cbff 9bbb
00000110: e7cd 113c 2704 08bc d717 32b8 883b b6bb
00000120: 0bfb fdbb 1715 183a 41d7 873b c3c5 fabb
00000130: d548 4b3a 0585 5f3c ba0a 2c3c bb18 48bb
00000140: 8fd6 acbb 0c84 2fbb 2f86 40bc ad1a 16ba
00000150: 728d e03b db96 d1ba 1db1 e4bb 4cc8 9abc
00000160: f655 03b8 fad4 1d3c 1eeb 883b 42c7 ad3b
00000170: a414 0fbc 2f98 fd3b e04e 5fbc 91c8 b73b
00000180: 2f24 f53b 2ea0 19bb 34ae b23b e200 9d3b
00000190: d745 dfbb 4ad7 e43b ad1d ef3b e81c 22bc
000001a0: c7e3 2abb 67e3 b738 5350 4f3b 0fc0 8c3c
000001b0: 46ba b6bb 8e2c 86bb 8271 5d3b 3143 4cbb
000001c0: c21f 6e3c 5ab1 083c f58a b7bb d5f6 543c
000001d0: a48e 1a3c 833d 153c 0e63 103c 67fa cc3b
000001e0: a8be 003b 3361 a0ba 13ba 953a 5a06 043c
000001f0: 8f42 7cbb d3f6 c9bb 8b9f e53b a838 f9ba
00000200: e2e8 feba 8746 8ebb 0355 7cbb 3dcc a8bb
00000210: 355b 7d3b 2230 cdbb 5839 a2bc 07f7 a83b
00000220: db33 3b3b 4243 4c3c 8037 e63b 27d3 6e3a
00000230: b8da 0439 50ea 013c 1a26 be3b f630 39bc
00000240: 9692 9fbb 1bdc 693b a02f fe3b 90d7 8a3a
00000250: fe1b c63a 885e 523c 85c1 f53a 45f8 8f3b
00000260: 955a cd3b f5fc 293c 3f57 0e3b 94e4 a83b
00000270: 2ecb 16bc 586b 8a3a 0a42 e53b c3cb 5d3c
00000280: b3ab f4bb 12dc 113b 4c0a 043a 4a7c 15bc
00000290: 88cd 2d3c ee3e aabb d5d2 acbb be4c 4137
000002a0: b40f 25bc aad4 023b ef77 653c bab8 20bc
000002b0: 1d77 aebc f9d2 2d3b b258 6a39 8ade 583b
000002c0: e0a3 21bc 3501 0cbc edb4 f5bb 9251 1f3b
000002d0: 4d46 3a3c e047 563b 7483 a3ba 00ce ea3b
000002e0: eb13 95bb 4263 12bc b6b9 99bc b465 34bc
000002f0: 5f0c f8bb 4ad7 6e3b d70b 183c fdf2 743c
00000300: a90e 1ebc 5dad f93a bf5a e83b 0538 ddbb
00000310: 5d22 77bb 170d 1abb 94c6 10bc 4bd4 64ba
00000320: 96ab 8f3b 18d2 b43c 1375 c0bb bb92 32bb
00000330: af7a 22bc 2424 123b c8fb b8bb af35 983b
00000340: 4e4d 07bc e78f 6cba affc 8a3a 1804 7c3a
00000350: 200b 043b ce57 283c 75f0 5d3b 4ba7 d3bb
00000360: d470 903c fbd9 00bc 7e51 2ebc d306 3bbc
00000370: f855 11b9 fb90 d5bc d366 363b 78d9 4139
00000380: ddfa 44bb 5ac9 2cbb 4c9e 84bc d726 07bb
00000390: 1e1b a83b 75f3 c6b9 4d03 bbbb 9aff 95bb
000003a0: 7546 603b 3f34 993b 02a0 debb 33be d63b
000003b0: c2bf 8ebb 8f8f f03b 2d8c 11bb db99 3d3c
000003c0: 53e0 87bb 9001 efbb 022d b2bb 6ded 51bb
000003d0: c02f fc3b 5f2b 8cba 608f 53bc 4d4c e83b
000003e0: f396 893b dfeb 2ebc 0355 0e3c 1ff5 713b
000003f0: 47be 66bb bab7 72bc ae2f 41bc bf92 5a3c

action_model._discrete_distribution.branches.0.bias f4 [7]
0.0 0.0 0.0 0.0 0.0 0.0 0.0
00000000: 0000 0000 0000 0000 0000 0000 0000 0000
00000010: 0000 0000 0000 0000 0000 0000

network_body.linear_encoder.seq_layers.0.weight f4 [128, 9]
0.1937413 0.62629306 -0.41927892 0.014954669 -0.07424681 0.022774689 0.59039414 -0.0721031
-0.20237508 0.5870801 -0.08082481 -0.1553483 -0.26507553 -0.117772125 0.4465222 -0.11765948
0.30214912 0.23832464 -0.2841022 0.2565574 -0.22629824 0.047099486 0.1677091 0.15404741
-0.39829272 0.6165726 0.17899966 -0.13973486 -0.24955717 0.19409204 -0.07559776 0.20244521
-0.24827886 0.25492257 -0.15205482 0.3358984 -0.31173676 0.19355157 -0.21312541 -0.5172115
-0.270195 -0.40133548 0.03381254 0.19249052 0.28627592 -0.2446414 -0.054385066 0.809201
0.4611507 0.19545588 -0.37663424 -0.11834441 -0.44635427 0.4404586 0.015429456 -0.048886716
0.31348592 0.073291935 0.2342914 0.23276006 0.41535056 0.13240749 -0.38722217 -0.05955369
-0.12687741 -0.20908847 -0.37761492 -0.18472144 0.26560676 0.8994045 0.08749217 0.17535412
-0.29252896 0.059570573 -0.13990058 -0.5982428 -0.22156566 0.10643454 -0.11119628 0.02904408
0.6444665 0.12594607 -0.09931798 0.2372918 -0.097476065 0.48774156 -0.36884046 -0.055586644
0.11183004 -0.22225223 -0.66393876 -0.15532179 0.0029488513 -0.39006484 0.30240515 -1.0049012
0.08068402 -0.67141485 -0.053901505 0.13745943 -0.068018794 -0.11368929 -0.17138883 0.38625258
-0.32194746 -0.27921256 -0.48685855 0.47143555 -0.3854314 0.046563398 -0.07610444 0.086019605
0.43817174 0.14323825 0.51594615 0.55176425 -0.0783855 -0.28138298 0.042831328 0.59771466
0.043984756 0.45940778 0.16554454 0.053589053 -0.100966915 0.08667385 -0.16033396 -0.08720015
0.399257 -0.116791 -0.13235119 -0.07523575 0.19769824 -0.09179473 0.66435575 -0.14137933
0.2979868 0.092785105 0.27179062 0.10024607 0.07303422 0.22625872 -0.13111308 -0.15128788
-0.30925903 0.15594876 0.17273366 0.020996375 -0.33569098 0.02913455 0.016418902 -0.1276482
0.17247209 -0.6481255 -0.21279621 0.51568836 0.5760207 0.6543478 -0.69597757 0.18623468
-0.07763518 -0.117734365 -0.5754011 0.37276727 0.17654511 0.08814816 0.045103453 0.20971301
-0.82162446 0.43353805 -0.40066266 0.05147665 -0.20194313 -0.27388126 0.1758251 0.4878062
-0.26887155 -0.46557403 -0.28923577 -0.195808 0.10616504 0.078149185 -0.0034750837 -0.26921707
-0.04941439 0.5237548 -0.068495914 -0.059638362 -0.15534295 -0.0031091436 0.054920133 -0.34493423
0.21372865 0.2893841 -0.0064194086 0.3324986 0.10977325 -0.23312789 -0.36264467 0.31734043
-0.035267368 -0.24378902 0.38431442 0.016540077 -0.028734712 -0.10919815 0.4664936 0.027811607
-0.4120965 -0.101684324 0.39820775 -0.05023338 0.64322674 0.16597259 0.21037537 -0.22413498
-0.39619207 0.102473006 -0.23277348 -0.41718483 0.21589926 0.17231719 0.21534394 -0.21457845
-0.46598548 0.23728964 0.1443604 -0.34549302 -0.41246104 0.061684854 -0.0972303 -0.04033306
-0.43586206 0.312742 0.41689014 -0.97946703 0.15060407 -0.30100033 -0.3905064 -0.5910437
-0.6149435 0.50311553 0.16078569 -0.12828848 0.50891584 -0.40413648 -0.22851104 -0.04005288
-0.13715042 -0.4456522 0.09499695 0.75458884 -0.037120026 0.31931996 -0.31220514 0.24093929
00000000: 1f64 463e be54 203f baab d6be 6e04 753c
00000010: b60e 98bd fc91 ba3c 1224 173f caaa 93bd
00000020: 6a3b 4fbe e24a 163f 7a87 a5bd a013 1fbe
00000030: fbb7 87be 8332 f1bd 8f9e e43e 74f7 f0bd
00000040: 4ab3 9a3e 600b 743e d875 91be 7e5b 833e
00000050: baba 67be 64eb 403d efbb 2b3e 9bbe 1d3e
00000060: 06ed cbbe b4d7 1d3f b04b 373e a816 0fbe
00000070: ea8b 7fbe 10c0 463e 00d3 9abd cc4d 4f3e
00000080: d03c 7ebe 3685 823e 42b4 1bbe e0fa ab3e
00000090: f69b 9fbe 6232 463e 8c3d 5abe f967 04bf
000000a0: 0057 8abe d87b cdbe 057f 0a3d 3c1c 453e
000000b0: c292 923e 4683 7abe e0c2 5ebd cc27 4f3f
000000c0: f21b ec3e 9625 483e 34d6 c0be 8e5e f2bd
000000d0: 8c88 e4be ca83 e13e d4cb 7c3c 703d 48bd
000000e0: 3a81 a03e 151a 963d 16ea 6f3e a758 6e3e
000000f0: d4a8 d43e d495 073e fc41 c6be 92ee 73bd
00000100: 27ec 01be 4a1b 56be be56 c1be 9e27 3dbe
00000110: 9cfd 873e 603f 663f 182f b33d 0890 333e
00000120: 5bc6 95be 4600 743d 1942 0fbe 7126 19bf
00000130: 1ce2 62be 5afa d93d e0ba e3bd daed ed3c
00000140: c2fb 243f 02f8 003e 3a67 cbbd 9ffc 723e
00000150: 88a1 c7bd 43b9 f93e a8d8 bcbe d2ae 63bd
00000160: 2607 e53d 1796 63be e4f7 29bf ad0c 1fbe
00000170: 8441 413b 94b6 c7be d9d4 9a3e 9aa0 80bf
00000180: aa3d a53d d8e1 2bbf d3c7 5cbd 2ac2 0c3e
00000190: 704d 8bbd eed5 e8bd 8e80 2fbe e6c2 c53e
000001a0: 4cd6 a4be f3f4 8ebe 8645 f9be 0060 f13e
000001b0: 4457 c5be 43b9 3e3d a5dc 9bbd 0c2b b03d
000001c0: 0c58 e03e 0cad 123e 0c15 043f 6c40 0d3f
000001d0: 9488 a0bd 6e11 90be e76f 2f3d d403 193f
000001e0: 5c29 343d 7f37 eb3e 8284 293e 3280 5b3d
000001f0: bec7 cebd 0f82 b13d 962e 24be fe95 b2bd
00000200: 6a6b cc3e 1f30 efbd 1287 07be 3315 9abd
00000210: 6871 4a3e e0fe bbbd 3813 2a3f bec5 10be
00000220: ba91 983e 1e06 be3d 2428 8b3e d04d cd3d
00000230: f792 953d 5eb0 673e 8242 06be 36eb 1abe
00000240: 3357 9ebe 08b1 1f3e 18e1 303e 9700 ac3c
00000250: b0df abbe 94ab ee3c ef80 863c 36b6 02be
00000260: 869c 303e 8eeb 25bf 40e7 59be 2704 043f
00000270: 1876 133f 5683 273f 962b 32bf 4eb4 3e3e
00000280: 31ff 9ebd b71e f1bd 7d4d 13bf 5adb be3e
00000290: 3ec8 343e 0687 b43d 66be 383d 02bf 563e
000002a0: fb55 52bf b3f8 dd3e a823 cdbe 2ed9 523d
000002b0: 2eca 4ebe 2a3a 8cbe 7f0b 343e bcc1 f93e
000002c0: 88a9 89be b85f eebe b616 94be e481 48be
000002d0: 0e6d d93d ae0c a03d 3bbe 63bb d2d6 89be
000002e0: be66 4abd cb14 063f 9647 8cbd 5b47 74bd
000002f0: 3912 1fbe c6c2 4bbb eff3 603d 389b b0be
00000300: afdb 5a3e 272a 943e e759 d2bb 423d aa3e
00000310: ccd0 e03d 14b9 6ebe 90ac b9be 727a a23e
00000320: 8474 10bd d4a3 79be dcc4 c43e 0e7f 873c
00000330: 0f65 ebbc 48a3 dfbd 40d8 ee3e 2bd5 e33c
00000340: 50fe d2be df3f d0bd e3e1 cb3e 84c1 4dbd
00000350: 82aa 243f b8f4 293e a46c 573e a483 65be
00000360: b0d9 cabe 5edd d13d 2c5c 6ebe 4099 d5be
00000370: b214 5d3e eb73 303e 1f83 5c3e 74ba 5bbe
00000380: a695 eebe 0efc 723e 36d3 133e 76e4 b0be
00000390: 182e d3be 42a9 7c3d ae20 c7bd 4734 25bd
000003a0: 5029 dfbe b81f a03e a072 d53e 5abe 7abf
000003b0: f437 1a3e b71c 9abe 74f0 c7be a44e 17bf
000003c0: f06c 1dbf 2ecc 003f 01a5 243e 0e5e 03be
000003d0: 4f48 023f faea cebe ccfe 69be 7d0e 24bd
000003e0: 2971 0cbe 862c e4be c38d c23d bc2c 413f
000003f0: 2b0b 18bd e87d a33e 5ad9 9fbe cab8 763e

network_body.linear_encoder.seq_layers.0.bias f4 [128]
0.0 0.0 0.0 0.0 0.0 0.0 0.0 0.0
0.0 0.0 0.0 0.0 0.0 0.0 0.0 0.0
0.0 0.0 0.0 0.0 0.0 0.0 0.0 0.0
0.0 0.0 0.0 0.0 0.0 0.0 0.0 0.0
0.0 0.0 0.0 0.0 0.0 0.0 0.0 0.0
0.0 0.0 0.0 0.0 0.0 0.0 0.0 0.0
0.0 0.0 0.0 0.0 0.0 0.0 0.0 0.0
0.0 0.0 0.0 0.0 0.0 0.0 0.0 0.0
0.0 0.0 0.0 0.0 0.0 0.0 0.0 0.0
0.0 0.0 0.0 0.0 0.0 0.0 0.0 0.0
0.0 0.0 0.0 0.0 0.0 0.0 0.0 0.0
0.0 0.0 0.0 0.0 0.0 0.0 0.0 0.0
0.0 0.0 0.0 0.0 0.0 0.0 0.0 0.0
0.0 0.0 0.0 0.0 0.0 0.0 0.0 0.0
0.0 0.0 0.0 0.0 0.0 0.0 0.0 0.0
0.0 0.0 0.0 0.0 0.0 0.0 0.0 0.0
00000000: 0000 0000 0000 0000 0000 0000 0000 0000
00000010: 0000 0000 0000 0000 0000 0000 0000 0000
00000020: 0000 0000 0000 0000 0000 0000 0000 0000
00000030: 0000 0000 0000 0000 0000 0000 0000 0000
00000040: 0000 0000 0000 0000 0000 0000 0000 0000
00000050: 0000 0000 0000 0000 0000 0000 0000 0000
00000060: 0000 0000 0000 0000 0000 0000 0000 0000
00000070: 0000 0000 0000 0000 0000 0000 0000 0000
00000080: 0000 0000 0000 0000 0000 0000 0000 0000
00000090: 0000 0000 0000 0000 0000 0000 0000 0000
000000a0: 0000 0000 0000 0000 0000 0000 0000 0000
000000b0: 0000 0000 0000 0000 0000 0000 0000 0000
000000c0: 0000 0000 0000 0000 0000 0000 0000 0000
000000d0: 0000 0000 0000 0000 0000 0000 0000 0000
000000e0: 0000 0000 0000 0000 0000 0000 0000 0000
000000f0: 0000 0000 0000 0000 0000 0000 0000 0000
00000100: 0000 0000 0000 0000 0000 0000 0000 0000
00000110: 0000 0000 0000 0000 0000 0000 0000 0000
00000120: 0000 0000 0000 0000 0000 0000 0000 0000
00000130: 0000 0000 0000 0000 0000 0000 0000 0000
00000140: 0000 0000 0000 0000 0000 0000 0000 0000
00000150: 0000 0000 0000 0000 0000 0000 0000 0000
00000160: 0000 0000 0000 0000 0000 0000 0000 0000
00000170: 0000 0000 0000 0000 0000 0000 0000 0000
00000180: 0000 0000 0000 0000 0000 0000 0000 0000
00000190: 0000 0000 0000 0000 0000 0000 0000 0000
000001a0: 0000 0000 0000 0000 0000 0000 0000 0000
000001b0: 0000 0000 0000 0000 0000 0000 0000 0000
000001c0: 0000 0000 0000 0000 0000 0000 0000 0000
000001d0: 0000 0000 0000 0000 0000 0000 0000 0000
000001e0: 0000 0000 0000 0000 0000 0000 0000 0000
000001f0: 0000 0000 0000 0000 0000 0000 0000 0000

network_body.linear_encoder.seq_layers.2.weight f4 [128, 128]
0.12429963 -0.027128868 0.008717616 0.08355615 0.02815411 -0.023346711 0.0350629 -0.07862836
-0.058002535 -0.17359641 -0.046075214 -0.009672302 0.022477973 -0.04966682 -0.12141971 -0.009297186
0.088414475 0.1477132 -0.09434535 0.09758808 -0.03142806 0.002058339 0.022217873 -0.040367078
0.04232662 0.046846583 -0.11006309 0.19354726 0.09314854 0.012359119 0.11972121 0.03707292
0.14196128 -0.118575096 0.008638024 0.11050402 -0.018795602 0.0019256776 -0.044335444 0.018784827
0.03820658 0.023926685 -0.122633494 0.014216146 -0.023835544 0.09664357 0.03934386 0.06877247
-0.06410629 -0.13797618 -0.038800057 0.043913286 0.10423041 0.17568348 -0.075900905 -0.04577056
-0.1248948 0.15465868 -0.1866572 -0.043471236 0.0022113924 -0.049751125 -0.043179147 0.080775775
-0.09379806 -0.01761299 0.07243073 -0.08827521 0.03918731 -0.06947323 0.098413214 -0.09015503
0.10165517 -0.05857357 -0.04704791 0.0134883225 0.07877899 0.10125934 -0.029322261 -0.0108561115
0.08571897 0.025951218 0.105314985 0.03829074 -0.104010336 -0.09692881 0.008158249 0.16250987
0.1606865 -0.060869284 -0.023559606 -0.019003578 0.030922014 0.14729029 -0.08881883 -0.022796838
0.023821855 0.039877657 -0.010586044 0.07524431 -0.047035117 -0.09815761 -0.04691839 -0.03669003
0.05088372 0.06733217 0.115686245 0.22176392 -0.09485829 0.1418376 -0.06909347 0.115198664
0.0049782908 -0.010574849 -0.0600766 -0.07677138 -0.07590329 -0.10450275 -0.04037953 0.04106826
-0.029821761 -0.14868599 -0.030418158 -0.0077663423 0.07691935 -0.0874726 0.10663308 0.11732978
0.002269892 0.010856632 0.14757344 0.018635346 0.08526542 0.053625453 -0.00054611743 0.063766345
-0.17003112 -0.14525235 0.10066948 0.15553118 0.023402719 0.078193 0.12967676 0.06715404
0.069405206 -0.024850864 0.028563026 0.07245145 -0.036215402 -0.07791 -0.0067741517 0.026068592
-0.074038774 0.024500906 -0.15621452 -0.042595502 0.015452542 0.089302205 0.026258266 -0.09248827
-0.15740727 0.01869951 0.026981827 0.045499656 0.014645838 -0.10661398 0.057734422 0.050666764
-0.07711276 0.070694394 0.08406043 0.052909277 0.003516772 0.063152194 -0.046171434 -0.16426244
-0.0044406494 0.0949771 0.01690862 -0.12913169 0.04799483 -0.04537618 0.14329395 -0.029170789
-0.043072928 -0.023126792 -0.034225594 -0.075907275 0.12008387 0.037974756 -0.10760612 0.0443666
-0.07535951 0.12412006 -0.09601271 0.04005674 -0.008311204 -0.078500845 0.23821713 -0.000987842
0.036262687 0.113547035 0.008246666 -0.022559332 0.14358662 -0.088390835 -0.007476457 -0.005299103
0.117437184 0.0244079 0.05361272 -0.029650303 -0.075215146 -0.013858147 -0.130053 -0.0035462498
-0.0636572 -0.10243708 -0.02504991 -0.19422905 0.03793867 -0.029512454 0.010100647 -0.08541633
0.057663098 -0.024205333 -0.023828669 -0.015357859 0.22316939 0.1615073 -0.073436335 0.079695456
0.026995918 0.060121924 0.05459955 -0.0018103697 -0.23011117 0.18444943 -0.027973821 0.09065486
0.12891088 0.076474205 -0.22961411 -0.069812804 -0.028766096 0.04950644 -0.08801095 -0.13673495
-0.016950058 0.030718848 0.027163288 0.044724386 0.08357251 -0.08561481 -0.034297004 -0.095916614
00000000: ce90 fe3d 5c3d debc 55d4 0e3c 7d1f ab3d
00000010: 73a3 e63c 9a41 bfbc 1e9e 0f3d e807 a1bd
00000020: 1194 6dbd 42c3 31be 5db9 3cbd 9378 1ebc
00000030: ba23 b83c 6f6f 4bbd e6aa f8bd 3953 18bc
00000040: a612 b53d 2142 173e 2338 c1bd 42dc c73d
00000050: b6ba 00bd 33e5 063b 4202 b63c f357 25bd
00000060: ae5e 2d3d 34e2 3f3d c268 e1bd 4131 463e
00000070: a9c4 be3d e77d 4a3c 6530 f53d c6d9 173d
00000080: 4c5e 113e 80d7 f2bd 8086 0d3c ee4f e23d
00000090: 3cf9 99bc 0567 fc3a 1599 35bd a3e2 993c
000000a0: 817e 1c3d e501 c43c 4527 fbbd d7ea 683c
000000b0: c242 c3bc 10ed c53d 0727 213d 95d8 8c3d
000000c0: 294a 83bd a149 0dbe cfec 1ebd 6bde 333d
000000d0: c176 d53d 5fe6 333e ef71 9bbd e979 3bbd
000000e0: d8c8 ffbd d85e 1e3e 1123 3fbe e50e 32bd
000000f0: 02ed 103b d6c7 4bbd 9edc 30bd c56d a53d
00000100: 3319 c0bd 1e49 90bc 9056 943d a2c9 b4bd
00000110: df82 203d fb47 8ebd de8c c93d 33a3 b8bd
00000120: 9630 d03d d7ea 6fbd 4fb5 40bd 20fe 5c3c
00000130: e156 a13d 0f61 cf3d 3d35 f0bc d5dd 31bc
00000140: 6d8d af3d a697 d43c 62af d73d c0d6 1c3d
00000150: 5f03 d5bd 9d82 c6bd 2daa 053c fd68 263e
00000160: 008b 243e 1252 79bd 1300 c1bc 64ad 9bbc
00000170: 2a50 fd3c 44d3 163e a6e6 b5bd 6fc0 babc
00000180: 0d26 c33c c156 233d 1671 2dbc b019 9a3d
00000190: e5a7 40bd db06 c9bd 7f2d 40bd 4948 16bd
000001a0: 736b 503d 73e5 893d e9ec ec3d 1516 633e
000001b0: 1045 c2bd e03d 113e e180 8dbd 47ed eb3d
000001c0: ee20 a33b 2242 2dbc e212 76bd 503a 9dbd
000001d0: 2f73 9bbd 8a05 d6bd 0265 25bd 3137 283d
000001e0: c44c f4bc 2441 18be 802f f9bc cd7c febb
000001f0: e487 9d3d d624 b3bd 7262 da3d 984a f03d
00000200: 78c2 143b 04e0 313c 7e1d 173e 27a9 983c
00000210: a39f ae3d 5da6 5b3d 5229 0fba ee97 823d
00000220: a31c 2ebe 08bd 14be cd2b ce3d 9143 1f3e
00000230: 0fb7 bf3c a723 a03d fcc9 043e 0f88 893d
00000240: 5124 8e3d 0a94 cbbc 02fd e93c 6d61 943d
00000250: 9a56 14bd 478f 9fbd b4f9 ddbb cd8d d53c
00000260: a4a1 97bd 20b6 c83c b3f6 1fbe 9f78 2ebd
00000270: a92c 7d3c 13e4 b63d 931b d73c 7d6a bdbd
00000280: 5f2f 21be b72f 993c fe08 dd3c d95d 3a3d
00000290: 19f5 6f3c 6e58 dabd ee7a 6c3d f487 4f3d
000002a0: 4bed 9dbd 39c8 903d e027 ac3d 66b7 583d
000002b0: a579 663b f055 813d 421e 3dbd 6a34 28be
000002c0: de82 91bb 5b83 c23d f283 8a3c 193b 04be
000002d0: 3a96 443d 60dc 39bd a6bb 123e 94f7 eebc
000002e0: 3d6d 30bd 6674 bdbc 2330 0cbd 4675 9bbd
000002f0: 88ee f53d 6b8b 1b3d 9960 dcbd c1b9 353d
00000300: 1656 9abd a832 fe3d 50a2 c4bd 8912 243d
00000310: b72b 08bc 0dc5 a0bd 31ef 733e 7a7a 81ba
00000320: 2f88 143d 598b e83d 061d 073c 59ce b8bc
00000330: 5f08 133e 4106 b5bd 11fd f4bb 19a4 adbb
00000340: e882 f03d 14f3 c73c 0399 5b3d 31e5 f2bc
00000350: 660a 9abd 480d 63bc 9d2c 05be 3368 68bb
00000360: b55e 82bd 88ca d1bd 7835 cdbc fbe3 46be
00000370: 9465 1b3d 1ac4 f1bc 2f7d 253c c2ee aebd
00000380: 2430 6c3d 434a c6bc 5734 c3bc 889f 7bbc
00000390: 8486 643e 2b62 253e ca65 96bd 5f37 a33d
000003a0: 8b26 dd3c 6842 763d c7a3 5f3d ed49 edba
000003b0: 43a2 6bbe 50e0 3c3e 5b29 e5bc 41a9 b93d
000003c0: 3701 043e 829e 9c3d f61f 6bbe 04fa 8ebd
000003d0: e0a6 ebbc 44c7 4a3d 163f b4bd 3f04 0cbe
000003e0: d9da 8abc 18a6 fb3c 8b85 de3c eb30 373d
000003f0: 1028 ab3d d156 afbd 047b 0cbd ee6f c4bd

network_body.linear_encoder.seq_layers.2.bias f4 [128]
0.0 0.0 0.0 0.0 0.0 0.0 0.0 0.0
0.0 0.0 0.0 0.0 0.0 0.0 0.0 0.0
0.0 0.0 0.0 0.0 0.0 0.0 0.0 0.0
0.0 0.0 0.0 0.0 0.0 0.0 0.0 0.0
0.0 0.0 0.0 0.0 0.0 0.0 0.0 0.0
0.0 0.0 0.0 0.0 0.0 0.0 0.0 0.0
0.0 0.0 0.0 0.0 0.0 0.0 0.0 0.0
0.0 0.0 0.0 0.0 0.0 0.0 0.0 0.0
0.0 0.0 0.0 0.0 0.0 0.0 0.0 0.0
0.0 0.0 0.0 0.0 0.0 0.0 0.0 0.0
0.0 0.0 0.0 0.0 0.0 0.0 0.0 0.0
0.0 0.0 0.0 0.0 0.0 0.0 0.0 0.0
0.0 0.0 0.0 0.0 0.0 0.0 0.0 0.0
0.0 0.0 0.0 0.0 0.0 0.0 0.0 0.0
0.0 0.0 0.0 0.0 0.0 0.0 0.0 0.0
0.0 0.0 0.0 0.0 0.0 0.0 0.0 0.0
00000000: 0000 0000 0000 0000 0000 0000 0000 0000
00000010: 0000 0000 0000 0000 0000 0000 0000 0000
00000020: 0000 0000 0000 0000 0000 0000 0000 0000
00000030: 0000 0000 0000 0000 0000 0000 0000 0000
00000040: 0000 0000 0000 0000 0000 0000 0000 0000
00000050: 0000 0000 0000 0000 0000 0000 0000 0000
00000060: 0000 0000 0000 0000 0000 0000 0000 0000
00000070: 0000 0000 0000 0000 0000 0000 0000 0000
00000080: 0000 0000 0000 0000 0000 0000 0000 0000
00000090: 0000 0000 0000 0000 0000 0000 0000 0000
000000a0: 0000 0000 0000 0000 0000 0000 0000 0000
000000b0: 0000 0000 0000 0000 0000 0000 0000 0000
000000c0: 0000 0000 0000 0000 0000 0000 0000 0000
000000d0: 0000 0000 0000 0000 0000 0000 0000 0000
000000e0: 0000 0000 0000 0000 0000 0000 0000 0000
000000f0: 0000 0000 0000 0000 0000 0000 0000 0000
00000100: 0000 0000 0000 0000 0000 0000 0000 0000
00000110: 0000 0000 0000 0000 0000 0000 0000 0000
00000120: 0000 0000 0000 0000 0000 0000 0000 0000
00000130: 0000 0000 0000 0000 0000 0000 0000 0000
00000140: 0000 0000 0000 0000 0000 0000 0000 0000
00000150: 0000 0000 0000 0000 0000 0000 0000 0000
00000160: 0000 0000 0000 0000 0000 0000 0000 0000
00000170: 0000 0000 0000 0000 0000 0000 0000 0000
00000180: 0000 0000 0000 0000 0000 0000 0000 0000
00000190: 0000 0000 0000 0000 0000 0000 0000 0000
000001a0: 0000 0000 0000 0000 0000 0000 0000 0000
000001b0: 0000 0000 0000 0000 0000 0000 0000 0000
000001c0: 0000 0000 0000 0000 0000 0000 0000 0000
000001d0: 0000 0000 0000 0000 0000 0000 0000 0000
000001e0: 0000 0000 0000 0000 0000 0000 0000 0000
000001f0: 0000 0000 0000 0000 0000 0000 0000 0000

value_heads.value_heads.extrinsic.weight f4 [1, 128]
0.2151317 0.11847058 0.010307983 -0.017514542 0.16821578 0.018876955 -0.11621366 -0.003430888
-0.082467705 0.036514252 0.04927215 -0.13681898 -0.11371882 -0.05887407 0.06594911 -0.15813
0.10031146 -0.025428772 -0.018453956 -0.19428842 -0.19629598 -0.03795971 0.18104547 -0.1462525
0.16682658 0.20894665 0.069873124 -0.10660431 0.036309063 0.0411399 0.08289081 -0.06921527
0.015103877 0.15498072 0.08297965 0.110850245 -0.054823563 0.03239587 0.06178555 0.12849072
0.054048777 -0.19511145 -0.10344694 0.06607902 -0.052920952 -0.17769109 0.042283595 -0.18070263
0.043405414 -0.18595085 -0.033284366 0.20617744 -0.010592714 0.2013762 0.0055515915 -0.094670594
0.041027397 0.06431657 0.07358718 0.10615185 0.08316541 -0.09776068 -0.18891743 -0.009875581
0.15549815 -0.046406 -0.0502145 -0.037935466 0.1677227 0.17290843 0.092422605 -0.101412535
-0.17431566 0.0389508 0.12184933 0.10937023 -0.026092231 0.047944397 -0.09067984 0.13515517
0.08422941 0.19405735 0.0143800825 -0.14173727 0.03372027 0.1683484 0.05064869 0.073730886
0.11524746 0.11625925 0.20909956 -0.16909121 0.20093691 -0.14909264 -0.16495478 -0.065193474
0.03622812 0.060570568 -0.10588468 0.087553084 -0.06431027 -0.04460135 0.14030382 -0.122627005
-0.1474178 -0.19596636 -0.13284355 0.09149253 -0.03912653 0.14486659 0.05614835 -0.18399021
-0.07001069 -0.00498417 -0.046239123 -0.08965051 0.15456155 -0.16595513 0.15541795 -0.19740629
0.03157492 0.19827217 -0.048489705 -0.20036817 -0.15326177 -0.049212426 -0.13073158 -0.19077562
00000000: 7c4b 5c3e b4a0 f23d d0e2 283c a87a 8fbc
00000010: c240 2c3e d8a3 9a3c 6d01 eebd c0d8 60bb
00000020: d4e4 a8bd f88f 153d 98d1 493d 461a 0cbe
00000030: 6ae5 e8bd f025 71bd 5410 873d d5ec 21be
00000040: 1870 cd3d 0050 d0bc c02c 97bc 8bf3 46be
00000050: d001 49be a47b 1bbd fc63 393e 37c3 15be
00000060: 96d4 2a3e 1cf6 553e a419 8f3d 5c53 dabd
00000070: d0b8 143d 5082 283d a8c2 a93d bcc0 8dbd
00000080: 4076 773c 44b3 1e3e 3cf1 a93d 7405 e33d
00000090: ac8e 60bd 88b1 043d d812 7d3d 1293 033e
000000a0: 4062 5d3d 4ccb 47be fddb d3bd 7054 873d
000000b0: a4c3 58bd a7f4 35be 9031 2d3d 1c0a 39be
000000c0: e0c9 313d e669 3ebe 3055 08bd 2e20 533e
000000d0: 108d 2dbc 9035 4e3e 20ea b53b a8e2 c1bd
000000e0: 580c 283d 68b8 833d e0b4 963d 2466 d93d
000000f0: a052 aa3d c036 c8bd 9273 41be 30cd 21bc
00000100: e83a 1f3e 3814 3ebd b8ad 4dbd 3862 1bbd
00000110: 80bf 2b3e e80e 313e 1048 bd3d 60b1 cfbd
00000120: ce7f 32be e08a 1f3d 248c f93d 80fd df3d
00000130: 60bf d5bc 5861 443d 5ab6 b9bd 1e66 0a3e
00000140: 7880 ac3d f8b6 463e 709a 6b3c 9323 11be
00000150: 441e 0a3d 8663 2c3e 0075 4f3d 3800 973d
00000160: dc06 ec3d 5419 ee3d 321e 563e 3f26 2dbe
00000170: 68c2 4d3e beab 18be e8e9 28be 2884 85bd
00000180: f063 143d d818 783d 11da d8bd 084f b33d
00000190: 1ab5 83bd e8af 36bd ceab 0f3e de23 fbbd
000001a0: b1f4 16be 68ab 48be 2408 08be 7060 bb3d
000001b0: 2443 20bd e857 143e d0fb 653d ee67 3cbe
000001c0: c461 8fbd 4052 a3bb 3c65 3dbd b09a b7bd
000001d0: 6245 1e3e 24f0 29be e225 1f3e e024 4abe
000001e0: b454 013d dc07 4b3e 249d 46bd 502d 4dbe
000001f0: a7f0 1cbe f892 49bd 80de 05be af5a 43be
