UnityController/results/alex/MoveToGoal/MoveToGoal-202984.onnx (onnx, 77049 bytes, 6 tensors)

action_model._discrete_distribution.branches.0.bias f4 [7]
0.009689247 -0.009410259 -0.0018378297 0.021948034 0.0025754082 -0.009816215 -0.011514955
00000000: a6bf 1e3c 7d2d 1abc 55e3 f0ba 5dcc b33c
00000010: 2ec8 283b 31d4 20bc 39a9 3cbc

action_model._discrete_distribution.branches.0.weight f4 [7, 128]
-0.0053297067 0.005961392 0.015575483 -0.0055330405 0.0062912353 0.002429131 0.011127776 0.017069066
0.015439286 -0.039053947 0.013418181 0.01816377 0.004208881 0.016511394 0.002795022 -0.0063561127
-0.0048055965 0.005315868 -0.00982309 0.0145794265 0.00850762 -0.008078185 0.0092773475 -0.011832925
0.011509371 -0.0034709836 -0.00019679393 -0.023787908 0.0020565887 0.0065594004 0.0041150185 -0.012063925
-0.00320557 -0.016323954 0.009034702 0.012339687 0.004826509 0.016992006 -0.0019348888 -0.0025694002
-0.012478037 0.0024742894 -0.00080404646 -0.008244392 0.0047169924 -0.0017895346 0.0023233981 -0.007998375
0.015995597 -0.0076668267 -0.012814689 0.014132203 -0.009128702 -0.002173265 0.00044968666 0.0032366589
0.0044300873 0.014544663 -0.025256842 -0.008590055 0.0024529996 -0.00826601 0.022525297 -0.008728805
-0.00075924606 0.0058567803 -0.0065077306 -0.013277313 -0.01793869 0.0058275093 0.013761795 -0.0057646716
-0.008846387 -0.016445858 -0.022695139 -0.010982559 -0.009401857 0.014518518 0.012024999 -0.0046190647
0.024386438 -0.013356221 -0.007785802 -0.01067975 -0.0027080402 -0.004326834 0.011347365 0.019251999
-0.0077320486 0.006860644 0.0019728024 0.013186383 0.0038266764 -0.0012272826 0.01744102 0.0033433244
-0.008957363 -0.0013074713 -0.016513744 0.013279476 0.0027574415 -0.012917889 0.0026895483 -0.015041181
0.010146538 -0.008404598 0.017155739 -0.03160178 0.005734655 -0.004721089 0.008656614 0.006080391
0.0058748135 -0.013483419 0.013253978 0.014346865 -0.037869792 -0.018406328 -0.0048715067 -0.0030634392
0.012684771 0.013916605 -0.002930518 -0.0024533987 -0.0063754655 0.005863371 0.009319771 -0.015003781
-0.004457623 0.012090516 -0.010385922 0.007681232 0.001701544 0.004284142 0.016376238 -0.021428078
0.0039641215 -0.004750791 -0.00051230413 0.021742763 -0.01283936 -0.0052496656 -0.010311616 -0.0066373213
0.03337118 -0.017986052 -0.009256445 0.007172193 -0.032785762 -0.008438593 0.011178153 0.028772244
-0.015277286 -0.009913174 -0.0045135138 0.032072593 -0.0017306757 -0.046198744 0.026118333 0.01732977
-0.013530228 -0.015098947 0.009688323 -0.016510375 -0.0034627947 -0.0047477093 -0.0020306606 0.018610673
-0.00091111654 -0.021215653 -0.016911317 0.013587904 -0.003348423 -0.013158048 0.0005525333 -0.029930087
0.013545957 0.0034809308 -0.023593307 -0.020326165 0.011797398 -0.006925081 0.004932397 -0.009172584
0.022652311 0.016585987 0.010038718 -0.0020900879 -0.007529251 0.005101336 0.0064924117 0.0014151938
-0.006196635 0.016713323 -0.00344154 0.0032209007 -0.017832559 0.025322871 0.0030412048 -0.014173842
-0.008473459 0.0069385837 0.015093923 0.012209391 0.012440159 0.0031881211 -0.0047427956 -0.0073381453
-0.00052756886 -0.011847424 0.009440643 0.020642439 0.0011961284 -0.008966237 0.030423675 0.014249924
0.0027246717 -0.011844754 0.0038900876 -0.0032710158 -0.0019696897 -0.009798567 -0.008401008 -0.015974985
-0.01587697 0.018116357 0.019868378 -0.02726708 -0.005274249 -0.01950758 -0.015883496 -0.009744316
0.025519382 -0.0033295227 -0.0028615259 -0.005019311 0.012285978 -0.03433099 -0.010607796 -0.014276773
0.023393532 -0.022563143 -0.021106355 0.014069608 0.01741584 0.008682285 -0.0151895005 -0.00018297786
0.037048433 0.02234854 0.030551555 0.039903417 0.0043005445 0.020284861 0.0034555008 0.0063896445
00000000: d2a4 aebb c857 c33b 5030 7f3c 824e b5bb
00000010: b526 ce3b 0e32 1f3b 4651 363c 6dd4 8b3c
00000020: 0ff5 7c3c 08f7 1fbd eed7 5b3c 30cc 943c
00000030: a7ea 893b e742 873c b02c 373b f046 d0bb
00000040: 4478 9dbb bc30 ae3b 07f1 20bc 8cde 6e3c
00000050: 8b63 0b3c 5d5a 04bc 0400 183c e2de 41bc
00000060: cd91 3c3c 7179 63bb 785a 4eb9 dcde c2bc
00000070: d5c7 063b 3df0 d63b 47d7 863b c5a7 45bc
00000080: 8a14 52bb d0b9 85bc 4906 143c 662c 4a3c
00000090: b127 9e3b d232 8b3c 189c fdba 6263 28bb
000000a0: ae70 4cbc b027 223b a5c6 52ba 7d13 07bc
000000b0: 0091 9a3b d18e eaba 2744 183b 9e0b 03bc
000000c0: 3309 833c 013a fbbb b4f4 51bc c18a 673c
000000d0: 8d90 15bc 566d 0ebb ecc3 eb39 201e 543b
000000e0: 442a 913b bd4c 6e3c 70e7 cebc 4dbd 0cbc
000000f0: 81c2 203b 296e 07bc f986 b83c 4303 0fbc
00000100: 2408 47ba 3cea bf3b cd3e d5bb 1689 59bc
00000110: 29f4 92bc b1f4 be3b 2779 613c 92e5 bcbb
00000120: 70f0 10bc 77b9 86bc 28eb b9bc 31f0 33bc
00000130: 3f0a 1abc 14df 6d3c 8004 453c 865b 97bb
00000140: 11c6 c73c 0dd4 5abc 0a20 ffbb 1efa 2ebc
00000150: 6079 31bb 1dc8 8dbb 4cea 393c 5eb6 9d3c
00000160: 205d fdbb 41cf e03b 224a 013b b30b 583c
00000170: fac8 7a3b c5dc a0ba 78e0 8e3c ad1b 5b3b
00000180: e7c1 12bc 755f abba d547 87bc 2992 593c
00000190: 31b6 343b 8ea5 53bc 2243 303b 496f 76bc
000001a0: aa3d 263c 70b3 09bc 318a 8c3c de70 01bd
000001b0: c6e9 bb3b 5db3 9abb 79d4 0d3c 043e c73b
000001c0: 8281 c03b 8fe9 5cbc 3727 593c 1d0f 6b3c
000001d0: 5b1d 1bbd dec8 96bc 29a1 9fbb fbc3 48bb
000001e0: c9d3 4f3c 7902 643c ef0d 40bb 33c9 20bb
000001f0: 48e9 d0bb 8521 c03b f4b1 183c 6bd2 75bc
00000200: 4111 92bb 4d17 463c b729 2abc d8b2 fb3b
00000210: 5806 df3a fd61 8c3b 7627 863c f089 afbc
00000220: 76e5 813b 86ac 9bbb 264c 06ba e11d b23c
00000230: 2e5c 52bc 6305 acbb 0df2 28bc e37d d9bb
00000240: 38b0 083d 7c57 93bc 58a8 17bc b704 eb3b
00000250: 5d4a 06bd 0642 0abc 9224 373c c5b3 eb3c
00000260: 954d 7abc de6a 22bc 19e6 93bb 8d5e 033d
00000270: d7d7 e2ba e53a 3dbd 1df6 d53c 29f7 8d3c
00000280: e4ad 5dbc 9361 77bc c6bb 1e3c c440 87bc
00000290: 0ef0 62bb ac92 9bbb d514 05bb 6975 983c
000002a0: ffd7 6eba 73cc adbc 9a89 8abc cd9f 5e3c
000002b0: 3771 5bbb da94 57bc e2d7 103a f12f f5bc
000002c0: ddef 5d3c 5420 643b c046 c1bc 0f83 a6bc
000002d0: e049 413c caeb e2bb f29f a13b 9b48 16bc
000002e0: 5791 b93c 56df 873c 6f79 243c dbf9 08bb
000002f0: efb7 f6bb 1c29 a73b 4cbe d43b 067e b93a
00000300: 240d cbbb 61ea 883c 768b 61bb bf15 533b
00000310: 9615 92bc e971 cf3c f34e 473b 6739 68bc
00000320: 43d4 0abc 0f5d e33b 804c 773c e609 483c
00000330: cfd1 4b3c ccef 503b 7469 9bbb d374 f0bb
00000340: 8c4c 0aba b31b 42bc edac 1a3c 551a a93c
00000350: 69c7 9c3a 20e7 12bc 123b f93c 8378 693c
00000360: 6890 323b 8010 42bc d7f0 7e3b 8a5e 56bb
00000370: e915 01bb 2b8a 20bc 62a4 09bc f9dd 82bc
00000380: 6b10 82bc c168 943c 02c3 a23c 365f dfbc
00000390: 9bd3 acbb 5cce 9fbc 1b1e 82bc a0a6 1fbc
000003a0: 060e d13c 1f34 5abb 7088 3bbb 0879 a4bb
000003b0: 204b 493c a79e 0cbd 52cc 2dbc 20e9 69bc
000003c0: cba3 bf3c 57d6 b8bc 3ce7 acbc 3784 663c
000003d0: aaab 8e3c 2540 0e3c 62dd 78bc bfdd 3fb9
000003e0: 19c0 173d 4914 b73c 4147 fa3c c471 233d
000003f0: 95eb 8c3b 702c a63c af75 623b 3960 d13b

network_body.linear_encoder.seq_layers.0.bias f4 [128]
0.037907194 -0.0153741045 -0.011233788 0.005475598 -0.00020780473 -0.001470227 0.013434651 -0.013650484
0.0050714244 0.0147953415 0.03725481 0.002305315 -0.008029999 -0.0096131945 0.010366233 0.0024434754
0.015903706 0.028538698 0.020405617 -0.003310604 0.016038148 -0.013930693 0.0046522473 0.017436463
0.002930772 -0.000316403 -0.00031655226 0.004337731 -0.020049185 0.014221258 0.015880717 0.0049787303
0.026115952 0.016180417 0.02221786 0.013991494 0.035745528 0.019340444 -0.012597515 0.024940297
0.017699216 0.008499391 0.017023895 -0.005833773 -0.011075332 -0.007546735 0.010860805 -0.0006207622
0.011329574 0.0046598646 -0.012116471 0.015612469 0.018085089 0.022573113 0.0060953167 -0.012266094
-0.008452649 0.006879946 0.021348037 0.01659041 -0.004517114 -0.022736648 0.022020642 0.0041297986
-0.0014791285 0.0072542946 0.0054186666 0.0052253995 0.012126278 -0.004729612 -0.0028163358 0.012612055
0.0052208724 -0.003538103 0.01104477 0.00924128 -0.009181073 0.0053008846 -0.0019422439 0.013544325
0.010340569 0.008445546 -0.005446724 0.014649392 0.0031192573 0.005206772 0.005000347 0.011267264
0.026556976 0.011327907 0.01774555 0.008061721 -0.006687548 0.00038395004 0.0037257443 0.005181225
-0.008673567 0.011642753 -0.003078178 0.025020739 -0.008225972 0.019477416 0.023396006 0.010545566
0.018573113 0.01146878 0.019218838 0.0027198691 0.00821237 0.021243738 0.01747067 -0.00071548193
0.024270928 -0.0039919983 0.008108726 0.0041111293 0.009026707 0.008504767 0.0017640766 0.014152886
0.032871954 -0.008306928 -0.0012170292 0.005190677 0.0019840964 0.02986916 0.0006432197 0.009189673
00000000: 9344 1b3d abe3 7bbc ec0d 38bc a56c b33b
00000010: 28e6 59b9 a2b4 c0ba 031d 5c3c 48a6 5fbc
00000020: 312e a63b 2968 723c 8098 183d c514 173b
00000030: 4290 03bc a980 1dbc 22d7 293c b722 203b
00000040: 7d48 823c fdc9 e93c ae29 a73c b8f6 58bb
00000050: 6f62 833c 903d 64bc e171 983b ead6 8e3c
00000060: 3212 403b e4e2 a5b9 edf6 a5b9 8623 8e3b
00000070: 303e a4bc 4800 693c 4718 823c 9e24 a33b
00000080: 1ff1 d53c cb8c 843c 3b02 b63c 943c 653c
00000090: e769 123d da6f 9e3c cf65 4ebc 984f cc3c
000000a0: f2fd 903c 0841 0b3c b275 8b3c 3c29 bfbb
000000b0: 4f75 35bc 9a4a f7bb 85f1 313c a5ba 22ba
000000c0: ad9f 393c c7b1 983b 2a84 46bc 71cb 7f3c
000000d0: 2e27 943c 40eb b83c 39bb c73b baf7 48bc
000000e0: fb7c 0abc 2c71 e13b 14e2 ae3c 9de8 873c
000000f0: 4c04 94bb 3542 babc a264 b43c 4353 873b
00000100: 51df c1ba 6fb5 ed3b 128f b13b d439 ab3b
00000110: 4cad 463c dcfa 9abb 4692 38bb cba2 4e3c
00000120: da13 ab3b 85df 67bb 1ff5 343c bd68 173c
00000130: 366c 16bc 0bb3 ad3b e492 feba 04e9 5d3c
00000140: 7d6b 293c 305f 0a3c 6f7a b2bb 0104 703c
00000150: 746c 4c3b 929d aa3b f3d9 a33b 559a 383c
00000160: 048e d93c b098 393c 1e5f 913c 4f15 043c
00000170: 3823 dbbb e74c c939 9e2b 743b 44c7 a93b
00000180: 941b 0ebc 3fc1 3e3c 42bb 49bb 4bf8 cc3c
00000190: 3ac6 06bc 1a8f 9f3c fba8 bf3c 4fc7 2c3c
000001a0: a426 983c 8de7 3b3c d370 9d3c d53f 323b
000001b0: 2d8d 063c 5907 ae3c a71e 8f3c 2e8f 3bba
000001c0: d3d3 c63c 4fcf 82bb 76da 043c a7b6 863b
000001d0: c1e4 133c 9457 0b3c 9738 e73a 82e1 673c
000001e0: bea4 063d c819 08bc b984 9fba 8e16 aa3b
000001f0: 9d07 023b 2bb0 f43c be9d 283a 4890 163c

network_body.linear_encoder.seq_layers.0.weight f4 [128, 9]
0.06077684 -0.8231365 0.6961476 -0.17029455 -0.19449064 -0.078506246 -0.3503076 0.011512123
-0.005225061 0.17970234 -0.1303265 -0.073751934 0.1274641 -0.84080887 0.07981487 0.27486667
0.53399974 0.03048716 0.0037752024 0.76984715 0.014010526 -0.44570473 0.041934468 -0.22608681
-0.2626828 -0.8637242 -0.3641163 0.019821288 -0.7442063 -0.61508507 -0.4448975 0.09647909
-0.13859119 0.10643656 -0.04660408 -0.1928695 -0.22043517 -0.0649983 -0.4044805 0.56525147
-0.43967488 -0.2649086 -0.543375 0.40836096 0.19782385 -0.52462775 0.56487954 -0.06790741
-0.23547356 -0.1615086 -0.58899724 -0.35506424 0.10285635 -0.76152253 -0.077247724 0.01208798
0.08092753 -0.08123081 -0.055443518 -0.14391424 0.2558069 0.11166804 -0.084557995 0.27319604
-0.068727106 0.0108237555 0.3973877 -0.29342937 0.17093685 -0.26652756 0.04184956 -0.63273346
-0.018170204 -0.041764203 -0.21398921 0.14105198 0.065887935 0.21064064 -0.3984223 -0.0068539632
-0.0393411 -0.053088356 0.3303803 0.26774454 -0.32012427 -0.36040124 0.118612245 0.18891521
0.2216897 -0.45434633 0.010653374 0.539901 -0.029711444 -0.57802695 0.26902172 -0.30670413
0.53098565 -0.2757184 0.3175335 0.575241 -0.095355235 -0.09333956 0.65548843 0.09717859
0.35385528 -0.58580345 0.090809405 -0.04084595 0.48007238 -0.45830044 0.021792995 0.1991298
-0.21642543 -0.049107574 0.71143657 0.16246955 0.109511115 -0.36276442 -0.012544775 -0.19648065
0.2732603 -0.07352803 0.33626089 0.3036491 -0.025856495 -0.26237547 -0.17606229 0.47623342
-0.32255 0.16190735 -0.38819474 0.26674134 0.19135703 -0.40206277 0.16460568 -0.4207718
-0.71840465 0.11040674 -0.18206128 -0.2007535 -0.4769583 -0.33954206 0.33357906 0.2745012
0.36484972 -0.34031928 0.6642838 0.17436674 0.42860708 -0.15668288 -0.40463606 -0.31599638
-0.46206594 -0.598814 0.08678959 0.13175674 -0.6077759 0.21014328 -0.018001823 0.538767
0.51276314 0.8810159 0.26108032 0.32176694 0.08570855 0.0776415 -0.3491828 -0.09090543
-0.087096475 0.1287447 -0.14815733 0.4524003 0.11110741 0.47921127 -0.29855472 -0.07272756
0.026666753 -0.37933984 0.30764034 -0.5549999 -0.6387324 0.08056891 -0.66637003 -0.27461776
-0.19587453 0.05373502 0.28256544 -0.549542 0.14351557 -0.16146989 0.029833745 0.3108325
0.24407306 -0.12118088 -0.4396654 0.31406125 -0.032586604 -0.5719361 0.6930437 0.31177786
-0.17156456 0.3381335 0.33533475 -0.03455807 0.1206003 0.19844082 -0.1746497 0.27626818
-0.11174354 0.5380597 -0.035867374 -0.072444975 0.5137001 0.7719508 0.1778912 0.13964957
0.40400946 0.29010442 0.35481462 -0.28719166 0.08809766 -0.045882907 -0.22367498 0.16205904
0.3609099 0.66177654 0.16623445 0.43879017 0.8441457 -0.22546297 -0.043703638 -0.022330776
-0.11997573 0.3296702 0.069658644 -0.39811543 -0.21524866 -0.15038523 -0.030632159 0.6622975
0.04979352 -0.076053225 0.3195503 0.4615626 0.5064125 -0.3457792 -0.32325357 0.39879736
-0.08673355 0.016033066 -0.09544116 0.48761484 0.5508123 0.42685065 0.08789833 0.09011606
00000000: 23f1 783d 13b9 52bf bb36 323f b261 2ebe
00000010: 8e28 47be e2c7 a0bd 855b b3be 589d 3c3c
00000020: fd36 abbb e403 383e 4f74 05be 410b 97bd
00000030: f385 023e 403f 57bf fb75 a33d 53bb 8c3e
00000040: 35b4 083f 35c0 f93c 6369 773b b414 453f
00000050: 688c 653c 6933 e4be 7ac3 2b3d 4d83 67be
00000060: 5c7e 86be 071d 5dbf 746d babe 4160 a23c
00000070: 4e84 3ebf 3776 1dbf 9bc9 e3be d496 c53d
00000080: d9ea 0dbe 69fb d93d ebe3 3ebd 957f 45be
00000090: c2b9 61be d41d 85bd 1118 cfbe 52b4 103f
000000a0: 111d e1be 1aa2 87be a01a 0bbf b014 d13e
000000b0: 5692 4a3e 014e 06bf f29b 103f 0a13 8bbd
000000c0: fb1f 71be 8362 25be 86c8 16bf fbca b5be
000000d0: 5aa6 d23d 24f3 42bf 0e34 9ebd aa0c 463c
000000e0: 55bd a53d 575c a6bd be18 63bd 415e 13be
000000f0: 1ff9 823e 37b2 e43d be2c adbd 5ae0 8b3e
00000100: ccc0 8cbd 1f56 313c 6776 cb3e 603c 96be
00000110: 120a 2f3e 4d76 88be 726a 2b3d d2fa 21bf
00000120: aed9 94bc f110 2bbd fd1f 5bbe ee6f 103e
00000130: 41f0 863d 2eb2 573e 02fe cbbe 3697 e0bb
00000140: 2224 21bd 2d73 59bd 9b27 a93e d015 893e
00000150: 54e7 a3be 8386 b8be faea f23d fd72 413e
00000160: a002 633e 15a0 e8be 7d8b 2e3c f436 0a3f
00000170: 6a65 f3bc 93f9 13bf 37bd 893e 5308 9dbe
00000180: adee 073f f62a 8dbe c093 a23e ff42 133f
00000190: 9b49 c3bd d028 bfbd 17ce 273f 9205 c73d
000001a0: 852c b53e 37f7 15bf 48fa b93d 154e 27bd
000001b0: 0ccc f53e 5ba6 eabe 3987 b23c afe8 4b3e
000001c0: a19e 5dbe 0625 49bd b520 363f 6b5e 263e
000001d0: 5d47 e03d 42bc b9be 9a88 4dbc 3932 49be
000001e0: c6e8 8b3e dd95 96bd 632a ac3e e577 9b3e
000001f0: 00d1 d3bc 1456 86be ac49 34be ded4 f33e
00000200: 4625 a5be 0acb 253e 76c1 c6be 5292 883e
00000210: 19f3 433e 2cdb cdbe 648e 283e 676f d7be
00000220: 5ee9 37bf ee1c e23d 466e 3abe 5392 4dbe
00000230: e133 f4be 75d8 adbe e0ca aa3e 6c8b 8c3e
00000240: 95cd ba3e 543e aebe 810e 2a3f 328d 323e
00000250: 6372 db3e 7a71 20be 752c cfbe 47ca a1be
00000260: e893 ecbe e04b 19bf bebe b13d 3deb 063e
00000270: 3497 1bbf cd2f 573e 8f78 93bc a2ec 093f
00000280: 7244 033f 428a 613f 52ac 853e a3be a43e
00000290: f787 af3d 8202 9f3d 17c8 b2be a02c babd
000002a0: a35f b2bd a7d5 033e 8eb6 17be 03a1 e73e
000002b0: 488c e33d 2e5b f53e 2adc 98be 30f2 94bd
000002c0: 3c74 da3c d538 c2be 0983 9d3e 7914 0ebf
000002d0: f783 23bf 5001 a53d 3a97 2abf b39a 8cbe
000002e0: 5593 48be 4119 5c3d 6bac 903e c9ae 0cbf
000002f0: bff5 123e 5d58 25be e665 f43c 7025 9f3e
00000300: 4aee 793e ae2d f8bd d31b e1be a3cc a03e
00000310: 8879 05bd 676a 12bf 506b 313f 59a1 9f3e
00000320: 9fae 2fbe d61f ad3e ffb0 ab3e c38c 0dbd
00000330: 4afd f63d 1234 4b3e 5fd7 32be 0673 8d3e
00000340: ccd9 e4bd 48be 093f abe9 12bd 085e 94bd
00000350: da81 033f 919e 453f 1c29 363e 4c00 0f3e
00000360: 54da ce3e 9188 943e 43aa b53e c90a 93be
00000370: 8c6c b43d b7ef 3bbd 0e0b 65be cef2 253e
00000380: 2fc9 b83e 306a 293f 5d39 2a3e 1ba9 e03e
00000390: ef19 583f c4df 66be 9602 33bd 08ef b6bc
000003a0: d6b5 f5bd 88ca a83e 31a9 8e3d c9d5 cbbe
000003b0: 256a 5cbe 96fe 19be 4bf0 fabc 548c 293f
000003c0: 4af4 4b3d cbc1 9bbd 199c a33e ef51 ec3e
000003d0: 40a4 013f f909 b1be 7e81 a5be 2b2f cc3e
000003e0: 5ca1 b1bd c757 833c a876 c3bd a7a8 f93e
000003f0: 0902 0d3f 2b8c da3e 0a04 b43d c58e b83d

network_body.linear_encoder.seq_layers.2.bias f4 [128]
0.013190799 0.011139131 0.0067822365 -0.00069991127 -0.0015543918 0.009483298 0.0017916162 0.012671934
-0.012678426 0.010255352 -0.0050230827 0.015558169 -0.0002869919 0.00972504 0.014152601 -0.009918835
0.02859753 -0.003548431 -0.0034969517 -0.010358712 0.029452855 0.004971553 0.003628924 0.0089055225
0.016691742 -0.00673545 -0.015291385 0.011601305 0.009697703 0.017783917 -0.0036112969 0.0087921405
0.017509216 0.0024023983 -2.3848203e-05 0.011997773 0.03178915 0.00010931523 0.014202601 0.0031657766
0.011769496 0.027631221 0.019958593 -0.006512446 0.0010127552 -0.01211344 0.004281112 -0.0036051043
0.0062971613 0.014550475 0.013646899 0.031388532 -0.004594797 -0.009812938 -0.0063420357 -0.0022434113
0.030907154 0.017672338 -0.016609257 -0.007607467 0.0012083403 -0.00959399 0.036739383 0.015249658
-0.009010319 0.0036706089 0.0047363024 0.009216645 0.011287377 0.008416017 0.009928188 0.010036698
0.012221322 -0.007649619 0.015456928 -0.01500824 0.0014403961 -0.008206998 -0.001194772 0.009078783
0.0020437527 -0.013169161 -0.007062918 0.002988604 0.016086787 0.0013982278 -0.0022579331 0.021636285
-0.0046715215 0.0036040847 0.008022905 0.0027016283 0.009381419 0.01648841 0.026269538 -0.002810138
-0.009495287 0.017478675 -0.012195816 0.025998639 -0.019729715 0.0009420178 0.021576526 0.01646969
0.008369541 -0.0021506748 0.028669322 -0.0013491453 0.0038619358 0.023520749 0.02627559 0.012393129
0.010486092 0.007455839 0.010819092 0.0055221138 0.012511234 0.006042832 -0.0012223191 -0.0042229453
0.007293642 0.012666219 0.0017132248 0.007650673 0.0040432904 0.007964973 -0.007830746 0.018030025
00000000: 391e 583c e780 363c 863d de3b 407a 37ba
00000010: bcbc cbba d65f 1b3c aad4 ea3a f29d 4f3c
00000020: 2cb9 4fbc 1006 283c ac98 a4bb b1e7 7e3c
00000030: 6777 96b9 c655 1f3c 50e0 673c 9c82 22bc
00000040: 5e45 ea3c cb8c 68bb 1d2d 65bb 96b7 29bc
00000050: 1d47 f13c 69e8 a23b 3ed3 6d3b 78e8 113c
00000060: 1fbd 883c 0db5 dcbb b888 7abc 6613 3e3c
00000070: 1de3 1e3c 94af 913c 82ab 6cbb e90c 103c
00000080: 7d6f 8f3c 8e71 1d3b a00d c8b7 4f92 443c
00000090: 5735 023d 2b40 e538 07b2 683c eb78 4f3b
000000a0: d8d4 403c df5a e23c 3480 a33c 5b66 d5bb
000000b0: 6dbe 843a 7377 46bc 9248 8c3b 9d43 6cbb
000000c0: 6b58 ce3b 1e65 6e3c 3e97 5f3c 4391 003d
000000d0: f38f 96bb 72c6 20bc dad0 cfbb 3206 13bb
000000e0: 0031 fd3c 94c5 903c 2310 88bc 0f48 f9bb
000000f0: 2c61 9e3a 1c30 1dbc 097c 163d b4d9 793c
00000100: 04a0 13bc 998e 703b fc32 9b3b 6901 173c
00000110: b1ee 383c 55e3 093c d7a9 223c f670 243c
00000120: f13b 483c a8a9 fabb 0e3f 7d3c 1fe5 75bc
00000130: accb bc3a a576 06bc e599 9cba 2dbf 143c
00000140: 7bf0 053b 77c3 57bc 0d70 e7bb 74dc 433b
00000150: 70c8 833c bd44 b73a d5f9 13bb 943e b13c
00000160: 9013 99bb 8232 6c3b 8172 033c cd0d 313b
00000170: 86b4 193c b412 873c 3733 d73c 4b2a 38bb
00000180: 1f92 1bbc 702f 8f3c f6d0 47bc 19fb d43c
00000190: 36a0 a1bc bff1 763a 41c1 b03c 71eb 863c
000001a0: 6620 093c 56f2 0cbb eddb ea3c ced5 b0ba
000001b0: 8818 7d3b 96ae c03c e83f d73c 8d0c 4b3c
000001c0: dccd 2b3c 1c50 f43b 9042 313c d9f2 b43b
000001d0: ebfb 4c3c f302 c63b 3936 a0ba a260 8abb
000001e0: 81ff ee3b f985 4f3c 498e e03a 7fb2 fa3b
000001f0: 947d 843b 857f 023c 874c 00bc b4b3 933c

network_body.linear_encoder.seq_layers.2.weight f4 [128, 128]
0.12260726 0.069868185 0.007981504 0.13513827 0.18638732 0.0496003 0.25788042 0.08493052
-0.10137843 -0.010972723 -0.037170444 0.024720808 -0.034082726 0.037230078 -0.06870291 0.0021193556
0.027901012 0.016863076 -0.03691954 -0.053002585 -0.04134062 -0.004504782 0.02017187 0.13570774
-0.036323715 -0.021487122 -0.0147237405 0.048767947 -0.06290432 0.0787903 0.038698107 -0.07300111
-0.13123737 -0.09344805 -0.110004224 0.08531937 -0.03417945 0.06384646 0.118304275 0.086513154
-0.095348194 0.01281632 0.06547011 -0.065758176 -0.09318365 0.04156779 0.06034609 0.062862344
0.05824838 0.0072572865 -0.007939697 0.14081007 0.15532841 0.07521655 0.08441847 -0.048806716
0.0022949998 -0.1305171 0.08743753 -0.018542279 -0.055633005 0.10610945 0.091095544 -0.018083628
0.11244503 -0.08965526 0.028153792 0.14786497 0.1748479 0.07766649 0.06502847 -0.15603149
-0.055917297 -0.010828839 -0.061177693 0.062433783 0.06359029 0.09348235 -0.17632398 0.0864261
0.021756085 0.03645738 0.004439259 0.18381938 0.077528924 -0.07751228 0.01707666 0.03113223
0.109980635 -0.14772464 0.0970908 -0.005898858 -0.025510468 -0.1899885 0.11432285 0.0061242403
0.08458084 0.072124295 0.038062297 0.008415089 0.058761407 0.030204402 -0.046786103 -0.076964974
0.016095554 -0.10188821 -0.06784551 0.031227956 0.0013468694 0.03621328 -0.05016 0.04888345
0.00020261263 -0.19473669 -0.11638542 -0.032377325 0.0040649306 -0.012722672 0.014838825 -0.0009858261
-0.11267217 -0.025089571 -0.0588728 -0.1900303 0.086097196 -0.1513068 0.052882437 0.19542314
-0.06447028 -0.0031480917 -0.08508371 -0.009658217 0.076426804 -0.03966596 -0.11547274 -0.03644546
-0.051125284 -0.05972582 0.07087926 -0.20979238 -0.10382179 0.12808537 -0.013038935 0.14428109
-0.05833053 0.2128091 -0.2639915 0.019292442 0.03741525 0.04349236 0.0087752305 -0.06913703
-0.034259032 0.021824325 0.13013498 0.062260155 0.048375398 -0.117810816 0.02268405 0.009476653
-0.021352872 -0.0816952 0.08672463 0.099352114 -0.034490675 -0.00463195 -0.16469437 0.014232406
-0.03131876 -0.06561541 -0.11681436 0.03396984 -0.03249658 -0.059636623 0.083772495 -0.037887543
-0.0099320905 0.041858617 0.09325256 0.061671346 0.0539551 0.16028096 -0.06523037 -0.037218627
0.070082 -0.010675891 -0.13684599 -0.13892983 0.06922873 -0.0050747963 0.0046844077 0.042564854
-0.052326087 0.0836201 -0.09594338 0.130509 0.07528402 0.029652292 0.16857159 0.06791141
0.12959836 0.024103839 -0.10579236 -0.093509935 -0.15760833 -0.01857103 0.017858876 -0.071196206
0.076667145 0.0020156873 0.07622877 0.0135522485 0.0675402 0.06016112 -0.05345425 -0.04088759
-0.13146935 -0.10861195 0.021332579 0.027714325 0.03766966 0.05623557 0.056891058 -0.03945865
0.1883492 -0.0031789332 -0.18649505 -0.076212235 -0.054459758 0.0771208 0.07682477 0.011450475
-0.034183294 -0.10343203 -0.058057055 0.05034198 0.091799974 -0.011241745 0.011054686 -0.14409277
-0.051128387 0.021314131 -0.17766638 0.10970826 0.06823579 0.08721439 0.0712337 0.012140828
0.06778237 0.10946829 0.03280308 0.17432025 -0.04482946 0.06853505 -0.054265548 -0.058499925
00000000: 8419 fb3d 0d17 8f3d dbc4 023c b061 0a3e
00000010: 51dc 3e3e af29 4b3d e708 843e 0df0 ad3d
00000020: 7f9f cfbd f0c6 33bc 0940 18bd 4b83 ca3c
00000030: 549a 0bbd 917e 183d 1cb4 8cbd e3e4 0a3b
00000040: aa90 e43c 6f24 8a3c f238 17bd 3d19 59bd
00000050: c854 29bd da9c 93bb 7a3f a53c f8f6 0a3e
00000060: 2dc8 14bd c305 b0bc d83b 71bc e6c0 473d
00000070: fbd3 80bd cf5c a13d e881 1e3d 9b81 95bd
00000080: 1763 06be b161 bfbd e549 e1bd ecbb ae3d
00000090: c0ff 0bbd efc1 823d 8349 f23d cf2d b13d
000000a0: ea45 c3bd 8bfb 513c 3115 863d 39ac 86bd
000000b0: 12d7 bebd fd42 2a3d 762d 773d f9bd 803d
000000c0: da95 6e3d 88ce ed3b 8115 02bc 8430 103e
000000d0: 690e 1f3e 220b 9a3d 97e3 ac3d 8de9 47bd
000000e0: b567 163b 46a6 05be 7312 b33d fae5 97bc
000000f0: 6fdf 63bd e94f d93d 4d90 ba3d 1e24 94bc
00000100: 9449 e63d 2d9d b7bd c8a2 e63c ea69 173e
00000110: 540b 333e 9c0f 9f3d a52d 853d b8c6 1fbe
00000120: 8909 65bd 716b 31bc 7695 7abd 91ba 7f3d
00000130: a03b 823d ad73 bf3d 468e 34be 2b00 b13d
00000140: d139 b23c 5554 153d 3477 913b 263b 3c3e
00000150: 7cc7 9e3d c2be 9ebd 5ae4 8b3c 0509 ff3c
00000160: 873d e13d 2145 17be 8bd7 c63d 354b c1bb
00000170: 54fb d0bc 588c 42be 1922 ea3d daad c83b
00000180: b838 ad3d e7b5 933d 36e7 1b3d 71df 093c
00000190: cdaf 703d 396f f73c c9a2 3fbd d09f 9dbd
000001a0: d3da 833c c4aa d0bd 96f2 8abd c5d1 ff3c
000001b0: 7089 b03a 6054 143d 9274 4dbd 033a 483d
000001c0: 6a74 5439 0e69 47be 7b5b eebd 169e 04bd
000001d0: 1c33 853b c172 50bc 8b1e 733c d636 81ba
000001e0: abc0 e6bd a588 cdbc 9b24 71bd 4e97 42be
000001f0: ba53 b03d 2bf0 1abe 419b 583d 011d 483e
00000200: ff08 84bd 3750 4ebb 5e40 aebd 803d 1ebc
00000210: a885 9c3d c678 22bd f97c ecbd d647 15bd
00000220: bf68 51bd 10a3 74bd 2529 913d d0d3 56be
00000230: 85a0 d4bd d028 033e 42a1 55bc 6cbe 133e
00000240: feeb 6ebd a1ea 593e e529 87be 2f0b 9e3c
00000250: bc40 193d 0b25 323d fcc5 0f3c b797 8dbd
00000260: 3353 0cbd edc8 b23c 1b42 053e 8104 7f3d
00000270: 4825 463d cc46 f1bd e7d3 b93c f743 1b3c
00000280: 38ec aebc d04f a7bd af9c b13d 1f79 cb3d
00000290: 1846 0dbd 9dc7 97bb a4a5 28be 0a2f 693c
000002a0: 1a48 00bd 5f61 86bd 5e3c efbd f523 0b3d
000002b0: 221b 05bd 8845 74bd ea90 ab3d f82f 1bbd
000002c0: 35ba 22bc f173 2b3d 33fb be3d 189b 7c3d
000002d0: 0600 5d3d b120 243e 8097 85bd 8f72 18bd
000002e0: 2787 8f3d efe9 2ebc 5b21 0cbe 9f43 0ebe
000002f0: cbc7 8d3d 7a4a a6bb a97f 993b 7c58 2e3d
00000300: e153 56bd 0441 ab3d f67d c4bd 27a4 053e
00000310: 822e 9a3d 5de9 f23c 089e 2c3e 2315 8b3d
00000320: 6fb5 043e 6a75 c53c aaa9 d8bd 2382 bfbd
00000330: 1464 21be 4622 98bc c74c 923c 51cf 91bd
00000340: aa03 9d3d 9f19 043b d41d 9c3d 400a 5e3c
00000350: 8452 8a3d 826b 763d d8f2 5abd bf79 27bd
00000360: e79f 06be f16f debd a9c1 ae3c 2709 e33c
00000370: 804b 1a3d 4557 663d 9906 693d 659f 21bd
00000380: 9dde 403e a655 50bb 8ff8 3ebe 2915 9cbd
00000390: 3211 5fbd 83f1 9d3d 4e56 9d3d c69a 3b3c
000003a0: c803 0cbd 2cd4 d3bd 3ccd 6dbd 6433 4e3d
000003b0: a001 bc3d 4c2f 38bc b71e 353c 0e8d 13be
000003c0: 006c 51bd f99a ae3c 2dee 35be b9ae e03d
000003d0: 35bf 8b3d 759d b23d f9e2 913d 53ea 463c
000003e0: 7cd1 8a3d e930 e03d 865c 063d 0281 323e
000003f0: 199f 37bd 1b5c 8c3d 8d45 5ebd 9e9d 6fbd
