UnityController/results/alex/MoveToGoal/MoveToGoal-2075.pt (torch, 153671 bytes, 11 tensors)

network_body.linear_encoder.seq_layers.0.weight f4 [128, 9]
0.68023574 -0.24374449 -0.27386874 -0.12480661 -0.32846358 0.49620777 0.032835443 -0.0064577926
-0.31225517 -0.25325885 -0.009072936 0.3531413 -0.045858808 0.35782045 0.24132727 -0.2700734
-0.1539355 -0.43724155 0.06580907 -0.16679633 0.29030415 -0.16672502 -0.55357766 -0.81490767
-1.0575984 -0.60947883 0.30752867 -0.42667028 -0.2068728 -0.30892715 0.62133217 -0.14253603
-0.3649823 -0.239058 0.44047046 -0.010693005 -0.040411245 0.111855656 0.010400534 -0.0714809
-0.29397273 -0.06583574 -0.053793725 0.0642144 -0.2223342 -0.61493635 0.12541237 -0.2747186
-0.5552714 0.22308043 -0.094981246 0.21778761 -0.16949123 -0.63605154 -0.40685672 0.036280442
0.17592858 -0.15685064 -0.13709079 -0.3850159 -0.010204532 -0.11235182 -0.14200014 0.46068978
-0.49188125 -0.07397241 0.17037503 -0.16107735 -0.111192256 -0.14505297 0.15201524 0.10197648
-0.3145764 0.23685127 -0.11173021 -0.5792558 -0.72029245 -0.2967643 -0.37312993 -0.2948288
0.06842834 -0.42721504 -0.14359102 0.06838694 -0.04187184 0.5265752 -0.052492134 -0.010707006
0.55958 -0.13061357 0.42493182 0.017273657 -0.14537783 0.032352045 -0.13029586 0.3900703
-0.08731139 -0.31252736 -0.0933299 0.20161754 -0.56408554 0.63497365 0.84056544 -0.52041084
0.57191366 -0.21922831 -0.27678883 0.03501049 -0.15451974 0.49934626 -0.09449659 0.3313287
-0.022877289 -0.38030073 0.28124022 0.31738007 0.2212461 -0.13360648 0.029569991 -0.13539073
-0.013705111 -0.49437603 -0.16963536 0.08700391 0.72035766 0.49328732 -0.37250182 0.5711851
-0.03788473 0.49656945 0.08472528 0.10002911 -0.20346247 -0.2345298 0.3145934 -0.09547947
0.25075635 0.07916016 0.38602334 -0.20724867 -0.13566153 0.035060667 -0.090415284 0.57028323
0.62011325 -0.12604174 0.043332793 -0.48276323 0.12937006 0.23408505 0.024919666 -0.5229188
0.5969603 -0.040542793 0.2785793 0.5420633 0.018104756 0.014423218 -0.53823185 0.11365111
0.8341936 0.8401358 0.21239549 -0.1843375 0.5742045 0.32156107 -0.5125316 -0.3020184
0.1279388 0.30312133 -0.20643744 0.1715418 -0.09085461 0.0769754 -0.45748568 0.07063773
0.39537665 -0.36756212 0.5603466 0.31600115 -0.039846025 -0.30339575 -0.13362375 0.34274536
-0.30332232 0.48289293 0.3551217 0.027539685 -0.6394207 -0.092180714 0.56595254 0.49895763
-0.1601353 -0.6613833 -0.08420648 -0.055364497 -0.19915697 0.22273272 0.2688331 0.075374804
-0.07361781 0.18580663 -0.38864213 0.24285325 -0.1814357 -0.55362284 0.21270123 -0.33237022
-0.26125985 0.06889786 0.26323935 0.17429304 -0.11536488 0.30081636 -0.35127458 -0.18700475
0.16816619 -0.4015188 0.08099824 -0.5286207 0.19453362 -0.12606189 0.13630691 0.16452761
0.18459237 -0.33426744 0.64923227 -0.16788834 0.5129453 0.24596356 0.25624102 0.35042688
0.12457664 0.32087964 0.93570304 0.17935827 0.008772792 -0.023100212 0.45300096 -0.36918968
-0.548169 0.28826576 -0.29610577 -0.20688725 -0.11266729 -0.06364283 0.014606731 -0.36999905
0.52907467 -0.4839134 0.20435606 0.33524716 0.105095945 -0.47450864 0.35932565 0.20687924
00000000: ee23 2e3f 2898 79be 8638 8cbe 9c9a ffbd
00000010: 612c a8be f20e fe3e 757e 063d e49b d3bb
00000020: e9df 9fbe 25ab 81be a7a6 14bc f0ce b43e
00000030: 72d6 3bbd 3e34 b73e 7f1e 773e 1047 8abe
00000040: 45a1 1dbe 20de dfbe e8c6 863d a8cc 2abe
00000050: bfa2 943e f7b9 2abe 44b7 0dbf ca9d 50bf
00000060: 625f 87bf ce06 1cbf 6674 9d3e 8774 dabe
00000070: 77d6 53be b32b 9ebe a00f 1f3f f7f4 11be
00000080: f6de babe 9fcb 74be 5885 e13e b731 2fbc
00000090: 4386 25bd 9414 e53d 0067 2a3c 9464 92bd
000000a0: 9883 96be e3d4 86bd cf56 5cbd d782 833d
000000b0: 94ab 63be 786c 1dbf 1a6c 003e eba7 8cbe
000000c0: 4426 0ebf 326f 643e 8785 c2bd b703 5f3e
000000d0: 1c8f 2dbe 46d4 22bf 864f d0be cd9a 143d
000000e0: 9f26 343e 749d 20be 8761 0cbe ce20 c5be
000000f0: e930 27bc b618 e6bd 7c68 11be 88df eb3e
00000100: dcd7 fbbe d97e 97bd cb76 2e3e 76f1 24be
00000110: c4b8 e3bd c488 14be e2a9 1b3e 0bd9 d03d
00000120: 2810 a1be 2489 723e cfd2 e4bd 1c4a 14bf
00000130: 1665 38bf 7ef1 97be e30a bfbe cdf3 96be
00000140: 2824 8c3d eebb dabe 8609 13be 740e 8c3d
00000150: ce81 2bbd a2cd 063f fe01 57bd 706c 2fbc
00000160: a340 0f3f 90bf 05be aa90 d93e 7c81 8d3c
00000170: eddd 14be 9483 043d 476c 05be 4bb7 c73e
00000180: 50d0 b2bd 9603 a0be bf23 bfbd d474 4e3e
00000190: e967 10bf a28d 223f 4c2f 573f a539 05bf
000001a0: ef68 123f 637d 60be 44b7 8dbe 2967 0f3d
000001b0: 6c3a 1ebe 50aa ff3e 6e87 c1bd eaa3 a93e
000001c0: 2769 bbbc c7b6 c2be b8fe 8f3e a47f a23e
000001d0: 568e 623e 23d0 08be c43c f23c dea3 0abe
000001e0: 678b 60bc db1e fdbe e4b4 2dbe 1b2f b23d
000001f0: 5c69 383f 2890 fc3e 8fb8 bebe 3039 123f
00000200: 052d 1bbd 5a3e fe3e 7384 ad3d 10dc cc3d
00000210: 7758 50be 9428 70be 6312 a13e be8a c3bd
00000220: 2363 803e b91e a23d daa4 c53e ff38 54be
00000230: dbea 0abe c69b 0f3d a62b b9bd 15fe 113f
00000240: bebf 1e3f 1611 01be ba7d 313d be2c f7be
00000250: 9679 043e feb3 6f3e 5424 cc3c 02de 05bf
00000260: 64d2 183f 3310 26bd f2a1 8e3e a9c4 0a3f
00000270: 6d50 943c 5c4f 6c3c 90c9 09bf eac1 e83d
00000280: b68d 553f 2413 573f 347e 593e f8c2 3cbe
00000290: 11ff 123f a7a3 a43e 4535 03bf 28a2 9abe
000002a0: 6402 033e b832 9b3e 5664 53be a7a8 2f3e
000002b0: fb11 babd 47a5 9d3d 903b eabe 84aa 903d
000002c0: cf6e ca3e 1a31 bcbe e072 0f3f e7ca a13e
000002d0: 9635 23bd b056 9bbe aad4 08be 527c af3e
000002e0: 104d 9bbe be3d f73e 83d2 b53e e89a e13c
000002f0: 13b1 23bf 3ec9 bcbd 44e2 103f 6077 ff3e
00000300: 82fa 23be 6a50 29bf 7274 acbd e2c5 62bd
00000310: ceef 4bbe 0c14 643e 7ea4 893e 1b5e 9a3d
00000320: efc4 96bd 1844 3e3e 1afc c6be 86ae 783e
00000330: 48ca 39be 3aba 0dbf 5ace 593e 6e2c aabe
00000340: dac3 85be 521a 8d3d 4fc7 863e e079 323e
00000350: 6c44 ecbd 9a04 9a3e 43da b3be 2c7e 3fbe
00000360: c233 2c3e df93 cdbe 68e2 a53d b053 07bf
00000370: d233 473e 5e16 01be 0a94 0b3e ed79 283e
00000380: c805 3d3e 1a25 abbe 1634 263f ecea 2bbe
00000390: 6250 033f dfdd 7b3e 0632 833e 276b b33e
000003a0: 0a22 ff3d 564a a43e 3c8a 6f3f b2a9 373e
000003b0: c2bb 0f3c a83c bdbc beef e73e 6e06 bdbe
000003c0: ce54 0cbf 9297 933e 2d9b 97be 40da 53be
000003d0: 1cbe e6bd 2c57 82bd 1251 6f3c 8470 bdbe
000003e0: 7071 073f 7fc3 f7be b742 513e 84a5 ab3e
000003f0: 8b3c d73d ccf2 f2be 88f9 b73e 27d8 533e

network_body.linear_encoder.seq_layers.0.bias f4 [128]
0.0 0.0 0.0 0.0 0.0 0.0 0.0 0.0
0.0 0.0 0.0 0.0 0.0 0.0 0.0 0.0
0.0 0.0 0.0 0.0 0.0 0.0 0.0 0.0
0.0 0.0 0.0 0.0 0.0 0.0 0.0 0.0
0.0 0.0 0.0 0.0 0.0 0.0 0.0 0.0
0.0 0.0 0.0 0.0 0.0 0.0 0.0 0.0
0.0 0.0 0.0 0.0 0.0 0.0 0.0 0.0
0.0 0.0 0.0 0.0 0.0 0.0 0.0 0.0
0.0 0.0 0.0 0.0 0.0 0.0 0.0 0.0
0.0 0.0 0.0 0.0 0.0 0.0 0.0 0.0
0.0 0.0 0.0 0.0 0.0 0.0 0.0 0.0
0.0 0.0 0.0 0.0 0.0 0.0 0.0 0.0
0.0 0.0 0.0 0.0 0.0 0.0 0.0 0.0
0.0 0.0 0.0 0.0 0.0 0.0 0.0 0.0
0.0 0.0 0.0 0.0 0.0 0.0 0.0 0.0
0.0 0.0 0.0 0.0 0.0 0.0 0.0 0.0
00000000: 0000 0000 0000 0000 0000 0000 0000 0000
00000010: 0000 0000 0000 0000 0000 0000 0000 0000
00000020: 0000 0000 0000 0000 0000 0000 0000 0000
00000030: 0000 0000 0000 0000 0000 0000 0000 0000
00000040: 0000 0000 0000 0000 0000 0000 0000 0000
00000050: 0000 0000 0000 0000 0000 0000 0000 0000
00000060: 0000 0000 0000 0000 0000 0000 0000 0000
00000070: 0000 0000 0000 0000 0000 0000 0000 0000
00000080: 0000 0000 0000 0000 0000 0000 0000 0000
00000090: 0000 0000 0000 0000 0000 0000 0000 0000
000000a0: 0000 0000 0000 0000 0000 0000 0000 0000
000000b0: 0000 0000 0000 0000 0000 0000 0000 0000
000000c0: 0000 0000 0000 0000 0000 0000 0000 0000
000000d0: 0000 0000 0000 0000 0000 0000 0000 0000
000000e0: 0000 0000 0000 0000 0000 0000 0000 0000
000000f0: 0000 0000 0000 0000 0000 0000 0000 0000
00000100: 0000 0000 0000 0000 0000 0000 0000 0000
00000110: 0000 0000 0000 0000 0000 0000 0000 0000
00000120: 0000 0000 0000 0000 0000 0000 0000 0000
00000130: 0000 0000 0000 0000 0000 0000 0000 0000
00000140: 0000 0000 0000 0000 0000 0000 0000 0000
00000150: 0000 0000 0000 0000 0000 0000 0000 0000
00000160: 0000 0000 0000 0000 0000 0000 0000 0000
00000170: 0000 0000 0000 0000 0000 0000 0000 0000
00000180: 0000 0000 0000 0000 0000 0000 0000 0000
00000190: 0000 0000 0000 0000 0000 0000 0000 0000
000001a0: 0000 0000 0000 0000 0000 0000 0000 0000
000001b0: 0000 0000 0000 0000 0000 0000 0000 0000
000001c0: 0000 0000 0000 0000 0000 0000 0000 0000
000001d0: 0000 0000 0000 0000 0000 0000 0000 0000
000001e0: 0000 0000 0000 0000 0000 0000 0000 0000
000001f0: 0000 0000 0000 0000 0000 0000 0000 0000

network_body.linear_encoder.seq_layers.2.weight f4 [128, 128]
0.09084774 -0.08030272 -0.0048386417 0.1430968 0.029662572 0.14607385 -0.13984466 0.06333684
-0.070429824 -0.03173859 0.12830387 -0.14992942 -0.0056939465 -0.0097062895 -0.03021959 0.022767577
-0.024416896 -0.0902316 0.096605115 0.1894349 0.13170677 0.0063036066 0.009604937 -0.057834525
0.0071397577 -0.16237284 0.07807828 0.014676503 -0.1428975 -0.06609608 0.044053935 -0.054057438
-0.16422045 0.08791383 0.0039433013 0.0060245595 -0.013877407 0.014008627 -0.024049515 -0.07665053
-0.022191212 -0.09828273 -0.13844636 0.101541534 -0.0654282 0.025659094 0.015505347 0.024255734
0.08402228 -0.056791596 -0.040335014 0.24934602 -0.028902212 -0.14477484 -0.019867795 -0.12377283
-0.039206255 -0.08354645 0.18814245 -0.15096216 -0.100142755 0.13304116 0.117663294 -0.15874392
-0.071602225 -0.14978749 0.13665602 0.11926656 0.089337364 0.14044552 -0.070516415 -0.082366444
0.06468745 0.015907716 -0.05556517 -0.014184395 -0.012389037 0.07376912 -0.040896576 0.04279887
-0.08714756 -0.097886056 0.1168149 0.10228582 0.045925364 0.12539786 0.122277245 -0.04424018
-0.039182242 -0.031549633 0.0016507658 0.0066030063 0.043438762 0.05363648 0.098753005 -0.022579726
-0.109471515 -0.0068203006 0.08649713 -0.0387593 -0.20462297 -0.20100744 0.04994756 -0.117455654
-0.016298246 0.043696217 -0.06440419 0.089188084 0.0385742 -0.19675443 -0.077467464 -0.10522187
-0.061383754 0.14495312 -0.12459895 -0.018129744 0.07060529 3.825964e-05 -0.10167172 -0.011304881
-0.0126517 -0.20530818 -0.014042918 0.07947015 -0.11806241 -0.036737796 0.025362475 -0.048311356
0.038904674 0.083463386 -0.014124692 -0.20255467 0.021897404 -0.033384584 -0.009134317 0.0036352922
-0.038922165 0.05168156 -0.06691849 -0.105107345 -0.014288498 -0.01711701 -0.13334759 0.034602623
-0.042379007 -0.108644046 0.0032500748 -0.03208765 -0.21535654 0.03644174 -0.16700152 0.031271223
0.053926796 0.004683517 -0.14083716 -0.108196005 -0.11044716 0.13591725 0.22281513 -0.058172323
0.09556213 0.030733421 0.07045041 0.011833307 0.052436974 0.045878936 -0.035380203 0.022278225
-0.011017808 -0.050735436 0.13222958 0.047063135 0.06718737 -0.15226115 -0.068227574 0.043801725
0.14350551 -0.05683973 -0.15139818 0.07845212 0.050739948 -0.046825044 -0.050289877 0.03866053
-0.08666646 0.01321166 -0.040671308 0.10021381 -0.21475364 0.04692549 -0.10376695 0.06721723
0.096255675 0.07376085 -0.06715308 -0.020832786 -0.16223536 -0.17978425 -0.048177186 0.101920485
-0.0061353263 -0.07014885 0.033272464 0.044304397 -0.11358003 -0.015123073 -0.0075845756 -0.028293284
-0.113145344 -0.13161767 0.03517543 0.0033450206 -0.067951545 0.010321042 -0.14846076 0.13841891
-0.075856134 0.0011913978 0.019080551 -0.064598 0.2276098 -0.11753305 0.05823415 0.11708855
-0.1045023 0.013944465 0.05843433 0.040360365 0.09660458 0.059616152 -0.08572046 -0.04421427
0.06535279 -0.009679765 0.0754553 -0.006627408 -0.21247432 0.042332005 -0.039785877 0.099029765
-0.013102145 0.084508196 0.09193554 0.21607365 -0.081487745 -0.055615157 0.07039881 0.0039652707
0.06938417 -0.05464994 -0.059882037 -0.08857931 0.10381627 0.0062124133 0.22139071 0.03725778
00000000: 610e ba3d c175 a4bd 788d 9ebb f887 123e
00000010: ecfe f23c 6294 153e 7033 0fbe bfb6 813d
00000020: 833d 90bd 5300 02bd 1762 033e 1987 19be
00000030: 4994 babb 2107 1fbc 138f f7bc 1283 ba3c
00000040: f105 c8bc 58cb b8bd e7d8 c53d 39fb 413e
00000050: 24de 063e 7c8e ce3b 075e 1d3c e5e3 6cbd
00000060: a1f4 e93b 1145 26be 81e7 9f3d b775 703c
00000070: b953 12be 625d 87bd e671 343d 556b 5dbd
00000080: 6829 28be 2b0c b43d cf36 813b ab69 c53b
00000090: 105e 63bc 7184 653c 7d03 c5bc f4fa 9cbd
000000a0: 58ca b5bc 7548 c9bd e2c4 0dbe 02f5 cf3d
000000b0: 38ff 85bd 0533 d23c 240a 7e3c f6b3 c63c
000000c0: e013 ac3d 4e9e 68bd 5436 25bd 9054 7f3e
000000d0: 55c4 ecbc db3f 14be c9c1 a2bc 9c7c fdbd
000000e0: bd96 20bd 671a abbd 6aa8 403e d395 1abe
000000f0: a517 cdbd f13b 083e 74f9 f03d c48d 22be
00000100: 30a4 92bd e461 19be 8eef 0b3e 0742 f43d
00000110: 82f6 b63d f3d0 0f3e e96a 90bd bdaf a8bd
00000120: db7a 843d e650 823c 4e98 63bd aa65 68bc
00000130: 63fb 4abc 4414 973d 2b83 27bd de4d 2f3d
00000140: 6c7a b2bd 7c78 c8bd a63c ef3d 3a7b d13d
00000150: 3c1c 3c3d 4c68 003e 7e6c fa3d 3135 35bd
00000160: 8f7d 20bd 303a 01bd 825e d83a 085e d83b
00000170: d8ec 313d edb1 5b3d 043f ca3d 1ef9 b8bc
00000180: 9a32 e0bd d47c dfbb 6825 b13d 12c2 1ebd
00000190: af88 51be e5d4 4dbe d095 4c3d 978c f0bd
000001a0: e683 85bc cefa 323d 58e6 83bd 3ea8 b63d
000001b0: fbff 1d3d fe79 49be 43a7 9ebd 907e d7bd
000001c0: 886d 7bbd 976e 143e bc2d ffbd d484 94bc
000001d0: 8299 903d fa78 2038 4339 d0bd 1c38 39bc
000001e0: 1349 4fbc 4f3c 52be 4414 66bc 3fc1 a23d
000001f0: b4ca f1bd 5f7a 16bd f7c4 cf3c 21e2 45bd
00000200: 825a 1f3d daee aa3d 416b 67bc 7e6a 4fbe
00000210: 2f62 b33c 46be 08bd 1aa8 15bc 153e 6e3b
00000220: d96c 1fbd 0bb0 533d 900c 89bd 8542 d7bd
00000230: 4e1a 6abc f938 8cbc 458c 08be 7bbb 0d3d
00000240: 9c95 2dbd c580 debd 35ff 543b 576e 03bd
00000250: 6d86 5cbe ef43 153d 7202 2bbe 4116 003d
00000260: 58e2 5c3d 3078 993b 9e37 10be de95 ddbd
00000270: 1f32 e2bd e42d 0b3e a629 643e 1a46 6ebd
00000280: 14b6 c33d a8c4 fb3c 4e48 903d 7de0 413c
00000290: 27c8 563d 8deb 3b3d d5ea 10bd d380 b63c
000002a0: 0984 34bc f6cf 4fbd 3167 073e 46c5 403d
000002b0: 8899 893d 59ea 1bbe e6ba 8bbd 7069 333d
000002c0: 1cf3 123e c7d0 68bd 2008 1bbe 81ab a03d
000002d0: b1d4 4f3d 9ecb 3fbd c2fc 4dbd 815a 1e3d
000002e0: 2f7e b1bd b875 583c f596 26bd e63c cd3d
000002f0: 61e8 5bbe f134 403d c483 d4bd 30a9 893d
00000300: b221 c53d ee0f 973d 8e87 89bd 85a9 aabc
00000310: 0721 26be 5d19 38be 7155 45bd b0bb d03d
00000320: d90a c9bb 33aa 8fbd b548 083d 8778 353d
00000330: a69c e8bd c4c6 77bc 0888 f8bb 51c7 e7bc
00000340: bfb8 e7bd c8c6 06be 1d14 103d 2238 5b3b
00000350: 2e2a 8bbd 9619 293c 1906 18be b0bd 0d3e
00000360: 765a 9bbd ad28 9c3a d14e 9c3c f54b 84bd
00000370: 8b12 693e 2bb5 f0bd ef86 6e3d 1fcc ef3d
00000380: 4d05 d6bd 5377 643c d658 6f3d e950 253d
00000390: 9fd8 c53d 1130 743d 358e afbd 061a 35bd
000003a0: afd7 853d e197 1ebc 4f88 9a3d ba2a d9bb
000003b0: de92 59be 5364 2d3d 84f6 22bd 1ed0 ca3d
000003c0: 61aa 56bc a212 ad3d b348 bc3d 6942 5d3e
000003d0: 0ce3 a6bd b8cc 63bd 402d 903d 1aef 813b
000003e0: 4a19 8e3d 9ed8 5fbd de46 75bd 1269 b5bd
000003f0: a09d d43d 8091 cb3b 3fb4 623e 9d9b 183d

network_body.linear_encoder.seq_layers.2.bias f4 [128]
0.0 0.0 0.0 0.0 0.0 0.0 0.0 0.0
0.0 0.0 0.0 0.0 0.0 0.0 0.0 0.0
0.0 0.0 0.0 0.0 0.0 0.0 0.0 0.0
0.0 0.0 0.0 0.0 0.0 0.0 0.0 0.0
0.0 0.0 0.0 0.0 0.0 0.0 0.0 0.0
0.0 0.0 0.0 0.0 0.0 0.0 0.0 0.0
0.0 0.0 0.0 0.0 0.0 0.0 0.0 0.0
0.0 0.0 0.0 0.0 0.0 0.0 0.0 0.0
0.0 0.0 0.0 0.0 0.0 0.0 0.0 0.0
0.0 0.0 0.0 0.0 0.0 0.0 0.0 0.0
0.0 0.0 0.0 0.0 0.0 0.0 0.0 0.0
0.0 0.0 0.0 0.0 0.0 0.0 0.0 0.0
0.0 0.0 0.0 0.0 0.0 0.0 0.0 0.0
0.0 0.0 0.0 0.0 0.0 0.0 0.0 0.0
0.0 0.0 0.0 0.0 0.0 0.0 0.0 0.0
0.0 0.0 0.0 0.0 0.0 0.0 0.0 0.0
00000000: 0000 0000 0000 0000 0000 0000 0000 0000
00000010: 0000 0000 0000 0000 0000 0000 0000 0000
00000020: 0000 0000 0000 0000 0000 0000 0000 0000
00000030: 0000 0000 0000 0000 0000 0000 0000 0000
00000040: 0000 0000 0000 0000 0000 0000 0000 0000
00000050: 0000 0000 0000 0000 0000 0000 0000 0000
00000060: 0000 0000 0000 0000 0000 0000 0000 0000
00000070: 0000 0000 0000 0000 0000 0000 0000 0000
00000080: 0000 0000 0000 0000 0000 0000 0000 0000
00000090: 0000 0000 0000 0000 0000 0000 0000 0000
000000a0: 0000 0000 0000 0000 0000 0000 0000 0000
000000b0: 0000 0000 0000 0000 0000 0000 0000 0000
000000c0: 0000 0000 0000 0000 0000 0000 0000 0000
000000d0: 0000 0000 0000 0000 0000 0000 0000 0000
000000e0: 0000 0000 0000 0000 0000 0000 0000 0000
000000f0: 0000 0000 0000 0000 0000 0000 0000 0000
00000100: 0000 0000 0000 0000 0000 0000 0000 0000
00000110: 0000 0000 0000 0000 0000 0000 0000 0000
00000120: 0000 0000 0000 0000 0000 0000 0000 0000
00000130: 0000 0000 0000 0000 0000 0000 0000 0000
00000140: 0000 0000 0000 0000 0000 0000 0000 0000
00000150: 0000 0000 0000 0000 0000 0000 0000 0000
00000160: 0000 0000 0000 0000 0000 0000 0000 0000
00000170: 0000 0000 0000 0000 0000 0000 0000 0000
00000180: 0000 0000 0000 0000 0000 0000 0000 0000
00000190: 0000 0000 0000 0000 0000 0000 0000 0000
000001a0: 0000 0000 0000 0000 0000 0000 0000 0000
000001b0: 0000 0000 0000 0000 0000 0000 0000 0000
000001c0: 0000 0000 0000 0000 0000 0000 0000 0000
000001d0: 0000 0000 0000 0000 0000 0000 0000 0000
000001e0: 0000 0000 0000 0000 0000 0000 0000 0000
000001f0: 0000 0000 0000 0000 0000 0000 0000 0000

action_model._discrete_distribution.branches.0.weight f4 [5, 128]
0.007767322 0.0026396406 0.002809894 -0.0065240674 0.008956163 -9.890654e-05 0.005026951 -0.0012912819
0.005701414 -0.00042358498 -0.0034912655 -0.016974324 -0.0024255738 -0.0072363876 -0.022077339 0.002940886
0.008813403 -0.005237863 0.025780573 -0.0063590007 0.0060287225 0.00446655 -0.005934861 -0.002865401
-0.017501997 -0.008032798 -0.017751068 0.0014561305 0.0017662188 0.002547455 -0.013374996 0.013670774
-0.0027331233 0.004160596 -0.008900888 0.00042759138 -0.0051847096 0.004892767 -0.006475617 0.0037825361
0.0050170394 -0.00911056 -0.0016769487 0.0003720861 -0.011628627 0.016351474 -0.00019724474 0.005754606
0.007596043 0.0031196603 0.0074395323 0.014686457 0.00069374917 7.62021e-05 2.5707035e-05 -0.008840391
0.019801289 -0.0075775534 0.00090144057 -0.014886324 0.005247247 -0.006031734 -0.003231841 0.0063936985
0.012042797 0.014361441 -0.013607683 0.0076347217 -0.0007384006 -0.00036513575 -0.012601438 -0.0066393637
-0.0013143731 0.005533857 0.015436185 -0.0074730604 0.00500914 -0.023208126 -0.015786013 0.005141796
0.019139916 0.010127217 -0.009405473 -0.0007188959 0.00029110964 0.006902408 -0.0036790706 0.0056736106
0.010627334 0.0049474197 0.009087083 -0.0030355467 -0.0017523142 0.0038720474 0.0043730903 0.009230266
-0.006830366 -0.002059351 0.0016286798 0.0063479207 -0.004570726 0.015085113 -0.008487454 -0.0055462164
0.0046861502 -0.009959101 -0.0007882083 -0.0004977091 -0.0052467957 0.00046988367 -0.0123426905 -0.00425596
-0.019376319 -0.0010021843 -0.0034015633 -0.0035904055 0.007870878 -0.004548432 -0.0029164793 -0.004673257
-0.011099275 -0.009554397 -0.0009449092 -0.0038653226 0.002814829 0.00097341184 0.0052589667 0.004541639
-0.0038015645 0.0040583364 0.013402383 -0.005327014 -0.0031619952 -0.0035922888 0.012519086 0.00010576875
-0.001559094 0.0005893947 0.00061792 -0.02068623 0.008584734 -0.004529739 -0.010190819 0.019810466
-0.011374371 0.011205445 -0.011754339 0.014661114 -0.003551359 0.0098091215 -0.006012881 0.0016993614
0.010662496 -0.008880924 -0.0058789146 -0.0180564 0.0006505604 0.0021952 0.000976755 -0.018725114
-0.00420082 0.00872124 0.00835698 -0.0013501513 -0.003021387 0.014660719 -0.009538499 -0.011983388
-0.010177878 0.010616861 -0.011870187 0.011812902 0.0027423308 0.009496482 -0.0017973349 -0.0044634724
0.009025729 0.0005524798 -0.00018117629 0.016072396 -0.004666605 -0.0053507662 0.02728731 -0.0048807412
0.0015320524 -0.0016038917 -0.008824032 -0.027708685 -0.0039417697 0.0005913574 -0.003355799 -0.0025807333
0.0018981047 -0.017139575 0.02208413 0.003475387 0.008267379 -0.015450607 0.0053487495 -0.00075132586
-0.0019374546 0.0051612905 0.02040609 0.0024048446 -0.00038627523 0.0021582963 -0.00067392096 -0.0019372496
0.023244122 -0.00090538413 -0.015982775 -0.016656356 0.0019413466 0.007069201 -0.0041363114 -0.002986507
-0.0002689862 -0.0028173209 -0.014084606 0.0016431696 -0.0043597487 -0.013437512 0.0066591264 0.0021734273
-0.002158704 0.0026671677 0.012608533 0.011695161 0.0039516506 -0.008342754 -0.0043283827 0.00025023933
0.0020053065 -0.003952539 0.0078122593 0.015326728 0.009919916 0.008310634 -0.0020615577 0.0017672658
-0.015759373 -0.011349868 0.015551822 0.010351531 0.002546774 -0.0015158382 -0.0076104174 0.015734581
-0.0026863075 -0.010951611 0.006584546 -0.0013465339 -0.016509077 0.0030536198 0.01651007 0.0066250353
00000000: 0585 fe3b d2fd 2c3b 3326 383b d8c7 d5bb
00000010: dfbc 123c 0b6c cfb8 1fb9 a43b 3b40 a9ba
00000020: edd2 ba3b 9d14 deb9 b7cd 64bb bd0d 8bbc
00000030: 60f6 1ebb 381f edbb 89db b4bc e1bb 403b
00000040: 1766 103c 61a2 abbb c831 d33c 2a5f d0bb
00000050: 978c c53b 235c 923b 3979 c2bb 74c9 3bbb
00000060: 5960 8fbc ff9b 03bc b06a 91bc a2db be3a
00000070: 7880 e73a 34f3 263b cd22 5bbc 62fb 5f3c
00000080: 331e 33bb 9c55 883b 08d5 11bc 582e e039
00000090: 7fe4 a9bb 8153 a03b 6a31 d4bb 6de4 773b
000000a0: fa65 a43b 7544 15bc 10cd dbba 8d14 c339
000000b0: ff85 3ebc 87f3 853c 7bd3 4eb9 2291 bc3b
000000c0: 3ae8 f83b 3773 4c3b 52c7 f33b 779f 703c
000000d0: b8dc 353a b1ce 9f38 70a5 d737 4ad7 10bc
000000e0: 5036 a23c 204d f8bb a74e 6c3a c5e5 73bc
000000f0: 19f1 ab3b daa5 c5bb 4bcd 53bb 3b82 d13b
00000100: 274f 453c 404c 6b3c c2f2 5ebc b02c fa3b
00000110: 3a91 41ba b16f bfb9 4376 4ebc 058f d9bb
00000120: 0b47 acba 5b55 b53b 0de8 7c3c 93e0 f4bb
00000130: b623 a43b f81e bebc ab51 81bc 837c a83b
00000140: 50cb 9c3c a0ec 253c 6a19 1abc 4a74 3cba
00000150: 13a0 9839 982d e23b 901c 71bb b2e9 b93b
00000160: 451e 2e3c f71d a23b fde1 143c 06f0 46bb
00000170: e8ad e5ba 2dc2 7d3b 244c 8f3b 8b3a 173c
00000180: 43d1 dfbb 2df6 06bb 6d79 d53a 3802 d03b
00000190: 07c6 95bb 8d27 773c f60e 0bbc 09bd b5bb
000001a0: 478e 993b 7f2b 23bc c39f 4eba b178 02ba
000001b0: 50ed abbb b85a f639 ff38 4abc 9575 8bbb
000001c0: 16bb 9ebc ba5b 83ba c3ec 5ebb 024d 6bbb
000001d0: dbf4 003c 030b 95bb 6722 3fbb 1f22 99bb
000001e0: bcd9 35bc 0c8a 1cbc c8b3 77ba 5a51 7dbb
000001f0: fe78 383b 902c 7f3a 6953 ac3b 07d2 943b
00000200: ab23 79bb cbfb 843b ab95 5b3c 3b8e aebb
00000210: 7a39 4fbb 9b6c 6bbb da1c 4d3c 2ad0 dd38
00000220: 835a ccba 9c81 1a3a e9fb 213a 2b76 a9bc
00000230: fca6 0c3c 346e 94bb 65f7 26bc 8f49 a23c
00000240: 925b 3abc 0b97 373c 4595 40bc 2b35 703c
00000250: ebbd 68bb 70b6 203c b407 c5bb 1bbd de3a
00000260: c0b1 2e3c 4c81 11bc e9a3 c0bb 04eb 93bc
00000270: 5f8a 2a3a 58dd 0f3b 7606 803a 6965 99bc
00000280: 08a7 89bb 88e3 0e3c b7eb 083c 8ff7 b0ba
00000290: 7602 46bb 8333 703c 5d47 1cbc f955 44bc
000002a0: 1dc1 26bc 58f2 2d3c 2c7b 42bc e78a 413c
000002b0: adb8 333b 2297 1b3c 8d94 ebba 5242 92bb
000002c0: a7e0 133c 4bd4 103a 24fa 3db9 42aa 833c
000002d0: 52ea 98bb 7b55 afbb a389 df3c a0ee 9fbb
000002e0: 26cf c83a ad39 d2ba ac92 10bc 53fd e2bc
000002f0: f629 81bb 5305 1b3a f7ec 5bbb 8521 29bb
00000300: d3c9 f83a 4b68 8cbc c7e9 b43c 52c3 633b
00000310: e773 073c 8b24 7dbc 9044 af3b a0f4 44ba
00000320: 30f2 fdba 0b20 a93b ac2a a73c 999a 1d3b
00000330: fc84 cab9 3472 0d3b 12aa 30ba 4feb fdba
00000340: 756a be3c 4d57 6dba 4fee 82bc e972 88bc
00000350: c874 fe3a c2a4 e73b e589 87bb 46b9 43bb
00000360: b706 8db9 cda2 38bb 1fc3 66bc 9f5f d73a
00000370: 39dc 8ebb 0329 5cbc cd34 da3b 0f70 0e3b
00000380: 0b79 0dbb a6cb 2e3b 0594 4e3c 109d 3f3c
00000390: d97c 813b 0cb0 08bc 1bd5 8dbb 8e32 8339
000003a0: 766b 033b 4d84 81bb fbfd ff3b f51c 7b3c
000003b0: 2587 223c 5329 083c 331b 07bb 9aa3 e73a
000003c0: cd19 81bc ccf4 39bc 12cd 7e3c 7899 293c
000003d0: c7e7 263b 17af c6ba cf60 f9bb cfe5 803c
000003e0: c30c 30bb 636e 33bc 2dc3 d73b 2e7e b0ba
000003f0: 0b3e 87bc 3d1f 483b 2040 873c d316 d93b

action_model._discrete_distribution.branches.0.bias f4 [5]
0.0 0.0 0.0 0.0 0.0
00000000: 0000 0000 0000 0000 0000 0000 0000 0000
00000010: 0000 0000

network_body.linear_encoder.seq_layers.0.weight f4 [128, 9]
-0.30596635 0.6134919 -0.48460743 -0.08294204 -0.3187225 0.29747733 -0.35418937 -0.33644816
0.2792361 0.121602446 0.16033971 0.2613714 -0.25749892 -0.034718484 -0.5846342 0.1446765
-0.048549592 0.3135584 0.8532211 -0.0727952 0.27668574 0.2535551 0.078992456 0.14896268
-0.04130577 0.585714 -0.5464644 -0.00044640127 -0.25427455 0.28050458 0.6272041 -0.28820223
0.35872883 -0.2842669 0.049488924 -0.123438075 0.040023036 -0.06546695 -0.18452361 -0.29657075
-0.030941708 -0.30475175 0.24448946 -0.045137875 0.4333833 0.087327585 -0.03950142 -0.13616985
0.22825587 -0.4548572 -0.3233803 0.07679851 0.36716253 -0.2552685 0.0243865 -0.21199314
-0.7895075 0.04523523 -0.74965966 0.52313876 -0.08588809 -0.20543812 0.22950608 0.122169815
0.016779337 -0.3684456 0.2820683 0.10303032 0.123306364 0.97547376 0.2626748 0.371899
0.30644554 0.22549997 -0.36190623 0.16930607 -0.43493754 -0.49606 0.19032119 -0.1350005
-0.086294666 0.05019471 -0.08019146 0.30029958 0.18963861 0.21600185 0.31873572 0.018332155
0.10040691 -0.0029729193 -0.6175285 0.22365263 -0.29053038 -0.3343107 -0.49221194 -0.5263126
0.20627964 0.49231267 0.24686041 -0.21490982 0.11113612 0.035397664 -0.16293538 0.02024207
0.2866822 0.38274324 0.35732466 0.0075443084 -0.0014898854 0.31419495 0.18036245 0.5020651
0.19005477 -0.17723285 -0.1795653 -0.66089445 -0.006594984 0.32304084 -0.22947311 0.0412696
0.43067092 0.009126968 -0.07583225 -0.21378651 0.05136036 0.27355194 -0.915509 0.14335932
0.064450026 0.08497815 0.049993858 -0.30961314 -0.6682946 0.021616928 0.03461734 0.048167326
0.1116782 -0.2630303 -0.23612341 0.2651095 0.42331803 -0.052410387 -0.17760657 0.4268332
-0.088596836 0.29181978 0.52100927 -0.27000135 -0.26983815 -0.25398752 0.29905802 0.0048413556
-0.14941944 0.05464474 -0.122610174 0.5221515 -0.31594002 -0.2871857 0.09402056 0.045418542
-0.59624404 0.41515025 -0.21565263 0.20424604 0.21092716 -0.50785613 0.10430627 -0.58674914
0.79283446 -0.18742679 -0.34666836 -0.55933595 -0.05915993 -0.106471196 0.25684494 0.27712214
0.46154535 0.047928184 0.09851562 -0.28490448 0.71268284 0.24795835 -0.3100103 0.118089095
-0.35786194 0.011579661 -0.38580388 0.40083346 0.319045 -1.3087745 -0.014610637 0.15116599
0.03371633 0.06446521 -0.32480192 0.34851024 0.012188962 -0.034078166 -0.16460133 0.06969655
-0.45393455 -0.060529646 0.32422197 0.3821866 -0.2048558 0.18685703 -0.026534352 -0.22008193
-0.09615373 0.48394167 -0.1881274 0.60175145 -0.20599666 0.109680206 -0.30830106 -0.10901844
0.37253726 0.39909717 0.0077150404 -0.20779318 -0.6163963 0.12646616 -0.29879522 -0.23997352
0.17603378 -0.5217945 -0.030480392 -0.06149122 -0.07905489 0.009212648 0.05485411 0.6128813
-0.7164178 -0.14174509 -0.03065656 0.7005297 0.12937766 0.5791989 0.021198656 -0.15026268
-0.09719992 0.0059264284 0.41261834 -0.6192241 0.42202947 0.03945396 0.080388874 -0.17233156
0.39165437 0.055020012 0.46172166 -0.6908287 0.20701806 -0.41386542 0.6770295 -0.05704339
00000000: 9fa7 9cbe ce0d 1d3f 771e f8be 84dd a9bd
00000010: 982f a3be f34e 983e 4f58 b5be ef42 acbe
00000020: 09f8 8e3e b40a f93d 1830 243e 79d2 853e
00000030: e6d6 83be f834 0ebd 96aa 15bf 1426 143e
00000040: f0db 46bd ba8a a03e b36c 5a3f a615 95bd
00000050: c1a9 8d3e f9d1 813e ccc6 a13d ac89 183e
00000060: 3d30 29bd 5af1 153f 17e5 0bbf f70a eab9
00000070: 4630 82be 4c9e 8f3e 7390 203f 3e8f 93be
00000080: 4eab b73e 6e8b 91be e6b4 4a3d 1acd fcbd
00000090: 32ef 233d 8913 86bd c2f3 3cbe 1fd8 97be
000000a0: 7779 fdbc 6c08 9cbe 725b 7a3e 7ee2 38bd
000000b0: 6ae4 dd3e ced8 b23d 3ecc 21bd 1c70 0bbe
000000c0: e8bb 693e 0be3 e8be 1a92 a5be 8a48 9d3d
000000d0: bafc bb3e 8eb2 82be 32c6 c73c bb14 59be
000000e0: 2a1d 4abf 9448 393d b2e9 3fbf 6cec 053f
000000f0: 18e6 afbd 5f5e 52be a403 6b3e 2b34 fa3d
00000100: d274 893c e7a4 bcbe 426b 903e 8f01 d33d
00000110: 0c88 fc3d a6b8 793f 507d 863e 8c69 be3e
00000120: 6ee6 9c3e 77e9 663e c64b b9be 925e 2d3e
00000130: 22b0 debe 94fb fdbe 8fe3 423e 923d 0abe
00000140: 42bb b0bd f898 4d3d 6c3b a4bd dec0 993e
00000150: a030 423e 972f 5d3e 5431 a33e 512d 963c
00000160: 23a2 cd3d 4fd5 42bb 5916 1ebf 3205 653e
00000170: 66c0 94be c62a abbe 3403 fcbe 6cbc 06bf
00000180: f83a 533e 6810 fc3e fac8 7c3e 5211 5cbe
00000190: 569b e33d 24fd 103d 88d8 26be b3d2 a53c
000001a0: 02c8 923e ecf6 c33e 42f3 b63e 3f36 f73b
000001b0: 4248 c3ba 29de a03e efb0 383e 5787 003f
000001c0: b89d 423e 877c 35be f7df 37be 6130 29bf
000001d0: bc1a d8bb 9c65 a53e 00fb 6abe 500a 293d
000001e0: e680 dc3e 4789 153c f04d 9bbd daea 5abe
000001f0: 3e5f 523d 000f 8c3e cc5e 6abf c9cc 123e
00000200: 60fe 833d 0609 ae3d 5cc6 4c3d 9d85 9ebe
00000210: 5b15 2bbf fc15 b13c e9ca 0d3d 1a4b 453d
00000220: 8ab7 e43d e8ab 86be 56ca 71be 6fbc 873e
00000230: 24bd d83e 46ac 56bd 7fde 35be e289 da3e
00000240: 4272 b5bd 6769 953e dd60 053f 9e3d 8abe
00000250: 3a28 8abe a70a 82be 221e 993e 3ca4 9e3b
00000260: 6901 19be 2ad3 5f3d 0b1b fbbd b9ab 053f
00000270: e4c2 a1be 010a 93be da8d c03d cb08 3a3d
00000280: 73a3 18bf 938e d43e 0bd4 5cbe e025 513e
00000290: 4afd 573e dc02 02bf 879e d53d 3135 16bf
000002a0: 33f7 4a3f cfec 3fbe 847e b1be a430 0fbf
000002b0: af51 72bd 920d dabd 2e81 833e f4e2 8d3e
000002c0: ac4f ec3e 5850 443d 8fc2 c93d 00df 91be
000002d0: 6272 363f cbe8 7d3e acb9 9ebe b2d8 f13d
000002e0: ae39 b7be 9eb8 3d3c 1688 c5be 0b3a cd3e
000002f0: de59 a33e ec85 a7bf 7461 6fbc 42cb 1a3e
00000300: 221a 0a3d 5606 843d 704c a6be ef6f b23e
00000310: 36b4 473c 8c95 0bbd 408d 28be 11bd 8e3d
00000320: 1c6a e8be efed 77bd 6c00 a63e f6ad c33e
00000330: b8c5 51be 7357 3f3e 925e d9bc 285d 61be
00000340: 3fec c4bd 34c7 f73e 78a4 40be 620c 1a3f
00000350: caf0 52be 04a0 e03d a3d9 9dbe 0f45 dfbd
00000360: 34bd be3e 7756 cc3e 73ce fc3b bcc7 54be
00000370: 26cc 1dbf 5880 013e b0fb 98be 9ebb 75be
00000380: 3342 343e 5394 05bf 04b2 f9bc 38de 7bbd
00000390: 88e7 a1bd a5f0 163c b4ae 603d cae5 1c3f
000003a0: 2867 37bf a025 11be 7723 fbbc ea55 333f
000003b0: 947b 043e 6146 143f cea8 ad3c 76de 19be
000003c0: c010 c7bd 7c32 c23b b642 d33e 7885 1ebf
000003d0: 3f14 d83e 7a9a 213d eca2 a43d af77 30be
000003e0: ec86 c83e aa5c 613d c866 ec3e 26da 30bf
000003f0: 8bfc 533e 2be6 d3be ce51 2d3f 54a6 69bd

network_body.linear_encoder.seq_layers.0.bias f4 [128]
0.0 0.0 0.0 0.0 0.0 0.0 0.0 0.0
0.0 0.0 0.0 0.0 0.0 0.0 0.0 0.0
0.0 0.0 0.0 0.0 0.0 0.0 0.0 0.0
0.0 0.0 0.0 0.0 0.0 0.0 0.0 0.0
0.0 0.0 0.0 0.0 0.0 0.0 0.0 0.0
0.0 0.0 0.0 0.0 0.0 0.0 0.0 0.0
0.0 0.0 0.0 0.0 0.0 0.0 0.0 0.0
0.0 0.0 0.0 0.0 0.0 0.0 0.0 0.0
0.0 0.0 0.0 0.0 0.0 0.0 0.0 0.0
0.0 0.0 0.0 0.0 0.0 0.0 0.0 0.0
0.0 0.0 0.0 0.0 0.0 0.0 0.0 0.0
0.0 0.0 0.0 0.0 0.0 0.0 0.0 0.0
0.0 0.0 0.0 0.0 0.0 0.0 0.0 0.0
0.0 0.0 0.0 0.0 0.0 0.0 0.0 0.0
0.0 0.0 0.0 0.0 0.0 0.0 0.0 0.0
0.0 0.0 0.0 0.0 0.0 0.0 0.0 0.0
00000000: 0000 0000 0000 0000 0000 0000 0000 0000
00000010: 0000 0000 0000 0000 0000 0000 0000 0000
00000020: 0000 0000 0000 0000 0000 0000 0000 0000
00000030: 0000 0000 0000 0000 0000 0000 0000 0000
00000040: 0000 0000 0000 0000 0000 0000 0000 0000
00000050: 0000 0000 0000 0000 0000 0000 0000 0000
00000060: 0000 0000 0000 0000 0000 0000 0000 0000
00000070: 0000 0000 0000 0000 0000 0000 0000 0000
00000080: 0000 0000 0000 0000 0000 0000 0000 0000
00000090: 0000 0000 0000 0000 0000 0000 0000 0000
000000a0: 0000 0000 0000 0000 0000 0000 0000 0000
000000b0: 0000 0000 0000 0000 0000 0000 0000 0000
000000c0: 0000 0000 0000 0000 0000 0000 0000 0000
000000d0: 0000 0000 0000 0000 0000 0000 0000 0000
000000e0: 0000 0000 0000 0000 0000 0000 0000 0000
000000f0: 0000 0000 0000 0000 0000 0000 0000 0000
00000100: 0000 0000 0000 0000 0000 0000 0000 0000
00000110: 0000 0000 0000 0000 0000 0000 0000 0000
00000120: 0000 0000 0000 0000 0000 0000 0000 0000
00000130: 0000 0000 0000 0000 0000 0000 0000 0000
00000140: 0000 0000 0000 0000 0000 0000 0000 0000
00000150: 0000 0000 0000 0000 0000 0000 0000 0000
00000160: 0000 0000 0000 0000 0000 0000 0000 0000
00000170: 0000 0000 0000 0000 0000 0000 0000 0000
00000180: 0000 0000 0000 0000 0000 0000 0000 0000
00000190: 0000 0000 0000 0000 0000 0000 0000 0000
000001a0: 0000 0000 0000 0000 0000 0000 0000 0000
000001b0: 0000 0000 0000 0000 0000 0000 0000 0000
000001c0: 0000 0000 0000 0000 0000 0000 0000 0000
000001d0: 0000 0000 0000 0000 0000 0000 0000 0000
000001e0: 0000 0000 0000 0000 0000 0000 0000 0000
000001f0: 0000 0000 0000 0000 0000 0000 0000 0000

network_body.linear_encoder.seq_layers.2.weight f4 [128, 128]
-0.10499356 0.12105236 -0.063533515 0.004856514 -0.04633371 -0.012063381 0.08027226 0.024913115
-0.12085993 -0.11030641 0.055484142 -0.007739748 0.0054726633 0.060811426 -0.012445506 0.036758386
-0.022404118 -0.08182319 0.22507837 0.12482502 -0.050001323 -0.057479713 0.014458585 0.0864951
0.01229318 -0.02403317 0.05144892 -0.016584633 0.062316407 0.111755885 0.118598245 0.002807582
0.056787584 -0.01738245 -0.09222591 0.033326503 0.08632196 0.044268757 -0.049060855 -0.026118241
0.06840438 -0.06872776 -0.11427273 -0.018023062 -0.042537488 0.1412358 -0.08974049 -0.040667474
-0.17553706 -0.040521093 0.09758013 0.027769355 -0.13976566 0.027903695 0.004645491 -0.038418043
-0.00086291245 -0.059479024 -0.06493893 -0.17173973 0.08790933 -0.11395515 -0.020707248 -0.05125927
0.08583965 -0.16003573 0.063663326 0.10216524 0.052929725 0.094139904 -0.11358859 0.0005934199
-0.04636705 0.09052188 -0.011430338 0.16849235 0.08642143 -0.09298734 -0.1454532 -0.06366145
0.12630257 -0.13998337 -0.05492303 0.01031889 -0.09062736 -0.07761424 -0.019853411 0.17934114
-0.043532163 0.0373141 -0.027497984 -0.10276044 -0.06641986 0.09643141 0.085948125 0.01187986
0.11123204 -0.11133878 -0.037141204 -0.010916914 0.22191176 0.004395272 -0.03830503 0.036124405
-0.05485698 -0.017126534 0.015679361 0.05993419 -0.030939622 -0.11581267 -0.06661294 -0.10716938
0.017420689 -0.07795324 -0.0691654 0.11705199 -0.041244913 0.08028135 0.03753965 0.057379518
-0.03147375 0.2053394 -0.21213576 0.076326236 0.06517806 -0.3120992 -0.031676143 0.090551935
0.026315467 -0.16149 0.015920587 -0.11204003 0.08647468 -0.03655014 0.07263577 -0.07380428
-0.007612742 0.02565956 -0.06522591 -0.10935836 0.033423692 0.029223165 0.046533503 -0.09941863
0.09122981 0.04995361 -0.0109425485 0.06729496 -0.19826202 -0.052079238 -0.16884042 0.03232304
0.038251307 0.06383019 -0.03560548 0.1123598 -0.00045994887 0.15090221 -0.010117718 0.14701544
0.21614833 0.058010753 0.16036828 -0.11616028 -0.054599233 -0.008028883 -0.02047459 -0.042510986
0.033253618 -0.05547981 -0.0360891 0.044047043 0.008161335 0.089938335 -0.029793944 -0.020288667
0.0073103765 0.07510323 -0.011636381 -0.090158254 0.014768121 0.029742192 -0.05478817 -0.0938954
0.026851496 -0.19507274 -0.016442927 -0.12925643 0.027724518 0.015923837 0.15873298 -0.11016551
0.0729102 0.011800548 0.029407552 0.030362327 -0.06677618 0.01543787 -0.0035109282 -0.06243234
-0.10417542 0.13219808 -0.0305683 -0.050118893 -0.0056098728 -0.10156741 0.026588978 0.065018475
0.08141555 0.10827795 0.0035518953 0.09959577 0.05558852 0.04275354 -0.014436661 -0.034480207
-0.052625757 0.19585566 -0.029310875 -0.22662891 -0.025015334 0.015887616 0.007910862 0.018449565
0.057093438 0.012184932 0.104909755 0.10743926 -0.028942063 0.024417052 0.11308464 0.014945948
-0.022095766 0.015868656 0.063802615 0.055635255 0.11411726 0.06521933 -0.033214625 0.070335455
0.017742096 0.1736473 -0.064798534 0.05298129 0.051713135 -0.18947238 0.09147386 0.15901268
0.19991955 0.018699523 -0.04408605 -0.08820192 0.115997955 -0.06373942 0.11076279 0.019143179
00000000: dd06 d7bd 4dea f73d dc1d 82bd 6423 9f3b
00000010: 6bc8 3dbd 7da5 45bc c865 a43d 9716 cc3c
00000020: 6985 f7bd 54e8 e1bd 5743 633d b69d fdbb
00000030: 0754 b33b 6715 793d 3ce8 4bbc f68f 163d
00000040: d788 b7bc eb92 a7bd f27a 663e 43a4 ff3d
00000050: 30ce 4cbd d96f 6bbd b3e3 6c3c 5824 b13d
00000060: 5669 493c 36e1 c4bc 1abc 523d 7fdc 87bc
00000070: 7d3f 7f3d 45e0 e43d a3e3 f23d 69ff 373b
00000080: 199a 683d a465 8ebc f0e0 bcbd 5f81 083d
00000090: 91c9 b03d 2853 353d 09f4 48bd ecf5 d5bc
000000a0: 9817 8c3d 24c1 8cbd d207 eabd 1aa5 93bc
000000b0: ca3b 2ebd 1ea0 103e ddc9 b7bd f092 26bd
000000c0: fdbf 33be 72f9 25bd 17d8 c73d 8f7c e33c
000000d0: bb1e 0fbe 4a96 e43c 3439 983b 3d5c 1dbd
000000e0: 1335 62ba 47a0 73bd b4fe 84bd 8adc 2fbe
000000f0: cf09 b43d 5161 e9bd 3fa2 a9bc 3ef5 51bd
00000100: b3cc af3d 68e0 23be eb61 823d 023c d13d
00000110: d7cc 583d 6ccc c03d 22a1 e8bd bc8f 1b3a
00000120: 60eb 3dbd 8963 b93d 5046 3bbc 4289 2c3e
00000130: b8fd b03d 2670 bebd aff1 14be ef60 82bd
00000140: 7655 013e cd57 0fbe f9f6 60bd 9010 293c
00000150: d69a b9bd 37f4 9ebd 9fa3 a2bc 34a5 373e
00000160: c84e 32bd abd6 183d 7443 e1bc 1174 d2bd
00000170: 2307 88bd d57d c53d 9205 b03d bfa3 423c
00000180: a0cd e33d 9605 e4bd 6021 18bd dbdc 32bc
00000190: d63c 633e 3706 903b bce5 1cbd 2ff7 133d
000001a0: b6b1 60bd f24c 8cbc 0172 803c 8e7d 753d
000001b0: 1775 fdbc 312f edbd 5d6c 88bd 9f7b dbbd
000001c0: d5b5 8e3c f3a5 9fbd 97a6 8dbd f4b8 ef3d
000001d0: 6df0 28bd 8c6a a43d 2dc3 193d c906 6b3d
000001e0: 9eea 00bd 7e44 523e 1e3a 59be ee50 9c3d
000001f0: 137c 853d 77cb 9fbe d8be 01bd 4b73 b93d
00000200: 8993 d73c a25d 25be e46b 823c 3e75 e5bd
00000210: a319 b13d 99b5 15bd 10c2 943d b326 97bd
00000220: 4f74 f9bb ff33 d23c 2995 85bd 47f7 dfbd
00000230: 48e7 083d 6b65 ef3c ea99 3e3d ff9b cbbd
00000240: b2d6 ba3d 289c 4c3d 6048 33bc f1d1 893d
00000250: 3305 4bbe 0a51 55bd 81e4 2cbe 2a65 043d
00000260: 67ad 1c3d 67b9 823d 0dd7 11bd e51c e63d
00000270: 4b25 f1b9 1c86 1a3e c9c4 25bc 378b 163e
00000280: fd55 5d3e af9c 6d3d 9537 243e 71e5 edbd
00000290: 72a3 5fbd 938b 03bc 54ba a7bc 0020 2ebd
000002a0: f234 083d cc3e 63bd 2ad2 13bd ac6a 343d
000002b0: 1fb7 053c 9731 b83d 6e12 f4bc 6b34 a6bc
000002c0: e28b ef3b b9cf 993d 85a6 3ebc e4a4 b8bd
000002d0: fdf5 713c e6a5 f33c 8f69 60bd 3b4c c0bd
000002e0: abf7 db3c 26c1 47be 51b3 86bc cc5b 04be
000002f0: 871e e33c b572 823c e68a 223e 749e e1bd
00000300: f151 953d 1657 413c 1be8 f03c 6aba f83c
00000310: f3c1 88bd 1fef 7c3c 9a17 66bb 0eb9 7fbd
00000320: ec59 d5bd ef5e 073e 5f6a fabc 7849 4dbd
00000330: 06d3 b7bb 9302 d0bd 21d1 d93c 6828 853d
00000340: 32bd a63d d4c0 dd3d eac6 683b def8 cb3d
00000350: cab0 633d 561e 2f3d bf87 6cbc 1e3b 0dbd
00000360: 1b8e 57bd 638e 483e 5c1d f0bc 6911 68be
00000370: f5ec ccbc bf26 823c 8f9c 013c 8b23 973c
00000380: cfda 693d 4fa3 473c edda d63d 1d09 dc3d
00000390: e817 edbc 4506 c83c eb98 e73d d9df 743c
000003a0: 2e02 b5bc fcfe 813c f2aa 823d cbe1 633d
000003b0: 4fb6 e93d b691 853d 0f0c 08bd 090c 903d
000003c0: df57 913c 99d0 313e 18b5 84bd e902 593d
000003d0: 27d1 533d 0c05 42be a656 bb3d 38d4 223e
000003e0: b6b7 4c3e be2f 993c 9393 34bd 35a3 b4bd
000003f0: 5690 ed3d d089 82bd 9ad7 e23d 28d2 9c3c

network_body.linear_encoder.seq_layers.2.bias f4 [128]
0.0 0.0 0.0 0.0 0.0 0.0 0.0 0.0
0.0 0.0 0.0 0.0 0.0 0.0 0.0 0.0
0.0 0.0 0.0 0.0 0.0 0.0 0.0 0.0
0.0 0.0 0.0 0.0 0.0 0.0 0.0 0.0
0.0 0.0 0.0 0.0 0.0 0.0 0.0 0.0
0.0 0.0 0.0 0.0 0.0 0.0 0.0 0.0
0.0 0.0 0.0 0.0 0.0 0.0 0.0 0.0
0.0 0.0 0.0 0.0 0.0 0.0 0.0 0.0
0.0 0.0 0.0 0.0 0.0 0.0 0.0 0.0
0.0 0.0 0.0 0.0 0.0 0.0 0.0 0.0
0.0 0.0 0.0 0.0 0.0 0.0 0.0 0.0
0.0 0.0 0.0 0.0 0.0 0.0 0.0 0.0
0.0 0.0 0.0 0.0 0.0 0.0 0.0 0.0
0.0 0.0 0.0 0.0 0.0 0.0 0.0 0.0
0.0 0.0 0.0 0.0 0.0 0.0 0.0 0.0
0.0 0.0 0.0 0.0 0.0 0.0 0.0 0.0
00000000: 0000 0000 0000 0000 0000 0000 0000 0000
00000010: 0000 0000 0000 0000 0000 0000 0000 0000
00000020: 0000 0000 0000 0000 0000 0000 0000 0000
00000030: 0000 0000 0000 0000 0000 0000 0000 0000
00000040: 0000 0000 0000 0000 0000 0000 0000 0000
00000050: 0000 0000 0000 0000 0000 0000 0000 0000
00000060: 0000 0000 0000 0000 0000 0000 0000 0000
00000070: 0000 0000 0000 0000 0000 0000 0000 0000
00000080: 0000 0000 0000 0000 0000 0000 0000 0000
00000090: 0000 0000 0000 0000 0000 0000 0000 0000
000000a0: 0000 0000 0000 0000 0000 0000 0000 0000
000000b0: 0000 0000 0000 0000 0000 0000 0000 0000
000000c0: 0000 0000 0000 0000 0000 0000 0000 0000
000000d0: 0000 0000 0000 0000 0000 0000 0000 0000
000000e0: 0000 0000 0000 0000 0000 0000 0000 0000
000000f0: 0000 0000 0000 0000 0000 0000 0000 0000
00000100: 0000 0000 0000 0000 0000 0000 0000 0000
00000110: 0000 0000 0000 0000 0000 0000 0000 0000
00000120: 0000 0000 0000 0000 0000 0000 0000 0000
00000130: 0000 0000 0000 0000 0000 0000 0000 0000
00000140: 0000 0000 0000 0000 0000 0000 0000 0000
00000150: 0000 0000 0000 0000 0000 0000 0000 0000
00000160: 0000 0000 0000 0000 0000 0000 0000 0000
00000170: 0000 0000 0000 0000 0000 0000 0000 0000
00000180: 0000 0000 0000 0000 0000 0000 0000 0000
00000190: 0000 0000 0000 0000 0000 0000 0000 0000
000001a0: 0000 0000 0000 0000 0000 0000 0000 0000
000001b0: 0000 0000 0000 0000 0000 0000 0000 0000
000001c0: 0000 0000 0000 0000 0000 0000 0000 0000
000001d0: 0000 0000 0000 0000 0000 0000 0000 0000
000001e0: 0000 0000 0000 0000 0000 0000 0000 0000
000001f0: 0000 0000 0000 0000 0000 0000 0000 0000

value_heads.value_heads.extrinsic.weight f4 [1, 128]
-0.13101351 -0.18180028 -0.1582358 0.051523387 -0.107369155 0.010034502 -0.13867716 -0.11771223
0.049164563 -0.21311148 -0.0965155 0.027243286 -0.038865596 0.19848812 0.03811732 -0.08916733
0.038954675 0.14349702 0.13569182 -0.17971537 -0.17081064 0.05874577 0.102160156 -0.072720736
-0.025729671 0.16338688 0.11995956 -0.12836757 0.08747399 -0.14962062 -0.0767722 -0.11026141
-0.07093939 -0.07809074 0.20064878 0.08206403 0.021458015 0.021073714 -0.014043808 -0.096356176
-0.009761572 -0.11042574 0.08026603 -0.1679112 0.2115303 0.18184808 0.037797302 0.15446383
-0.18689506 0.10973933 -0.03753601 0.115686655 -0.18993467 -0.003036663 0.0197756 -0.15189648
0.17673859 0.18203825 0.16328332 0.1519658 -0.040831596 -0.08249059 0.14432949 0.16602841
-0.007008061 0.03976956 0.20373407 -0.03443989 0.037404835 0.16076508 0.10585034 0.1940706
0.19812286 -0.14499053 0.032933637 -0.11969463 -0.09161042 0.17493385 -0.07579066 0.16315559
-0.002729714 -0.062295735 0.15566641 -0.06042041 -0.038843498 -0.1524134 0.11816162 -0.095621586
0.20007232 -0.11912848 0.15416011 0.088923395 -0.19519778 0.11147624 -0.14259341 -0.09339598
-0.15898605 0.12279883 -0.16412789 -0.17742494 0.052018613 0.17698297 -0.12390227 -0.1598994
0.06308612 -0.088570744 0.16623074 0.18007216 -0.08509578 0.06102565 -0.062879786 0.1241304
-0.115955435 0.19326314 -0.17380558 0.0834969 -0.04109077 0.060285926 0.100171596 0.20313028
-0.21453583 -0.20169972 -0.009153545 -0.18813843 0.12705794 -0.15877956 0.101873696 -0.05933343
00000000: 6828 06be da29 3abe 9108 22be 300a 533d
00000010: 5ce4 dbbd c067 243c 6301 0ebe 1c13 f1bd
00000020: c860 493d e539 5abe eba9 c5bd 502d df3c
00000030: 8831 1fbd 7840 4b3e e820 1c3d 5c9d b6bd
00000040: f08e 1f3d e2f0 123e ccf2 0a3e 4e07 38be
00000050: fce8 2ebe 689f 703d 5839 d13d 9cee 94bd
00000060: 08c7 d2bc e44e 273e 5cad f53d ca72 03be
00000070: 9025 b33d 2636 19be be3a 9dbd bcd0 e1bd
00000080: ac48 91bd 0aee 9fbd e076 4d3e 3011 a83d
00000090: b8c8 af3c c8a2 ac3c 0018 66bc 6356 c5bd
000000a0: 00ef 1fbc e426 e2bd 8462 a43d eaf0 2bbe
000000b0: 669b 583e 6236 3a3e 58d1 1a3d c42b 1e3e
000000c0: 6b61 3fbe 04bf e03d 5cbf 19bd 20ed ec3d
000000d0: 3c7e 42be c002 47bb 7000 a23c c08a 1bbe
000000e0: f6fa 343e 3c68 3a3e be33 273e ec9c 1b3e
000000f0: 083f 27bd d4f0 a8bd 1ccb 133e 5a03 2a3e
00000100: e0a3 e5bb 68e5 223d aa9f 503e d810 0dbd
00000110: d035 193d 9a9f 243e 10c8 d83d 72ba 463e
00000120: b8e0 4a3e 6678 14be 6ce5 063d 7522 f5bd
00000130: 3e9e bbbd dc21 333e 2238 9bbd 4212 273e
00000140: 00e5 32bb d029 7fbd 0467 1f3e 647b 77bd
00000150: 5c1a 1fbd 4212 1cbe b8fe f13d 40d5 c3bd
00000160: c2df 4c3e a2f9 f3bd 26dc 1d3e 781d b63d
00000170: ede1 47be a84d e43d 0204 12be 6446 bfbd
00000180: 3dcd 22be f47d fb3d 2411 28be e2ae 35be
00000190: 7811 553d 063b 353e 79c0 fdbd abbc 23be
000001a0: 4c33 813d 9464 b5bd 6438 2a3e d664 383e
000001b0: b246 aebd 08f6 793d 1ec7 80bd 1438 fe3d
000001c0: 0b7a edbd c6e6 453e 17fa 31be 6c00 ab3d
000001d0: cc4e 28bd 60ee 763d c426 cd3d 6201 503e
000001e0: 48af 5bbe 5f8a 4ebe c0f8 15bc 5ca7 40be
000001f0: 7a1b 023e 1c97 22be 28a3 d03d 9c07 73bd
