UnityController/results/alex/MoveToGoal/MoveToGoal-220665.pt (torch, 438623 bytes, 36 tensors)

network_body.linear_encoder.seq_layers.0.weight f4 [128, 6]
00000000: b2c5 b5be a836 b0be a866 52be 6288 7b3d
00000010: eeaf a73e afe4 d63e 0dac dcbe 2d70 2f3f
00000020: 002b 223e f763 8fbe 8cfe fcbe 5411 a33e
00000030: 51cb 42bf 9ac9 ec3e 0693 6e3e 632a 9cbe
00000040: a3c1 d0be 259c 19bf c5ea 29bf 1539 e33c
00000050: 90da 923e 310d 6bbe 976d a83c 7466 383e
00000060: dab1 8dbe 6996 0abe bbd6 4ebe 657b a03e
00000070: b8ee 153f 3464 11bf 83ef 02be b970 16be
00000080: 10ec f03e ff6c 473e 0f0a 3fbe f715 403d
00000090: 9efe 2d3e 34b5 73bf fe62 fc3c 66fc 1fbf
000000a0: 0b7c 76be 72e4 d53e 429c c0bc 6727 f7be
000000b0: a027 2d3e 54c8 3cbe 44dc 2ebe f708 c33e
000000c0: 4682 39be 94c5 3b3f de4f cbbe 4e52 5ebd
000000d0: 1248 2abe 96b9 85be e139 c53d afcb dd3e
000000e0: 21d6 873e 69ed a23e 5c96 e6bd 68e6 6b3e
000000f0: 7368 953e 7fc8 4f3d d362 703e 7c13 f3be
00000100: 4cb6 fabe 8ebe 81be 8a84 363f 999b 2ebd
00000110: fe01 2abf a045 78bd 9526 443e 7e55 9a3e
00000120: c1b0 db3e 2ecd be3e 0a73 17bf b871 b4bc
00000130: f527 57bd 49d5 653e 93ee ab3c 04ef fc3e
00000140: 472b 4f3f 4688 733f 1f6e 9c3e 77ac 863e
00000150: 19ac abbd 60cf 4f3e 0d2a 9ebe 0a15 d8bc
00000160: 34ef 1abe fcd7 113f c93a a3bc 0682 ba3e
00000170: 2759 d6be b4af 0b3d 0c16 dfbd 1c7f 6e3d
00000180: df00 d7be 1b9e 3fbf e13f 4c3e c0a2 f3be
00000190: 314d 08bd 667e 0bbf 7a9b d2be 8b67 853f
000001a0: d5bc 61bf 60b3 d63e ce9d a23d 48ee 833e
000001b0: f792 2cbf 217a d9be f5d4 c4be 0388 adbe
000001c0: 9d3e 91be a42a 66bb cc82 53be 5500 c8be
000001d0: c811 96be c72a f63e 6f0f 0abd 1822 1e3e
000001e0: 21ec 1dbf 22b6 553f 08b2 40bf b293 06bc
000001f0: eb5f ac3e 8e48 cb3d 8194 26be 6616 ecbe
00000200: 1b60 31bd bad1 16bf ecbb ddbe 1e2b 48be
00000210: 1e61 1e3f 1226 b1be 83ab 79be 0186 e6be
00000220: cb9b 2abf 4f62 73be ad00 fb3e 7df4 e03e
00000230: 5ee5 6e3e a8b0 25bf 321d c4be 1ab0 5e3d
00000240: c8e2 533c a37d 94be 9770 63be 851c 70bf
00000250: 42d9 01bf 4f0e 7bbf fcc4 f4be 93ee 8a3e
00000260: 34e8 1a3f bbc0 003f 6e64 c9bd 4d02 a4be
00000270: cff7 d23e 1d44 efbe eea9 1b3f 5295 cfbd
00000280: 9685 62bd 2653 183c d3bb 763e fc55 9d3e
00000290: b397 76be d0ed 623e 6918 f2bd d098 d9be
000002a0: a1e2 aa3e 298d b13e 0d77 d2be 2935 5a3f
000002b0: 521c 01be af41 70be ef2b 87be a4bf 9dbd
000002c0: f3a3 6cbf 25c1 0b3f 4857 18bc 2adb c13e
000002d0: 328f 5ebe 6712 3f3e ff82 1b3e 56e3 5fbe
000002e0: 90d7 ae3d fc6e bd3e 8ef6 f2bd 6ba8 053f
000002f0: e76a 80be b870 dbbe 411f f7bd 58dc f93c
00000300: ee6a 99ba b165 08bf 4dae cc3e 6f70 a43e
00000310: 0103 db3e f2ef 6cbe c972 4fbf 6a1c 88be
00000320: 3f98 e63b a4d8 d33e 5953 b5be 5fe6 343e
00000330: c125 123e 4fd9 bbbe c00d efbc 343b f5be
00000340: 3266 97be 66ce 09bf 733d 28be e204 9c3d
00000350: 6a41 60bb 6333 2f3e 62c8 efbc 3fd0 513d
00000360: a589 20be 25d3 7c3e fad8 0b3e eefd c1be
00000370: 88ec 6c3e e5a1 963d cd61 90be fbac 0bbf
00000380: fbf5 223e 90a0 b63d a756 12bf 6261 2ebf
00000390: 1be8 333f 428f 41be fbfb 133d 6674 6ebe
000003a0: 5a5c 9ebe 9246 5f3d 81c7 883d 430f 433f
000003b0: fe60 8cbe 49b6 1b3e db7b a63e 9c7c 89be
000003c0: 3302 3d3d 2a11 993e 5fd7 fabe 5bc6 993e
000003d0: 8644 c3ba d0d9 5fbd 2015 bb3d 5aff c2bd
000003e0: 0d86 5fbf d114 8dbe 1eac f8be 31fb 13bc
000003f0: 52f4 df3d 894f 423e f076 343f 2ddc babd
-0.35502392 -0.344167 -0.20546973 0.06140936 0.3275141 0.41971347 -0.43100014 0.6853054
0.15836716 -0.28005955 -0.49412954 0.31849158 -0.76091486 0.4624756 0.23298272 -0.30501089
-0.40772733 -0.6000388 -0.66373855 0.02773718 0.28682375 -0.22954251 0.020560069 0.18007833
-0.27674752 -0.1353394 -0.201991 0.31344143 0.5856738 -0.5679352 -0.12786679 -0.14691438
0.470551 0.19475172 -0.18656181 0.046895947 0.1699166 -0.9519837 0.030808922 -0.62494504
-0.24070756 0.41775852 -0.02351201 -0.4827225 0.16909647 -0.18435794 -0.17076212 0.38092777
-0.18116102 0.73348355 -0.3970937 -0.05427771 -0.16629055 -0.26118153 0.0963018 0.4331946
0.26530555 0.31821755 -0.112591475 0.23037112 0.2918125 0.050728317 0.23475198 -0.47475803
-0.48967206 -0.25340694 0.7129599 -0.04262886 -0.6640929 -0.060613275 0.19155343 0.3014335
0.4290829 0.37265915 -0.5915991 -0.022026882 -0.05252834 0.22444643 0.020987784 0.49401104
0.8092541 0.9512981 0.30552766 0.26303455 -0.083824344 0.20293951 -0.30891457 -0.02637722
-0.15130311 0.5697019 -0.019925492 0.36427325 -0.41864893 0.03410311 -0.10892877 0.05822669
-0.41992852 -0.74850625 0.19946243 -0.47585106 -0.03327674 -0.54489744 -0.41134244 1.0422224
-0.8817876 0.41933727 0.07940255 0.25767732 -0.6741175 -0.4247599 -0.38443723 -0.3389283
-0.28368083 -0.003512063 -0.20655364 -0.39062753 -0.2931044 0.48079512 -0.033706125 0.15442693
-0.6168843 0.8348104 -0.75271654 -0.008213924 0.3366693 0.09925948 -0.16267587 -0.4611084
-0.043304544 -0.5891377 -0.43307436 -0.19547698 0.6186694 -0.34599358 -0.24381833 -0.45024112
-0.6664397 -0.2376797 0.49023953 0.4393653 0.23329684 -0.6472268 -0.38303524 0.054367162
0.012932487 -0.29002103 -0.22210918 -0.9379352 -0.50722134 -0.9806871 -0.47806537 0.27135143
0.60510564 0.50294083 -0.098336086 -0.32033005 0.41204688 -0.46731654 0.6080617 -0.101359025
-0.05530318 0.009297168 0.24095087 0.30729663 -0.24081306 0.22161031 -0.11821062 -0.424994
0.3337603 0.3467801 -0.41106454 0.85237366 -0.1260846 -0.23462556 -0.26400706 -0.07702568
-0.92437667 0.5459159 -0.009298153 0.3786252 -0.21734312 0.18659364 0.1518669 -0.21864066
0.08537209 0.36998737 -0.11863433 0.5221011 -0.2508156 -0.42859435 -0.12066508 0.030500576
-0.0011704841 -0.5328017 0.3997673 0.3211703 0.4277573 -0.23138407 -0.81034523 -0.26584178
0.007037192 0.4137622 -0.35415152 0.17666005 0.14272214 -0.3668923 -0.029181361 -0.4789673
-0.29570156 -0.53830564 -0.16429691 0.07618119 -0.0034218677 0.17109446 -0.029270355 0.05122399
-0.15677507 0.2468992 0.13656989 -0.37889045 0.23137105 0.07355098 -0.28199616 -0.5456082
0.15914147 0.089173436 -0.5716347 -0.68117344 0.7027604 -0.18902305 0.03612898 -0.2328659
-0.30929834 0.05451066 0.06678677 0.7619516 -0.2741775 0.15206255 0.3251637 -0.26852882
0.046144675 0.29895908 -0.4899244 0.30034146 -0.0014897741 -0.05465108 0.09134889 -0.09521361
-0.8731392 -0.27554944 -0.48568815 -0.009032057 0.10935272 0.18975653 0.70493984 -0.091240264

network_body.linear_encoder.seq_layers.0.bias f4 [128]
00000000: bdcb a9bb 5cb1 823c 12d1 e0bc d6c3 21bd
00000010: 5865 463c 154b adbb ee81 52bc 94ed 933b
00000020: bb74 cc3b ecb1 b4b9 30f9 16bc 8ef0 863c
00000030: ce23 163c 1418 143c a497 343b f44d 4dbc
00000040: f12c 083c 9c95 043c 419f dabb 7d55 15bc
00000050: a32c 053c 484e dbba 3183 89bb cd54 a23b
00000060: 44ef 6c3c d065 733c 83c3 46bd cab6 923c
00000070: 6998 04bd 1834 2fbc f705 ae3b 6b32 c53c
00000080: fb88 99bc 147e 4fbd ec94 863a 1681 553c
00000090: 22e0 a63c 1eae 2fbd d9f8 563c c298 ec3c
000000a0: cd2c ef3b 67be 6abd 54fe 9dbc f70a e1bc
000000b0: 4b91 123c c5e2 1c3a 6fad ccbc 5878 b73c
000000c0: 62ac bb3c 88de 1b36 c2a4 6d3c 012b 2a3d
000000d0: f7e5 e73b 3738 8c3c bfcd 213d 0184 e3bb
000000e0: c21d 6abb 7a6e 9c3c 98b8 883b a0fe d8bb
000000f0: f807 8a3c 9148 b63a d038 99bc 69a5 1d3d
00000100: df94 1bbd 167f 493d ab40 3abd 9883 0bbd
00000110: 2436 06bd 9d25 203d 077c 8cbc d03c aebc
00000120: 3933 0ebd e7ba f3bc 133c 35bd eb12 a13c
00000130: 4f5b dc3b 5532 1cbd 811c e8bc fceb 993c
00000140: 9bb7 39bd dae3 2dbc ad93 ad3c d260 123d
00000150: 782d 773c e0c6 c7bb 5ac1 253b a430 02bc
00000160: d149 3b3b 3256 0a3d 2535 1a3d f5a9 9fbc
00000170: f74c 913b 9f1a e0bc b926 9bbc 5a80 973a
00000180: bb88 da3b 5706 8fbc f78c 2dbd 65a0 32bd
00000190: 135b 1abc 7f15 55bc ae99 1d3c a84d 013d
000001a0: 3277 ddbc f7aa 40bc e327 073c b73b 883c
000001b0: 4195 e53b 0bc7 9d3a b716 a13c de5d 74bb
000001c0: 2cfb 3f3d 1358 993c 1ae0 7b3c 29d2 863c
000001d0: b027 6e3c 212e d1bb 3796 36bc 1457 5fbc
000001e0: fb77 dcbb 8d98 07bb 1ada acbc 8927 84bb
000001f0: 6c5c 32bc 129a b8bc 89b6 9a3b 805b c73c
-0.005181758 0.015953712 -0.027443442 -0.039493404 0.012109123 -0.0052884915 -0.01284836 0.0045144055
0.0062395013 -0.00034464838 -0.009214684 0.016472127 0.00916381 0.009038944 0.0027556205 -0.0125307925
0.008311496 0.00809231 -0.0066718166 -0.00911462 0.008128318 -0.0016731704 -0.0041965474 0.0049539567
0.014461342 0.014855817 -0.0485263 0.017909426 -0.032371912 -0.010693572 0.0053107697 0.024071893
-0.018742075 -0.050657347 0.0010267771 0.013031265 0.020370547 -0.04289066 0.013120853 0.028881434
0.007299042 -0.057310488 -0.019286312 -0.027471049 0.008945773 0.0005984719 -0.024985043 0.022396252
0.022909347 2.322633e-06 0.014504613 0.041544918 0.0070769745 0.01711665 0.039502855 -0.0069432263
-0.0035723303 0.019095648 0.004172396 -0.0066221505 0.016849503 0.0013907125 -0.018703848 0.038487826
-0.03798377 0.049193464 -0.04547183 -0.034061044 -0.032766476 0.03909837 -0.017148985 -0.021269232
-0.03471682 -0.029752208 -0.044246744 0.019662341 0.006724752 -0.038133938 -0.028333904 0.018789284
-0.045341115 -0.010613406 0.021188581 0.035736866 0.015086524 -0.006096706 0.0025292248 -0.007946167
0.0028577934 0.03377361 0.03764834 -0.019490222 0.0044342238 -0.027356444 -0.018939363 0.0011558637
0.0066691316 -0.017459078 -0.042370763 -0.043609995 -0.009421128 -0.013005613 0.00961916 0.0315682
-0.027034376 -0.011759511 0.008249256 0.016630037 0.007006318 0.0012037469 0.019664152 -0.0037287395
0.046870396 0.018718755 0.015373254 0.016457634 0.014535829 -0.006383673 -0.011144212 -0.013631601
-0.00672817 -0.0020690293 -0.021100093 -0.0040330333 -0.010886293 -0.022534404 0.004721467 0.024335623

network_body.linear_encoder.seq_layers.2.weight f4 [128, 128]
00000000: 56eb b83c 3410 28bd aed2 8ebd 0afd cd3d
00000010: e34b 653d a068 bfbd a848 5a3d a48e a73d
00000020: 70e1 993e f709 cbbd d614 cd3d 62b4 5a3d
00000030: 29a1 31be f7dd 813d 413b ccbd 9302 db3c
00000040: bdaa 9e3d 357a a43d ada0 81b9 6bec c03d
00000050: 6ebe 873c e054 e43c 4150 223d 4cca e33c
00000060: 8f4b 163e 786d 013e ed7c 15be cc95 543d
00000070: 1ffb 94bd 729a 0a3e 739a 58bd b95a a13d
00000080: c8ad aabd 327e 3dbe c5f4 4e3d e1dd aebc
00000090: 551a f23c 1334 dfbd f4ad 36be 2b84 0a3a
000000a0: cb5c 01be ffdb 7f3d b350 55bd c83b 73bd
000000b0: f52e 573c ae98 dcbd 2aa9 743c e915 403c
000000c0: 8d7b e8bd ba2e 81bd 8855 50be ff23 27be
000000d0: 7dd2 e13d 1119 a1bd 615c 053d a73c 4ebd
000000e0: 7a92 d83b eedf 003e d23f 273d f5ad 19bd
000000f0: 74e8 343d b084 a4bd 2b7c d1ba f1a0 5bbd
00000100: 92b3 8ebc 41ed cf3d 2594 e1bd db2f adbc
00000110: 29a6 bcbd d9ec 653d 9125 193e 4063 d8bd
00000120: 3663 16be 0335 03be c395 383c e555 b63d
00000130: abe0 1abe 496a 8b3d 1cb0 bcbd 8363 9b3d
00000140: a110 13bd b57e a8bd c9e8 d23d 2260 bd3d
00000150: cd26 1dbc d810 5dbd 2325 7f3d a322 043e
00000160: 85b1 97bd 3f78 b73d 0da4 303b b10f b63b
00000170: 44d8 91bd aa3f f3bd 0c21 87bd 969c 473d
00000180: d66f 11be 95b8 4fbd 1006 28be 0501 27bd
00000190: 4ecd c9bd 2f27 f0bb 7526 5bbd 9a6a d33d
000001a0: 0a3c 983d ab97 79bd 053b 2d3e 947a 4ebe
000001b0: b613 9bbd a8e2 913d 2225 3b3d 3492 1ebd
000001c0: 5d87 763d 0bbf 81bd 23f3 dcbd bf69 bbbc
000001d0: 875d d43d 1815 4cbe fef9 c4bd 63bd fd3c
000001e0: d847 16be 270b 013c f7e0 11be 6609 f13b
000001f0: bb1f 02be 94b0 683c b416 08bc 817f 6e3d
00000200: 084b 683d b19f b93b e0e7 6ebd eff3 fcbc
00000210: f551 293d 779c 3aba bf6c ddbc a766 303d
00000220: 98f8 e43d f7ab 093e 736c 30bd 6071 853d
00000230: d1bf 113e 32bb bbbc 65db 263d 8ff1 1b3c
00000240: a965 7a3d 5199 953d 4144 b83c 6637 1abd
00000250: 5e79 60bd 0c6e ae3d c4fa 95bd 3988 3d3d
00000260: 14e0 023c dd7f 9c3d 7385 a6bd bff3 ae3d
00000270: 20bc 383c 31e2 bfbc d21e ffbc 447d 9a3d
00000280: f077 8bbd dddb 843d 85a8 0d3e 5408 363e
00000290: e3fe e63b 5895 f3bb 93e4 583e b7a1 de3b
000002a0: 953a 603e 46b3 613d edc6 d1bd 7ec2 ffbc
000002b0: 69c7 c1bd 4113 16bc d3d3 5ebc 81db ea3d
000002c0: deb7 573d 4b22 21bd 4d6b 2ebd 9a0c bbbd
000002d0: 57bf 1cbe 6b8a fe3c 97a8 79bd 2444 f83d
000002e0: cbc1 cbbd b87f 093c c224 35bb 6a99 6d3d
000002f0: 92dc a5bd 278c b73c a94a 39bd 462e fe3d
00000300: 01ba 293d b9cc 20be 6327 30be 1fcb 58bd
00000310: 72af a9bd 4253 24be 22bc 06be 7c59 20bd
00000320: 3b8c 2abe 3026 a6bd 982d a93d a945 1a3d
00000330: 64b7 da3d 0308 02be 1179 2cbd de20 71bd
00000340: d785 69bd 1faa 87bc ad1e 4c3d 7fad cbbc
00000350: 38c5 23be f715 ba3d d46d 7bbd 66d0 323d
00000360: 4037 ae3b 9da8 bd3d 1ee0 c63d d59d c6bc
00000370: 5b59 e83d 4c95 bfbd 78d1 ac3d dd54 b03d
00000380: 7240 ccbc b65f 18bd 0949 86bd c45f 5ebd
00000390: 9237 5a3c 5d18 5a3e 692a cfbc 2b5f 733c
000003a0: e1cc b73d e5bb 3f3e 2a1d 80bd 7766 fc3d
000003b0: ee61 243e 0675 d5bd 475a bbbd 2b5a bbbc
000003c0: cad5 193e 1cdb 393d 7602 d93c b3f3 2ebd
000003d0: fe81 753d 2c1e 293b ba3d 97bd 3c21 7bbd
000003e0: 0c07 183e ad86 45bd f789 c3bc 8ce8 9fbd
000003f0: ecba 063b d894 823c 698f f6bd 5e77 6f3d
0.022573154 -0.041031078 -0.06973778 0.10058029 0.055980574 -0.093461275 0.053291947 0.081815034
0.30054808 -0.0991401 0.1001374 0.053394683 -0.17346634 0.063411646 -0.09972239 0.026734626
0.077474095 0.08031122 -0.0002472451 0.09420093 0.016570296 0.027872503 0.039627317 0.027806424
0.14677261 0.12639415 -0.14598437 0.05190067 -0.0727446 0.13535479 -0.05288167 0.07878632
-0.083339274 -0.18505171 0.0505264 -0.021346034 0.029553572 -0.10898604 -0.17839795 0.0005283977
-0.12633054 0.062465664 -0.052078914 -0.059383184 0.013133754 -0.10771309 0.01493291 0.011723974
-0.113516904 -0.063077405 -0.20345128 -0.16322325 0.110264756 -0.07866109 0.032558803 -0.05035081
0.0066092582 0.12585422 0.04083235 -0.037519414 0.044166997 -0.08033121 -0.001598244 -0.053620283
-0.01741961 0.101526745 -0.110145845 -0.021140983 -0.0921138 0.05613408 0.14955737 -0.105658054
-0.14686283 -0.12813191 0.011266175 0.08903102 -0.15124767 0.06807382 -0.09213278 0.0758734
-0.03590453 -0.082272924 0.102983065 0.092468515 -0.00959177 -0.05397114 0.062291276 0.12903838
-0.07406906 0.08958482 0.002695325 0.00555607 -0.071213275 -0.11877377 -0.065981 0.048733316
-0.14202818 -0.05071314 -0.16408563 -0.040772457 -0.09853612 -0.00732889 -0.053503472 0.10323067
0.074333265 -0.060935657 0.16917045 -0.20163947 -0.07572119 0.071233094 0.04568971 -0.03871365
0.060187686 -0.06335267 -0.10788562 -0.022877572 0.103694014 -0.19929922 -0.09617995 0.030974096
-0.14675844 0.007876194 -0.14245974 0.0073558567 -0.12707417 0.014202256 -0.008306194 0.058227066
0.05671218 0.0056647887 -0.058326602 -0.030878035 0.041337926 -0.0007118652 -0.027029393 0.043066647
0.11180228 0.13444506 -0.043072175 0.06515765 0.14233328 -0.02291641 0.040736575 0.009518041
0.061132107 0.073046334 0.022493483 -0.03765049 -0.054803245 0.085170835 -0.0732322 0.04627249
0.007987995 0.076415755 -0.08130922 0.08542585 0.011275321 -0.023423286 -0.031142626 0.07543424
-0.06809986 0.06487248 0.13833816 0.17776614 0.007049428 -0.0074335746 0.21180944 0.0067941803
0.21897347 0.05510261 -0.1024302 -0.03122067 -0.094618626 -0.009159864 -0.0136003075 0.11467648
0.052665584 -0.039339345 -0.0425828 -0.09133263 -0.15307365 0.031071862 -0.060951795 0.12122372
-0.099490725 0.008392267 -0.0027640318 0.058007635 -0.08098711 0.022405697 -0.045237217 0.1241117
0.041437153 -0.15703095 -0.17202525 -0.052928086 -0.08285417 -0.16047385 -0.13157704 -0.03914784
-0.16655056 -0.081127524 0.082606494 0.03766409 0.1067951 -0.12698369 -0.042107645 -0.058869235
-0.057012405 -0.016560612 0.049833942 -0.024863003 -0.15993202 0.09086221 -0.061384037 0.043655775
0.005316645 0.09260676 0.09710716 -0.024245182 0.11345168 -0.09354648 0.084383905 0.086099364
-0.024933074 -0.037200652 -0.06556899 -0.054290548 0.013318913 0.21298356 -0.025288777 0.014854233
0.089746244 0.1872402 -0.062555626 0.12324231 0.16052982 -0.10422711 -0.091480784 -0.022870144
0.1502296 0.045374975 0.026490431 -0.04271288 0.059938423 0.0025805337 -0.0738482 -0.06131099
0.14846438 -0.04822414 -0.023869498 -0.07808027 0.0020558191 0.015940115 -0.12039072 0.058463447

network_body.linear_encoder.seq_layers.2.bias f4 [128]
00000000: 5e3b cd3c acc4 1c3c 3a23 4d3a 2b0c e23c
00000010: e4f9 343c ed21 453d bca8 4abc 86da ba3c
00000020: c334 033d 7b05 0d3c ce29 2ebc c585 cebb
00000030: cceb dabc 6377 493d 9203 623c 779d 863c
00000040: b199 3c3b 819a 5a3c ae65 7cbc 8f12 583d
00000050: 05c8 7c3b 1dd0 333c d95e 283d 136e 093d
00000060: e497 57bc 4923 703c 1315 55bb 9f93 4dbc
00000070: c32f 963b 45f5 313d 2fbd fe3b de69 263c
00000080: 78a4 3b3c eb18 05bc 2433 cebc dd80 4e3d
00000090: 2643 363c bfb4 9f3c d2c4 8c3b 6e94 523c
000000a0: 97c6 c4ba 18c1 793b d33e 5e3c 8671 473c
000000b0: 6b6a 20b9 9b5c 2e3b 1098 5b3c 2b72 e43c
000000c0: b714 61bc 2322 9e3b 6c6f 1d3c 46d0 a13a
000000d0: 1ac9 083c fd47 383d 5cfa 14bd b9d0 9ebc
000000e0: bb98 23bc 013e 6f3c cea0 42bc 7d16 c33b
000000f0: 5f59 89bc 82c2 213d e0b0 f53c e1cc 24bc
00000100: 4df7 85bc 975e 8fbb 158b 043d eb84 83bc
00000110: b827 bfba 4b65 4cbc f072 a9bc 1e99 4b3d
00000120: fe93 a63c bce7 fa3c 6211 10bc a069 1b3c
00000130: 0cd4 55bc 6c9a 6e3b 2d4a 033d 3324 b33b
00000140: 72d7 323c 6b5c 133d 0292 7dbc e541 b1bc
00000150: 2c9e 7c3b d510 9abc d747 293c 47c3 b63c
00000160: 5253 89bc 0607 413c cf6c 233b b36f 88bc
00000170: 7e06 87ba 5bc4 5e3c 5e01 8dbc 45bc 313c
00000180: b5b7 ffbb 9160 293c 6f45 4cbb 91d9 8f3b
00000190: e94a d3bb 3bba 603c 7009 a33b 26ab 1a3d
000001a0: 3d34 8b3c b2dd 093d 1b00 a33b 67a1 953b
000001b0: bd59 7dba 39f4 82bb a0e0 31bc 98c7 a03c
000001c0: 9af7 86bb 4ce7 3bbc c3ba 353d 18c4 a03c
000001d0: 1d9c 903b b47d 17bb b71a d43a a8a3 1e3c
000001e0: 293e 71bc 763a 41bc e9f7 65bc c345 703d
000001f0: 7a1f b33c 6fd8 143c f9e3 9ebb 73e8 103c
0.025052723 0.009568375 0.00078253786 0.027593693 0.011045907 0.048128057 -0.012369331 0.022809278
0.03203274 0.008607264 -0.010630084 -0.0063025677 -0.026723765 0.04918612 0.013794797 0.016432507
0.002877813 0.013342501 -0.015405102 0.052752074 0.003857137 0.010974911 0.04110608 0.03355224
-0.013158772 0.01465685 -0.0032513782 -0.012547403 0.0045833304 0.043446798 0.0077740173 0.010157077
0.011452787 -0.008123617 -0.02517087 0.050415862 0.011124408 0.019495366 0.0042959237 0.012852771
-0.0015012798 0.0038109478 0.013564783 0.012173062 -0.00015298433 0.002660549 0.013402954 0.02788647
-0.013737849 0.0048258468 0.009609085 0.0012345396 0.008348728 0.04499053 -0.036371574 -0.019386636
-0.009985144 0.014602185 -0.011879159 0.0059536085 -0.016766248 0.039492138 0.029991567 -0.010058613
-0.016353274 -0.0043752897 0.0323592 -0.016054591 -0.0014583981 -0.012475322 -0.02068469 0.04970657
0.02033424 0.030628078 -0.008793207 0.009485632 -0.013051044 0.003640796 0.03205316 0.005466962
0.010915624 0.03597681 -0.0154767055 -0.021637866 0.0038546426 -0.018806854 0.010332069 0.022309912
-0.016763363 0.01178146 0.002493668 -0.016654825 -0.0010301617 0.0135966195 -0.017212566 0.01084811
-0.007803882 0.010337965 -0.0031169315 0.0043899496 -0.006448139 0.013716276 0.0049754903 0.037760876
0.016992683 0.03365869 0.004974378 0.00456636 -0.0009664556 -0.0039963988 -0.010856777 0.019626424
-0.004118872 -0.01146872 0.044367563 0.019624755 0.0044131414 -0.0023115696 0.0016182278 0.009682573
-0.014724293 -0.011793723 -0.014036157 0.05866028 0.021865595 0.009084805 -0.004848954 0.008844483

action_model._continuous_distribution.log_sigma f4 [1, 2]
00000000: 9766 0dbc 7747 0bbd
-0.008630416 -0.0340037

action_model._continuous_distribution.mu.weight f4 [2, 128]
00000000: 2001 d0bc 64fc d4bc 59c1 bdbc 71a5 41bc
00000010: 805b ccbc 3678 f53d ccdb 44bc 0a08 023d
00000020: 76d1 a4bc e9b0 903b 096e 43bc 738a a1b9
00000030: aa10 b33b 458d 44bd 668d 4ebc 44a2 4fbc
00000040: 2f9e b63b 86b8 b1bc 4e9d 0c3d f328 48bd
00000050: a41e 22bc c60a bdbc e2f5 563d e38d 0abd
00000060: dfe0 573d 6365 44bc 4606 b9bc a70e d73b
00000070: 5227 23bb 6e09 633d 12b7 d4ba 3ff7 d2bb
00000080: fc84 64bc 8fb2 d33b 9b24 133b 61b0 09bd
00000090: 033e ebba 7f27 b43c ea74 e8bb 3547 fbbc
000000a0: 7af1 a73c 3d4f 4bbc 2b50 27bd eb73 cabc
000000b0: ca88 1a3a 6dfa 19bd 0bca 3cbc 4ce4 d8bc
000000c0: 0f51 e63c 22a9 13bc da15 a43c 28ce b0bc
000000d0: e705 2ebc 254e 98bc 8a85 113c d7f0 e0bc
000000e0: 362d 883b 2e30 0dbd ff65 243d f9c7 b5b9
000000f0: 386d 493c 91af 58bd 4a24 a43d 19ce f73b
00000100: 4a5b f2b7 33c4 073c 4422 fd3c e562 9d3c
00000110: c5aa e63c 8812 413c d49b b0bc 85a2 473d
00000120: 01f9 f5bb 5677 8c3c 8372 9abc 3e5a d9bc
00000130: 2ec6 573c f377 233c 898c 9c3d a8c8 c4bc
00000140: 0f9c f3bb a9db 82bd 8667 043d 915c 1f3d
00000150: ee70 023d 1747 3fbb bb19 ec3b 15c1 e5bb
00000160: 4fe2 e83b b672 003b b45d c53b 69d6 323c
00000170: 83e4 b63a 12b7 a1bc 2139 a73c 14f5 58bb
00000180: 8c81 043d d6c5 aebc 80da ae3c 6e79 203c
00000190: 4af7 d5bc 5e7b d5bc ef64 013d dbda 603d
000001a0: e676 b6bc b959 303d 8a32 15b9 b373 703b
000001b0: 71e6 6a3c 7d47 2abc 383e 11bd 06ea 95bc
000001c0: a898 cc3c c07d fe3b ee89 c03d bf27 e2bc
000001d0: b04d b2bc 139f ce3c c6bf 86bc 1a9e 86bc
000001e0: ad8d 053d a7bb 903c 3a16 0b3b e051 ccbd
000001f0: 347f 30bd 3826 14bc adc0 943c 7757 abbb
00000200: 8a0d 563d 39b7 263c dc11 3dbc 7a7b 89bd
00000210: e23a 6a3d 3f24 59bb 0c41 e73b f170 04bd
00000220: e872 e0bc 08e9 dcbb 06bf 643c 5952 5a3c
00000230: 78d5 4e3c d412 273d 8124 633b 2ecd 43bb
00000240: d66f 533d fbbe d93c d5fe b33b 2538 a93d
00000250: c71c 173d 5602 41bc 0a3d b6bb 5d74 0a3d
00000260: 0a32 dd3c 4596 d6bc f42c cd3c 9af6 16bc
00000270: 0624 8e3d b313 25bd fb18 78bc 7224 273d
00000280: 97d2 a5bc 4cb4 0e3d 5b3d ab3c 372e a03d
00000290: a201 aebc 2c60 3cbc d69e 63bc e162 ccbb
000002a0: c15c e2bc 8c30 203d dd3c 0bbd e81d 3a3a
000002b0: 49de bc3c 8084 33bc b8a3 12bc 2e9b 96bc
000002c0: a299 4b3c 6254 0b3b 1a13 9dbc d806 2d3c
000002d0: 4ae7 60bc 84f4 443d c6d8 a43b ecf8 273d
000002e0: 0019 e13b da15 1f3c b49a b53c 3ad4 b2bc
000002f0: ed13 bf3b 2a85 a4bc 3e5d 47bd f1b6 8fbc
00000300: f49c 12bc 5fc4 17bc 8a23 06bd 0382 703c
00000310: 6d49 16bb 4db8 f13b f278 043d 6fb3 73bd
00000320: 42ff babc 3372 deba f937 683d 84b4 873c
00000330: da4f bfba 071d 3abc 4fa3 13bc e58e 243a
00000340: 50a1 e3bc f9e5 73bb 9660 373d 688d 1a3b
00000350: e827 233c b1ce ad3c 0f82 cebc 7379 a8bc
00000360: 56a0 643b 2bb7 7abc 89fa bbbc 6040 ddbc
00000370: 05b8 b13b 32b3 8bbc 1336 ca3c 999f a1bc
00000380: 4212 6f3a a2d2 91bb d68a 693c 8cb3 51bd
00000390: 375e e43c 132e 1bbd 8150 b33c 3592 cebc
000003a0: 6e70 01bd 0658 15bc e577 0d3d 3d12 1bbc
000003b0: 23f4 49bc 2010 9f3c 5d13 2c3c fe12 173d
000003c0: 86c2 51bc 93c5 393c 06e1 2bbd 1507 8fbc
000003d0: 56b6 d7bb d899 34bc eb51 a83b 7b61 4ebb
000003e0: bcde e6ba 251e 063c 9271 5e3b 994f 863c
000003f0: c944 03bc 7299 d1bc 5cc5 d7bc 2846 b0bb
-0.025391161 -0.025999255 -0.023163484 -0.011819229 -0.024945974 0.11985819 -0.012015294 0.031745948
-0.02011941 0.0044156206 -0.01192809 -0.00030811466 0.005464633 -0.047986288 -0.012606954 -0.0126729645
0.005573056 -0.021694433 0.034329705 -0.048867177 -0.009895001 -0.023076426 0.052480586 -0.03382672
0.05270469 -0.011987063 -0.022586 0.006563026 -0.0024895263 0.055428915 -0.0016228876 -0.0064381654
-0.013947722 0.006460495 0.0022452238 -0.033615474 -0.0017947558 0.02199149 -0.0070940154 -0.030673603
0.020500887 -0.012409029 -0.04084794 -0.024713477 0.0005895017 -0.03759234 -0.01152278 -0.026476048
0.028114824 -0.009012492 0.02002995 -0.021582678 -0.010621524 -0.01859195 0.008881936 -0.027458591
0.00415578 -0.034469776 0.040136334 -0.00034672001 0.012294106 -0.05290181 0.08014734 0.0075624106
-2.8891158e-05 0.008286524 0.030900128 0.019212196 0.028157601 0.011784203 -0.02155868 0.048738975
-0.00750649 0.017146748 -0.018853432 -0.026532289 0.013169808 0.009977329 0.076439925 -0.024021462
-0.007434375 -0.06389553 0.03232529 0.038906638 0.03184598 -0.002918666 0.0072052157 -0.0070115426
0.007107056 0.0019599623 0.006023133 0.010915377 0.00139536 -0.019740615 0.020412983 -0.0033105062
0.032350108 -0.02133457 0.021344423 0.009794576 -0.026118893 -0.026059803 0.0315904 0.054896217
-0.022273492 0.043054316 -0.00014228575 0.0036690056 0.014337168 -0.010393021 -0.035459727 -0.018300068
0.024975136 0.0077664554 0.09401308 -0.027606843 -0.02176556 0.025222337 -0.016448867 -0.01643281
0.032605816 0.017667605 0.0021222965 -0.09976554 -0.04309006 -0.009042315 0.018158281 -0.0052289325
0.052259006 0.01017552 -0.011539903 -0.067130044 0.05718506 -0.0033133177 0.0070573147 -0.03233427
-0.027398542 -0.0067416467 0.013961559 0.013325297 0.012624137 0.04078944 0.003465921 -0.0029876935
0.051620327 0.026580324 0.005493025 0.08262662 0.03689268 -0.011780342 -0.0055614756 0.03380238
0.0270014 -0.026194701 0.02504585 -0.009214068 0.06940465 -0.04030199 -0.015142675 0.04080624
-0.020242019 0.034839913 0.02090328 0.07821315 -0.021241013 -0.011497539 -0.01389285 -0.006237373
-0.02763212 0.039108798 -0.03399359 0.00070997933 0.023055213 -0.010956883 -0.008950166 -0.018384542
0.012426766 0.0021260013 -0.019174147 0.010560714 -0.013727019 0.04808475 0.005030724 0.041008875
0.0068694353 0.0097098 0.022168495 -0.021829713 0.0058312328 -0.020083029 -0.048672907 -0.017543288
-0.008948553 -0.009263127 -0.032748736 0.014679435 -0.0022931949 0.0073767067 0.032341905 -0.059497293
-0.022826795 -0.001697129 0.056694005 0.016565569 -0.0014595941 -0.01135946 -0.009011104 0.00062773965
-0.02778688 -0.0037215932 0.044769846 0.002358282 0.009958245 0.021216722 -0.025208501 -0.020565724
0.0034885607 -0.01530246 -0.022946613 -0.027008235 0.005423548 -0.01705322 0.024683988 -0.019729422
0.0009119847 -0.004450158 0.0142542925 -0.05119662 0.027876956 -0.037885737 0.021888973 -0.025216201
-0.031601362 -0.009115225 0.03453817 -0.009464798 -0.012326273 0.019416869 0.010502663 0.036883347
-0.012802726 0.011338609 -0.041962646 -0.017459432 -0.0065830154 -0.011023007 0.0051367185 -0.0031491208
-0.0017613987 0.008185898 0.0033942205 0.016395377 -0.008012005 -0.025585864 -0.026339225 -0.005379457

action_model._continuous_distribution.mu.bias f4 [2]
00000000: ab6b 47bc dc8a 1ebc
-0.012171666 -0.009676661

exp_avg f4 [128, 6]
00000000: a691 2038 666a 9bb7 0a48 3339 2c10 87b9
00000010: 0000 0000 5318 92b9 1c4c d0b7 d62c 8cb7
00000020: bd90 1f39 6eee 1fb9 0000 0000 281a 0939
00000030: 402b 0337 427d 9038 9741 5e39 40dc f1b8
00000040: 0000 0000 4db3 31b9 80a6 2336 aff9 5238
00000050: dca9 1839 4ceb 0c38 0000 0000 8cd1 c9b8
00000060: 5200 67b9 2d9e 8438 2f8a 1538 9457 3239
00000070: 0000 0000 1ea7 4338 9c8b 7a39 6e54 3a38
00000080: 7e73 6638 a4ac 9137 0000 0000 36b3 9738
00000090: c2a6 da38 3422 1d38 0e9f 4bb9 5a4a fab8
000000a0: 0000 0000 3be6 66b8 ee4d 80b8 2de8 61b6
000000b0: 9041 c839 8cee 4ab8 0000 0000 88fc 07b9
000000c0: f699 7ab9 1a16 9eb7 807e e135 e04d e8b7
000000d0: 0000 0000 b165 c338 8a01 6638 97f1 15b8
000000e0: 1a7c b5b8 c547 00b9 0000 0000 787e d8b8
000000f0: 6681 abb8 762a 3a37 49dd 5e37 722c f038
00000100: 0000 0000 10a4 2e36 aec9 8439 f05f 0838
00000110: 3f1a 12b8 09bd 9f38 0000 0000 5e87 fd38
00000120: 344b 5b38 7e44 80b6 2964 c638 0f2b 3b38
00000130: 0000 0000 38b0 1338 fbca a739 aa17 2238
00000140: c0a1 83b6 9ce2 c738 0000 0000 1d08 aa38
00000150: 93bc 8939 c8c5 2137 5837 a8b6 24e3 8137
00000160: 0000 0000 2ba6 22b9 e0c7 b238 80d7 2a38
00000170: 80b6 d3b8 7984 b138 0000 0000 e372 2b39
00000180: 0863 18b7 881f 9b37 c932 4738 5e60 d9b8
00000190: 0000 0000 3082 79b8 ac39 69b9 4861 0ab8
000001a0: 7331 a738 d4e1 d7b9 0000 0000 c0f8 4ab8
000001b0: f944 5a38 e00f eab4 c878 e3b6 1286 63b8
000001c0: 0000 0000 7402 0138 d096 f1b8 80f6 a733
000001d0: 2649 a938 10f0 2436 0000 0000 80e0 e6b7
000001e0: a4e7 a438 1c0b c4b7 4036 c3b8 5c09 dbb9
000001f0: 0000 0000 5a15 2238 cf35 b7b7 0e79 2436
00000200: c22a e5b7 f161 6237 0000 0000 3b9e a8b8
00000210: 9acf d738 0c02 0038 6eba bbb8 98f3 1239
00000220: 0000 0000 6915 0ab8 9684 e7b8 8258 88b6
00000230: 58ed ca38 0447 d4b8 0000 0000 ee9e 33b8
00000240: f126 3fb9 2f07 75b6 287f d9b6 6123 00b9
00000250: 0000 0000 acf5 a338 249a 4839 0d95 acb7
00000260: 7b5e 5638 2b46 a439 0000 0000 f3ff 04b9
00000270: 00e0 6c37 0268 9c38 6389 a238 0077 d5b7
00000280: 0000 0000 c034 8ab9 4e92 cb37 56a2 c3b7
00000290: 6903 b8b8 c92a a538 0000 0000 8a16 7b39
000002a0: 39b6 ea39 57be b238 3243 9bb9 9ae8 1439
000002b0: 0000 0000 8b63 5e39 e25b 9538 cc08 2138
000002c0: be5f e337 5352 4539 0000 0000 5c88 c7b8
000002d0: 328b 0fb8 e066 32b5 d017 ab38 a9b2 70b9
000002e0: 0000 0000 4063 5d38 d43a 9637 df3c f6b5
000002f0: 5404 4a38 6f1f 3e38 0000 0000 5065 efb7
00000300: 3296 4539 594e 4138 88a8 c438 0667 d038
00000310: 0000 0000 46e1 82b9 2c21 c136 36b3 b338
00000320: f29e 4039 e229 063a 0000 0000 86ed 27b9
00000330: 9a89 b2b8 a956 e8b6 ebc9 9938 dc34 c2b8
00000340: 0000 0000 f094 e336 8512 b8b7 5808 dd36
00000350: 92d5 dd38 2202 c437 0000 0000 93e7 86b8
00000360: 8200 7c37 9a9e 13b7 9bf2 0639 b859 a9b7
00000370: 0000 0000 7ce2 2339 6922 1ab9 e4e1 a538
00000380: 9bc3 9739 5235 8036 0000 0000 bc6f 64b9
00000390: 75b3 55b8 0537 afb7 ae41 b438 aacd c7b8
000003a0: 0000 0000 321c 04b9 21da 56b8 2001 c4b8
000003b0: ec7a 3fb8 484e 4eb9 0000 0000 20ed 33b8
000003c0: e6ff 133a 8943 be38 7ac9 a9b9 b38a de39
000003d0: 0000 0000 f8f2 bc39 5fe2 7839 f1c6 6b38
000003e0: 58a1 22b9 d0e5 4cb8 0000 0000 8322 ed38
000003f0: 30e6 5c34 cf0d a138 3cab 5139 c37e 08b9
3.828262e-05 -1.8526986e-05 0.00017097607 -0.00025761256 0.0 -0.00027865413 -2.4830973e-05 -1.6710179e-05
0.00015217341 -0.00015252244 0.0 0.00013075082 7.818278e-06 6.889786e-05 0.00021196004 -0.000115328
0.0 -0.0001694683 2.4385809e-06 5.0300438e-05 0.00014559127 3.359774e-05 0.0 -9.623458e-05
-0.00022029996 6.323713e-05 3.565306e-05 0.00017008028 0.0 4.6647263e-05 0.00023893866 4.4424487e-05
5.4943834e-05 1.7365739e-05 0.0 7.233622e-05 0.00010426111 3.746357e-05 -0.00019418841 -0.00011934778
0.0 -5.5050692e-05 -6.118031e-05 -3.3662757e-06 0.0003819582 -4.8382717e-05 0.0 -0.00012968678
-0.00023899213 -1.884536e-05 1.6800623e-06 -2.7692819e-05 0.0 9.317266e-05 5.4837707e-05 -3.5749366e-05
-8.653868e-05 -0.00012233767 0.0 -0.00010323239 -8.178018e-05 1.109635e-05 1.3283753e-05 0.000114523704
0.0 2.6023517e-06 0.00025327265 3.2514276e-05 -3.4833556e-05 7.616921e-05 0.0 0.00012089194
5.2283707e-05 -3.822671e-06 9.460032e-05 4.4624376e-05 0.0 3.5211648e-05 0.00032003954 3.864585e-05
-3.9229344e-06 9.531269e-05 0.0 8.107743e-05 0.00026271175 9.642397e-06 -5.013233e-06 1.5483769e-05
0.0 -0.00015511426 8.524931e-05 4.073186e-05 -0.00010095257 8.464693e-05 0.0 0.0001635063
-9.0829635e-06 1.8492123e-05 4.7492595e-05 -0.00010365316 0.0 -5.9487473e-05 -0.00022242096 -3.2992364e-05
7.972391e-05 -0.0004117625 0.0 -4.839222e-05 5.2039486e-05 -4.3597447e-07 -6.779188e-06 -5.424588e-05
0.0 3.075828e-05 -0.000115198665 7.8213816e-08 8.072173e-05 2.457764e-06 0.0 -2.7522678e-05
7.863276e-05 -2.3370194e-05 -9.3084294e-05 -0.00041777908 0.0 3.8643695e-05 -2.1840357e-05 2.4508367e-06
-2.7318838e-05 1.34934535e-05 0.0 -8.040337e-05 0.00010290668 3.0519484e-05 -8.95158e-05 0.00014014391
0.0 -3.2921704e-05 -0.000110396344 -4.0634195e-06 9.676319e-05 -0.000101221754 0.0 -4.282494e-05
-0.00018229686 -3.6512026e-06 -6.481907e-06 -0.00012220211 0.0 7.8182056e-05 0.00019130908 -2.0573405e-05
5.1109568e-05 0.00031332797 0.0 -0.0001268385 1.411885e-05 7.4580326e-05 7.750352e-05 -2.5446992e-05
0.0 -0.00026360713 2.4267614e-05 -2.3321405e-05 -8.774439e-05 7.8757825e-05 0.0 0.00023945622
0.00044767724 8.523155e-05 -0.00029613968 0.0001420103 0.0 0.00021208652 7.121988e-05 3.8393584e-05
2.7105092e-05 0.00018818052 0.0 -9.514458e-05 -3.4223493e-05 -6.645987e-07 8.158351e-05 -0.0002295474
0.0 5.278294e-05 1.7908787e-05 -1.8346144e-06 4.8164584e-05 4.5328805e-05 0.0 -2.8538198e-05
0.00018843336 4.6087753e-05 9.3774e-05 9.9374025e-05 0.0 -0.00024963374 5.75571e-06 8.568766e-05
0.00018369759 0.00051179354 0.0 -0.00016014845 -8.513332e-05 -6.9242274e-06 7.333219e-05 -9.260487e-05
0.0 6.782466e-06 -2.1943133e-05 6.5872846e-06 0.00010577882 2.3366014e-05 0.0 -6.432752e-05
1.5020489e-05 -8.79881e-06 0.00012869613 -2.0188148e-05 0.0 0.00015629263 -0.00014699403 7.9098885e-05
0.00028946702 3.8209046e-06 0.0 -0.00021785399 -5.095029e-05 -2.0887246e-05 8.595303e-05 -9.5273674e-05
0.0 -0.00012599005 -5.1224724e-05 -9.346218e-05 -4.565243e-05 -0.00019674853 0.0 -4.2897766e-05
0.0005645737 9.0724854e-05 -0.00032384304 0.0004244648 0.0 0.0003603918 0.00023735453 5.6213645e-05
-0.00015509629 -4.885142e-05 0.0 0.00011307469 2.0572838e-07 7.67965e-05 0.00019995583 -0.00013017193

exp_avg_sq f4 [128, 6]
00000000: f612 a934 8dbe ed31 dfa9 6b34 2633 a534
00000010: 0000 0000 b3b1 9034 8ae1 f234 53db 0d32
00000020: 1d40 2034 b90d d434 0000 0000 3f61 a134
00000030: df1a 1635 29ec 6932 1f58 c134 ab4c 0435
00000040: 0000 0000 9dec 0f35 3ba0 b134 caf6 f431
00000050: 84b4 0634 48a7 9234 0000 0000 fcc8 5b34
00000060: 32d2 7235 d325 be32 98c6 0e35 e86f 4435
00000070: 0000 0000 53d6 3a35 28e0 1c35 a375 3032
00000080: ec39 9034 5690 c534 0000 0000 ebdf cf34
00000090: 096a 9134 02ef f931 f944 1e34 354c 9534
000000a0: 0000 0000 8bba 6834 eec0 e534 3da6 3332
000000b0: 2442 8e34 c21e cb34 0000 0000 5499 cd34
000000c0: 695f 3f34 2a63 c731 e10a 0a34 c9a7 2a34
000000d0: 0000 0000 48d3 3434 8ad7 8134 c4af bc31
000000e0: 7456 1334 d338 9034 0000 0000 f9e6 1d34
000000f0: f43b 4434 56cb 9e31 890c b033 d885 6934
00000100: 0000 0000 2cc2 0f34 1740 8034 76d4 e131
00000110: 00d2 1434 f255 1934 0000 0000 d46a 3c34
00000120: 7746 fd33 c5ca 7d31 33e0 e933 5a53 0234
00000130: 0000 0000 87c0 c733 9783 4535 13cc 8732
00000140: 07b7 da34 15da 1635 0000 0000 3066 2035
00000150: c9c6 6b35 4a37 8232 dd98 cb34 7bd4 5d35
00000160: 0000 0000 db4f 1a35 9f05 2534 8b80 a831
00000170: 2750 e533 e979 1f34 0000 0000 b5c5 0634
00000180: 154d e033 0bab 4631 b9d0 8233 2d71 f933
00000190: 0000 0000 23c9 0734 114d 4a34 c615 a131
000001a0: 7065 ed33 aa76 5234 0000 0000 d2df 2534
000001b0: 1b4b 0934 42c1 2631 910b 9033 b5aa d533
000001c0: 0000 0000 bbd3 8f33 48de 2034 2d79 2631
000001d0: e81d 7633 6db1 0734 0000 0000 6945 a233
000001e0: d3e8 8334 a56b b231 ac89 6c34 3188 8334
000001f0: 0000 0000 5d94 5334 b45a 8833 62bc 9830
00000200: 7599 ef32 5290 3033 0000 0000 a3a3 3833
00000210: 1982 5934 114d cf31 58ea 0834 03fb 5634
00000220: 0000 0000 5304 2534 ab3a b134 4cc2 c731
00000230: a71d 5f34 c87e 1734 0000 0000 41fc b134
00000240: 1ad4 ac34 16e6 e331 a9b0 e933 b5b0 2334
00000250: 0000 0000 51d7 8f34 b845 5d34 a7eb 9b31
00000260: 3a4b e933 39cc 3834 0000 0000 df75 3534
00000270: d1b3 0434 d185 7631 acda c733 2990 d333
00000280: 0000 0000 0bd0 3434 d10b 6435 06d9 d632
00000290: 950c 0235 cf0c 5235 0000 0000 f6f9 7035
000002a0: a6ce 0734 1989 9231 f6f2 c633 92bf 1034
000002b0: 0000 0000 4ed2 c433 eeda d634 4541 1c32
000002c0: 01b3 8b34 879f d434 0000 0000 e3ca 9534
000002d0: e816 d034 3a56 e331 9882 0334 e576 6e34
000002e0: 0000 0000 9872 4b34 ef5b e033 2507 1e31
000002f0: 4ac0 7b33 5e24 9233 0000 0000 3229 9333
00000300: db7f 2135 bb3e 3d32 249a ab34 25da e334
00000310: 0000 0000 1a9a fb34 14a3 8434 06b5 ff31
00000320: 04f0 1734 8d86 9734 0000 0000 5c7a 8234
00000330: bf19 9b34 d1a2 9531 ac70 c733 7194 6634
00000340: 0000 0000 bb4a f233 4603 4934 e4f4 4c31
00000350: 497c 8033 d383 3a34 0000 0000 8484 ef33
00000360: 3080 b534 50aa bd31 3e34 e833 8794 2934
00000370: 0000 0000 4c80 4034 031d c734 db49 2f32
00000380: a1d9 7e34 3488 8934 0000 0000 2ff4 d334
00000390: 966c 2435 b5e7 9632 b0db e434 1266 1735
000003a0: 0000 0000 2d27 0f35 defa 3734 23bf c931
000003b0: 5835 1534 5294 7834 0000 0000 9e48 4c34
000003c0: 723f 3035 2f0c a932 cd71 0635 f48f 6135
000003d0: 0000 0000 8adc f834 bb62 ef33 e9dc 7831
000003e0: 6618 8a33 bedb ef33 0000 0000 ee20 c533
000003f0: d3ea 2335 290f 2d32 f866 a234 2ed2 b034
3.14925e-07 6.919271e-09 2.1947879e-07 3.077086e-07 0.0 2.6951383e-07 4.5240114e-07 8.257149e-09
1.4924485e-07 3.9498062e-07 0.0 3.0059343e-07 5.5918457e-07 1.3616082e-08 3.6013168e-07 4.92854e-07
0.0 5.361597e-07 3.3085402e-07 7.1293913e-09 1.2545394e-07 2.7316332e-07 0.0 2.0469082e-07
9.04579e-07 2.2136112e-08 5.3188114e-07 7.3178535e-07 0.0 6.960228e-07 5.844072e-07 1.0271296e-08
2.6864234e-07 3.6799128e-07 0.0 3.8719676e-07 2.7085505e-07 7.274026e-09 1.4739989e-07 2.780886e-07
0.0 2.1674548e-07 4.279495e-07 1.04569695e-08 2.6497685e-07 3.7834076e-07 0.0 3.8295786e-07
1.7822971e-07 5.802936e-09 1.2856209e-07 1.5893524e-07 0.0 1.684067e-07 2.4184948e-07 5.4915024e-09
1.3721893e-07 2.6863435e-07 0.0 1.4705792e-07 1.8275733e-07 4.621522e-09 8.197919e-08 2.1748508e-07
0.0 1.3388552e-07 2.388849e-07 6.572516e-09 1.3859972e-07 1.4280502e-07 0.0 1.7547728e-07
1.1794048e-07 3.6931607e-09 1.08906896e-07 1.2137517e-07 0.0 9.30168e-08 7.357971e-07 1.580887e-08
4.0738834e-07 5.6196706e-07 0.0 5.975335e-07 8.783359e-07 1.5159134e-08 3.792292e-07 8.2638115e-07
0.0 5.7485676e-07 1.5368867e-07 4.904057e-09 1.0678223e-07 1.485238e-07 0.0 1.2551648e-07
1.0444834e-07 2.8910019e-09 6.091563e-08 1.16155526e-07 0.0 1.2646028e-07 1.8840753e-07 4.688192e-09
1.1054624e-07 1.9600944e-07 0.0 1.5448248e-07 1.2786442e-07 2.4266034e-09 6.7076265e-08 9.949637e-08
0.0 6.69747e-08 1.4982027e-07 2.422506e-09 5.7303538e-08 1.2637402e-07 0.0 7.5563385e-08
2.4570053e-07 5.1927196e-09 2.2029297e-07 2.4499744e-07 0.0 1.970488e-07 6.349492e-08 1.1112997e-09
2.7893046e-08 4.1109452e-08 0.0 4.2989665e-08 2.0257029e-07 6.0332543e-09 1.2751241e-07 2.002162e-07
0.0 1.5368396e-07 3.3011506e-07 5.8137513e-09 2.0779281e-07 1.4109094e-07 0.0 3.3152358e-07
3.219182e-07 6.6327273e-09 1.0882042e-07 1.5244844e-07 0.0 2.679249e-07 2.0607592e-07 4.5378843e-09
1.08635916e-07 1.7210631e-07 0.0 1.689982e-07 1.2358875e-07 3.5873777e-09 9.306436e-08 9.851676e-08
0.0 1.6839492e-07 8.4953814e-07 2.501157e-08 4.8447083e-07 7.8249735e-07 0.0 8.977071e-07
1.2648033e-07 4.2647454e-09 9.264288e-08 1.3480738e-07 0.0 9.1652154e-08 4.0019899e-07 9.095236e-09
2.602101e-07 3.960415e-07 0.0 2.7901032e-07 3.8759686e-07 6.6163723e-09 1.2247835e-07 2.2208731e-07
0.0 1.8947537e-07 1.04475355e-07 2.2996087e-09 5.8615377e-08 6.80527e-08 0.0 6.852714e-08
6.016323e-07 1.1015511e-08 3.1963384e-07 4.2440766e-07 0.0 4.6864517e-07 2.470557e-07 7.4420567e-09
1.4150288e-07 2.822384e-07 0.0 2.4303415e-07 2.8889733e-07 4.354981e-09 9.2871545e-08 2.1474422e-07
0.0 1.12825965e-07 1.8720775e-07 2.9825111e-09 5.983072e-08 1.7370557e-07 0.0 1.1153409e-07
3.3807146e-07 5.5199862e-09 1.0812845e-07 1.5793385e-07 0.0 1.7928068e-07 3.7087747e-07 1.02031334e-08
2.3734766e-07 2.561734e-07 0.0 3.947948e-07 6.1252774e-07 1.7567666e-08 4.2628153e-07 5.6400415e-07
0.0 5.332866e-07 1.7134468e-07 5.8715997e-09 1.3896113e-07 2.3150758e-07 0.0 1.9025399e-07
6.5657434e-07 1.967973e-08 5.008449e-07 8.402851e-07 0.0 4.6354063e-07 1.1147264e-07 3.6214323e-09
6.430564e-08 1.11692756e-07 0.0 9.179517e-08 6.1063946e-07 1.0073372e-08 3.024977e-07 3.293548e-07

exp_avg f4 [128]
00000000: 7095 fab7 b7d0 eab7 207a 0d39 4182 d138
00000010: a8f6 ed38 9c0c bd38 b1b5 8e38 be49 acb6
00000020: 6e91 12b8 684e 98b8 8e21 7b37 9d9d a138
00000030: 3d29 92b6 b850 af38 9895 a837 1650 ae38
00000040: 6321 ef37 b5ec 7bb8 008f 5635 5a19 d636
00000050: fc66 13b8 c0b9 e934 2c19 6f38 e01f 4cb7
00000060: 3853 3eb7 f250 34b8 d644 1f39 b3a6 49b8
00000070: 5b1a 3639 40e1 9438 ecd5 cf36 2d71 1d35
00000080: 1b8e bc38 cf46 3139 18c6 12b7 a8ee 8537
00000090: 0a0b 82b6 c37a 1739 0361 c9b7 ae7c 38b9
000000a0: 2235 4639 a9d0 ea38 9734 2539 0c9b a836
000000b0: da18 dbb7 9e1f 9bb8 5a5d d638 e0c4 a8b7
000000c0: 609b eeb8 adde 71b6 7679 3137 4211 b3b8
000000d0: 0e33 85b7 0c57 07b8 b24f 37b7 b0d3 a637
000000e0: 47ad d138 8238 cd37 6d05 afb6 3bca 7d38
000000f0: 6c54 8fb7 ab70 a237 b044 87b7 bd76 d4b8
00000100: f615 0d39 a3b0 35b9 c041 0c39 bf48 ce38
00000110: 1b4c d538 d33f 42b9 d85a a238 5153 e738
00000120: df8a 8b38 12ba 0038 8e19 5c39 bc3f aab6
00000130: e1e3 8c37 24ce 6639 00e3 a835 9ad6 69b8
00000140: 1fa8 0539 57b6 9fb7 50e9 87b8 d28c 84b8
00000150: aad5 29b8 eeee ccb7 e18e 12b8 104c 2139
00000160: c0e1 beb8 4e88 e2b7 aea4 65b8 bedf 7538
00000170: 1c66 c0b7 f434 3539 215a 9a38 a4b5 7b38
00000180: 1c8d cdb8 e019 87b5 a244 8739 52de 9738
00000190: ca9d 4138 0120 dbb7 dac6 6537 9f21 7ab8
000001a0: 80c3 a338 579e 0b39 1a1b 0a39 5a35 4138
000001b0: 087a d5b6 2572 18b8 19c6 84b8 8794 0639
000001c0: ce4d 8db9 9f70 67b7 f0b6 feb6 48dd bc35
000001d0: 0d9f e3b7 6ed0 88b7 85e9 d538 23c2 e5b6
000001e0: f91f 7e38 5c55 8fb7 9e55 1b38 9c97 c538
000001f0: 3908 1cb8 a86c cdb6 f6dd 4337 006b 93b3
-2.987191e-05 -2.7992164e-05 0.00013492303 9.990158e-05 0.00011346984 9.014571e-05 6.80493e-05 -5.134584e-06
-3.4944554e-05 -7.262529e-05 1.4968578e-05 7.706436e-05 -4.35594e-06 8.359685e-05 2.009682e-05 8.311884e-05
2.8506567e-05 -6.0063514e-05 7.9929305e-07 6.3806483e-06 -3.5143443e-05 4.3534783e-07 5.7005484e-05 -1.2166769e-05
-1.1344258e-05 -4.299073e-05 0.00015189065 -4.8077385e-05 0.00017366691 7.099146e-05 6.1939845e-06 5.865175e-07
8.991008e-05 0.00016906414 -8.7484e-06 1.5965968e-05 -3.875587e-06 0.00014446214 -2.4006242e-05 -0.00017594054
0.00018902545 0.000111968555 0.00015755217 5.02484e-06 -2.6118407e-05 -7.396865e-05 0.00010221703 -2.0118838e-05
-0.00011377665 -3.6041413e-06 1.0578302e-05 -8.5386e-05 -1.587861e-05 -3.2267577e-05 -1.09262055e-05 1.9887317e-05
9.998172e-05 2.4464218e-05 -5.216038e-06 6.0508242e-05 -1.708624e-05 1.936437e-05 -1.612524e-05 -0.000101310645
0.00013454989 -0.00017327307 0.00013375934 9.8363955e-05 0.00010170807 -0.00018525058 7.741683e-05 0.00011030457
6.653903e-05 3.069087e-05 0.00020990355 -5.0738145e-06 1.6795415e-05 0.00022011303 1.2583041e-06 -5.5751392e-05
0.00012746498 -1.9039186e-05 -6.4807595e-05 -6.32048e-05 -4.049173e-05 -2.4429955e-05 -3.494218e-05 0.00015382492
-9.101955e-05 -2.7004771e-05 -5.4751225e-05 5.8620928e-05 -2.2935732e-05 0.00017281232 7.36008e-05 6.001223e-05
-9.8014454e-05 -1.0065814e-06 0.00025800342 7.2416515e-05 4.616174e-05 -2.6121737e-05 1.3695762e-05 -5.9635957e-05
7.8088604e-05 0.00013315059 0.00013170802 4.6064473e-05 -6.362101e-06 -3.634593e-05 -6.331149e-05 0.00012834567
-0.00026951585 -1.3794895e-05 -7.5910866e-06 1.4071493e-06 -2.7134573e-05 -1.6309521e-05 0.00010200128 -6.8473323e-06
6.0588096e-05 -1.7086677e-05 3.7034617e-05 9.4219315e-05 -3.7200956e-05 -6.1221253e-06 1.1674585e-05 -6.864684e-08

exp_avg_sq f4 [128]
00000000: 87d8 f632 d6b1 0f33 60cd 6c33 8a1c f732
00000010: 26dc c033 37e8 3133 8b47 0033 366e 3533
00000020: b8da cb32 ab63 be32 8772 a232 f4a7 e532
00000030: 716a 8432 0f0d 8a33 1edc 8233 ed9b ac32
00000040: feb3 4832 46f4 a232 b181 2c32 10b3 2832
00000050: 454e bd32 9b69 9c31 69ba d932 cc1e cc32
00000060: a889 e632 5d83 9c32 584b 7b32 be91 db33
00000070: 2880 9732 bc83 2133 3e53 e832 d3fa 2232
00000080: 3587 4033 b6d5 0033 bb28 9832 f393 4f32
00000090: a20a bf32 4cc2 2e33 cceb 9b33 1c30 cc32
000000a0: ca2f ae33 d0cc 8032 a589 2e33 0f5f 8d33
000000b0: 5672 7832 a338 8332 795d f332 e9f5 0e32
000000c0: 73bf 0e33 16c6 5f33 aaca 3d33 e1cf 8533
000000d0: 2da2 7833 73c1 ab32 2b52 3b32 0c0f 4d33
000000e0: 5a7d d233 1e29 1733 09f4 f831 4560 0b32
000000f0: 821a 4632 46f1 aa32 a029 8332 d773 ad33
00000100: 3b79 1b33 367d 2d33 5201 5e33 8971 9532
00000110: c527 9332 973c 3233 1413 8732 7b59 7e32
00000120: 2fc5 4d32 cdbf 4832 ed94 ee32 16b5 0132
00000130: ad31 ff32 7e05 6533 0670 1133 e76e 7032
00000140: 4298 bf32 6470 2833 9232 9832 5550 c532
00000150: 1867 9332 d459 8933 cdf9 0632 563e 1733
00000160: 919e 2b33 08d2 5a33 d91d 4e32 56f4 3c33
00000170: ea00 6c32 f991 2c33 c286 4c33 a60e 9a32
00000180: 90d1 4b32 c91b 3b32 73e1 3733 5b57 7432
00000190: e068 fc32 dc8f 0932 d16a ee32 3b87 4233
000001a0: f542 5e32 6805 2133 77f8 2333 03d4 ed33
000001b0: c00d d831 cdc9 3933 2241 0033 c67f 8732
000001c0: 2b3f 2434 cd91 8e33 fe7d 4633 95e7 3033
000001d0: 94fd af32 7b8c a232 7917 2132 06a0 a533
000001e0: 9eaf 2c33 2b6c 7832 8d21 1c32 9b4a b632
000001f0: c1d3 b632 6fbd 7632 5838 c831 f98e 0233
2.8736634e-08 3.3456523e-08 5.513482e-08 2.8767563e-08 8.9807415e-08 4.1422222e-08 2.986739e-08 4.2242583e-08
2.3731772e-08 2.2164235e-08 1.8911363e-08 2.6735485e-08 1.5415226e-08 6.428501e-08 6.093636e-08 2.0094342e-08
1.1682458e-08 1.8970365e-08 1.0041206e-08 9.819601e-09 2.2038089e-08 4.5522035e-09 2.5346894e-08 2.376273e-08
2.6838123e-08 1.8220527e-08 1.4627254e-08 1.02244925e-07 1.7636992e-08 3.7605545e-08 2.7046209e-08 9.486672e-09
4.4826454e-08 2.999669e-08 1.7713651e-08 1.2082626e-08 2.2240162e-08 4.0689244e-08 7.260641e-08 2.3770603e-08
8.111199e-08 1.49943e-08 4.063772e-08 6.583115e-08 1.4461497e-08 1.5276163e-08 2.833143e-08 8.321401e-09
3.3236073e-08 5.210139e-08 4.4189314e-08 6.231108e-08 5.7889498e-08 1.999499e-08 1.0903515e-08 4.7743967e-08
9.801688e-08 3.5194823e-08 7.2454935e-09 8.112754e-09 1.1531144e-08 1.9900323e-08 1.5269336e-08 8.0770114e-08
3.619901e-08 4.039358e-08 5.1689604e-08 1.7397513e-08 1.7131137e-08 4.149896e-08 1.5724744e-08 1.4805091e-08
1.1977405e-08 1.1685143e-08 2.777457e-08 7.549962e-09 2.9708497e-08 5.3323213e-08 3.3862328e-08 1.3995055e-08
2.2304565e-08 3.9217767e-08 1.7718126e-08 2.297035e-08 1.7159934e-08 6.395899e-08 7.856625e-09 3.521412e-08
3.9958255e-08 5.0948103e-08 1.1997565e-08 4.3994383e-08 1.3737216e-08 4.0179632e-08 4.7620013e-08 1.7934621e-08
1.1863804e-08 1.089115e-08 4.2813053e-08 1.4222532e-08 2.9384353e-08 8.007159e-09 2.7755421e-08 4.5292136e-08
1.2937325e-08 3.749065e-08 3.8177372e-08 1.1074737e-07 6.2879906e-09 4.3257206e-08 2.986156e-08 1.5774173e-08
1.529667e-07 6.638911e-08 4.6215057e-08 4.1188816e-08 2.0487995e-08 1.8923165e-08 9.3767705e-09 7.712519e-08
4.0206594e-08 1.44600945e-08 9.088024e-09 2.1221515e-08 2.1283883e-08 1.4362157e-08 5.8271716e-09 3.0398017e-08
