UnityController/results/alex/MoveToGoal/MoveToGoal-71.pt (torch, 153671 bytes, 11 tensors)

network_body.linear_encoder.seq_layers.0.weight f4 [128, 9]
0	0x3c8a56bc	0.016887061
1	0xbed51a18	-0.4162147
2	0x3ec73e6e	0.38914818
3	0x3f242c70	0.64130306
4	0x3db6844b	0.08911952
5	0x3e5d07b2	0.21584967
6	0xbe10e3e2	-0.1414943
7	0x3f0ede00	0.55807495
8	0x3e5d589c	0.21615833
9	0xbf0ffffa	-0.56249964
10	0x3f6b0a0b	0.918122
11	0x3e9dcfdb	0.30822644
12	0x3d49b0ff	0.049241062
13	0xbeb040cc	-0.34424436
14	0x3edcb43a	0.43106252
15	0xbeb1f156	-0.34754437
16	0x3ed966b6	0.42461175
17	0x3c78eceb	0.015193204
18	0xbdf3175c	-0.1186969
19	0xbcf68fd7	-0.030097885
20	0xbc448b30	-0.0119960755
21	0x3e60d3c8	0.21955788
22	0xbe64824b	-0.22315328
23	0xbe053df6	-0.13011917
24	0x3ee3ef7b	0.44518647
25	0x3f5e95e6	0.86947477
26	0xbc8e02f4	-0.017335393
27	0xbdd926ea	-0.106031254
28	0x3e7501e4	0.23926502
29	0xbf199cc6	-0.6000484
30	0x3eb938c7	0.3617613
31	0x3de6f34a	0.112768725
32	0xbdab3016	-0.08358781
33	0x3deefb6c	0.11669049
34	0x3eb45a72	0.35225254
35	0x3f0ed749	0.5579725
36	0xbf1a8f60	-0.6037502
37	0x3ebe0c18	0.37118602
38	0x3d79ec73	0.06101651
39	0xbe999d82	-0.3000298
40	0x3eda2adf	0.42610833
41	0xbefa3a32	-0.48872524
42	0x3e8351c0	0.25648308
43	0x3e5b3bb7	0.21409498
44	0x3d426ad3	0.047465157
45	0xbe149d19	-0.14513053
46	0xbf12ea36	-0.5738863
47	0x3f2d8640	0.67782974
48	0x3ea3a6e3	0.31963262
49	0x3d2c8b6c	0.04212515
50	0xbf2ca8af	-0.6744489
51	0xbeb00f7b	-0.3438681
52	0x3e8a4287	0.2700388
53	0xbdb7c34e	-0.08972798
54	0xbee2c6d6	-0.44292325
55	0x3db9cb30	0.09071958
56	0x3b99baad	0.004691443
57	0x3e19c665	0.15017088
58	0xbe071b25	-0.13193949
59	0x3ea28fb4	0.31750262
60	0x3e78eba4	0.2430864
61	0x3e1242b9	0.14283265
62	0xbcb4831f	-0.02203518
63	0xbe02a970	-0.12759948
64	0x3e67f460	0.22651815
65	0xbe1c2cd7	-0.1525148
66	0x3ee9d470	0.4566989
67	0x3e048a85	0.12943466
68	0xbefe9b6e	-0.49727958
69	0xbe9558e0	-0.2916937
70	0xbe2aa847	-0.16665755
71	0xbf33d2dc	-0.7024362
72	0x3e4f6006	0.20251474
73	0x3d4ce192	0.050019808
74	0xbe7b52d0	-0.24543309
75	0x3e67b98f	0.22629379
76	0x3d7d42c3	0.061831247
77	0xbe9d724e	-0.3075127
78	0x3f03c71d	0.514757
79	0xbe1e640a	-0.1546785
80	0x3da157dc	0.07878086
81	0x3dcaef8c	0.09908971
82	0xbdcb0072	-0.09912194
83	0xbf2300ab	-0.63672894
84	0x3e489f8b	0.19592111
85	0x3efb7b3b	0.49117455
86	0xbe028fd6	-0.12750182
87	0xbd8a9a65	-0.0676773
88	0xbccb87ec	-0.024845086
89	0x3f168452	0.58795655
90	0xbf055e1f	-0.5209674
91	0x3ee1b794	0.44085371
92	0x3eb97c5b	0.36227688
93	0x3e8490ca	0.25891715
94	0xbe30b822	-0.17257741
95	0xbe243490	-0.16035676
96	0x3c8d533b	0.017251601
97	0x3e96c9ed	0.29450932
98	0xbc0058be	-0.007833658
99	0xbd8df833	-0.06932106
100	0xbdd71fb2	-0.10504092
101	0xbe264b81	-0.1623974
102	0xbdb82eda	-0.08993311
103	0xbd8821fc	-0.06647107
104	0x3e602703	0.21889882
105	0x3cd7b4e3	0.02633137
106	0xbc0c76c5	-0.008573239
107	0xbeb16c0f	-0.34652755
108	0xbd4450a6	-0.047928475
109	0xbe978666	-0.29594725
110	0xbce9aa50	-0.028523594
111	0x3f026f05	0.5095065
112	0x3e75ad17	0.2399181
113	0xbb573bb7	-0.003284199
114	0xbcd0ea92	-0.025502477
115	0x3cc4c72f	0.02402076
116	0xbe87d68c	-0.26530874
117	0x3eb432a8	0.35194898
118	0xbdaca0ec	-0.08429131
119	0xbd950c29	-0.0727771
120	0x3d740e16	0.059583746
121	0x3e2556f2	0.16146448
122	0xbebc5f8a	-0.3679164
123	0x3ee1ddec	0.44114625
124	0xbe85ba9f	-0.26118943
125	0xbe58207b	-0.2110614
126	0xbef4c6e4	-0.47807992
127	0x3eb5b7c3	0.35491762
128	0x3f326eaf	0.6970014
129	0x3eb3afec	0.35095155
130	0xbe72189b	-0.23642199
131	0xbee3c653	-0.44487247
132	0x3d61e264	0.055147544
133	0xbd8c130a	-0.06839569
134	0xbe950882	-0.29108053
135	0xbef4ccc0	-0.47812462
136	0x3dbcc724	0.092176706
137	0xbe17b995	-0.14816888
138	0x3f158ed2	0.5842105
139	0x3f6d0b96	0.92595804
140	0xbe98f698	-0.29875636
141	0xbec6ae8c	-0.38805044
142	0xbee42ab3	-0.44563827
143	0xbf2aa9c6	-0.66665304
144	0xbda567c2	-0.08076431
145	0xbf134cc3	-0.57539004
146	0x3f41d327	0.7571282
147	0xbe8cae54	-0.27476752
148	0x3f475c27	0.7787499
149	0xbf0f17c6	-0.5589565
150	0xbe50f808	-0.20407116
151	0x3e833a88	0.25630593
152	0xbcd5f306	-0.02611686
153	0x3e0ff73f	0.1405916
154	0xbec6a20c	-0.38795507
155	0xbed3070b	-0.4121631
156	0xbe6d7172	-0.23187807
157	0xbf086948	-0.53285646
158	0xbe830131	-0.25586846
159	0x3dc694af	0.09696328
160	0x3e5ad28c	0.2136938
161	0x3eb26e10	0.34849596
162	0xbd883daa	-0.066523865
163	0xbe3d6e53	-0.18499117
164	0x3e9e4520	0.30912113
165	0x3ee1fc38	0.4413774
166	0xbe2f9c33	-0.17149429
167	0xbe05cda4	-0.13066727
168	0x3cc6c653	0.02426449
169	0xbe0405e8	-0.12892878
170	0x3ebbb054	0.36657965
171	0x3dc50aa6	0.09621172
172	0xbca9897e	-0.020695444
173	0xbeba98da	-0.3644474
174	0xbe648666	-0.22316894
175	0x3e947464	0.2899505
176	0x3ed66258	0.41871905
177	0x3f0de770	0.5543127
178	0xbf042fb4	-0.5163529
179	0xbe063b50	-0.13108563
180	0x3ebec7a7	0.37261698
181	0xbe9dfaa3	-0.30855283
182	0xbf1577be	-0.5838584
183	0xbe45e380	-0.19325066
184	0xbf29e9bf	-0.66372293
185	0xbe4b7867	-0.19870149
186	0x3e93dd4a	0.28879768
187	0xbe801945	-0.2501928
188	0xbf023ce7	-0.5087418
189	0x3e9ba67a	0.3040045
190	0x3da69bd2	0.08135189
191	0xbe35c362	-0.17750314
192	0xbe9cede0	-0.30650234
193	0x3dbeb760	0.0931232
194	0xbd2b796a	-0.041863836
195	0x3af61207	0.0018773683
196	0xbf28c10a	-0.65919554
197	0x3d1b908a	0.03797964
198	0xbe885a66	-0.2663147
199	0x3e49c322	0.19703344
200	0xba30c36c	-0.00067429873
201	0xbf54c496	-0.83112466
202	0x3eb33aef	0.350059
203	0x3eb3589e	0.35028547
204	0x3ef4dd7e	0.47825235
205	0x3ef84a8a	0.4849437
206	0xbe281164	-0.16412884
207	0x3e96458a	0.2934993
208	0xbbad5337	-0.005289461
209	0x3edc4afb	0.43025956
210	0xbd7f549e	-0.062336557
211	0x3e07336a	0.13203207
212	0x3e2a3623	0.16622214
213	0xbd2f9722	-0.04286874
214	0x3d97ba32	0.07408561
215	0x3ee539b3	0.44770584
216	0x3e7755c8	0.24153817
217	0xbecf5a72	-0.40498692
218	0xbe3fc7ef	-0.18728612
219	0xbe876f04	-0.26451886
220	0x3d4a0c62	0.049328215
221	0xbe77ecee	-0.24211475
222	0xbcbb6bf4	-0.022878624
223	0x3f03ac0e	0.5143441
224	0xbebebe7c	-0.37254703
225	0x3eacab07	0.33724234
226	0x3d858be5	0.065208234
227	0x3e97c398	0.29641414
228	0xbeb01893	-0.3439375
229	0xbdff03a6	-0.12451868
230	0x3e12badc	0.14329094
231	0x3efeffa0	0.498044
232	0xbefc602b	-0.4929212
233	0xbe16b040	-0.14715672
234	0xbde8eeb7	-0.11373656
235	0x3f2a31e0	0.66482353
236	0xbe9859f8	-0.2975614
237	0x3e4743d7	0.19459473
238	0x3de24423	0.11048152
239	0x3f55e7d0	0.8355684
240	0x3d756302	0.059908874
241	0xbed35293	-0.41273937
242	0x3d45465b	0.0481628
243	0x3e4b7c9f	0.19871758
244	0xbcc044e8	-0.023470357
245	0x3d7d9d23	0.061917435
246	0xbf132ed2	-0.5749332
247	0xbea45243	-0.3209401
248	0x3f1f4d8a	0.6222769
249	0xbe669442	-0.22517493
250	0x3ea9778c	0.3309902
251	0xbd1d10d8	-0.03834614
252	0x3d0c6134	0.034272388
253	0x3e8531cf	0.26014563
254	0xbdc193dc	-0.0945203
255	0xbdc089be	-0.09401272

network_body.linear_encoder.seq_layers.0.bias f4 [128]
0	0x00000000	0.0
1	0x00000000	0.0
2	0x00000000	0.0
3	0x00000000	0.0
4	0x00000000	0.0
5	0x00000000	0.0
6	0x00000000	0.0
7	0x00000000	0.0
8	0x00000000	0.0
9	0x00000000	0.0
10	0x00000000	0.0
11	0x00000000	0.0
12	0x00000000	0.0
13	0x00000000	0.0
14	0x00000000	0.0
15	0x00000000	0.0
16	0x00000000	0.0
17	0x00000000	0.0
18	0x00000000	0.0
19	0x00000000	0.0
20	0x00000000	0.0
21	0x00000000	0.0
22	0x00000000	0.0
23	0x00000000	0.0
24	0x00000000	0.0
25	0x00000000	0.0
26	0x00000000	0.0
27	0x00000000	0.0
28	0x00000000	0.0
29	0x00000000	0.0
30	0x00000000	0.0
31	0x00000000	0.0
32	0x00000000	0.0
33	0x00000000	0.0
34	0x00000000	0.0
35	0x00000000	0.0
36	0x00000000	0.0
37	0x00000000	0.0
38	0x00000000	0.0
39	0x00000000	0.0
40	0x00000000	0.0
41	0x00000000	0.0
42	0x00000000	0.0
43	0x00000000	0.0
44	0x00000000	0.0
45	0x00000000	0.0
46	0x00000000	0.0
47	0x00000000	0.0
48	0x00000000	0.0
49	0x00000000	0.0
50	0x00000000	0.0
51	0x00000000	0.0
52	0x00000000	0.0
53	0x00000000	0.0
54	0x00000000	0.0
55	0x00000000	0.0
56	0x00000000	0.0
57	0x00000000	0.0
58	0x00000000	0.0
59	0x00000000	0.0
60	0x00000000	0.0
61	0x00000000	0.0
62	0x00000000	0.0
63	0x00000000	0.0
64	0x00000000	0.0
65	0x00000000	0.0
66	0x00000000	0.0
67	0x00000000	0.0
68	0x00000000	0.0
69	0x00000000	0.0
70	0x00000000	0.0
71	0x00000000	0.0
72	0x00000000	0.0
73	0x00000000	0.0
74	0x00000000	0.0
75	0x00000000	0.0
76	0x00000000	0.0
77	0x00000000	0.0
78	0x00000000	0.0
79	0x00000000	0.0
80	0x00000000	0.0
81	0x00000000	0.0
82	0x00000000	0.0
83	0x00000000	0.0
84	0x00000000	0.0
85	0x00000000	0.0
86	0x00000000	0.0
87	0x00000000	0.0
88	0x00000000	0.0
89	0x00000000	0.0
90	0x00000000	0.0
91	0x00000000	0.0
92	0x00000000	0.0
93	0x00000000	0.0
94	0x00000000	0.0
95	0x00000000	0.0
96	0x00000000	0.0
97	0x00000000	0.0
98	0x00000000	0.0
99	0x00000000	0.0
100	0x00000000	0.0
101	0x00000000	0.0
102	0x00000000	0.0
103	0x00000000	0.0
104	0x00000000	0.0
105	0x00000000	0.0
106	0x00000000	0.0
107	0x00000000	0.0
108	0x00000000	0.0
109	0x00000000	0.0
110	0x00000000	0.0
111	0x00000000	0.0
112	0x00000000	0.0
113	0x00000000	0.0
114	0x00000000	0.0
115	0x00000000	0.0
116	0x00000000	0.0
117	0x00000000	0.0
118	0x00000000	0.0
119	0x00000000	0.0
120	0x00000000	0.0
121	0x00000000	0.0
122	0x00000000	0.0
123	0x00000000	0.0
124	0x00000000	0.0
125	0x00000000	0.0
126	0x00000000	0.0
127	0x00000000	0.0

network_body.linear_encoder.seq_layers.2.weight f4 [128, 128]
0	0x3c9002e4	0.017579503
1	0xbd17eaa0	-0.03708899
2	0xbdb58ac9	-0.08864362
3	0xbd8a7b15	-0.06761757
4	0x3d19984c	0.037498757
5	0xbde40f8c	-0.11135778
6	0xbccbd425	-0.024881432
7	0x3d716a6b	0.05893938
8	0x3e146324	0.14490944
9	0xbe0b7a25	-0.13620813
10	0x3d9e211a	0.07721157
11	0x3da1157f	0.07865428
12	0xbc8b4da4	-0.017004795
13	0x3d5bda79	0.05367515
14	0xbd2bbe5e	-0.041929595
15	0x3e04bb81	0.12962152
16	0x3e33294c	0.17496222
17	0xbbbbeb3b	-0.0057348288
18	0x3ba4f51d	0.0050341026
19	0xbd722a0e	-0.059122138
20	0xbbbc3582	-0.0057436833
21	0x3c27ed5a	0.01024946
22	0x3ca563d7	0.020189209
23	0xbe0d6ee6	-0.13811836
24	0x3d067eec	0.032835886
25	0xbcc0683f	-0.023487208
26	0x3d2472f0	0.040148675
27	0xbc35f1c8	-0.011105008
28	0x3d2adcd9	0.041714523
29	0xbc671101	-0.014103175
30	0xbc94e8cd	-0.018177414
31	0xbe27a5d3	-0.1637185
32	0xbde3dc31	-0.111259826
33	0xbdb3199d	-0.0874512
34	0x3ccff991	0.025387557
35	0x3ddeb62f	0.108745925
36	0xbbae7b94	-0.0053247903
37	0xbdb616a3	-0.08891036
38	0xbd699231	-0.057024185
39	0xbd1e43d3	-0.0386389
40	0xbc62589e	-0.013815073
41	0xbddb0acc	-0.10695419
42	0xbe736df2	-0.2377241
43	0xbda4fbb7	-0.08055823
44	0x3e1a6f49	0.15081514
45	0xbd9658dc	-0.07341167
46	0xbe435868	-0.19076693
47	0x3c93f623	0.018061703
48	0xbe2c95f6	-0.1685408
49	0x3db5842a	0.08863099
50	0x3cdb57ff	0.026775358
51	0xbd8cb8c2	-0.06871177
52	0xbe2c987a	-0.1685504
53	0xbc7c2823	-0.015390429
54	0x3d22c9a9	0.0397431
55	0xbbe67d79	-0.0070340005
56	0xbe15b45b	-0.14619581
57	0xbe0179c7	-0.1264411
58	0xbcba9294	-0.022774972
59	0x3d92a9f0	0.07161319
60	0x3cb00c0d	0.021490121
61	0xbd910359	-0.07080717
62	0x3d2e2d67	0.042523768
63	0x3e04c3fa	0.12965384
64	0x3dc1b2c5	0.09457926
65	0xbd34996d	-0.04409163
66	0xbd7fd219	-0.062456224
67	0xbe8226cb	-0.25420222
68	0x3dfc99aa	0.123339966
69	0x3c2eec63	0.010676476
70	0xbd97ff35	-0.07421724
71	0x3dfb29ac	0.12263808
72	0x3ca8c97f	0.020603893
73	0x3d075d62	0.03304804
74	0x3c07f934	0.008299161
75	0x3da5b9fc	0.08092114
76	0x3dcd4a21	0.100239046
77	0x3d1466d6	0.036230884
78	0xbdb128a0	-0.08650327
79	0xbd4fb078	-0.050705403
80	0x3e115b47	0.14194976
81	0xbc671e0b	-0.014106284
82	0x3d166f54	0.036727265
83	0x3d1d50b1	0.03840703
84	0x3c3f6414	0.011681575
85	0xbd4a7183	-0.04942466
86	0x3d3ed149	0.04658631
87	0xbd45241c	-0.04813014
88	0xbd324759	-0.043525074
89	0x3e249af1	0.1607473
90	0x3ce43371	0.02785656
91	0xbd0b600b	-0.03402714
92	0xbddbbc52	-0.107292786
93	0xbdac5c13	-0.08415999
94	0xbb91b5b5	-0.00444671
95	0xbc68c834	-0.014207888
96	0xbdabcf14	-0.083891064
97	0xbd7b5f34	-0.06137009
98	0x3d8660ae	0.06561409
99	0xbe4fbbed	-0.20286532
100	0x3ceffa93	0.029294288
101	0xbe006f26	-0.125424
102	0x3e283210	0.16425347
103	0x3cbae420	0.022813857
104	0x3d4c4175	0.049867112
105	0xbc96868b	-0.018374702
106	0x3e11d5b9	0.14241685
107	0x3d9732a1	0.073827036
108	0x3c179795	0.009252449
109	0xbd40234c	-0.04690866
110	0xbe065e33	-0.13121872
111	0x3e0a29ad	0.1349246
112	0x3d1df99a	0.038568117
113	0xbd7a0121	-0.061036233
114	0x3e170631	0.14748456
115	0x3ae15d8c	0.0017194017
116	0x3da3ec38	0.080040395
117	0xbdcb484d	-0.099259
118	0x3e26e867	0.16299592
119	0x3d9cc56c	0.07654843
120	0x397a2de4	0.00023858954
121	0xbd3a09ef	-0.04541963
122	0x3c9caf05	0.019126425
123	0xbd20f356	-0.039294563
124	0x3e016f72	0.1264017
125	0xbd2f48c1	-0.042793993
126	0xbcd5cde3	-0.026099151
127	0x3d4a1e81	0.049345497
128	0x3ca10b63	0.01965875
129	0x3d349940	0.044091463
130	0x3dc15930	0.09440839
131	0xbe0d095b	-0.137731
132	0xbdd1af19	-0.10238475
133	0x3dcfa2bc	0.10138461
134	0x3ce643d4	0.028108515
135	0xbd503b03	-0.050837528
136	0xbc9a115d	-0.018807108
137	0x3ca0c099	0.019623088
138	0xbc15deff	-0.009147405
139	0x3c502876	0.012704959
140	0x3bdd1dd6	0.0067479415
141	0xbdc28dc1	-0.09499694
142	0xbdba6b8e	-0.09102546
143	0x3dcb96b2	0.09940852
144	0x3e2a4db8	0.1663121
145	0x3dec1fa1	0.1152947
146	0x3d5b7ecc	0.05358772
147	0xbe1509c5	-0.14554508
148	0x3d2e52e4	0.04255952
149	0x3de98c89	0.11403758
150	0x3caad120	0.020851672
151	0x3b20cf90	0.002453778
152	0xbddf036d	-0.10889325
153	0xbce74b22	-0.028234068
154	0x3d531b6a	0.051539816
155	0x3daf17ef	0.08549487
156	0xbd1c7dcb	-0.038205903
157	0xbc519124	-0.012790952
158	0x3d19ee01	0.037580494
159	0xbd464a31	-0.0484106
160	0xbdeaea08	-0.11470419
161	0xbe23eb4f	-0.16007732
162	0x3e61649d	0.22011037
163	0x3deea8c5	0.11653284
164	0xbd2d143b	-0.04225562
165	0x3d66c10b	0.056336444
166	0xbd239b16	-0.039942823
167	0xbd277161	-0.04087961
168	0xbd301ed8	-0.042998165
169	0x3d6334d6	0.05547031
170	0xbdf7d63d	-0.121014096
171	0xbc4e71cc	-0.0126003735
172	0x3d32682a	0.04355637
173	0xbccf6302	-0.025315765
174	0xbe8037d0	-0.25042582
175	0x3d45771d	0.0482093
176	0xbe0c8a47	-0.13724624
177	0x3d7d608e	0.06185966
178	0x3daa90ca	0.083283976
179	0xbe84e7c0	-0.2595806
180	0xbe24e66e	-0.16103527
181	0xbd2d7429	-0.042347107
182	0x3c4c47ff	0.012468337
183	0x3d991bef	0.07476031
184	0x3e1e12d3	0.15436868
185	0xbd608c36	-0.054821216
186	0xbe4ae5be	-0.19814202
187	0x3dc83c16	0.097770855
188	0x3d84ba0c	0.06480798
189	0x3d82ee05	0.06393055
190	0xbe3c685e	-0.18399188
191	0x3ddefe75	0.108883776
192	0x3d8ea53c	0.0696511
193	0xbc8b5b04	-0.017011173
194	0x3d223c42	0.039608248
195	0xbd9ef115	-0.077608265
196	0x3d4707a6	0.04859128
197	0xbe1f8b5b	-0.15580504
198	0xbcb7536d	-0.022378648
199	0xbdabf9db	-0.083972655
200	0x3da52b4d	0.080648996
201	0xbe20b6f2	-0.15694788
202	0x3d9998c5	0.074998416
203	0x3c8264fd	0.015917296
204	0x3d481ab7	0.048853602
205	0x3e9c48fe	0.3052444
206	0xbb4845dc	-0.0030559218
207	0x3e8461c6	0.25855845
208	0x3d474943	0.048653852
209	0x3ccdf08b	0.025139114
210	0x3d4f84c4	0.050663725
211	0x3d75e1e5	0.060029883
212	0x3da7b607	0.08189016
213	0xbe7e2341	-0.24818136
214	0xbd9b2832	-0.07576026
215	0x3d337b06	0.043818496
216	0x3dad1634	0.084515005
217	0xbe00253d	-0.12514205
218	0x3d66caba	0.05634568
219	0x3d60f2ff	0.05491924
220	0x3e277645	0.1635371
221	0xbd2ac095	-0.041687567
222	0x3cdc738a	0.026910562
223	0x3cd923a3	0.02650625
224	0x3e0bf722	0.13668492
225	0xbe2663a4	-0.16248947
226	0xbd3ec22a	-0.046571888
227	0x3d34ce42	0.044142015
228	0x3d97bcd5	0.07409064
229	0x3e2242d0	0.158458
230	0xbc93ea74	-0.018056132
231	0x3c8e4165	0.017365167
232	0xbdacc4a2	-0.08435942
233	0x3e5b2b25	0.21403177
234	0x3cd3e2ec	0.02586504
235	0xbc330c2f	-0.010928198
236	0x3cf13ea8	0.029448822
237	0x3dce276d	0.100661136
238	0xbe355f22	-0.17712072
239	0xbd84eca7	-0.0649045
240	0x3cd4f3ae	0.025995102
241	0xbe1c4865	-0.15261991
242	0x3e12be50	0.14330411
243	0xbbe44979	-0.0069667664
244	0xbccac9e5	-0.024754474
245	0x3de1e7d4	0.11030546
246	0xbd5498af	-0.051903423
247	0x3e0cf7bc	0.13766378
248	0xbba76c83	-0.005109371
249	0x3e47951c	0.19490474
250	0x3e20fb45	0.15720852
251	0xbda406c7	-0.08009105
252	0x3d03a087	0.032135513
253	0xbdeafbe3	-0.11473825
254	0xbcf98d57	-0.030462904
255	0xbdfd3afb	-0.12364765

network_body.linear_encoder.seq_layers.2.bias f4 [128]
0	0x00000000	0.0
1	0x00000000	0.0
2	0x00000000	0.0
3	0x00000000	0.0
4	0x00000000	0.0
5	0x00000000	0.0
6	0x00000000	0.0
7	0x00000000	0.0
8	0x00000000	0.0
9	0x00000000	0.0
10	0x00000000	0.0
11	0x00000000	0.0
12	0x00000000	0.0
13	0x00000000	0.0
14	0x00000000	0.0
15	0x00000000	0.0
16	0x00000000	0.0
17	0x00000000	0.0
18	0x00000000	0.0
19	0x00000000	0.0
20	0x00000000	0.0
21	0x00000000	0.0
22	0x00000000	0.0
23	0x00000000	0.0
24	0x00000000	0.0
25	0x00000000	0.0
26	0x00000000	0.0
27	0x00000000	0.0
28	0x00000000	0.0
29	0x00000000	0.0
30	0x00000000	0.0
31	0x00000000	0.0
32	0x00000000	0.0
33	0x00000000	0.0
34	0x00000000	0.0
35	0x00000000	0.0
36	0x00000000	0.0
37	0x00000000	0.0
38	0x00000000	0.0
39	0x00000000	0.0
40	0x00000000	0.0
41	0x00000000	0.0
42	0x00000000	0.0
43	0x00000000	0.0
44	0x00000000	0.0
45	0x00000000	0.0
46	0x00000000	0.0
47	0x00000000	0.0
48	0x00000000	0.0
49	0x00000000	0.0
50	0x00000000	0.0
51	0x00000000	0.0
52	0x00000000	0.0
53	0x00000000	0.0
54	0x00000000	0.0
55	0x00000000	0.0
56	0x00000000	0.0
57	0x00000000	0.0
58	0x00000000	0.0
59	0x00000000	0.0
60	0x00000000	0.0
61	0x00000000	0.0
62	0x00000000	0.0
63	0x00000000	0.0
64	0x00000000	0.0
65	0x00000000	0.0
66	0x00000000	0.0
67	0x00000000	0.0
68	0x00000000	0.0
69	0x00000000	0.0
70	0x00000000	0.0
71	0x00000000	0.0
72	0x00000000	0.0
73	0x00000000	0.0
74	0x00000000	0.0
75	0x00000000	0.0
76	0x00000000	0.0
77	0x00000000	0.0
78	0x00000000	0.0
79	0x00000000	0.0
80	0x00000000	0.0
81	0x00000000	0.0
82	0x00000000	0.0
83	0x00000000	0.0
84	0x00000000	0.0
85	0x00000000	0.0
86	0x00000000	0.0
87	0x00000000	0.0
88	0x00000000	0.0
89	0x00000000	0.0
90	0x00000000	0.0
91	0x00000000	0.0
92	0x00000000	0.0
93	0x00000000	0.0
94	0x00000000	0.0
95	0x00000000	0.0
96	0x00000000	0.0
97	0x00000000	0.0
98	0x00000000	0.0
99	0x00000000	0.0
100	0x00000000	0.0
101	0x00000000	0.0
102	0x00000000	0.0
103	0x00000000	0.0
104	0x00000000	0.0
105	0x00000000	0.0
106	0x00000000	0.0
107	0x00000000	0.0
108	0x00000000	0.0
109	0x00000000	0.0
110	0x00000000	0.0
111	0x00000000	0.0
112	0x00000000	0.0
113	0x00000000	0.0
114	0x00000000	0.0
115	0x00000000	0.0
116	0x00000000	0.0
117	0x00000000	0.0
118	0x00000000	0.0
119	0x00000000	0.0
120	0x00000000	0.0
121	0x00000000	0.0
122	0x00000000	0.0
123	0x00000000	0.0
124	0x00000000	0.0
125	0x00000000	0.0
126	0x00000000	0.0
127	0x00000000	0.0

action_model._discrete_distribution.branches.0.weight f4 [5, 128]
0	0xbc939d91	-0.01801947
1	0x3bf26cc3	0.0073982193
2	0xbb0c7054	-0.0021429257
3	0xbadd6d1a	-0.0016893477
4	0x39711b3f	0.00022993701
5	0x3b6b40a8	0.0035896692
6	0x3be31582	0.006930054
7	0x3a02a87c	0.00049842126
8	0x3b422dd4	0.0029629366
9	0x3bb04955	0.0053798356
10	0x3c184ca9	0.009295621
11	0xbb9fcbaf	-0.004876576
12	0xbb3c48ec	-0.0028729988
13	0x3a588c77	0.0008260677
14	0x3ba1e369	0.0049404395
15	0x3b8ccb90	0.0042967275
16	0xbb82be66	-0.0039899824
17	0xbc33ce22	-0.010974439
18	0xbc6a73d2	-0.01430984
19	0x3c0c979b	0.008581067
20	0xbbb626f7	-0.005558844
21	0x3c15f835	0.009153415
22	0x3c3720ec	0.011177283
23	0xbc091f57	-0.008369288
24	0xbb084a35	-0.0020796184
25	0xbc61615b	-0.0137561215
26	0xbb6100d0	-0.003433276
27	0xbadca080	-0.0016832501
28	0x3c0fc10c	0.008774053
29	0xbc12a98f	-0.008951559
30	0x3c6da5b5	0.01450484
31	0xbb738d0a	-0.0037162923
32	0xbc202a00	-0.009775639
33	0xbc013709	-0.007886657
34	0xbbd632eb	-0.0065368316
35	0x3b1e5ea7	0.0024165304
36	0xbc96ebfa	-0.01842307
37	0xbb257624	-0.002524742
38	0xbc67f08a	-0.01415647
39	0xbb7ecb50	-0.0038878508
40	0xb9b3b06b	-0.00034272982
41	0xbc2bab6d	-0.010477883
42	0xbbde3f5f	-0.0067824568
43	0x3c81b0e3	0.015831416
44	0xbc65ed12	-0.014033573
45	0x3c928124	0.017883845
46	0x3c10d946	0.0088408645
47	0xbba12de0	-0.004918799
48	0xbb9f9a0e	-0.0048706597
49	0xbb4fe3a0	-0.0031721368
50	0x3c3c6754	0.011499245
51	0x3c60f38a	0.013729939
52	0xbabb57b7	-0.0014293109
53	0xbc789b78	-0.015173785
54	0xbc913fe5	-0.017730663
55	0xbb5fe5c2	-0.0034164046
56	0xbc8bcd68	-0.017065719
57	0xbb53087f	-0.003220111
58	0x3c9c8b71	0.01910946
59	0x3a44fc37	0.00075143896
60	0xbb8e44b2	-0.004341685
61	0xbbe42f82	-0.006963671
62	0xba3194a4	-0.00067741633
63	0x3c365141	0.011127771
64	0x3b3b0d5c	0.0028541898
65	0xbb8d8657	-0.004318993
66	0xbaaff4a7	-0.0013424353
67	0xbc905778	-0.017619833
68	0xba85aaf0	-0.0010198038
69	0xbc15d25a	-0.00914439
70	0xbc3598a1	-0.011083753
71	0xbbbdf8f4	-0.0057975
72	0x3bb7fdb2	0.0056149596
73	0xbb95d0e8	-0.0045720227
74	0xbbe0d7aa	-0.0068616467
75	0x3bf1d6b7	0.0073803323
76	0xbbfccee7	-0.0077150944
77	0x3c046115	0.008079787
78	0xbb3e3a30	-0.0029026382
79	0x3c7c487b	0.01539814
80	0x3b8fd174	0.0043889824
81	0xbc62eedd	-0.013850895
82	0xbc13aa07	-0.009012706
83	0x3be6f96a	0.0070487754
84	0x3c307a47	0.010771341
85	0xbc3505fc	-0.01104879
86	0x3c0401fe	0.008057116
87	0x3ba7b64e	0.005118168
88	0xbb69185f	-0.0035567505
89	0x3bfbb95f	0.00768201
90	0x3bb5b9c7	0.005545828
91	0x3b5def1d	0.0033864446
92	0xb9efe9ca	-0.0004575982
93	0xbb2450a4	-0.002507248
94	0x3c0ed445	0.008717601
95	0x3b0f1c37	0.0021836886
96	0xbbcb0637	-0.006195809
97	0xb8ba3562	-8.8791145e-05
98	0x3c725698	0.014791153
99	0xbbaf18ca	-0.0053435313
100	0x3bbf4dcb	0.005838131
101	0xb98ae3d5	-0.0002649116
102	0x3b40184c	0.0029311357
103	0xbb51a72a	-0.0031990507
104	0xbbd054b5	-0.006357754
105	0x3c1a47b9	0.009416514
106	0xbc93902f	-0.018013088
107	0x3c311aa2	0.010809572
108	0xbbf33dda	-0.0074231448
109	0x3b08cfc1	0.0020875784
110	0x3c167ef3	0.0091855405
111	0x39164aa6	0.00014332923
112	0xbbaa35d7	-0.0051944065
113	0x3c0ecd67	0.008715964
114	0xbc05804c	-0.008148264
115	0x3c2ca34a	0.010536978
116	0x3c16fa4a	0.009214947
117	0xbc7d302a	-0.015453378
118	0x3bca0343	0.0061649396
119	0x3ae2abfb	0.0017293686
120	0xbc271338	-0.010197453
121	0x3c5baa53	0.013407308
122	0x3a5465b5	0.0008102314
123	0x3c95d60b	0.01829054
124	0x39c171f1	0.00036896722
125	0x3b8b7b1d	0.0042566196
126	0xbbe9a00b	-0.0071296743
127	0x3b1c0647	0.0023807453
128	0x3bd0c6d8	0.0063713603
129	0xbc8cf564	-0.017206855
130	0x3b7593a3	0.0037472032
131	0xbc3e7096	-0.011623522
132	0xbb8b8509	-0.0042578024
133	0x3ba37748	0.0049885847
134	0xbc0a3ed0	-0.008437827
135	0xbbf527fd	-0.0074815736
136	0xbbec16dd	-0.007204874
137	0x3bc8f6c8	0.0061329342
138	0x3c389487	0.01126588
139	0xba96c806	-0.0011503703
140	0x3c06dd04	0.008231405
141	0x3a5d534d	0.0008442894
142	0x3b8b9eb6	0.004260863
143	0xbbb1f2f6	-0.0054305745
144	0x3c870a3b	0.01648437
145	0xbb337bda	-0.0027387054
146	0xbb9f62ed	-0.004864088
147	0x3b7a9e5b	0.003824136
148	0x3b809d4a	0.0039250003
149	0xbba8ad34	-0.0051476005
150	0xbc6836da	-0.014173234
151	0xbb547f8b	-0.0032424654
152	0xbb1ddd87	-0.002408834
153	0xbc278417	-0.010224364
154	0xbc186bc5	-0.009303038
155	0xbc653323	-0.013989243
156	0x3bae9549	0.005327855
157	0xbbf28c40	-0.007401973
158	0x3b98eae8	0.004666675
159	0x3c1ac9c2	0.009447517
160	0x3c4f9013	0.012668627
161	0x3be90768	0.0071114786
162	0xbce467b5	-0.027881483
163	0xbc574527	-0.013139046
164	0xba97cfe3	-0.0011582341
165	0x3b367323	0.0027839623
166	0x397cbbf2	0.00024102608
167	0x3c26603b	0.010154779
168	0x39df9de5	0.00042651515
169	0x3a98bdbb	0.0011653224
170	0xba2641c8	-0.00063421996
171	0xbbfb1fd3	-0.007663706
172	0x38f87ba0	0.000118485885
173	0x3b398717	0.002830928
174	0x3c9419cd	0.018078709
175	0xba8da88a	-0.0010807675
176	0x3ab48f7e	0.0013775674
177	0xbc584922	-0.01320103
178	0x3ab78072	0.0014000072
179	0x3be4b9b3	0.006980145
180	0xbc0f2c2a	-0.008738557
181	0xbbfadd1b	-0.0076557524
182	0x3bfb1ba2	0.007663206
183	0xba42a2d2	-0.0007424775
184	0x3b03e52b	0.0020125608
185	0x3c07acc6	0.0082809385
186	0x3b80d076	0.0039311005
187	0x3c0010e3	0.007816526
188	0xba5c4360	-0.00084023736
189	0x3c87e0a6	0.016586613
190	0x3b8cb58b	0.0042941025
191	0xbc4e52f0	-0.012593016
192	0x3b290c8f	0.002579484
193	0x3af13153	0.0018401541
194	0x3c20d5ab	0.009816567
195	0xbc441d9a	-0.011969948
196	0x3c169c94	0.009192605
197	0x3be70f35	0.0070513734
198	0xbb86f5eb	-0.004118671
199	0x3a872d16	0.0010313119
200	0xb9d805f8	-0.00041203178
201	0x3c05648b	0.008141647
202	0xbb3a55db	-0.0028432522
203	0xbc03598c	-0.008016955
204	0xbc32edc9	-0.01092095
205	0xbc5e9430	-0.013585135
206	0x3bb5cb00	0.005547881
207	0xbc10ac01	-0.008830071
208	0xbb9d62f7	-0.0048030573
209	0xba79a328	-0.00095229084
210	0xbba9b559	-0.005179089
211	0x3bc68784	0.006058635
212	0xbb766ac3	-0.0037600256
213	0x3c1f238d	0.009713066
214	0x3bdb94fa	0.006701109
215	0x3bd355aa	0.006449421
216	0x3b5b2ac3	0.0033442236
217	0xbbde3e40	-0.006782323
218	0x3c10b8a8	0.008833088
219	0x3bc62a0a	0.006047492
220	0xbc3a13e7	-0.011357284
221	0xbbd4e6df	-0.0064972485
222	0x3c37bc97	0.011214397
223	0x3ba13edb	0.004920823
224	0xbb86826a	-0.004104902
225	0xbbe30d3d	-0.0069290684
226	0x3bc408b8	0.0059824847
227	0x3c11242f	0.0088587245
228	0x3bc3d5e4	0.0059764255
229	0x3bfe0b40	0.007752806
230	0xbc78f8db	-0.0151960505
231	0xbbc094b9	-0.005877104
232	0x3bd0ae7f	0.006368458
233	0xbb4294bf	-0.002969071
234	0x3af824cd	0.0018931866
235	0xbb887bb5	-0.0041651377
236	0xbb738640	-0.0037158877
237	0x3c001bb1	0.007819102
238	0xbb073e9b	-0.002063668
239	0x3c765a48	0.015036173
240	0xbbdaf732	-0.0066823
241	0x3ae4603b	0.0017423698
242	0x3c86b79e	0.016444977
243	0xbac5d329	-0.0015092838
244	0x3b0c0c07	0.0021369474
245	0x3bc64848	0.006051097
246	0x3bc1e81f	0.0059175636
247	0x3bd753ed	0.006571284
248	0x3ba586cc	0.0050514694
249	0x3b4c809b	0.0031204585
250	0x38d88cd2	0.000103259124
251	0xbb0e22d3	-0.0021688237
252	0x3c90c80e	0.017673519
253	0x3ce5e99d	0.028065497
254	0x3c0c066b	0.008546452
255	0x3af03810	0.0018327255

action_model._discrete_distribution.branches.0.bias f4 [5]
0	0x00000000	0.0
1	0x00000000	0.0
2	0x00000000	0.0
3	0x00000000	0.0
4	0x00000000	0.0

network_body.linear_encoder.seq_layers.0.weight f4 [128, 9]
0	0x3e5c8e52	0.21538666
1	0xbdce6fb2	-0.10079898
2	0x3e9a96c2	0.30193144
3	0x3f087c14	0.5331433
4	0xbf5218aa	-0.82068884
5	0x3ee49da3	0.44651517
6	0xbdc83bae	-0.09777008
7	0x3f0401f6	0.5156549
8	0xbb8bf2a0	-0.0042708665
9	0xbdfe9b96	-0.124320194
10	0xbe39a618	-0.18129766
11	0xbf0a5282	-0.54032147
12	0xbb318143	-0.0027085103
13	0xbd6b515c	-0.057450637
14	0xbe5ec9be	-0.21756646
15	0xbe13ba4c	-0.14426535
16	0x3d0e426c	0.034731314
17	0xbf62d287	-0.8860249
18	0xbe49604e	-0.19665644
19	0x3df3bcbf	0.11901235
20	0xbea3b990	-0.3197751
21	0xbd6e48a3	-0.05817474
22	0xbf77aa60	-0.96744347
23	0xbd91908c	-0.07107648
24	0x3f16b41a	0.58868563
25	0xbe05ad6d	-0.13054438
26	0xbdc5365b	-0.09629508
27	0xbe6ef486	-0.23335466
28	0x3dddb0af	0.10824715
29	0x3d0ef3d0	0.034900486
30	0xbf029890	-0.5101404
31	0x3ea713ee	0.32632393
32	0xbcce3d1c	-0.025175624
33	0xbeeef12a	-0.4666837
34	0x3d716957	0.05893835
35	0xbeb29286	-0.34877414
36	0x3db70884	0.08937171
37	0xbe882830	-0.2659316
38	0xbdf90790	-0.121596456
39	0x3d9004f7	0.07032197
40	0xbf192647	-0.5982403
41	0xbe3998d8	-0.18124712
42	0xbde46f10	-0.11153996
43	0xbe6770bc	-0.22601599
44	0x3e230a86	0.15921983
45	0x3f48093c	0.7813909
46	0x3c978309	0.0184951
47	0xbd79b51a	-0.060963728
48	0x3ce93e4e	0.028472092
49	0x3df10bbb	0.117698155
50	0x3e6ec696	0.23317942
51	0xbd36011c	-0.04443465
52	0xbf06e511	-0.5269328
53	0x3ecce624	0.40019333
54	0xbf42bcdf	-0.76069444
55	0xbf09d09e	-0.5383395
56	0xbe1ecf82	-0.15508845
57	0x3f37c978	0.7179179
58	0x3e718a4a	0.2358791
59	0xbd9641e6	-0.07336788
60	0xbd58b06a	-0.052902617
61	0x3d744474	0.059635594
62	0x3edba964	0.42902672
63	0x3edf4e88	0.43614602
64	0xbe6f1b62	-0.2335029
65	0x3e0f268a	0.13979545
66	0xbdf18e8f	-0.11794769
67	0x3e2c5c18	0.16832006
68	0xbedf2ecb	-0.43590388
69	0x3f4fe3b8	0.81206846
70	0x3ef3c320	0.47609806
71	0xbd5b1450	-0.05348617
72	0xbdba066a	-0.09083255
73	0x3efd6a16	0.49495
74	0x3e4ea2c7	0.20179282
75	0xbeb2f32e	-0.34951156
76	0xbf2ff3e7	-0.6873154
77	0x3ec10352	0.37697846
78	0x3ea0a6e7	0.31377336
79	0x3eac865e	0.33696264
80	0xbf398e2e	-0.72482574
81	0xbea1f0c7	-0.3162901
82	0xbe19301d	-0.1495976
83	0x3e89f7ce	0.26946872
84	0xbdfd1e64	-0.12359312
85	0xbe29a22b	-0.16565768
86	0x3ecad3fa	0.3961485
87	0xbebd9ca8	-0.37033582
88	0x3e156356	0.14588675
89	0x3e05ea28	0.13077605
90	0x3d163674	0.036673024
91	0x3dccf26c	0.10007176
92	0x3f30ea3b	0.6910741
93	0x3ef171fb	0.47157273
94	0xbe19ffb3	-0.15038948
95	0x3d1e64a2	0.03867019
96	0xbe0283c0	-0.12745571
97	0xbb642caa	-0.003481666
98	0xbd8b4214	-0.06799713
99	0xbe00bf86	-0.1257306
100	0x3cfa9a42	0.030591134
101	0x3f38f0f3	0.7224266
102	0xbecc027f	-0.39845654
103	0xbd9c376e	-0.0762776
104	0xbe134a79	-0.14383878
105	0x3e1d1c8d	0.15342923
106	0xbd58d87b	-0.052940827
107	0x3eac16a4	0.33611023
108	0xbeb34326	-0.35012168
109	0xbdfba424	-0.12287167
110	0x3e48db6c	0.19614953
111	0xbe7eb2a8	-0.2487284
112	0xbe47510a	-0.19464508
113	0x3eb8b563	0.36075887
114	0xbe92299d	-0.28547373
115	0x3e42b258	0.19013345
116	0xbeba9e0c	-0.36448705
117	0xbe8c7b7f	-0.2743797
118	0xbf257cae	-0.6464337
119	0x3e6a07a0	0.22854471
120	0xbca31e42	-0.019911889
121	0x3de60cd0	0.112329125
122	0x3d379030	0.044815242
123	0x3eab5a1a	0.3346718
124	0xbeae1928	-0.34003568
125	0xbd9dc4cc	-0.07703552
126	0xbe83d92a	-0.2575162
127	0xbe692ca4	-0.22770935
128	0xbee94d92	-0.45566994
129	0xbd865c1f	-0.065605395
130	0x3daba9ee	0.08382021
131	0xbed90333	-0.42385253
132	0x3f21156e	0.62923324
133	0x3ec17ea3	0.3779193
134	0xbe912dfd	-0.283554
135	0xbe9ae7c6	-0.30254954
136	0xbe4aa96f	-0.19791196
137	0xbf05d068	-0.5227113
138	0xbdafbdbc	-0.08581111
139	0xbd27dae9	-0.040980253
140	0xbe423b7a	-0.18968001
141	0x3e38fee8	0.18065989
142	0x3e577260	0.21039724
143	0xbef026d0	-0.46904612
144	0xbdaf998a	-0.08574207
145	0xbe897260	-0.26845074
146	0x3ddc005b	0.10742255
147	0xbe08c3d8	-0.13355958
148	0x3defe2b4	0.11713162
149	0xbf17e00a	-0.5932623
150	0x3f27839a	0.65435183
151	0xbca17d91	-0.019713195
152	0xbea2d550	-0.3180337
153	0x3ea53064	0.32263482
154	0x3ecbe8ca	0.3982604
155	0xbc66a4c8	-0.014077373
156	0x3d7b2044	0.061310068
157	0xbede0213	-0.43360958
158	0xbe342f68	-0.17596209
159	0x3ee908cf	0.45514533
160	0xbf7eabf6	-0.9948114
161	0xbe6b0313	-0.22950391
162	0xbe5c0488	-0.21486104
163	0x3e28de55	0.16491063
164	0x3ebf429e	0.37355512
165	0x3dca2ef4	0.09872237
166	0x3eb6e97e	0.35725015
167	0x3e8a2980	0.26984787
168	0x3ee00453	0.437533
169	0x3de091ae	0.10965286
170	0x3ca49ffa	0.020095814
171	0xbd5f2e52	-0.054487534
172	0x3e48e95a	0.19620267
173	0x3d49746a	0.049183287
174	0x3de938c0	0.11387777
175	0xbf16e37e	-0.58940876
176	0xbdc608af	-0.09669625
177	0xbf021ade	-0.50822246
178	0xbd400240	-0.046877146
179	0x3e46948c	0.19392604
180	0x3ea28c40	0.31747627
181	0x3e4c82e6	0.19971809
182	0xbe4cbb8b	-0.19993417
183	0x3d7e34b0	0.062061965
184	0xbdaa20cc	-0.08307037
185	0xbec3df9b	-0.38256535
186	0xbf1286f1	-0.57237154
187	0xbe68f7fb	-0.22750847
188	0x3db985ab	0.09058698
189	0x3f3ab443	0.7293131
190	0x3eaad593	0.3336607
191	0x3db00c17	0.08596056
192	0x3e807e0c	0.25096166
193	0xbe990550	-0.29886866
194	0xbeabbcd3	-0.335425
195	0x3f05c688	0.5225606
196	0x3f173fe7	0.5908188
197	0xbdb01083	-0.08596899
198	0x3e3f9d4a	0.18712345
199	0xbe01d498	-0.12678754
200	0x3d28e70e	0.041235976
201	0x3eab7c22	0.33493143
202	0xbcec7430	-0.028863996
203	0x3ecc4887	0.39899084
204	0xbd940400	-0.072273254
205	0x3d9e5598	0.077311695
206	0xbe3d3013	-0.1847537
207	0x3e7c1132	0.24615934
208	0xbe3747f8	-0.17898548
209	0x3d34d338	0.044146746
210	0xbe5dc724	-0.21657997
211	0x3da2c1d2	0.079471245
212	0xbea8b390	-0.32949495
213	0x3e34dd43	0.1766253
214	0x3da36969	0.0797909
215	0xbe4bd1a4	-0.1990419
216	0x3ef53f83	0.47900018
217	0xbf22af2f	-0.6354856
218	0x3f01781e	0.5057391
219	0xbd0a64e2	-0.033787616
220	0xbf57f9aa	-0.8436533
221	0x3eb643d2	0.35598618
222	0xbe94f1af	-0.2909064
223	0xbe3deb0a	-0.18546692
224	0x3e3804e4	0.17970616
225	0xbe875b12	-0.2643667
226	0xbe0f68ce	-0.14004824
227	0xbc99526b	-0.018716058
228	0x3e61c693	0.22048406
229	0x3eb5205e	0.35376257
230	0xbdb62868	-0.08894426
231	0x3f3b6b46	0.7321056
232	0xbec4c7a7	-0.38433573
233	0x3e8f38c3	0.27972993
234	0x3dd1afff	0.10238647
235	0xbe82850b	-0.2549213
236	0xbc474bec	-0.012164097
237	0xbedd0d50	-0.4317422
238	0xbd814dd2	-0.06313671
239	0xbe2357e2	-0.15951493
240	0xbcf7b69c	-0.030238442
241	0xbe80b27e	-0.2513618
242	0x3dd7de1f	0.10540413
243	0x3ddb3f6a	0.10705455
244	0xbe05394c	-0.13010138
245	0x3e2b84f4	0.16749936
246	0xbe6b1290	-0.229563
247	0xbe45e372	-0.19325045
248	0x3f3883a2	0.72075856
249	0x3e074ce5	0.13212927
250	0xbeaa0dd5	-0.33213678
251	0x3f4e49b3	0.80581206
252	0x3d8b7016	0.06808488
253	0xbdd23c12	-0.10265364
254	0x3e4f4c36	0.20243916
255	0x3dd2ef52	0.10299553

network_body.linear_encoder.seq_layers.0.bias f4 [128]
0	0x00000000	0.0
1	0x00000000	0.0
2	0x00000000	0.0
3	0x00000000	0.0
4	0x00000000	0.0
5	0x00000000	0.0
6	0x00000000	0.0
7	0x00000000	0.0
8	0x00000000	0.0
9	0x00000000	0.0
10	0x00000000	0.0
11	0x00000000	0.0
12	0x00000000	0.0
13	0x00000000	0.0
14	0x00000000	0.0
15	0x00000000	0.0
16	0x00000000	0.0
17	0x00000000	0.0
18	0x00000000	0.0
19	0x00000000	0.0
20	0x00000000	0.0
21	0x00000000	0.0
22	0x00000000	0.0
23	0x00000000	0.0
24	0x00000000	0.0
25	0x00000000	0.0
26	0x00000000	0.0
27	0x00000000	0.0
28	0x00000000	0.0
29	0x00000000	0.0
30	0x00000000	0.0
31	0x00000000	0.0
32	0x00000000	0.0
33	0x00000000	0.0
34	0x00000000	0.0
35	0x00000000	0.0
36	0x00000000	0.0
37	0x00000000	0.0
38	0x00000000	0.0
39	0x00000000	0.0
40	0x00000000	0.0
41	0x00000000	0.0
42	0x00000000	0.0
43	0x00000000	0.0
44	0x00000000	0.0
45	0x00000000	0.0
46	0x00000000	0.0
47	0x00000000	0.0
48	0x00000000	0.0
49	0x00000000	0.0
50	0x00000000	0.0
51	0x00000000	0.0
52	0x00000000	0.0
53	0x00000000	0.0
54	0x00000000	0.0
55	0x00000000	0.0
56	0x00000000	0.0
57	0x00000000	0.0
58	0x00000000	0.0
59	0x00000000	0.0
60	0x00000000	0.0
61	0x00000000	0.0
62	0x00000000	0.0
63	0x00000000	0.0
64	0x00000000	0.0
65	0x00000000	0.0
66	0x00000000	0.0
67	0x00000000	0.0
68	0x00000000	0.0
69	0x00000000	0.0
70	0x00000000	0.0
71	0x00000000	0.0
72	0x00000000	0.0
73	0x00000000	0.0
74	0x00000000	0.0
75	0x00000000	0.0
76	0x00000000	0.0
77	0x00000000	0.0
78	0x00000000	0.0
79	0x00000000	0.0
80	0x00000000	0.0
81	0x00000000	0.0
82	0x00000000	0.0
83	0x00000000	0.0
84	0x00000000	0.0
85	0x00000000	0.0
86	0x00000000	0.0
87	0x00000000	0.0
88	0x00000000	0.0
89	0x00000000	0.0
90	0x00000000	0.0
91	0x00000000	0.0
92	0x00000000	0.0
93	0x00000000	0.0
94	0x00000000	0.0
95	0x00000000	0.0
96	0x00000000	0.0
97	0x00000000	0.0
98	0x00000000	0.0
99	0x00000000	0.0
100	0x00000000	0.0
101	0x00000000	0.0
102	0x00000000	0.0
103	0x00000000	0.0
104	0x00000000	0.0
105	0x00000000	0.0
106	0x00000000	0.0
107	0x00000000	0.0
108	0x00000000	0.0
109	0x00000000	0.0
110	0x00000000	0.0
111	0x00000000	0.0
112	0x00000000	0.0
113	0x00000000	0.0
114	0x00000000	0.0
115	0x00000000	0.0
116	0x00000000	0.0
117	0x00000000	0.0
118	0x00000000	0.0
119	0x00000000	0.0
120	0x00000000	0.0
121	0x00000000	0.0
122	0x00000000	0.0
123	0x00000000	0.0
124	0x00000000	0.0
125	0x00000000	0.0
126	0x00000000	0.0
127	0x00000000	0.0

network_body.linear_encoder.seq_layers.2.weight f4 [128, 128]
0	0x3a6851f9	0.00088623125
1	0xbcda6526	-0.02665956
2	0x3e2dee47	0.16985427
3	0x3bcfb584	0.006338777
4	0xbdf57df1	-0.11986912
5	0xbdaa9f93	-0.083312176
6	0xbbd7592e	-0.0065719103
7	0xbdd058f1	-0.10173214
8	0xbd068270	-0.03283924
9	0x3aa024de	0.0012218019
10	0x3d02e538	0.03195688
11	0xbd059274	-0.03261037
12	0xbd699cea	-0.05703441
13	0xbd4cc70c	-0.049994513
14	0x3d1fd6f6	0.039023362
15	0xbd88cc02	-0.066795364
16	0xbcb906ad	-0.022586191
17	0x3dee00fa	0.1162128
18	0xbe191209	-0.14948286
19	0x3d4b8d10	0.049695075
20	0x3d96dc87	0.07366281
21	0x3e0a2b3e	0.13493058
22	0xbd7832ea	-0.06059543
23	0xbcdf9dd5	-0.02729694
24	0xbc563f98	-0.013076685
25	0xbc74e402	-0.014946939
26	0x3d3cd739	0.04610369
27	0x3c0408b8	0.008058719
28	0xbe527ded	-0.2055585
29	0x3afef200	0.0019450784
30	0x3e25c941	0.16190054
31	0x3d1da4b9	0.03848717
32	0x3dc5e5cc	0.09662971
33	0x3d44cb0b	0.0480452
34	0xbd34c9b7	-0.044137683
35	0x3dd2f241	0.103001125
36	0xbd812b12	-0.06307043
37	0xbd8695d1	-0.06571544
38	0xbdee7e8c	-0.11645231
39	0x3d880e77	0.06643384
40	0x3d7d39b6	0.061822616
41	0xbd6230e4	-0.055222407
42	0xbdfacd8f	-0.122462384
43	0xbbbad3f2	-0.0057015354
44	0x3df127d4	0.11775175
45	0x3ca6b9ca	0.020352263
46	0xbb49f44a	-0.0030815774
47	0x3d96ad0d	0.073572256
48	0x3ac3b51b	0.0014931293
49	0xbd03bcaa	-0.032162346
50	0xbd31d1a4	-0.04341282
51	0xbd9f0a03	-0.077655815
52	0xbca8145d	-0.020517522
53	0x3dd5cb09	0.104391165
54	0x3cfd0c66	0.030889701
55	0xbd8ed94c	-0.0697504
56	0xbdfd5cfe	-0.123712525
57	0xbda80969	-0.0820492
58	0xbd854482	-0.065072075
59	0xbe13323e	-0.14374635
60	0x3da7b0e1	0.08188034
61	0x3e77b92a	0.24191728
62	0xbd2dbc6a	-0.042416014
63	0xbdeefe24	-0.11669567
64	0xbcb3b40a	-0.021936435
65	0x3e20639f	0.15663002
66	0x3d119303	0.035540592
67	0xbe016c53	-0.12638979
68	0xbdacb5c6	-0.08433108
69	0x3c7b4496	0.015336176
70	0xbd79866b	-0.060919207
71	0xbdb221be	-0.08697842
72	0x3d463087	0.048386123
73	0xbd90a2fc	-0.07062337
74	0x3c917f5e	0.017760929
75	0xbdc8ab2d	-0.09798274
76	0x3cba1627	0.022715641
77	0xbd9dc92d	-0.07704387
78	0xbde9017c	-0.11377236
79	0x3d28d10f	0.041215
80	0x3cf57f80	0.029968023
81	0xbcbf2b20	-0.023335993
82	0xbcfd163d	-0.030894393
83	0x3bc40437	0.0059819478
84	0x3ddbce74	0.10732737
85	0xbdde3438	-0.10849804
86	0xbd9b5b5e	-0.07585786
87	0x3e2ea5c4	0.17055422
88	0x3d988eae	0.07449089
89	0xbd5c9d71	-0.053861085
90	0x3d73e96f	0.05954879
91	0x3dded4da	0.10880442
92	0xbdad6858	-0.084671676
93	0x3d952c9e	0.07283901
94	0xbdabcbb2	-0.08388461
95	0xbd60093b	-0.054696303
96	0x3d80fd55	0.06298319
97	0x3e3093a6	0.17243823
98	0x3ca488cf	0.020084767
99	0x3dd37962	0.10325886
100	0xbcaba9b4	-0.020954944
101	0x3d35fe55	0.044432003
102	0x3cdfa993	0.027302539
103	0x3da6a6e6	0.08137302
104	0x3d7eaf22	0.06217874
105	0xbded33c4	-0.11582139
106	0xbc836453	-0.01603905
107	0x3e2a4682	0.16628459
108	0xbbca6916	-0.006177078
109	0xbd8f3370	-0.06992233
110	0x3caba313	0.020951783
111	0xbcd24597	-0.025667949
112	0x3d773bbc	0.0603597
113	0x3d7336d0	0.059378445
114	0xbd3328f1	-0.043740217
115	0x3dd85eba	0.10564943
116	0x3dc28460	0.09497905
117	0xbe92d7f8	-0.28680396
118	0xbdc7998d	-0.09746084
119	0xbd5a61f0	-0.053316057
120	0xbdbb2e1a	-0.091396526
121	0x3e05d4e5	0.13069494
122	0x3cf820d9	0.0302891
123	0xbccb2768	-0.024799064
124	0x3d572420	0.052524686
125	0xbc9d0f52	-0.019172344
126	0xbc8c1a19	-0.017102288
127	0x3db605df	0.088878386
128	0x3c69bffb	0.014266963
129	0x3db82f28	0.08993369
130	0xbd9a2cee	-0.07528101
131	0x3bee9eef	0.00728213
132	0xbcf62f96	-0.030051988
133	0x3d4f950f	0.050679263
134	0x3db35533	0.08756485
135	0x3d0a8294	0.033815935
136	0xbd51187f	-0.051048752
137	0x3c4ae434	0.012383509
138	0x3c2ae781	0.010431171
139	0x3d537026	0.051620625
140	0x3d67d7ea	0.056602396
141	0x3db8ed5d	0.090296485
142	0xbe2dd33f	-0.16975115
143	0xbe1b9a1f	-0.15195511
144	0xbdca66ae	-0.09882866
145	0xbd238a70	-0.039926946
146	0xbe0a796d	-0.13522883
147	0xbc47283e	-0.012155591
148	0xbda54e9b	-0.080716334
149	0x3d92d732	0.071699515
150	0xbcd24130	-0.02566585
151	0xbe087764	-0.13326794
152	0xbdb3714a	-0.087618425
153	0x3c87f538	0.016596422
154	0xbd0b46d5	-0.034003098
155	0x3c11e03b	0.008903558
156	0xbd53440d	-0.05157857
157	0x3d4cab94	0.049968317
158	0x3e0076c7	0.1254531
159	0x3d223cc0	0.039608717
160	0x3e1a4ad0	0.15067601
161	0xbd3185f0	-0.043340623
162	0x3de500ea	0.11181815
163	0x3e00be53	0.12572603
164	0x3c909902	0.017651085
165	0x3e1f3ad8	0.15549791
166	0x3d620a49	0.05518559
167	0x3da84313	0.082159184
168	0x3e09b090	0.1344626
169	0xb9dcc7da	-0.0004211057
170	0x3e25fd72	0.16209963
171	0x3d677290	0.05650574
172	0xbcf578c8	-0.02996482
173	0xbe02447c	-0.12721437
174	0x3b2e3d48	0.002658682
175	0x3db71cc2	0.08941032
176	0x3d152106	0.036408447
177	0xbc6d1822	-0.014471086
178	0xbd2ce79e	-0.042213075
179	0x3d3fa8db	0.046791892
180	0xbd8aeb0e	-0.067831144
181	0xbe210481	-0.15724374
182	0x3d743afc	0.059626564
183	0x3d4acb77	0.049510445
184	0xbdca868a	-0.098889425
185	0x3d6df3e8	0.058093935
186	0x3dcb41f3	0.09924688
187	0xbd9f7672	-0.077862635
188	0xba94b4f6	-0.0011345434
189	0xbc974e74	-0.018470027
190	0x3db73f3b	0.08947607
191	0x3d35f733	0.0444252
192	0xbc5f5db4	-0.01363318
193	0x3d869bb4	0.06572667
194	0x3e48073a	0.19534007
195	0xbda3ef76	-0.08004658
196	0x3d6caef4	0.057784036
197	0xbcfeab66	-0.031087589
198	0xbd99b44c	-0.07505092
199	0x3d679664	0.056539908
200	0xbc5191ff	-0.012791156
201	0xbdbcfb44	-0.092276126
202	0xbdaa21dd	-0.0830724
203	0x3e35b442	0.17744544
204	0x3cece279	0.028916584
205	0xbe17e87a	-0.14834777
206	0x3dae4f95	0.08511273
207	0xbc0c28b2	-0.008554624
208	0xbd84ac2b	-0.06478151
209	0x3d9a0f5e	0.07522462
210	0xbd36f602	-0.044668205
211	0x3d09a415	0.033603746
212	0xbe00a6d5	-0.12563641
213	0xbd5a68fe	-0.053322785
214	0x3d8f6329	0.07001335
215	0xbdde6d05	-0.108606376
216	0xbc82f992	-0.015988145
217	0xbd046814	-0.03232582
218	0x3de6206b	0.11236652
219	0xbb885942	-0.004161031
220	0x3db74831	0.08949316
221	0xbdd712a0	-0.10501599
222	0x3d381c6b	0.044948976
223	0x3c8666cb	0.016406437
224	0xbe3c2306	-0.18372735
225	0x3d1c9f8a	0.038238086
226	0xbc366da5	-0.01113454
227	0xbc766c1f	-0.0150404265
228	0xbdcf5d9e	-0.10125278
229	0xbd41fadb	-0.047358375
230	0xbd49cabc	-0.04926561
231	0x3c7906b7	0.015199355
232	0x3db533cc	0.0884777
233	0xbbd93ddf	-0.00662969
234	0x3d077dc4	0.033078924
235	0x3da45880	0.080246925
236	0xbd2ec6e7	-0.042670157
237	0xbc98e76a	-0.018665034
238	0x3d418b4e	0.047251992
239	0x3c18e467	0.009331799
240	0x3d5c15bd	0.05373167
241	0xbd56fdfd	-0.052488316
242	0x3cbe76e9	0.02325006
243	0x3da81a93	0.08208194
244	0xbcb4be43	-0.02206338
245	0x3ce4822e	0.027894106
246	0xbd13d24d	-0.03608923
247	0x3d3b6268	0.045748144
248	0x3e0d5a5e	0.13804004
249	0xbd61aa6f	-0.05509418
250	0xbd7b43d6	-0.06134399
251	0xbd156381	-0.036471847
252	0xbd1917ff	-0.0373764
253	0x3cca10e3	0.024666255
254	0x3c74e4d8	0.014947139
255	0x3e12397d	0.14279743

network_body.linear_encoder.seq_layers.2.bias f4 [128]
0	0x00000000	0.0
1	0x00000000	0.0
2	0x00000000	0.0
3	0x00000000	0.0
4	0x00000000	0.0
5	0x00000000	0.0
6	0x00000000	0.0
7	0x00000000	0.0
8	0x00000000	0.0
9	0x00000000	0.0
10	0x00000000	0.0
11	0x00000000	0.0
12	0x00000000	0.0
13	0x00000000	0.0
14	0x00000000	0.0
15	0x00000000	0.0
16	0x00000000	0.0
17	0x00000000	0.0
18	0x00000000	0.0
19	0x00000000	0.0
20	0x00000000	0.0
21	0x00000000	0.0
22	0x00000000	0.0
23	0x00000000	0.0
24	0x00000000	0.0
25	0x00000000	0.0
26	0x00000000	0.0
27	0x00000000	0.0
28	0x00000000	0.0
29	0x00000000	0.0
30	0x00000000	0.0
31	0x00000000	0.0
32	0x00000000	0.0
33	0x00000000	0.0
34	0x00000000	0.0
35	0x00000000	0.0
36	0x00000000	0.0
37	0x00000000	0.0
38	0x00000000	0.0
39	0x00000000	0.0
40	0x00000000	0.0
41	0x00000000	0.0
42	0x00000000	0.0
43	0x00000000	0.0
44	0x00000000	0.0
45	0x00000000	0.0
46	0x00000000	0.0
47	0x00000000	0.0
48	0x00000000	0.0
49	0x00000000	0.0
50	0x00000000	0.0
51	0x00000000	0.0
52	0x00000000	0.0
53	0x00000000	0.0
54	0x00000000	0.0
55	0x00000000	0.0
56	0x00000000	0.0
57	0x00000000	0.0
58	0x00000000	0.0
59	0x00000000	0.0
60	0x00000000	0.0
61	0x00000000	0.0
62	0x00000000	0.0
63	0x00000000	0.0
64	0x00000000	0.0
65	0x00000000	0.0
66	0x00000000	0.0
67	0x00000000	0.0
68	0x00000000	0.0
69	0x00000000	0.0
70	0x00000000	0.0
71	0x00000000	0.0
72	0x00000000	0.0
73	0x00000000	0.0
74	0x00000000	0.0
75	0x00000000	0.0
76	0x00000000	0.0
77	0x00000000	0.0
78	0x00000000	0.0
79	0x00000000	0.0
80	0x00000000	0.0
81	0x00000000	0.0
82	0x00000000	0.0
83	0x00000000	0.0
84	0x00000000	0.0
85	0x00000000	0.0
86	0x00000000	0.0
87	0x00000000	0.0
88	0x00000000	0.0
89	0x00000000	0.0
90	0x00000000	0.0
91	0x00000000	0.0
92	0x00000000	0.0
93	0x00000000	0.0
94	0x00000000	0.0
95	0x00000000	0.0
96	0x00000000	0.0
97	0x00000000	0.0
98	0x00000000	0.0
99	0x00000000	0.0
100	0x00000000	0.0
101	0x00000000	0.0
102	0x00000000	0.0
103	0x00000000	0.0
104	0x00000000	0.0
105	0x00000000	0.0
106	0x00000000	0.0
107	0x00000000	0.0
108	0x00000000	0.0
109	0x00000000	0.0
110	0x00000000	0.0
111	0x00000000	0.0
112	0x00000000	0.0
113	0x00000000	0.0
114	0x00000000	0.0
115	0x00000000	0.0
116	0x00000000	0.0
117	0x00000000	0.0
118	0x00000000	0.0
119	0x00000000	0.0
120	0x00000000	0.0
121	0x00000000	0.0
122	0x00000000	0.0
123	0x00000000	0.0
124	0x00000000	0.0
125	0x00000000	0.0
126	0x00000000	0.0
127	0x00000000	0.0

value_heads.value_heads.extrinsic.weight f4 [1, 128]
0	0xbe2a7a40	-0.16648197
1	0xbe4d3eee	-0.20043537
2	0x3e283988	0.16428196
3	0xbdf5d2f7	-0.12003129
4	0x3e2686be	0.16262338
5	0x3d8ddf10	0.069273114
6	0xbc31a5d0	-0.010842755
7	0xbd0d1178	-0.034440488
8	0xbe4f313e	-0.20233628
9	0xbe2b2f33	-0.16717224
10	0x3db0f114	0.08639732
11	0x3dc18110	0.09448445
12	0x3e1cbc02	0.15306094
13	0xbe2a7029	-0.16644348
14	0xbdd1072e	-0.102064475
15	0xbdc1fd74	-0.094721705
16	0x3e00e4da	0.125873
17	0xbc0138c0	-0.007887065
18	0xbbb35dc0	-0.0054738224
19	0x3c9e4670	0.019320697
20	0xbe03430c	-0.12818545
21	0x3dde5208	0.1085549
22	0x3a717000	0.000921011
23	0xbe19ea40	-0.15030766
24	0xbe2d19f6	-0.16904435
25	0x3d80a8cc	0.062821954
26	0x3e2a5836	0.16635212
27	0xbce6b1d8	-0.028160974
28	0xbe5c3f1a	-0.21508446
29	0xbe084521	-0.1330762
30	0xbd625a18	-0.0552617
31	0xbe23f822	-0.16012624
32	0x3e33d8c6	0.17563161
33	0x3e05d35e	0.13068911
34	0xbe3a0d78	-0.181692
35	0x3d3ba830	0.045814693
36	0x3d9eec70	0.077599406
37	0xbdfb1068	-0.122589886
38	0xbe1216cc	-0.14266509
39	0xbe543211	-0.20722224
40	0x3d9943d4	0.0748364
41	0xbdb15eb2	-0.0866064
42	0xbe0c389a	-0.13693467
43	0x3d74c4a0	0.05975783
44	0x3dafb21c	0.085788935
45	0x3e015296	0.1262916
46	0xbdc08c92	-0.09401812
47	0xbe270d47	-0.16313659
48	0xbe22be2f	-0.15892862
49	0xbdd609c5	-0.10451082
50	0xbe4617f6	-0.19345078
51	0xbe4c9b0d	-0.19981022
52	0xbc72ddd0	-0.014823392
53	0x3d7902b0	0.06079358
54	0xbbca5380	-0.0061745048
55	0xbdb472fe	-0.088109955
56	0xbe34b999	-0.17648925
57	0xbe10ed1d	-0.14152952
58	0x3d274b18	0.0408431
59	0x3dddc34c	0.108282655
60	0xbdc8c55c	-0.09803268
61	0xbe3b6d5a	-0.18303433
62	0xbce2dc88	-0.027693048
63	0xbd07c7c4	-0.033149496
64	0x3e567f0c	0.20946902
65	0x3dfc95a4	0.12333229
66	0x3d5d0e30	0.05396861
67	0x3e002a3c	0.12516111
68	0x3dbaf074	0.09127894
69	0x3e575fd2	0.21032646
70	0xbd43f59c	-0.047841653
71	0xbd850fc0	-0.06497145
72	0xbe1287a2	-0.14309552
73	0x3e471ebc	0.19445318
74	0x3d89a2e4	0.06720522
75	0xbcc60ac0	-0.024175048
76	0xbd78703c	-0.06065391
77	0xbe217f9e	-0.15771338
78	0xbe5b6ee1	-0.21429016
79	0x3e53a460	0.20668173
80	0x3e179b3c	0.14805311
81	0x3e04d9ee	0.12973759
82	0x3e46e96a	0.19424978
83	0x3e00bf1e	0.12572905
84	0x3c982090	0.018570215
85	0x3e3303a4	0.17481858
86	0x3e5b646c	0.21425027
87	0xbe54ae18	-0.20769536
88	0x3d5f2430	0.05447787
89	0xbd789c10	-0.060695708
90	0x3d6b4f60	0.057448745
91	0x3dc35e5c	0.09539482
92	0x3d69d690	0.05708939
93	0x3d8850ec	0.066560596
94	0x3d37abe0	0.044841647
95	0x3e290820	0.16507006
96	0xbe2b6054	-0.16735965
97	0xbe0e6dac	-0.13909024
98	0xbc2d09d0	-0.0105614215
99	0xbe4a1038	-0.1973275
100	0xbe0b46ae	-0.13601181
101	0xbc419a80	-0.011816621
102	0xbe20b4dc	-0.15693992
103	0xbe30ea0e	-0.17276785
104	0xbde5ea0e	-0.11226283
105	0xbe222684	-0.15835005
106	0xbe170c73	-0.14750843
107	0x3e25802e	0.16162178
108	0xbcbf2428	-0.02333267
109	0xbc8b0e78	-0.016974673
110	0x3d52c4f8	0.051457375
111	0xbc204090	-0.009781018
112	0xbca41970	-0.02003166
113	0xbd9ff16a	-0.07809718
114	0x3e123f5e	0.14281985
115	0xbdcee6b1	-0.10102595
116	0xbd7d10fc	-0.061783776
117	0x3d2b7608	0.04186061
118	0xbd8c1386	-0.06839661
119	0xbd9132b2	-0.070897475
120	0xbd407d58	-0.046994537
121	0x3c8d7f78	0.017272696
122	0xbe03bd82	-0.1286526
123	0xbe0067c5	-0.12539585
124	0xbcc85f78	-0.024459586
125	0xbe26ba7f	-0.1628208
126	0x3e0b0468	0.135759
127	0xbbe20940	-0.0068980753
