UnityController/results/alex/MoveToGoal/MoveToGoal-333946.onnx (onnx, 76017 bytes, 6 tensors)

action_model._discrete_distribution.branches.0.bias f4 [5]
0.021579742 -0.016086394 -0.02477685 0.022252824 0.005959154
00000000: 00c8 b03c 9dc7 83bc d2f8 cabc 8e4b b63c
00000010: 0245 c33b

action_model._discrete_distribution.branches.0.weight f4 [5, 128]
-0.011933436 0.008565627 -7.733522e-05 0.016309768 -0.010560688 -0.012145582 -0.0048333686 -0.030782906
-0.021067308 0.008898097 -0.0044267476 0.02747798 -0.002913162 -0.02401858 0.021048304 -0.0048341746
1.0885134e-05 -0.0103098145 -0.01873506 -0.0032045273 0.025548097 -0.032003872 -0.0014076132 0.015212268
-0.005507933 0.015015142 0.0019522513 -0.011462909 0.006189419 0.008165477 0.01013491 0.046807766
-0.024360841 0.021130517 0.005785615 0.02049141 -0.0013626253 0.0029042347 0.0089284135 -0.006653701
-0.015301855 0.011841731 0.0059266067 -0.04358289 0.010461218 -0.006810062 0.027250692 -0.0026836616
0.010541273 -0.00906237 0.011101668 -0.02341058 0.01642509 0.00067242514 -0.032793116 0.013594212
0.0200991 -0.0056087184 0.0060423785 0.020426419 0.015278011 0.030717285 0.020982292 0.005037955
-0.0053438805 0.001959558 0.0031656346 -0.0039491244 0.006898646 0.0026207867 0.0077945604 -0.01593735
0.0032093623 -0.014766333 -0.0021916048 0.0019072015 0.009155596 0.0036193614 0.0047252034 -0.026063189
0.0245205 0.012103381 0.012765181 0.020967381 0.00076777197 -0.031593177 -0.002051842 0.0072123394
-0.018732568 0.012335283 0.015924238 -0.0036341776 0.010193889 0.029936872 0.010310841 0.015549455
0.0069152457 -0.006240672 0.012092708 0.008719099 -0.005300349 0.017645026 0.031027181 0.008818756
0.011933605 0.0035643969 -0.019635543 0.011740072 0.015063446 0.006359414 -0.003187876 0.011101219
-0.012911264 0.0011307077 -0.015776915 -0.020995164 0.021075165 -0.0023282291 -0.010995491 0.015961016
-0.00789385 0.032773867 0.014172061 -0.0012215441 0.008190854 -0.019446531 -0.014940288 -0.024716105
-0.021942498 -0.046002436 0.04038711 0.00413539 0.00022893443 0.004980449 0.0433587 0.022945222
-0.038136356 -0.012378942 -0.03424491 -0.050253365 0.014471134 0.020171281 -0.032068685 -0.015292238
0.026181567 0.04824162 0.0021124887 0.00033828855 -0.000266377 0.010454416 -0.024394197 -0.0522897
0.04380152 -0.030481266 -0.026579568 -0.00024717598 -0.0029933637 -0.021519206 -0.045794003 -0.012810689
0.05196679 0.041270092 0.006999656 0.022054318 0.018398827 -0.00039658212 -0.04362832 0.024357796
0.034265395 -0.011554471 -0.030328942 0.017936196 -0.019834692 0.045021325 -0.010096266 0.0021030733
0.007729446 -0.01090165 -0.023380008 0.028494483 -0.03475002 -0.043348752 0.012089908 -0.039250787
-0.007150109 -0.018720614 0.03635059 -0.06490665 -0.019457327 -0.022794455 0.00092601206 -0.043618172
-0.012016026 -0.03659693 0.047946017 0.0268184 -0.01699629 -0.0057591554 -0.016982999 0.005470611
0.014937979 0.0033877727 -0.012048754 -0.0057045156 -0.005582938 -0.03504984 -0.013380802 0.023064706
0.0018520113 -0.03635435 -0.01665462 0.005719127 -0.045125354 0.025532091 -0.041803464 -0.016645957
-0.011089695 -0.043402635 -0.055750463 -0.0093597835 0.0038918632 -0.04427998 -0.012573143 0.0018732282
-0.023570936 -0.04492523 -0.0059645963 0.0059786 0.02483868 -0.011286498 -0.027526325 0.012840341
-0.0020843649 0.014842306 0.029852014 -0.007499235 -0.01770827 -0.047729403 0.038475975 0.0038291016
0.0035390866 0.03322552 0.029665206 -0.008193278 -0.0013418982 -0.027716441 -0.01635946 0.0380986
0.00094671344 -0.017756915 -0.014135209 -0.01927699 0.020240901 0.011785915 0.009038908 0.026342843
00000000: 7584 43bc d856 0c3c 082f a2b8 109c 853c
00000010: bc06 2dbc 43fe 46bc 3c61 9ebb 6f2c fcbc
00000020: 5995 acbc 53c9 113c 400e 91bb 8019 e13c
00000030: c0ea 3ebb 9dc2 c4bc 7e6d ac3c ff67 9ebb
00000040: 4b9f 3637 7fea 28bc 457a 99bc 0c03 52bb
00000050: 3e4a d13c 7e16 03bd a97f b8ba e03c 793c
00000060: e47b b4bb 1202 763c afe2 ff3a edce 3bbc
00000070: 9cd0 ca3b 7ec8 053c e50c 263c 80b9 3f3d
00000080: 6390 c7bc e819 ad3c 4295 bd3b 9add a73c
00000090: 1e9a b2ba f954 3e3b 7b48 123c 4a07 dabb
000000a0: a2b4 7abc d203 423c fb33 c23b f983 32bd
000000b0: 8765 2b3c f126 dfbb d83c df3c 5fe0 2fbb
000000c0: 4eb5 2c3c 567a 14bc c5e3 353c 8bc7 bfbc
000000d0: e98d 863c b045 303a 1352 06bd 42ba 5e3c
000000e0: dea6 a43c 57c9 b7bb 25ff c53b 4e55 a73c
000000f0: 9f50 7a3c d1a2 fb3c 0ee3 ab3c 6e15 a53b
00000100: b81b afbb ee6b 003b 8976 4f3b a867 81bb
00000110: 090e e23b 81c1 2b3b 8369 ff3b 0c8f 82bc
00000120: 2a54 523b 7dee 71bc 07a1 0fbb 10fb f93a
00000130: 5a01 163c cf32 6d3b e1d5 9a3b 7882 d5bc
00000140: 37df c83c 424d 463c 0d25 513c c9c3 ab3c
00000150: 4e44 493a d967 01bd 3278 06bb 7d55 ec3b
00000160: 0b75 99bc ed19 4a3c 8c73 823c 622b 6ebb
00000170: 4504 273c 2c3e f53c cdee 283c 24c3 7e3c
00000180: 4999 e23b 8d7e ccbb 7e20 463c 8dda 0e3c
00000190: 8dae adbb 4d8c 903c b72c fe3c 8b7c 103c
000001a0: 2b85 433c a898 693b b8da a0bc 6e59 403c
000001b0: accc 763c a262 d03b afeb 50bb e3e1 353c
000001c0: c489 53bc 4134 943a 973e 81bc 0dfe abbc
000001d0: d3a5 ac3c 3495 18bb 6f26 34bc adc0 823c
000001e0: 3555 01bc e43d 063d ef31 683c 381c a0ba
000001f0: ef32 063c 554e 9fbc 1cc8 74bc 6e79 cabc
00000200: c1c0 b3bc 0d6d 3cbd f46c 253d 2a82 873b
00000210: 1e0e 7039 0933 a33b e498 313d 9ef7 bb3c
00000220: de34 1cbd 0cd1 4abc 6444 0cbd 79d6 4dbd
00000230: 5618 6d3c 3e3e a53c 745a 03bd 4c8c 7abc
00000240: ba7a d63c 0199 453d ae71 0a3b 525c b139
00000250: 84a8 8bb9 0049 2b3c 57d6 c7bc b92d 56bd
00000260: 3969 333d d9b3 f9bc 65bd d9bc 6697 81b9
00000270: 4f2c 44bb 0c49 b0bc 7e92 3bbd ede3 51bc
00000280: 21db 543d d40a 293d 5f5d e53b 42ab b43c
00000290: 23b9 963c 5aec cfb9 9cb3 32bd 008a c73c
000002a0: df59 0c3d f74e 3dbc 6774 f8bc eeee 923c
000002b0: 5d7c a2bc 4868 383d cf6a 25bc b7d3 093b
000002c0: 4b47 fd3b d69c 32bc 6e87 bfbc 436d e93c
000002d0: 0956 0ebd 768e 31bd c014 463c 6fc5 20bd
000002e0: 764b eabb f95b 99bc 5be4 143d c7ed 84bd
000002f0: f964 9fbc 70bb babc 9ebf 723a f8a8 32bd
00000300: dede 44bc aae6 15bd 0b63 443d 43b2 db3c
00000310: ce3b 8bbc 4cb7 bcbb ee1f 8bbc d042 b33b
00000320: 6dbe 743c 6505 5e3b 2368 45bc f2ec babb
00000330: 14f1 b6bb 6c90 0fbd 273b 5bbc 32f2 bc3c
00000340: 30bf f23a 4de8 14bd 456f 88bc 8467 bb3b
00000350: 5dd5 38bd ad28 d13c 1c3a 2bbd 1a5d 88bc
00000360: 8db1 35bc f6c6 31bd 995a 64bd c759 19bc
00000370: a10e 7f3b ed5e 35bd 95ff 4dbc 1c87 f53a
00000380: d617 c1bc 8503 38bd a972 c3bb 22e8 c33b
00000390: 7d7a cb3c 01eb 38bc e37e e1bc 4b60 523c
000003a0: d799 08bb 252d 733c 368c f43c 25bc f5bb
000003b0: ef10 91bc e87f 43bd fc98 1d3d aaf1 7a3b
000003c0: 05f0 673b 7c17 083d 7204 f33c 193d 06bc
000003d0: a2e2 afba 970d e3bc 4604 86bc 470d 1c3d
000003e0: dd2c 783a f376 91bc 5d97 67bc c7ea 9dbc
000003f0: 3fd0 a53c b619 413c ee17 143c f2cc d73c

network_body.linear_encoder.seq_layers.0.bias f4 [128]
0.0037550966 0.040393855 -0.006508462 -0.013865423 0.024031738 -0.019489078 0.033378586 0.053037934
0.01879272 0.04520169 0.025008408 -0.01772479 0.031025052 -0.020027226 0.03391896 0.022271547
0.042561024 0.01169085 0.021605544 0.04856322 0.01526373 0.035817277 0.0009888958 0.03796371
0.021144561 0.00263101 0.03210635 0.04412338 -0.0023228624 -0.0025279669 0.04152199 0.028331496
0.03184277 0.041422203 0.013233188 0.047592018 0.044967543 0.03413829 -0.0019986131 -0.0035246545
0.018286493 0.03671271 0.03913416 0.005089627 0.011147841 0.017920842 -0.0056525576 -0.018761974
0.017116448 0.009754256 0.0075422693 0.0018677616 -0.024982322 0.02666864 0.047666404 0.032106522
0.01789088 0.031306412 -0.03140555 -0.025807718 0.029008688 -0.02235896 0.031391244 -0.019869972
-0.0048229923 -0.0074328072 0.022656891 0.028558131 0.049383014 -0.017248485 0.03671258 0.035366077
0.028491031 0.024560686 0.0168245 0.024415588 0.031184345 -0.033429444 0.020274984 0.020047935
-0.00022363334 0.026887419 0.024906432 0.028657716 0.027191857 0.050854895 0.02545758 0.023868822
0.012676607 0.045589212 0.046500012 0.0383671 0.01344524 0.018173173 0.0036400324 0.034061488
0.022570128 0.025851168 0.008565637 0.03566937 -0.017614571 0.03430509 0.021031262 0.04500325
0.026330557 0.03516379 0.031073822 -0.036186144 0.021257484 0.028582696 0.023047972 0.014946656
0.0130659295 0.006144956 0.024123972 0.036327314 0.045289557 -0.023131512 -0.0020276625 0.008480272
0.012953872 0.025217414 0.01415555 0.014083304 -0.021686155 -0.015833393 0.029413918 0.018320132
00000000: 1118 763b 0774 253d f044 d5bb cd2b 63bc
00000010: 35de c43c 8fa7 9fbc fcb7 083d 4e3e 593d
00000020: 31f3 993c 6825 393d 6fde cc3c 9433 91bc
00000030: 4028 fe3c 2310 a4bc 9bee 0a3d d272 b63c
00000040: 7854 2e3d fb8a 3f3c 1cfe b03c 3aea 463d
00000050: b914 7a3c 23b5 123d d69d 813a d67f 1b3d
00000060: 5c37 ad3c 066d 2c3b f381 033d b8ba 343d
00000070: 2a3b 18bb 3fac 25bb f612 2a3d 7417 e83c
00000080: 906d 023d 54aa 293d 03d0 583c d9ef 423d
00000090: e32f 383d 97d4 0b3d 2afb 02bb e4fd 66bb
000000a0: 8ecd 953c 1160 163d 244b 203d e3c6 a63b
000000b0: 6fa5 363c bbce 923c 1739 b9bb b6b2 99bc
000000c0: cb37 8c3c 51d0 1f3c 2425 f73b aecf f43a
000000d0: baa7 ccbc 3178 da3c d93d 433d 2182 033d
000000e0: e58f 923c 273b 003d 1ba3 00bd b56a d3bc
000000f0: a1a3 ed3c 232a b7bc 1b94 003d 5ac6 a2bc
00000100: 310a 9ebb e88e f3bb f29a b93c bef2 e93c
00000110: d845 4a3d b24c 8dbc ee5f 163d 05dc 103d
00000120: 0666 e93c 7e33 c93c 89d3 893c 3303 c83c
00000130: 5076 ff3c 50ed 08bd b917 a63c 913b a43c
00000140: 1e7f 6ab9 0143 dc3c 9308 cc3c 96c3 ea3c
00000150: 75c1 de3c 394d 503d 6a8c d03c 8c88 c33c
00000160: 8bb1 4f3c c1bb 3a3d cc76 3e3d d226 1d3d
00000170: 6d49 5c3c e8df 943c 9c8d 6e3b 0f84 0b3d
00000180: fde4 b83c d4c5 d33c e356 0c3c 0c1a 123d
00000190: 6f4c 90bc 7e83 0c3d c149 ac3c 5455 383d
000001a0: 2eb3 d73c e807 103d 878e fe3c ec37 14bd
000001b0: 2d24 ae3c 4226 ea3c 1acf bc3c d2e2 743c
000001c0: 7b12 563c a15b c93b a39f c53c f3cb 143d
000001d0: 8b81 393d 4c7e bdbc 88e2 04bb d7f0 0a3c
000001e0: 7a3c 543c c094 ce3c aeec 673c a9bd 663c
000001f0: 2aa7 b1bc 08b5 81bc 75f5 f03c 1a14 963c

network_body.linear_encoder.seq_layers.0.weight f4 [128, 9]
-0.5941183 0.06352941 -0.122499086 0.22220658 0.3253119 -0.056146435 -0.14472409 0.20292434
0.521887 -0.19459733 -0.09082248 0.13933447 -0.09928102 -0.26763162 -0.45731118 -0.39487186
-0.10166116 0.11499126 -0.031686686 -0.10417598 0.027245175 -0.19327524 -0.0006456451 0.31801185
0.34757847 0.21898274 -0.48700842 -0.11651602 0.29512522 -0.5556216 -0.06611412 0.06962907
-0.15828235 -0.03212724 0.18791094 0.063202746 -0.159415 -0.470932 -0.24574597 -0.46518064
0.2139987 -0.12457333 -0.34288985 -0.42781705 -0.24297664 0.39210013 -1.0197703 0.049797893
-0.20486261 0.16292077 0.3366075 0.14011788 -0.3624565 -0.12120406 0.08788734 -0.14415526
-0.5364976 -0.2039062 0.33139887 0.14132841 -0.7592095 -0.07234473 -0.14812998 -0.26785162
0.23636405 -0.2443511 0.532531 0.5811016 -0.1416834 -0.52837723 -0.042565227 -0.4549684
-0.19330344 -0.09692305 0.24691862 -0.2807266 0.46824 -0.20687273 0.7493037 0.43460461
-0.16743037 -0.15144512 -0.2227955 -0.16237812 0.3343376 -0.002627915 -0.088205755 -0.13576055
0.076885834 -0.068801925 0.27086133 0.07084659 0.054777548 -0.055537913 -0.23242213 -0.071612716
0.23912609 -0.29964033 -0.75578123 -0.35920185 0.14890328 0.03510666 0.35448736 -0.27143437
-0.20390992 0.5242023 0.058299623 0.34787232 0.052501265 -0.34973255 0.36778367 0.14707284
0.40225825 -0.52767426 0.14338672 -0.18835151 0.116324335 0.17063375 0.0867202 0.084776044
-0.18706308 0.11185234 -0.17021967 0.38120568 0.6671318 -0.17909853 0.44742656 -0.12865023
-0.17893156 -0.07436458 -0.5151781 -0.12709491 0.083170496 0.1962119 -0.4506099 0.22219664
-0.2246979 0.21312746 -0.0058016144 0.09115264 0.32059127 -0.3606208 -0.064183585 -0.113320366
0.15227012 0.8755057 0.6428592 -0.036719717 0.101039946 -0.01072282 0.030141518 0.27130073
0.35071194 -0.021093713 0.2114394 -0.37456718 0.6264355 -0.27232906 -0.74796456 -0.22191547
0.8504467 0.21753441 0.32304958 0.083734214 0.3826231 -0.18626493 -0.077730566 -0.10586177
-0.5700744 -0.26645482 -0.3736974 0.5475098 -0.13029331 0.21812738 -0.19909388 -0.34199604
-0.7016417 -0.06436297 0.3629007 0.39230043 0.26685503 0.10353861 0.20266877 0.19960663
0.5787905 -0.0568249 0.6338359 -0.43714672 0.9008547 -0.096958406 -0.018267363 -0.17846371
0.12333008 -0.124445595 0.1833174 -0.23881026 0.0943082 0.15054049 -0.57309884 0.32694665
-0.2191036 0.19143097 0.38737074 0.65872407 0.34784317 0.24260268 0.31241137 0.044492397
-0.24996574 -0.103824876 0.29761994 0.051093176 0.3489952 -0.33013013 0.19877976 0.1735744
0.25291994 -0.12856166 -0.32934186 0.18167616 0.2368886 0.71727294 -0.36801258 0.9795929
0.8810948 -0.65312135 -0.10063744 -0.09657242 0.47700316 -0.15100665 0.18449324 0.34508234
-0.14556278 -0.027186804 0.00020327898 0.2345357 0.103615835 -0.10070001 -0.26680052 -0.038389347
-1.0216124 0.112461194 -0.10740199 0.0021733698 -0.32518458 -0.15755734 -0.64992696 0.12584063
0.20601618 0.017532006 -0.1274206 0.20053351 -0.01624564 0.50477564 0.118243985 -0.20704745
00000000: 2318 18bf b51b 823d cde0 fabd 1f8a 633e
00000010: 488f a63e cef9 65bd 8d32 14be 66cb 4f3e
00000020: 639a 053f 8644 47be 2301 babd b2ad 0e3e
00000030: d953 cbbd 0307 89be b124 eabe a52c cabe
00000040: ba33 d0bd 8a80 eb3d e6c9 01bd 375a d5bd
00000050: 4631 df3c f2e9 45be 8240 29ba 73d2 a23e
00000060: cef5 b13e 033d 603e 2b59 f9be f39f eebd
00000070: a71a 973e 383d 0ebf d766 87bd b099 8e3d
00000080: c514 22be da97 03bd ba6b 403e 7170 813d
00000090: b03d 23be 001e f1be d5a4 7bbe 282c eebe
000000a0: 7a22 5b3e 4d20 ffbd 428f afbe d60a dbbe
000000b0: dece 78be 59c1 c83e d587 82bf e0f8 4b3d
000000c0: 81c7 51be b4d4 263e d157 ac3e 107b 0f3e
000000d0: e693 b9be d639 f8bd 47fe b33d 709d 13be
000000e0: e857 09bf c9cc 50be 1dad a93e 65b8 103e
000000f0: 8e5b 42bf 7929 94bd 63af 17be d923 89be
00000100: 6b09 723e 2d37 7abe f453 083f 13c3 143f
00000110: 7415 11be bb43 07bf e058 2ebd 9ef1 e8be
00000120: 56f1 45be 987f c6bd 3cd8 7c3e 66bb 8fbe
00000130: 27bd ef3e 72d6 53be 5ed2 3f3f 7f84 de3e
00000140: de72 2bbe 6e14 1bbe 8124 64be 7346 26be
00000150: 4c2e ab3e 1939 2cbb 38a5 b4bd d004 0bbe
00000160: 5276 9d3d 06e8 8cbd 56ae 8a3e 0418 913d
00000170: 6c5e 603d b97b 63bd 1100 6ebe b0a9 92bd
00000180: 78dd 743e 756a 99be e17a 41bf 4ee9 b7be
00000190: 1a7a 183e 00cc 0f3d 5e7f b53e 72f9 8abe
000001a0: c3cd 50be 1f32 063f 96cb 6e3d 521c b23e
000001b0: 910b 573d 2510 b3be 244e bc3e 439a 163e
000001c0: cbf4 cd3e a915 07bf f8d3 123e 38df 40be
000001d0: 743b ee3d 9dba 2e3e 5c9a b13d 109f ad3d
000001e0: 778d 3fbe d712 e53d 114e 2ebe 642d c33e
000001f0: 26c9 2a3f 9b65 37be 1815 e53e e3bc 03be
00000200: d639 37be 754c 98bd b6e2 03bf 2b25 02be
00000210: 4b55 aa3d c6eb 483e 57b6 e6be 8487 633e
00000220: 3517 66be 163e 5a3e 781b bebb 3cae ba3d
00000230: 8a24 a43e 4aa3 b8be af72 83bd 8214 e8bd
00000240: b3ec 1b3e 2421 603f 6c92 243f 6a67 16bd
00000250: 08ee ce3d c4ae 2fbc 58eb f63c eee7 8a3e
00000260: 8490 b33e b9cc acbc 9283 583e 45c7 bfbe
00000270: 145e 203f b76e 8bbe 9b7a 3fbf cf3d 63be
00000280: e0b6 593f 57c1 5e3e c166 a53e d87c ab3d
00000290: 2de7 c33e 3cbc 3ebe 3431 9fbd 0ece d8bd
000002a0: 65f0 11bf c46c 88be 4455 bfbe 9a29 0c3f
000002b0: 9c6b 05be c95c 5f3e 44df 4bbe 1b1a afbe
000002c0: ca9e 33bf bcd0 83bd 1fce b93e 9adb c83e
000002d0: 39a1 883e 0d0c d43d 6788 4f3e ae65 4c3e
000002e0: 9d2b 143f 3ac1 68bd 1243 223f b2d1 dfbe
000002f0: 6a9e 663f 2192 c6bd 70a5 95bc 31bf 36be
00000300: 7b94 fc3d 55dd febd 8eb7 3b3e ad8a 74be
00000310: a824 c13d 4927 1a3e 9bb6 12bf 8d65 a73e
00000320: b25c 60be 7b06 443e 7555 c63e 24a2 283f
00000330: 8018 b23e d66c 783e 62f4 9f3e a93d 363d
00000340: 05f7 7fbe 23a2 d4bd a461 983e 1447 513d
00000350: 80af b23e d106 a9be ec8c 4b3e 7dbd 313e
00000360: b97e 813e aba5 03be 7f9f a8be 5109 3a3e
00000370: ed92 723e 339f 373f 256c bcbe 9ac6 7a3f
00000380: 6e8f 613f f632 27bf 011b cebd c3c7 c5bd
00000390: c239 f43e 7da1 1abe cceb 3c3e a2ae b03e
000003a0: 690e 15be dcb6 debc 4927 5539 202a 703e
000003b0: 8a34 d43d cf3b cebd 149a 88be 263e 1dbd
000003c0: 32c4 82bf 0e52 e63d 93f5 dbbd 186f 0e3b
000003d0: 987e a6be b656 21be 9d61 26bf 5edc 003e
000003e0: e8f5 523e 489f 8f3c 8c7a 02be a858 4d3e
000003f0: 9415 85bc fa38 013f e729 f23d 3f04 54be

network_body.linear_encoder.seq_layers.2.bias f4 [128]
-0.00023016139 0.018317474 0.0153282825 0.02329913 0.0020562112 -0.016937556 -0.001242294 0.0005497283
0.0056961696 0.050382957 -0.007091882 0.054366507 -0.009173756 -0.009175088 0.019533629 0.030571114
0.03834974 -0.0065284395 -0.003930055 0.03578374 0.031776037 0.003296413 0.011002557 0.033552945
-0.013372323 0.03343084 0.022418613 -0.008841239 0.014309483 0.025607288 0.034440245 0.0383003
0.029739825 0.028509282 -0.0008956896 0.027663533 0.036345012 0.027573343 0.038588025 -0.012047349
0.006139324 0.015674617 0.027869863 0.0015768541 0.010944738 0.022106275 0.015754238 0.0091905575
0.050930444 0.034995276 0.005411688 -0.020501044 0.022417288 0.009254703 -0.016266353 0.038641848
0.013105346 0.018386556 0.03612992 0.03827875 0.021882555 0.029109193 0.037379615 0.024464658
0.0054847724 0.027877612 0.009307338 0.0256669 0.007570527 0.0047391457 0.009601315 -0.0061532133
-0.01922344 0.0019466025 -0.00984298 -0.0050284285 0.014410736 0.01797274 0.0010761681 -0.014684982
0.04747709 0.035078127 0.032373596 0.031586036 0.021726074 -0.018397378 0.031068748 0.024809368
0.03526907 0.030501647 0.029622573 -0.0023089442 0.0072587477 0.06990136 0.03003412 0.05285348
0.011564155 0.015560845 0.028431293 0.025201127 -0.01973782 0.003323071 0.02212283 0.029392544
0.026348269 -0.006244035 0.020909108 0.0057966877 0.052123252 0.004957943 0.021967323 0.019502087
0.017715393 0.011514539 0.009380763 -0.018181182 0.039718315 0.002497319 -0.0047710054 0.0056812437
-0.023573669 0.05611639 0.03347178 0.015231185 0.02713957 -0.006395583 -0.014667295 0.009938057
00000000: 7a57 71b9 870e 963c 7a23 7b3c d1dd be3c
00000010: 80c1 063b a1c0 8abc 78d4 a2ba a41b 103a
00000020: efa6 ba3b 5c5e 4e3d 0563 e8bb 6aaf 5e3d
00000030: 864d 16bc 1c53 16bc fd04 a03c 4670 fa3c
00000040: 9e14 1d3d 85ec d5bb b1c7 80bb f991 123d
00000050: 9727 023d a208 583b 1244 343c d06e 093d
00000060: 9617 5bbc c7ee 083d 3da7 b73c d8da 10bc
00000070: 5272 6a3c 60c6 d13c 3711 0d3d c6e0 1c3d
00000080: efa0 f33c 4c8c e93c b6cc 6aba a29e e23c
00000090: 82de 143d 7ee1 e13c 7a0e 1e3d 3e62 45bc
000000a0: 622c c93b 0e68 803c 574f e43c 72ae ce3a
000000b0: 8f51 333c 3818 b53c 080f 813c fe93 163c
000000c0: 719c 503d 3557 0f3d 8754 b13b cef1 a7bc
000000d0: 76a4 b73c 0aa1 173c 0441 85bc ea46 1e3d
000000e0: ceb7 563c 679f 963c f8fc 133d 2eca 1c3d
000000f0: 0b43 b33c 6776 ee3c 5e1b 193d 1b6a c83c
00000100: 9bb9 b33b 975f e43c ce7d 183c 6443 d23c
00000110: 2f12 f83b d64a 9b3b d54e 1d3c e5a0 c9bb
00000120: 7a7a 9dbc 2425 ff3a 7344 21bc 84c5 a4bb
00000130: 021b 6c3c 913b 933c 360e 8d3a 4799 70bc
00000140: 5677 423d 15ae 0f3d 2d9a 043d 5c60 013d
00000150: e1fa b13c 19b6 96bc e383 fe3c 043d cb3c
00000160: 4d76 103d 97de f93c 0aab f23c a851 17bb
00000170: cada ed3b 7228 8f3d 1d0a f63c e47c 583d
00000180: 9577 3d3c eaf2 7e3c bee8 e83c 9872 ce3c
00000190: 35b1 a1bc e1c7 593b f03a b53c a2c8 f03c
000001a0: 53d8 d73c c39a ccbb 9449 ab3c 24f2 bd3b
000001b0: 317f 553d 3e76 a23b d1f4 b33c d7c2 9f3c
000001c0: df1f 913c 7aa7 3c3c c6b1 193c b4f0 94bc
000001d0: acaf 223d 0faa 233b 1856 9cbb ba29 ba3b
000001e0: 911d c1bc 4dda 653d b519 093d 388c 793c
000001f0: ce53 de3c 0a92 d1bb 184f 70bc 3bd3 223c

network_body.linear_encoder.seq_layers.2.weight f4 [128, 128]
0.049792204 -0.063510664 0.036735747 -0.022637783 -0.061544895 0.05272456 0.005811795 -0.08012383
0.0402921 -0.13910387 -0.042826656 0.11441655 0.009438753 -0.12843587 -0.20064294 0.048677776
0.06484873 0.023514422 -0.038598426 0.045005716 0.11218703 -0.083098285 -0.046158854 -0.0074609607
-0.1608922 0.07315568 0.020320326 -0.09551791 -0.05913166 0.008949078 0.06340666 0.10957568
-0.028478127 0.08183901 0.025004465 0.08872601 -0.2258199 0.0926235 -0.047423247 -0.02066336
0.09829402 -0.24215491 0.17349978 0.00045805296 0.024856163 0.02743853 -0.10924945 0.08918289
0.073082514 0.019827893 0.06767987 0.0063510737 -0.11250576 0.026623549 0.008985883 -0.13476342
0.021153828 0.116008244 -0.11480609 0.02817597 -0.10765265 0.10007737 0.07858375 0.034317937
-0.12062647 -0.052235637 -0.06313005 -0.11729494 0.06156691 -0.05301066 0.03273791 -0.050587405
0.033997998 -0.05329073 0.04470514 0.081492595 0.03429271 -0.062087514 -0.08267902 -0.033409204
0.002274233 0.033022314 0.027874619 -0.09271181 -0.099648215 0.14429688 0.0019344526 -0.038842566
-0.06780918 -0.11600763 -0.012711995 0.101998225 -0.0022620005 0.09305443 -0.041515235 0.074334405
-0.10512539 0.013741775 0.09980296 0.094034135 0.12874804 0.032269675 -0.30222198 -0.047050316
0.12944193 -0.10039483 0.09276449 -0.09046192 0.0071897013 -0.0035968556 -0.07581979 0.050618373
-0.1889713 -0.017303867 -5.639569e-05 0.12635536 -0.068662874 0.08576066 0.0050980076 0.015112558
0.14312181 0.07378866 0.00800027 -0.027605794 0.06812188 0.016132047 0.0013757703 0.0060152616
-0.0752693 0.02640834 -0.15814614 -0.118182175 -0.039331958 0.12691708 0.03786027 0.008665205
-0.101806626 0.014945269 -0.09579884 0.048169244 -0.08966852 0.13695161 -0.06226391 0.012747824
0.045632754 0.0600755 0.10767456 0.209382 0.12049873 0.0004491209 0.015080077 0.1432437
-0.07372462 -0.09359476 0.17507279 0.042455718 0.13184917 0.14775771 0.2044555 0.038325194
0.009677746 -0.058165852 0.052709714 0.09380046 0.09819169 -0.2088613 0.023427233 -0.00055958494
-0.0066143633 0.030452132 0.16117163 -0.0016491218 0.02912933 -0.16724911 -0.0005910099 -0.071118675
0.13165903 0.11790662 -0.054977313 -0.09411308 0.018769229 0.13614215 -0.18885429 -0.051644504
0.09306919 -0.024028972 -0.075234674 0.14513043 0.043795757 0.11837013 -0.002003584 0.030498205
0.110974036 0.05714407 0.1225551 0.09134297 0.0551151 0.036820106 -0.020056894 0.05967268
-0.07577503 0.13388091 0.027179968 0.031159166 -0.14046827 -0.021619543 0.13802509 -0.010282269
-0.07209107 -0.11390057 -0.032897834 0.004610942 0.022144644 -0.084781535 0.15327463 0.12040117
0.004996337 0.08421394 -0.0029358366 0.15523224 0.054238386 0.06597607 0.09779185 0.007686965
0.05177013 -0.08992556 0.124879904 -0.10168217 0.0066787037 0.0663089 0.04178528 0.026460394
0.05165708 -0.020523397 0.057043552 0.06575852 0.061151203 0.0085210735 -0.0024999308 0.0212568
-0.013494315 0.17365354 -0.057946555 -0.03262255 -0.041949015 -0.19032776 0.05298579 0.15889354
-0.059683118 -0.032235418 -0.030166844 0.12133329 0.010649539 0.038096827 0.020101322 0.060501676
00000000: e9f2 4b3d e111 82bd 3978 163d df72 b9bc
00000010: 8016 7cbd b5f5 573d df70 be3b f617 a4bd
00000020: 5409 253d 3f71 0ebe 016b 2fbd 3953 ea3d
00000030: 00a5 1a3c b184 03be 5875 4dbe 5962 473d
00000040: 69cf 843d 51a1 c03c 6219 1ebd ea57 383d
00000050: 50c2 e53d 6f2f aabd 1111 3dbd 137b f4bb
00000060: edc0 24be a5d2 953d d076 a63c e59e c3bd
00000070: 0a34 72bd 279f 123c 5adb 813d 3769 e03d
00000080: f64a e9bc 369b a73d 2ad6 cc3c fbb5 b53d
00000090: 553d 67be 64b1 bd3d e13e 42bd 3546 a9bc
000000a0: 604e c93d 75f7 77be eda9 313e d426 f039
000000b0: 279f cb3c c5c6 e03c 2dbe dfbd 85a5 b63d
000000c0: 49ac 953d 1b6e a23c be9b 8a3d ab1c d03b
000000d0: 6b69 e6bd a119 da3c 8639 133c 6cff 09be
000000e0: cb4a ad3c bb95 ed3d 751f ebbd 4bd1 e63c
000000f0: fe78 dcbd 5df5 cc3d 84f0 a03d f790 0c3d
00000100: 030b f7bd 09f5 55bd 544a 81bd 5438 f0bd
00000110: 962d 7c3d b521 59bd 3018 063d bd34 4fbd
00000120: 7c41 0b3d 6147 5abd bd1c 373d 97e5 a63d
00000130: 8376 0c3d 7a4f 7ebd 9e53 a9bd 17d8 08bd
00000140: 4c0b 153b 6842 073d 5059 e43c b0df bdbd
00000150: 5d14 ccbd 90c2 133e 758d fd3a 6219 1fbd
00000160: 8adf 8abd 6995 edbd f945 50bc 72e4 d03d
00000170: 123e 14bb 5293 be3d e10b 2abd a33c 983d
00000180: fb4b d7bd 2f25 613c 7f65 cc3d f894 c03d
00000190: 87d6 033e 352d 043d d7bc 9abe d5b7 40bd
000001a0: 6d8c 043e ce9b cdbd 4ffb bd3d 1944 b9bd
000001b0: 9697 eb3b 39b9 6bbb 6847 9bbd 3655 4f3d
000001c0: b181 41be d7c0 8dbc 698a 6cb8 4d63 013e
000001d0: 1f9f 8cbd 49a3 af3d 300d a73b aa9a 773c
000001e0: 868e 123e 821e 973d 9113 033c 8c25 e2bc
000001f0: 7c83 8b3d 5b27 843c 3153 b43a ac1b c53b
00000200: ca26 9abd 4e56 d83c 10f1 21be 7f09 f2bd
00000210: 8c1a 21bd 8df6 013e 5f13 1b3d 81f8 0d3c
00000220: fe7f d0bd 00dd 743c 2f32 c4bd 1d4d 453d
00000230: 21a4 b7bd 0b3d 0c3e 7108 7fbd 40dc 503c
00000240: 69e9 3a3d ba11 763d 7b84 dc3d 3c68 563e
00000250: 0ac8 f63d fd77 eb39 6d12 773c 7aae 123e
00000260: effc 96bd 9cae bfbd 4846 333e 0ce6 2d3d
00000270: 7803 073e cc4d 173e c85c 513e e1fa 1c3d
00000280: 698f 1e3c 513f 6ebd 24e6 573d 751a c03d
00000290: ba18 c93d bddf 55be 78ea bf3c 1cb1 12ba
000002a0: 4dbd d8bb c076 f93c 2d0a 253e 5827 d8ba
000002b0: a2a0 ee3c 5a43 2bbe 01ee 1aba aba6 91bd
000002c0: a0d1 063e 0779 f13d e42f 61bd 5cbe c0bd
000002d0: edc1 993c d968 0b3e 0563 41be 3089 53bd
000002e0: 0f9b be3d 68d8 c4bc a314 9abd 129d 143e
000002f0: 2e63 333d 0a6c f23d 904e 03bb 5fd7 f93c
00000300: 5b46 e33d e60f 6a3d 2bfe fa3d 0612 bb3d
00000310: 5fc0 613d aed0 163d 5b4e a4bc 576b 743d
00000320: f02f 9bbd 1418 093e 86a8 de3c 8241 ff3c
00000330: ead6 0fbe 781b b1bc 7356 0d3e f676 28bc
00000340: 7ca4 93bd b444 e9bd e1bf 06bd 6317 973b
00000350: af68 b53c f1a1 adbd 06f4 1c3e e394 f63d
00000360: 50b8 a33b 5c78 ac3d 2a67 40bb 33f5 1e3e
00000370: 1229 5e3d 761e 873d 1847 c83d f0e2 fb3b
00000380: ea0c 543d e42a b8bd 09c1 ff3d be3e d0bd
00000390: 07d9 da3b f6cc 873d 0b27 2b3d 78c3 d83c
000003a0: 6096 533d af20 a8bc 80a6 693d 67ac 863d
000003b0: af79 7a3d f99b 0b3c e1d5 23bb be22 ae3c
000003c0: 4217 5dbc 3cd2 313e 5e59 6dbd 399f 05bd
000003d0: bbd2 2bbd 48e5 42be a107 593d fdb4 223e
000003e0: 4976 74bd 4909 04bd 7520 f7bc 977d f83d
000003f0: 677b 2e3c 6b0b 1c3d 87ab a43c 9bd0 773d
