UnityController/results/ppo/MoveToGoal.onnx (onnx, 72951 bytes, 7 tensors)

action_model._continuous_distribution.log_sigma f4 [1, 2]
0	0xbca3933e	-0.019967671
1	0x3b0a7f9d	0.0021133192

action_model._continuous_distribution.mu.bias f4 [2]
0	0xbc948041	-0.018127562
1	0xbbfabe10	-0.0076520517

action_model._continuous_distribution.mu.weight f4 [2, 128]
0	0x3bd2502e	0.0064182496
1	0x3cea71ac	0.028618656
2	0x3c63e2ab	0.013909022
3	0x3d4cf560	0.050038695
4	0x3d143044	0.036178842
5	0x3d7ff34b	0.06248788
6	0x3d8e84f0	0.069589496
7	0xbc48fbc9	-0.0122670615
8	0xbc36c1e2	-0.011154624
9	0x3bcfeb1e	0.006345167
10	0x3da630d1	0.0811478
11	0x3c425a1b	0.011862303
12	0xbbd94b4c	-0.0066312905
13	0x3bced91b	0.006312502
14	0xbc0363bf	-0.008019387
15	0xbcf9fea6	-0.030516934
16	0x3cb994fa	0.022654045
17	0xbd2163c2	-0.039401777
18	0xbcab4520	-0.020906985
19	0x3c252b5a	0.010081137
20	0xbcac3fc4	-0.0210265
21	0x3d0ded2a	0.034650005
22	0xbd3b9cc8	-0.045803815
23	0x3cda6826	0.02666099
24	0xb867307d	-5.511985e-05
25	0xbd82c91f	-0.06386017
26	0x3cbe7fcf	0.023254303
27	0xbcc001b9	-0.023438321
28	0x3e05488f	0.1301596
29	0xbd1ae153	-0.037812542
30	0x3c02b5de	0.007977931
31	0x3d40c6eb	0.047064703
32	0x3d843678	0.064557016
33	0xbc0d1852	-0.008611755
34	0x3d1769fd	0.036966313
35	0x3ca16f60	0.019706428
36	0xbc8f4a4c	-0.017491482
37	0xbcdf4987	-0.02725674
38	0x3bec947a	0.007219848
39	0x3ce872d4	0.028375067
40	0xbc97e1ae	-0.01854023
41	0xbcdc9936	-0.026928525
42	0x3d5ba617	0.053625192
43	0x3ce0c3a4	0.027437039
44	0xba812ca9	-0.0009855229
45	0x3da90702	0.0825329
46	0xbce10d48	-0.027472153
47	0xbd335391	-0.043780867
48	0xbba6c7a0	-0.005089715
49	0x3cec4435	0.028841117
50	0x3d1662b3	0.03671522
51	0xbc18cfcc	-0.009326886
52	0x3cc15ecc	0.023604773
53	0x3bf28b28	0.0074018426
54	0x3d119d4b	0.035550397
55	0x3cbcb597	0.023035808
56	0x3c802502	0.015642647
57	0x3cc652ef	0.024209468
58	0xbb0a0444	-0.0021059671
59	0x3d58d683	0.05293895
60	0xbd97cd94	-0.07412258
61	0xbd69021c	-0.056886777
62	0xbcd6dde4	-0.026228853
63	0x3b59e89d	0.003325022
64	0x3d149243	0.0362723
65	0x3cfcf219	0.03087716
66	0x3d3cf84d	0.046135236
67	0xbd35a056	-0.04434236
68	0x3c709116	0.014683029
69	0x3cceca24	0.025242873
70	0x3d58e110	0.05294901
71	0x3cbd02d8	0.023072645
72	0x3d635e55	0.055509884
73	0xbce04a9d	-0.027379328
74	0xbc8dc0ed	-0.017303908
75	0xbd0f3389	-0.034961257
76	0xbc8d252a	-0.017229635
77	0xbd52eeb0	-0.05149716
78	0x3c6215b5	0.013799121
79	0xbcf51aae	-0.029919948
80	0x3ba3ab2c	0.0049947705
81	0x3d3b2159	0.0456861
82	0xbcac9003	-0.021064764
83	0x3a75438f	0.00093560753
84	0xbc403322	-0.011730941
85	0xbc18f790	-0.009336367
86	0x3a575e0b	0.00082156126
87	0x3b9ae0f1	0.004726522
88	0x3cd08fc0	0.02545917
89	0xbd024beb	-0.031810682
90	0x3c9f1c26	0.019422602
91	0xbc60c581	-0.013718964
92	0xbd1d94ae	-0.03847187
93	0x3d20c322	0.039248593
94	0xbd105f8b	-0.035247367
95	0x3d12f7b1	0.03588075
96	0x3ba77eae	0.005111537
97	0x3d11c823	0.035591256
98	0x3cc6975f	0.024242101
99	0xbc766ae6	-0.015040135
100	0xbd009341	-0.031390432
101	0x3b687550	0.0035470314
102	0x3da333f6	0.07968895
103	0xbd9d35f8	-0.07676309
104	0xbd0c4b5a	-0.03425155
105	0xbc38afb4	-0.01127236
106	0x3b2bfceb	0.002624328
107	0x3d211525	0.039326806
108	0xbad7c19b	-0.0016460897
109	0xbcbc132d	-0.022958362
110	0x3da63084	0.08114722
111	0x3c294600	0.010331631
112	0x3d11e055	0.03561433
113	0xbcbab695	-0.02279214
114	0x3c258814	0.010103244
115	0xbc930c02	-0.017950062
116	0x3bb26d8f	0.0054451893
117	0x3d0bb250	0.0341056
118	0xbcc040f2	-0.023468468
119	0xbc9e1dbf	-0.019301293
120	0xbd91e067	-0.071228795
121	0xbd0d7b3c	-0.034541354
122	0xbd25357f	-0.04033422
123	0xbca8d01b	-0.020607045
124	0xbcd9dd97	-0.02659492
125	0x3d9e8e47	0.07741981
126	0x3cd6df8c	0.026229642
127	0xbc06202f	-0.008186384
128	0xbd117df6	-0.035520516
129	0x3c301a2d	0.010748428
130	0x3bc15225	0.005899685
131	0x3b4bc57e	0.0031093056
132	0xbd1ae7c5	-0.03781869
133	0xbd2baea1	-0.041914586
134	0xbd12fde0	-0.035886645
135	0xbcda2dbd	-0.026633138
136	0x3d697918	0.05700025
137	0xbcdd05b6	-0.026980262
138	0xbcdc4adb	-0.026891163
139	0x3b48e93e	0.0030656601
140	0x3c87da62	0.016583625
141	0xbcfd21d1	-0.030899914
142	0xbcf9f7dd	-0.030513698
143	0x3bfb084e	0.007660902
144	0x3d4e605c	0.050384864
145	0x3d821e8a	0.06353481
146	0x3d45fc01	0.048336033
147	0x3d0d3344	0.03447272
148	0x3c75d76a	0.015004972
149	0x3cd0ee42	0.025504235
150	0xbc9b1b1c	-0.018933825
151	0x3d5a096a	0.053231634
152	0xbcb8a446	-0.02253927
153	0x3c0b8b9c	0.008517172
154	0x3d9288af	0.071549766
155	0xbc2016ac	-0.00977103
156	0x3d08075b	0.03321014
157	0x3c868362	0.01642007
158	0x3c0a4d15	0.008441229
159	0xbbbfabe1	-0.005849347
160	0xbd05ce4e	-0.03266745
161	0x3d13c636	0.0360777
162	0xbc681f32	-0.014167594
163	0x3d41d55b	0.047322612
164	0xbbf2963f	-0.0074031646
165	0x3d08524c	0.03328161
166	0xbcef9e9c	-0.029250436
167	0xbc95ae11	-0.018271478
168	0xbae3a80e	-0.001736881
169	0xbd9ab045	-0.07553152
170	0xba831c06	-0.0010002858
171	0x3d1306a6	0.035895012
172	0xbb833f6b	-0.0040053627
173	0xbceb6ecb	-0.028739354
174	0xbc1fe57f	-0.009759306
175	0xbd458e84	-0.048231617
176	0x3d6f5f24	0.058440343
177	0xbbd4a5d5	-0.0064894953
178	0x3b88cfd3	0.004175165
179	0xbcb008d2	-0.02148858
180	0x3d0044b9	0.03131554
181	0xbc9d462d	-0.019198501
182	0x3d5e7993	0.05431516
183	0xbc472973	-0.012155878
184	0x3c0b9f09	0.008521804
185	0x3cf7c657	0.030245943
186	0x3d1b339a	0.037891008
187	0xbcdbed72	-0.026846621
188	0x3d12b221	0.03581441
189	0xbc994607	-0.01871015
190	0x3be68e20	0.0070359856
191	0x3ce55db1	0.027998777
192	0x3d11cac4	0.035593763
193	0x3cd92b5b	0.026509931
194	0xbc9d85a0	-0.019228756
195	0x3d1f73c7	0.038928773
196	0x3c93285e	0.017963585
197	0x3b75ac53	0.0037486746
198	0xbc8531b4	-0.016259052
199	0xbb5c3152	-0.0033598733
200	0xbd025be8	-0.03182593
201	0x399da0c4	0.00030065153
202	0xbae01398	-0.0017095683
203	0x3cd17dcc	0.02557268
204	0x3cce9327	0.025216652
205	0x3c71e698	0.0147644505
206	0xbd251b84	-0.040309444
207	0x3ba8e81e	0.0051546237
208	0x3c334429	0.010941544
209	0x3b7c8d53	0.0038536384
210	0xbcd93fdd	-0.02651971
211	0xbc4457fe	-0.01198387
212	0x3d8cc0f7	0.068727426
213	0xbd274f99	-0.040847395
214	0xbd3c704d	-0.046005536
215	0x3cf2a4e5	0.029619643
216	0xbc29e79c	-0.010370161
217	0x3cafc3f1	0.021455737
218	0x3c89cdf5	0.01682184
219	0xbd4b54a8	-0.04964128
220	0xbd0033f2	-0.03129954
221	0x3d5c8123	0.053834092
222	0xbd870643	-0.06592991
223	0xbc9fee29	-0.019522743
224	0x3ca84924	0.020542689
225	0x3b9120bb	0.0044289506
226	0x3c86abdf	0.016439376
227	0xbce731c4	-0.028221972
228	0xbce42563	-0.027849859
229	0x3d4da54a	0.05020646
230	0xbb526b44	-0.0032107392
231	0xbc9d407e	-0.019195791
232	0xbbf2735a	-0.007399005
233	0xbbc99633	-0.0061519383
234	0xbd361db8	-0.044461936
235	0xbcffa321	-0.031205716
236	0xbc81eb34	-0.015859224
237	0xbd185c54	-0.037197426
238	0xbbf792d4	-0.007555345
239	0x3c8b1601	0.016978266
240	0x3c8614eb	0.016367396
241	0xbb022cc9	-0.001986312
242	0xbd39c7b3	-0.045356464
243	0x3d162977	0.036660638
244	0xbc7c6a30	-0.015406176
245	0xbcfc53fa	-0.030801762
246	0xbd13e9ea	-0.03611175
247	0x3bdbd4ff	0.0067087407
248	0xbc626ae0	-0.013819426
249	0x3bf4ca4b	0.0074704043
250	0xbd11df14	-0.035613135
251	0x3d5edaec	0.054408
252	0x3d2fdf56	0.0429376
253	0xbc86d05a	-0.016456772
254	0xbd1fd83f	-0.039024588
255	0x3d906fc7	0.0705257

network_body.linear_encoder.seq_layers.0.bias f4 [128]
0	0xbd0f4d67	-0.034985926
1	0x3d174f4e	0.036940865
2	0x3c39328e	0.011303557
3	0x3d0f0cc5	0.034924287
4	0x3cfe897a	0.031071413
5	0xbd043665	-0.032278437
6	0x3c6678cf	0.014066889
7	0x3c4b79d5	0.012419184
8	0x3c54aec4	0.0129811205
9	0xbc21ab23	-0.009867462
10	0x3ce4c3ab	0.027925333
11	0x3b4a7005	0.0030889523
12	0x3d23404c	0.03985624
13	0x3cb04668	0.021517947
14	0x3d475263	0.048662554
15	0x3d0352f9	0.03206155
16	0x3d3847f7	0.044990506
17	0x3c0b95ab	0.00851957
18	0xbd33e514	-0.043919638
19	0x3c10e4f7	0.008843652
20	0x3dbdd9db	0.09270068
21	0x3c8e63ed	0.017381633
22	0x3b9debd0	0.004819371
23	0x3c269c77	0.01016914
24	0xbcee1c5c	-0.029066257
25	0x3c646af4	0.013941515
26	0x3c118d2f	0.008883758
27	0x3c78282c	0.0151462965
28	0x3cd17196	0.025566857
29	0xbd286dc9	-0.041120324
30	0xbcc2b035	-0.023765663
31	0x3d4916c3	0.049093973
32	0xbc6b284b	-0.014352868
33	0x3cb3c2fe	0.021943565
34	0xbc89970f	-0.016795663
35	0xbbd36a99	-0.0064519164
36	0x3c9f9ba4	0.019483395
37	0xbc96e6d1	-0.018420609
38	0x3ca13137	0.019676788
39	0xbcab357a	-0.020899523
40	0xbc81a1bf	-0.015824197
41	0x3c0eeaa0	0.008722931
42	0x3c276bc3	0.0102185635
43	0xbcde276c	-0.027118407
44	0x3c89acbd	0.016806
45	0x3b01dd17	0.0019815618
46	0xbcc502be	-0.02404916
47	0x3c9d0f84	0.019172437
48	0x3d242dae	0.040082626
49	0xb9e2ca72	-0.00043256913
50	0x3c4df0aa	0.012569586
51	0xbc9611e6	-0.018319082
52	0x3c994383	0.01870895
53	0xbd19b946	-0.037530206
54	0xbc085c43	-0.008322778
55	0x3cfe5259	0.031045126
56	0xbd00f20a	-0.031480826
57	0xbd35b793	-0.044364523
58	0x3ce356ff	0.027751444
59	0x3c08473d	0.008317766
60	0x3c183b56	0.009291491
61	0x3d8e0bb0	0.06935823
62	0x3cb687dc	0.02228158
63	0x3b04baaf	0.0020252874
64	0xbc372e50	-0.011180475
65	0x3d304215	0.04303177
66	0xbb555601	-0.0032552483
67	0x3d548d4e	0.05189257
68	0x3bb85dd8	0.0056264214
69	0xbd3a5b37	-0.045497146
70	0x3c507f54	0.01272567
71	0x3c848cee	0.016180482
72	0xbc07d65e	-0.008290855
73	0x3c9a322d	0.018822754
74	0xbc3d9b79	-0.011572712
75	0x3d319992	0.043359347
76	0x3c77bd68	0.015120842
77	0x3d224c6c	0.039623663
78	0x3dba3a09	0.090931006
79	0xbc163a0e	-0.009169115
80	0x3cbe7b66	0.0232522
81	0xbd0228e8	-0.031777292
82	0xbb84df24	-0.0040549207
83	0x3c8cd8fc	0.01719331
84	0x3d547809	0.051872287
85	0x3c9787ae	0.018497314
86	0x3cdbeb9c	0.026845746
87	0x3d38d215	0.045122225
88	0x3cb6327e	0.022240873
89	0xbc472e3d	-0.01215702
90	0xbc71a36b	-0.014748435
91	0xbc62e723	-0.013849053
92	0xbb4c1a08	-0.0031143446
93	0x3d051d00	0.03249836
94	0xbd3d0ead	-0.046156574
95	0x3ca20752	0.019778881
96	0xbc099ec8	-0.008399673
97	0xbd16b6ad	-0.036795307
98	0x3939c1e2	0.00017715202
99	0xbd012050	-0.031524956
100	0xbcc35c96	-0.02384786
101	0xbad6e8e4	-0.0016396311
102	0xbb2c38c4	-0.0026278952
103	0x3d1b6d9e	0.037946336
104	0xbd5a7de0	-0.0533427
105	0x3cdf58b1	0.027263971
106	0x3b14558d	0.0022634
107	0x3c85aa01	0.016316416
108	0x3d699757	0.057029095
109	0x3d4a2ef2	0.049361177
110	0x3d63c14d	0.055604268
111	0x3ca3650e	0.019945648
112	0x3c5fc6f8	0.013658278
113	0x3d0bd32c	0.034136936
114	0x3bd13764	0.006384777
115	0xbc61105b	-0.01373681
116	0x3d2e6eb7	0.042586055
117	0x3cca1f95	0.024673263
118	0xbd143453	-0.036182713
119	0x3cca3e4b	0.024687907
120	0x3d72bfcb	0.05926494
121	0x3c83fcbb	0.016111722
122	0xbc87be68	-0.016570285
123	0xbca3a60c	-0.019976638
124	0x3d57b001	0.052658085
125	0xbcf5dfaf	-0.030013887
126	0x3cf26c31	0.029592605
127	0x3cbd17ed	0.023082698

network_body.linear_encoder.seq_layers.0.weight f4 [128, 6]
0	0xbe1376b2	-0.14400747
1	0xbe858704	-0.2607957
2	0x3e0632e2	0.13105348
3	0xbf4d7179	-0.8025127
4	0x3f449a65	0.7679809
5	0x3defb58e	0.11704551
6	0xbe625c1c	-0.2210545
7	0xbf0ca47c	-0.54938483
8	0xbf01e330	-0.50737286
9	0xbeb9d88b	-0.36298022
10	0x3e53521e	0.20636794
11	0x3edf6d57	0.43638107
12	0x3ec587f1	0.38580278
13	0x3ed3c012	0.41357476
14	0x3f01d8ba	0.50721323
15	0x3f03aeb6	0.5143846
16	0x3e9b296f	0.3030505
17	0xbf342633	-0.7037079
18	0x3eb85d6d	0.36008778
19	0xbe357d4f	-0.17723583
20	0xbf3d2502	-0.73884594
21	0xbf001609	-0.5003362
22	0xbeeed6b9	-0.46648195
23	0x3ed71600	0.42008972
24	0x3e9fc9c5	0.31208625
25	0x3f0a0b94	0.53923917
26	0x3f46247e	0.7739943
27	0x3f241f65	0.64110404
28	0x3e48be0c	0.19603747
29	0xbd81f0c9	-0.06344754
30	0x3eabe230	0.33571005
31	0xbebf5e22	-0.37376505
32	0xbf5741ff	-0.8408508
33	0xbf312b29	-0.6920648
34	0xbeb177d6	-0.3466174
35	0x3d35bd3c	0.04436992
36	0xbe490c39	-0.19633569
37	0x3f97f073	1.1870254
38	0x3e83abe0	0.25717068
39	0x3ede129e	0.4337358
40	0x3ec651c6	0.38734263
41	0x3e446941	0.19180776
42	0xbd3df39b	-0.0463749
43	0x3f0d3825	0.55163795
44	0x3f05feb3	0.52341765
45	0x3dfef5e6	0.12449245
46	0xbe646e37	-0.22307669
47	0xbee140b1	-0.43994668
48	0x3e2df2bd	0.16987129
49	0x3d054473	0.03253598
50	0x3f405a93	0.75138205
51	0xbf0a6448	-0.5405927
52	0x3d93afdc	0.07211277
53	0xbe85b1f9	-0.26112345
54	0x3e58cbea	0.21171537
55	0x3d83e5dd	0.06440327
56	0xbc5d8f97	-0.013523004
57	0x3e7cfac1	0.2470503
58	0xbe9f0a2d	-0.3106245
59	0x3e16abec	0.1471402
60	0xbdf796df	-0.12089323
61	0x3f182e78	0.59445906
62	0xbf42b112	-0.7605144
63	0xbe813558	-0.2523601
64	0xbcabd05f	-0.020973383
65	0xbcf69b56	-0.030103367
66	0x3e9220f4	0.28540766
67	0xbe04243b	-0.12904446
68	0xbd9789db	-0.07399341
69	0xbe6bfc76	-0.23045525
70	0xbea926b2	-0.33037335
71	0x3d9b4931	0.075823195
72	0xbed16bb3	-0.4090248
73	0xbf67cbb4	-0.905452
74	0xbf372ae5	-0.71549827
75	0x3f0c0dee	0.54708755
76	0x3e512b69	0.20426716
77	0x3c81d91e	0.0158506
78	0xbe19a66b	-0.1500489
79	0xbe97d9ce	-0.2965836
80	0x3edd32cc	0.43202817
81	0x3c07d53f	0.008290588
82	0x3f4154db	0.75520104
83	0x3efe5c2c	0.49679697
84	0xbccc72f7	-0.024957163
85	0x3e8d18d6	0.2755801
86	0xbf44bfd6	-0.7685522
87	0x3f3ae8e5	0.7301162
88	0x3e35e6d6	0.17763838
89	0x3f2bc381	0.6709519
90	0xbd2e31ce	-0.042527966
91	0x3e565e9e	0.20934531
92	0xbd01b818	-0.031669706
93	0xbe977d99	-0.2958801
94	0x3e6e2fb6	0.23260388
95	0xbeaf3340	-0.34218788
96	0xbe781898	-0.24228132
97	0x3e09fe1b	0.1347584
98	0xbf196375	-0.59917384
99	0x3c851cf0	0.01624915
100	0x3e9915bd	0.29899397
101	0x3e984238	0.2973802
102	0xbe2e247a	-0.17006102
103	0xbe2beb07	-0.16788875
104	0x3f20838b	0.6270072
105	0x3dd9b29b	0.106297694
106	0x3f55a23a	0.83450663
107	0x3d6735b2	0.056447692
108	0x3ec68665	0.3877441
109	0x3e83e742	0.25762373
110	0x3eef6c87	0.46762487
111	0xbcb44050	-0.022003323
112	0x3f1676a8	0.58774805
113	0x3f2bcb77	0.6710734
114	0x3f0b3945	0.5438426
115	0xbe5d2b3a	-0.21598521
116	0x3e84f57e	0.25968546
117	0xbe894ef0	-0.26818037
118	0x3d26444e	0.040592484
119	0xbee14683	-0.4399911
120	0xbe939440	-0.28824043
121	0x3d04f28c	0.032457873
122	0x3dd83b9f	0.10558247
123	0xbe6d4c14	-0.23173553
124	0x3deb2966	0.114825055
125	0xbf10e0cf	-0.5659303
126	0x3ed12a31	0.40852502
127	0x3d818a5c	0.06325218
128	0xbe91b831	-0.2846084
129	0x3f6f12f4	0.93388295
130	0xbe9128b0	-0.28351355
131	0x3eeb0b9c	0.45907295
132	0x3f4d3318	0.8015609
133	0xbe9c7034	-0.30554354
134	0x3edc276f	0.42998835
135	0xbe03369c	-0.128138
136	0xbe1124fe	-0.14174268
137	0x3f4b315e	0.79372203
138	0xbd2e2d0d	-0.042523433
139	0x3e93a665	0.28837886
140	0xbe33025a	-0.17481366
141	0x3f3f7804	0.74792504
142	0x3e0cfe57	0.13768898
143	0x3e445b08	0.1917535
144	0x3d064bfc	0.032787308
145	0xbf54a7ee	-0.8306874
146	0xbf68cdd7	-0.90939087
147	0x3e8cbc52	0.27487427
148	0xbe708447	-0.2348796
149	0x3da64a09	0.0811959
150	0x3df8dcf8	0.121515214
151	0xbef3ca29	-0.47615173
152	0x3e60f684	0.21969038
153	0x3e797332	0.2436035
154	0xbf2f27dd	-0.684202
155	0x3bb6eb92	0.0055822814
156	0x3f18959c	0.59603286
157	0x3e5e4295	0.21705087
158	0xbe420031	-0.18945386
159	0xbf21a229	-0.6313806
160	0xbe3b2ee7	-0.1827961
161	0x3e192a31	0.14957501
162	0xbd8a9580	-0.06766796
163	0x3edc90e4	0.43079293
164	0x3f35bca9	0.70991
165	0x3f0b9d22	0.5453664
166	0x3e006ac2	0.12540725
167	0x3f126395	0.571832
168	0xbf2e4181	-0.680687
169	0xbea9d2b1	-0.33168557
170	0xbe8af587	-0.27140447
171	0x3cc9a7b8	0.024616107
172	0x3f0b533f	0.544239
173	0xbe14fb2e	-0.14548942
174	0x3e086cb9	0.13322724
175	0x3f3f0687	0.74619335
176	0x3dad94b3	0.08475628
177	0xbf050ced	-0.5197285
178	0xbf295613	-0.66146964
179	0x3f4bf757	0.79674286
180	0x3e3fcf39	0.18731393
181	0xbd2e4260	-0.04254377
182	0xbd6a87a0	-0.05725825
183	0x3f15fa92	0.58585465
184	0x3eb9630f	0.36208388
185	0x3df9df7f	0.122008316
186	0xbf19830c	-0.59965587
187	0xbd3e41eb	-0.046449583
188	0xbf352e9f	-0.70774263
189	0x3ec22812	0.37921196
190	0x3f24cf95	0.64379245
191	0xbe06500d	-0.13116474
192	0x3f2d5820	0.67712593
193	0x3ef9ebbe	0.4881267
194	0x3e8d3bd7	0.27584717
195	0xbeff5107	-0.49866506
196	0x3d4efd2b	0.05053441
197	0x3ee976aa	0.45598346
198	0x3f4a9b8b	0.7914359
199	0x3df21371	0.118201144
200	0xbf160392	-0.585992
201	0xbe7e2795	-0.24819787
202	0x3cc627d5	0.024188915
203	0x3e806a19	0.25080946
204	0x3f14c967	0.58119816
205	0xbf86e9ff	-1.054016
206	0x3e459432	0.19294813
207	0x3e73bdbd	0.23802848
208	0x3d869fef	0.06573474
209	0x3f051fa7	0.5200142
210	0xbe6bbf71	-0.23022248
211	0xbe9fdaef	-0.3122172
212	0x3dbe2f8c	0.092864126
213	0xbdfe881b	-0.12428304
214	0xbf86a3d7	-1.051875
215	0xbf1b81e1	-0.60745054
216	0x3f316e36	0.69308794
217	0xbf2f54a5	-0.6848853
218	0x3efeb488	0.4974711
219	0x3ea1c2e1	0.31593993
220	0xbdc6e228	-0.09711105
221	0x3dd15906	0.10222058
222	0xbe0652fb	-0.13117592
223	0xbf209264	-0.62723374
224	0xbd3a0f86	-0.04542496
225	0x3eab6140	0.33472633
226	0x3e7a6366	0.2445198
227	0x3df052af	0.11734521
228	0x3dd60907	0.104509406
229	0x3c70278d	0.014657867
230	0x3dc22d3b	0.09481283
231	0x3e9b7e79	0.30369928
232	0xbf37024b	-0.71487874
233	0xbd8c525a	-0.06851645
234	0xbd0a9bc6	-0.033839963
235	0x3e380196	0.17969355
236	0xbdf901a2	-0.121585146
237	0x3f14bdf4	0.58102345
238	0xbe58f161	-0.21185829
239	0xbcbd2900	-0.02309084
240	0xbcfc6b44	-0.030812867
241	0x3e8ac138	0.2710054
242	0x3e506bca	0.20353618
243	0x3ea308e2	0.31842715
244	0x3e5a263e	0.2130365
245	0xbf09407d	-0.53614026
246	0x3dc79293	0.09744754
247	0x3ce6df14	0.028182544
248	0xbf39b757	-0.7254538
249	0x3ec39098	0.38196254
250	0x3f529c62	0.8226987
251	0xbd1e35ca	-0.038625516
252	0x3f552f84	0.8327563
253	0xbe747a23	-0.23874716
254	0xbd07010d	-0.032959986
255	0xbd7cce15	-0.061719973

network_body.linear_encoder.seq_layers.2.bias f4 [128]
0	0x3d09e463	0.033665072
1	0xbc691d4e	-0.014228178
2	0xbba3307e	-0.004980146
3	0x3cf3a4b3	0.02974162
4	0x3d0eeed7	0.034895744
5	0x3ced44f6	0.028963547
6	0x3d1acf22	0.037795193
7	0x3d844949	0.064592905
8	0x3bf656e0	0.0075176805
9	0x3bbaf6f6	0.0057057096
10	0x3d89fa30	0.067371726
11	0xbcde9202	-0.027169231
12	0x3c2c0ed2	0.01050158
13	0x3cdd127c	0.026986353
14	0x3d0ffd61	0.03515375
15	0x3d080f8b	0.033217948
16	0x3d2421a7	0.040071156
17	0x3d47a8ad	0.048744846
18	0x3c3b5696	0.011434218
19	0x3c9409db	0.018071106
20	0x3d0d5d5c	0.034512863
21	0x3ccbf79f	0.024898348
22	0x3d099440	0.033588648
23	0xbd3103d2	-0.043216534
24	0x3bc0d470	0.0058846995
25	0x3d0273be	0.03184866
26	0x3d085d37	0.03329202
27	0x3c45f219	0.012081646
28	0x3d70f91d	0.058831323
29	0x3d0733af	0.033008274
30	0xbc7855fb	-0.015157218
31	0xbc95b28a	-0.01827361
32	0x3d1485c2	0.036260374
33	0x3ca5e241	0.020249488
34	0x3d2210a0	0.039566636
35	0x3c52e19d	0.012871173
36	0x3c8cf07c	0.017204516
37	0x3c8f38d3	0.01748315
38	0x3c7f60de	0.01558706
39	0x3ca0cccb	0.019628903
40	0x3c431a7d	0.011908171
41	0x3d408a0e	0.04700666
42	0xbc2bbf97	-0.01048269
43	0xbcfca830	-0.030841917
44	0xbc2e1e6f	-0.010627373
45	0x3d3054a8	0.043049484
46	0x3ce6365e	0.028102096
47	0x3d817416	0.0632097
48	0x3d0a4d2d	0.033765007
49	0xbd35ea25	-0.04441275
50	0xbc74cedc	-0.014941897
51	0x3bff5b02	0.0077928314
52	0xbc8ad826	-0.01694877
53	0xbc10cf1e	-0.008838443
54	0x3d168d31	0.036755744
55	0x3cf9528d	0.030434871
56	0xbbe7b96d	-0.007071665
57	0xbc1f241c	-0.009713199
58	0x3bbd3c3f	0.005775004
59	0x3c909bf1	0.017652484
60	0x3d6bcb3f	0.057566877
61	0x3d3b36ee	0.045706682
62	0x3b5b0a31	0.0033422823
63	0x3cb1df46	0.02171291
64	0x3d283455	0.041065533
65	0xbc9b45e6	-0.018954229
66	0x3cf9ac1d	0.030477578
67	0x3ce086d7	0.027408047
68	0xbc06b823	-0.008222613
69	0xbc439118	-0.0119364485
70	0x3d5220c1	0.051300768
71	0xbceb7a3f	-0.028744815
72	0x3c9e7784	0.019344099
73	0x3c26ca5f	0.010180085
74	0x3cac0585	0.020998726
75	0x3cf31159	0.029671358
76	0x39d64e10	0.00040875422
77	0x3cf90c86	0.03040148
78	0x3c06ec7e	0.008235095
79	0x3c4532fe	0.012036083
80	0xbc7c9440	-0.015416205
81	0x3bda69f6	0.0066654636
82	0x3cc1cb07	0.023656381
83	0x3b90d9cf	0.004420496
84	0x3d364cfa	0.044507004
85	0x3cad4224	0.021149702
86	0x3cfa4c78	0.030554041
87	0xbcbfaae3	-0.023396915
88	0xbc2ccc46	-0.010546749
89	0x3c9c6b49	0.019094126
90	0xbbb98950	-0.005662121
91	0x3d46c330	0.04852599
92	0x3d014b9f	0.03156626
93	0x3d5b6151	0.053559605
94	0x3d1586c7	0.036505487
95	0x3cc9ecf7	0.024649126
96	0xbcb67ba5	-0.022275755
97	0x3ae70fc3	0.0017628599
98	0xb9c03ed5	-0.00036667907
99	0x3d015037	0.03157064
100	0x3c902a01	0.017598154
101	0x3c99cfed	0.018775905
102	0x3cba3a8e	0.022733
103	0x3d3be76e	0.045875005
104	0x3ae6cf86	0.0017609454
105	0x3ca42628	0.020037726
106	0x3c031e33	0.0080028055
107	0x3d32a5ba	0.04361508
108	0x3c42d552	0.01189168
109	0x3ce747e0	0.028232515
110	0x3d13f547	0.036122587
111	0xbbf96da7	-0.0076119485
112	0xbb8e3b6c	-0.0043405797
113	0x3c99507f	0.018715141
114	0x3d4bf8a1	0.049797658
115	0x3d275e60	0.040861487
116	0xb915a07b	-0.00014269531
117	0x3d44bce6	0.04803171
118	0x3d25d629	0.040487442
119	0x3ba3c96b	0.004998376
120	0x3cea7aa4	0.028622933
121	0x3caeef07	0.021354211
122	0x3d12a1ef	0.035798963
123	0x3d39184b	0.045189183
124	0x3d5c014e	0.05371218
125	0x3d828d3b	0.06374594
126	0x3c902520	0.017595828
127	0x3d65197c	0.055932507

network_body.linear_encoder.seq_layers.2.weight f4 [128, 128]
0	0x3db94fa1	0.09048391
1	0x3d3cca46	0.04609134
2	0x3da78eda	0.08181544
3	0x3d24e3f9	0.040256474
4	0x3d9ac870	0.07557762
5	0x3c9d7cb7	0.019224508
6	0x3cadfbdd	0.021238262
7	0x3d0d0284	0.034426227
8	0xbd72bb61	-0.05926073
9	0xbe2442bb	-0.1604108
10	0xbdd5d408	-0.104408324
11	0xbe13479a	-0.14382783
12	0xbd9aa2cf	-0.075505845
13	0xbd933a36	-0.07188837
14	0xbe4a6f85	-0.19769104
15	0xbd0fd55b	-0.03511558
16	0xbcf31af0	-0.02967593
17	0xb98258e1	-0.00024861752
18	0x3dc00168	0.09375268
19	0x3d8ca8d4	0.06868139
20	0x3e0798be	0.1324186
21	0x3d898b4f	0.06716024
22	0xbe3d4f03	-0.18487172
23	0x3db7a94b	0.08967837
24	0xbd63ea43	-0.05564333
25	0x3e06d8ce	0.13168642
26	0xbe01dc16	-0.12681612
27	0xbd75f831	-0.060051147
28	0x3df26811	0.11836255
29	0x3cf9f896	0.030514043
30	0x3e04604b	0.12927358
31	0x3dc69520	0.09696412
32	0xbd2cd691	-0.042196814
33	0xbbf9205f	-0.007602736
34	0x3cbe48c9	0.023228066
35	0x3e3bdb6e	0.18345425
36	0xbdec3c07	-0.11534887
37	0xbe13aa05	-0.14420326
38	0xbe20f0f6	-0.1571692
39	0xbcac55dd	-0.021037037
40	0x3e3cbf00	0.18432236
41	0xbe588cbc	-0.21147436
42	0xbd7f84ac	-0.062382385
43	0xbcfd9df3	-0.030959105
44	0xbcdab770	-0.026698798
45	0xbdcb0560	-0.099131346
46	0x3c676878	0.014124028
47	0x3d9bb619	0.07603092
48	0x3ba243e9	0.004951943
49	0xbd1d48e1	-0.03839958
50	0xbd2834e3	-0.04106606
51	0xbcf8c4ce	-0.030367281
52	0x3c5c7d0b	0.013457547
53	0xbe07a8ad	-0.13247938
54	0xbe36c480	-0.17848396
55	0xbb01842a	-0.0019762614
56	0x3babec35	0.005246664
57	0x3ddb2a57	0.10701435
58	0x3d4443e6	0.047916315
59	0x3cfa8bce	0.030584242
60	0xbda05877	-0.07829373
61	0x3dfdb60d	0.12388239
62	0x3d75535f	0.059893962
63	0x3d27abe3	0.04093541
64	0x3d2046d1	0.039130036
65	0x3d687a34	0.056757167
66	0x3d2853b0	0.041095436
67	0x3d9bc0f1	0.0760516
68	0xbd04901f	-0.032364007
69	0xbcdd9d10	-0.027052432
70	0xbe5637a5	-0.20919664
71	0x3dd500c9	0.104005404
72	0x3ce68459	0.02813928
73	0xbdb03964	-0.086046964
74	0xbd54b1b3	-0.05192728
75	0xbdd4cff2	-0.10391225
76	0xbd242627	-0.040075447
77	0xbdea6f05	-0.114469565
78	0x3d0592b1	0.0326106
79	0xbe1ade91	-0.15123965
80	0xbd4dbda9	-0.050229702
81	0xbd2d065b	-0.04224239
82	0x3bcab043	0.006185563
83	0x3c3c52d1	0.011494354
84	0x3cf9367e	0.030421492
85	0x3d8f78d5	0.07005469
86	0x3c48d15d	0.012256947
87	0x3d74eaac	0.059794113
88	0xbcbc6f57	-0.02300231
89	0x3dcd429b	0.100224696
90	0xbd96e134	-0.07367173
91	0x3e278ec2	0.16363052
92	0xbd440883	-0.04785968
93	0xbdda5bf6	-0.106620714
94	0x3d87f6d3	0.06638875
95	0xbdde7869	-0.1086281
96	0xbd76bc1e	-0.060237996
97	0x3da58c53	0.08083405
98	0xbd21b674	-0.03948064
99	0x3e2f137a	0.17097273
100	0xbd56e032	-0.052459903
101	0x3d38431d	0.04498588
102	0x3da38abe	0.07985447
103	0xbc64f17f	-0.013973593
104	0xbc592bb9	-0.013255053
105	0x3de2c6b7	0.11073058
106	0x3ca79b3e	0.020459767
107	0xbe03efad	-0.12884398
108	0xbc3a3842	-0.011365952
109	0xbda7a1af	-0.081851356
110	0xbde04694	-0.10950962
111	0x3e1c118f	0.15241073
112	0x3daac83f	0.08338975
113	0x3c5ffc94	0.013671059
114	0x3de239e3	0.11046197
115	0xbdbeb3e5	-0.09311656
116	0xbd6c53c6	-0.05769708
117	0xbca5a420	-0.020219862
118	0xbcfb8fcc	-0.030708216
119	0xbe01830d	-0.12647648
120	0x3db01cea	0.08599265
121	0x3c078586	0.008271581
122	0x3c17563e	0.00923687
123	0xbddead19	-0.108728595
124	0x3d559527	0.052144196
125	0xbd39a3ba	-0.045322157
126	0xbd722825	-0.059120316
127	0xba3e0672	-0.0007248885
128	0x3dc61957	0.09672802
129	0xbcd45e4a	-0.025923867
130	0x3cdce65f	0.026965318
131	0xbcc9ddf9	-0.024641978
132	0x3ba4484b	0.005013501
133	0xbc836b58	-0.016042396
134	0x3dee6925	0.116411485
135	0xbbe09ea1	-0.0068548475
136	0xbd89042b	-0.06690248
137	0x3dcd7522	0.10032107
138	0x3e2c08a8	0.16800177
139	0xbdc538bb	-0.09629961
140	0xba786800	-0.00094759464
141	0xbcf65bf5	-0.030073145
142	0xbd124d62	-0.03571833
143	0xbbdc5a35	-0.0067246207
144	0x3d7be7cb	0.061500352
145	0x3b505919	0.0031791388
146	0x3d902ce7	0.070398144
147	0xbcb26081	-0.021774532
148	0x3d17e7e9	0.0370864
149	0xbd087790	-0.03331715
150	0xbda59340	-0.08084726
151	0x3db7bb18	0.08971232
152	0x3c23b4ab	0.009991805
153	0x3da1bf46	0.07897811
154	0xbd5c3c30	-0.053768337
155	0x3dbfc372	0.0936345
156	0x3d8aaa60	0.06770778
157	0xbc571231	-0.013126896
158	0x3c9f397b	0.019436589
159	0xbe0cd4e7	-0.13753091
160	0xbd865238	-0.06558651
161	0x3d81f8b0	0.063462615
162	0xbd5b2bf1	-0.053508703
163	0x3d31bdc1	0.043393854
164	0x3d081f83	0.033233177
165	0xbe11a8e7	-0.14224587
166	0xbc5550f6	-0.013019791
167	0xbe08e517	-0.13368641
168	0x3d3d986e	0.046287946
169	0x3cc233c2	0.02370632
170	0x3ca1540c	0.019693397
171	0xbcefec92	-0.02928761
172	0xba9524e1	-0.0011378789
173	0x3d0a3de3	0.033750426
174	0xbc1f4555	-0.00972112
175	0x3dc8f246	0.09811835
176	0xbd314c68	-0.043285757
177	0x3a6d3e1d	0.0009050088
178	0xbd589c52	-0.052883454
179	0x3e052993	0.1300414
180	0x3cb2a228	0.021805838
181	0x3d9db7d8	0.07701081
182	0x3d509315	0.05092152
183	0x385ab480	5.2143354e-05
184	0x3e06bf25	0.13158853
185	0x3e1b086b	0.1513993
186	0x3bbd7191	0.0057813604
187	0x3dd8c01d	0.10583518
188	0xbdd38ba0	-0.10329366
189	0x3dc37199	0.095431514
190	0x3d0644a8	0.03278032
191	0x3d0eff8d	0.03491168
192	0x3b71e25a	0.0036908598
193	0xbe494a46	-0.1965724
194	0x3e45ef94	0.19329673
195	0xbcd38684	-0.025820978
196	0x3e1dbef9	0.15404882
197	0xbdfa3b20	-0.122183084
198	0x3d96d131	0.07364119
199	0x3cbcd582	0.023051027
200	0xbdbf0d01	-0.09328652
201	0x3d64b549	0.05583695
202	0xbe01cd04	-0.12675864
203	0xbd7e7c7a	-0.06213043
204	0x3e1ae16d	0.15125056
205	0x3db26f57	0.08712643
206	0x3d8c69e3	0.06856134
207	0xbd151e9f	-0.036406156
208	0x3e1c8cbf	0.15288065
209	0xbccda87f	-0.02510476
210	0x3c1098e0	0.008825511
211	0xbd0cbaea	-0.034357943
212	0x3d9b1ae6	0.0757349
213	0x3cab9e32	0.020949457
214	0x3d9802c0	0.074223995
215	0xbdc9e706	-0.09858517
216	0x3ddab2a6	0.10678606
217	0x3d89d20f	0.067295186
218	0xbdbce785	-0.09223846
219	0xbc53095d	-0.01288065
220	0x3db0a68a	0.08625515
221	0xbe614e36	-0.22002491
222	0xbc6713e6	-0.014103865
223	0x3dee87da	0.116470054
224	0xbdbafcba	-0.09130235
225	0xbc521385	-0.012822037
226	0xbd7e0b81	-0.06202269
227	0xba8488af	-0.0010111536
228	0xbd343866	-0.0439991
229	0xbb7ac737	-0.0038265714
230	0x3dad5825	0.08464078
231	0x3e294f6b	0.16534202
232	0xbdeb23a4	-0.11481407
233	0x3daf0e42	0.08547641
234	0xbd8e4cb4	-0.06948224
235	0x3d784087	0.060608413
236	0x3c1fd193	0.009754556
237	0x3d7b80ff	0.061402317
238	0xbdacb455	-0.08432833
239	0xbe2a0d0f	-0.16606544
240	0xbdf045f8	-0.117320955
241	0xbe3c3c58	-0.18382394
242	0xbdddf6c8	-0.108380854
243	0x3d9f7bd8	0.07787293
244	0xbb1d47e0	-0.002399914
245	0x3dac3644	0.08408788
246	0xbdec4028	-0.11535674
247	0xbc32e82c	-0.010919612
248	0xbddb4909	-0.1070729
249	0x3d0932a9	0.03349558
250	0xbd23b38d	-0.039966155
251	0xbb9bf436	-0.004759337
252	0x39f584e5	0.00046829056
253	0x3d60c65c	0.05487667
254	0x3b600054	0.0034179883
255	0x3da3eb9c	0.08003923
